pretrained_model/MSRA_pretrained/p5/params/-1_de_params.npz (npz, 14410 bytes, 4 tensors)

arr_1 f4 [40]
000000 4f 43 f1 3e fd e1 d2 3e 00 66 35 3f 2f 48 dc 3e
       0.47121665 0.4118804 0.70858765 0.43023822
000010 87 a8 38 3f 11 9a 3b 3f d4 2f 20 3f fe 8e 3a 3f
       0.7213215 0.7328196 0.6257298 0.7287444
000020 b4 85 1f 3f e7 7a 3c 3f 17 d1 0d 3f 85 46 19 3f
       0.6231339 0.73625034 0.5539717 0.5987323
000030 13 66 44 3f 42 7d e8 3e f1 6d 0e 3f 13 83 e0 3e
       0.7671825 0.45408064 0.5563651 0.43850002
000040 43 d9 f2 3e e3 bf e8 3e f0 5e 23 3f 6d 38 44 bc
       0.47431383 0.45458898 0.6381674 -0.011976344
000050 43 ed ad 3e 8f 07 e2 3e bf ee ca 3e 92 a2 cf 3e
       0.3397008 0.44146392 0.39635274 0.4055372
000060 2b 9a b8 3e 8e c2 b5 3e ea b0 c9 3e b3 74 ba 3e
       0.3605512 0.35499996 0.39392787 0.3641716
000070 46 61 c2 3e a5 d1 b4 3e 3b 01 bd 3e 7d 85 f3 3e
       0.3796484 0.35316196 0.36915 0.4756278
000080 06 5b d8 3e 12 d5 a6 3e 8c 79 b2 3e 63 4b b2 3e
       0.42256945 0.32584435 0.34858358 0.3482314
000090 e8 fc d0 3e 6c 39 bf 3e 25 7d c2 3e b4 c2 af 3e
       0.40817952 0.37348497 0.37986103 0.34328234

arr_0 f4 [20, 40]
000000 64 34 d0 3d fc 50 d7 3d 4f 82 20 3e 1e 83 a8 be
       0.10166243 0.105134934 0.15674709 -0.32912534
000010 89 5c e6 be 57 df ec 3d bf ab 90 be 5f 87 16 be
       -0.44992474 0.11566036 -0.28256032 -0.14700077
000020 f5 eb b6 be c1 6a 9a be df 58 d7 be 09 24 9a b9
       -0.35726896 -0.30159572 -0.4205999 -0.00029400017
000030 6b ce bc be d1 6d 79 3e 66 fc 1b bf 73 c4 c0 be
       -0.36876234 0.24358298 -0.60932004 -0.3764988
000040 20 b9 9a bd da 69 e1 be 8d 1e 07 3e 88 af 40 be
       -0.07554841 -0.4402607 0.13195248 -0.1881696
000050 c9 ef 64 3d 5a 1c a4 bc a9 31 ff bd 2d 00 19 be
       0.05589274 -0.02003305 -0.12460644 -0.14941473
000060 40 fb 98 bd 75 d7 0e 3e 54 ca e4 3e 5f 04 30 3d
       -0.07469797 0.13949378 0.44685614 0.04297292
000070 8d 22 14 3c db 9b 06 3d f2 e7 a3 3c d0 75 54 be
       0.009041441 0.03286348 0.020008061 -0.20748067
000080 48 ba 8d bd e8 3e 29 3d 76 56 4b 3e 39 05 4a 3e
       -0.06920296 0.041319758 0.19857201 0.19728555
000090 fd 51 12 be 05 e8 66 bd 90 18 36 3d 04 59 c4 3d
       -0.14289089 -0.056373615 0.04445702 0.09587291
0000a0 0b ef 34 3e a5 f3 ad 3e ff 3f d1 3e b1 ca af 3e
       0.17669313 0.3397495 0.40869138 0.3433433
0000b0 13 65 85 3e ce 6d a8 bd e6 ed 96 bc cf 85 9e 3e
       0.26053676 -0.082240686 -0.018423986 0.30961463
0000c0 9a e0 4b 3d 41 ae 0b 3f b0 6e 9a be 10 96 13 3e
       0.049774744 0.54562765 -0.30162573 0.14412713
0000d0 0a e8 07 3f 71 62 8b 3e 2a b1 e1 3e f5 d7 19 be
       0.5308844 0.27223542 0.44080478 -0.15023787
0000e0 35 f5 c1 be a1 e7 6a be 76 83 48 3e 20 83 01 3e
       -0.3788239 -0.22939922 0.19581398 0.12647676
0000f0 a1 b3 94 3e e0 4c f9 3d 53 67 90 3d fd 39 8f bc
       0.29043296 0.12172866 0.070509575 -0.017483706
000100 58 b5 77 3e 12 5f 6f be d0 47 b2 be ba b9 53 3d
       0.24190271 -0.2337611 -0.34820414 0.051690795
000110 c9 5d 8d 3d e3 d6 7f bc 97 82 0f 3d 9f b3 ef bd
       0.06902654 -0.015615198 0.03503665 -0.11704182
000120 8a 63 a2 3c 5e 10 2a 3d 2b 94 97 3d fd e8 1b 3c
       0.019822855 0.041519515 0.07401308 0.009515998
000130 58 5c a9 3d 39 2a 87 3d 95 ef 3c 3e 43 8c 76 3e
       0.08269566 0.0659985 0.18450768 0.24076943
000140 52 ef a0 3d 55 d8 41 be 3b 79 b6 bc 9c c7 19 be
       0.07858147 -0.1893018 -0.022274604 -0.15017551
000150 16 20 8f 3e 07 a3 78 3e 2f 4c 36 bd e3 e2 03 3e
       0.27954167 0.2428094 -0.044506248 0.12879519
000160 10 6d a1 be 71 57 b8 be 0d a5 6c 3e ba 4d 3c 3e
       -0.3152852 -0.36004212 0.23109837 0.18389025
000170 37 96 fc 3e 0e d0 72 be bd 72 85 3e 91 28 4a bf
       0.49333355 -0.23712179 0.260641 -0.7896815
000180 71 19 9d 3d f0 07 4e 3c c8 3c 17 3e 10 b2 f1 be
       0.07670868 0.012575135 0.1476928 -0.47206163
000190 ea d4 79 be e2 d0 d6 bd 6d 6f 9a bd 0a c6 2d be
       -0.24397627 -0.1048906 -0.07540784 -0.16970077
0001a0 80 c1 f5 bd bc cb 0f bc ca 3c a2 3d 27 1c 0b be
       -0.11999798 -0.008776601 0.07921751 -0.13584958
0001b0 d1 5f 33 be 85 6a 30 be 6f ae 57 be 36 b9 d2 bd
       -0.1751702 -0.17228134 -0.21062635 -0.102892324
0001c0 ad 86 bc bd cb 91 3d bd 85 5d f2 bd 1f 98 91 bd
       -0.09205375 -0.046281617 -0.11834244 -0.07109093
0001d0 ee b6 30 be 00 20 12 be c7 79 1f be 14 d8 20 3d
       -0.17257282 -0.1427002 -0.15573798 0.03926857
0001e0 b0 14 71 3e 8b 81 d8 3d a7 0c 05 3e 04 59 a0 3d
       0.23543048 0.10571583 0.12993108 0.078294784
0001f0 97 9b 1b 3e 86 71 f3 3e 03 18 16 3e ad d6 d2 3e
       0.15196072 0.4754755 0.14657597 0.4117941
000200 f5 ef 86 be ad 45 bd be 8d 54 27 be 4a 3e 2a bf
       -0.26354948 -0.3696722 -0.16340847 -0.66501296
000210 92 13 e1 bd 54 51 35 be 3d a4 64 3e 24 fd 33 3d
       -0.10990061 -0.17706805 0.22328277 0.043942586
000220 e9 9d e6 3c 8a 50 3d 3e eb 4a 04 bf ab 95 19 3e
       0.02815147 0.18487754 -0.51676816 0.149985
000230 64 a4 f0 3c 22 f3 cd bd c9 61 1a be d5 6e ce bc
       0.029375263 -0.100561395 -0.15076365 -0.025199333
000240 8f b6 38 3e ce 15 63 3e 8d 49 2b bd 92 f6 93 3e
       0.1803839 0.22176287 -0.04181819 0.28899056
000250 ea af b3 3d cd 7a 10 3e 64 de 69 3e 3c e8 90 be
       0.08773787 0.14109345 0.22838742 -0.2830218
000260 a1 a7 24 be 1b 80 bf 3d ca 43 9f 3d 6e c2 9e 3d
       -0.1607957 0.09350606 0.077766016 0.07751928
000270 87 1f d5 bd b9 6f 8e bd 54 74 0d 3e 82 ac 52 3e
       -0.10406404 -0.06954903 0.13813907 0.20573619
000280 ce a7 66 3e b7 22 d0 3e 19 43 ab bd 28 9a 2a 3e
       0.2252495 0.40651485 -0.08362407 0.16660368
000290 86 5d 47 3e be c8 31 3e b5 39 ae 3d b3 a2 0f bf
       0.1946927 0.17361733 0.085071005 -0.56107634
0002a0 ad 29 a9 3d a2 30 2d be 37 3d 44 3d 82 66 ba 3e
       0.08259902 -0.16913083 0.04790994 0.36406332
0002b0 2c 5e 2c 3e ca dc e0 bd 71 ba be be 9d f1 90 be
       0.16832799 -0.10979612 -0.37251619 -0.28309336
0002c0 52 05 27 3e bd 3f 02 3e 22 2c 09 bf 7b 79 d5 3e
       0.16310623 0.12719627 -0.53582966 0.41694245
0002d0 fd 84 d9 3d 0f 99 8c 3e 9f ff e2 3c 5d 96 79 3e
       0.106210686 0.27460524 0.02770978 0.24373765
0002e0 49 f2 b6 3d b8 53 54 3d eb 6b 4e bd 11 07 c1 3d
       0.08932931 0.051837653 -0.050395887 0.09425176
0002f0 29 49 61 3d b6 75 bb bc 1a 25 d3 bd 6c 10 92 3e
       0.05500141 -0.022883277 -0.10309811 0.28528154
000300 26 aa a7 3c ab 86 5a 3e 97 60 14 bc db 1c 19 bd
       0.020466875 0.21340434 -0.009056232 -0.037381034
000310 8f 56 1c 3e cd 52 2b 3d 72 99 be bd 2e cd d2 3d
       0.15267394 0.04182701 -0.09306611 0.10293041
000320 be 81 93 3e 54 20 81 3e a7 ee 56 3e 00 de de 3d
       0.28809923 0.25219977 0.20989476 0.10882187
000330 e2 c0 db 3e 97 02 d6 3e 06 fe f9 be 44 48 9a bb
       0.42920595 0.4179885 -0.48826617 -0.0047083218
000340 d2 eb ef be d2 64 17 3e e7 4a 7a 3e 18 d1 80 3e
       -0.46859604 0.14784554 0.24442635 0.25159526
000350 55 7b 17 bf 7c db 99 be 21 28 3b 3d c8 8c b5 3e
       -0.59172565 -0.30050266 0.045692567 0.3545897
000360 b5 6d 92 3d 9c 37 42 be fd bf d0 bd 5a b2 53 be
       0.07149831 -0.18966526 -0.10192869 -0.20673504
000370 3e b8 0a be 2d bc 42 3e 64 b6 a5 3d cf e7 bc bd
       -0.13546845 0.19017096 0.08091429 -0.092239015
000380 4a 77 01 3c 9c 17 a3 be d5 e1 de bd b2 a6 6a be
       0.007901976 -0.3185395 -0.10882918 -0.22915152
000390 10 f7 9a bd 10 c0 98 bd b0 10 3a be 70 2b 53 3b
       -0.07566655 -0.07458508 -0.18170428 0.0032221936
0003a0 38 36 79 3d c7 d5 00 be d2 71 10 be 07 89 fe bd
       0.060842723 -0.1258155 -0.14105919 -0.1242848
0003b0 d2 c6 fe ba cf 4b 1b bd e1 61 32 be e4 dc 3a bc
       -0.0019437915 -0.037914094 -0.1742015 -0.0114052035
0003c0 5a f2 18 be 2d d0 df 3d 5a 1e 80 be 95 e5 fd bc
       -0.149362 0.10928378 -0.25023156 -0.030993262
0003d0 8e 3f 90 3d 43 d4 04 3e c0 d4 b0 3e 98 65 e4 3e
       0.07043372 0.12971596 0.34537315 0.4460876
0003e0 c2 ff af 3d 5b f9 2b be c6 45 94 3e 4f e8 90 3e
       0.08593704 -0.1679434 0.28959483 0.28302237
0003f0 62 d4 a8 be b4 28 07 bd 3c 88 2f be c7 64 b6 bd
       -0.32974535 -0.032997802 -0.17141813 -0.089059405

arr_3 f4 [63]
000000 d5 da 72 38 a0 1b 7d b4 c8 4f f9 37 98 2f 1d 3d
       5.79011e-05 -2.3572511e-07 2.9720264e-05 0.038375467
000010 2f 19 9f 3d da da 87 3c bf 62 87 bd 3f 4e 3d bd
       0.07768475 0.016583849 -0.06610631 -0.0462172
000020 9c c2 0f be 82 79 63 be 4a 9b 4b be 6e 73 28 bd
       -0.14039081 -0.2221432 -0.19883457 -0.041125707
000030 35 7a ae be 93 b0 87 be 13 c3 17 3e 66 7d 0c be
       -0.34077612 -0.26501903 0.14820509 -0.1371971
000040 3f fa f0 3d e9 67 6d 3d 60 83 c2 bd 54 ff a5 3c
       0.11766481 0.057960425 -0.09497714 0.020263352
000050 20 d9 7a bc 69 fb 79 bd 9c f2 c5 bb 52 7a ba 3c
       -0.015310556 -0.06103078 -0.006040884 0.022763405
000060 52 03 17 bd 39 7e 37 bd 16 7b 62 bd f3 44 7e be
       -0.0368684 -0.04479811 -0.055293165 -0.2483099
000070 1c 20 0e 3e b0 96 c0 3d fd 10 c7 bd ca 72 c4 3c
       0.13879436 0.09403741 -0.09720037 0.023980517
000080 09 fa 8b bc 6c 4f c2 bc 3e eb d6 bd d3 02 64 3d
       -0.017087 -0.023719512 -0.10494088 0.055666756
000090 4c b8 1d bc 89 8c 57 be dc 60 f4 3d c2 6d b7 be
       -0.009626459 -0.21049704 0.11932537 -0.35825926
0000a0 da 60 1a 3e ce 2b d3 3d 58 ae ee bd fd f5 5b 3e
       0.15076008 0.103110895 -0.11654347 0.21480556
0000b0 c1 3c 5e 3d c1 17 80 bd 1f 67 66 3e 21 d9 ba 3d
       0.05425716 -0.06254531 0.22500275 0.09123445
0000c0 a4 32 98 bd ab b6 5d 3e aa df 0b 3e a0 b2 f4 3d
       -0.07431534 0.21651714 0.1365954 0.119481325
0000d0 62 04 f1 bc bb c5 18 bd 92 5e 4a 3e 8c 8a a9 bd
       -0.029421035 -0.037297945 0.19762638 -0.08278379
0000e0 7d 4f 27 bd 86 0e 84 3e a8 99 23 3c 2d 83 24 be
       -0.04084729 0.2579233 0.009985365 -0.16065665
0000f0 3c af d1 3e 9d 07 4a 3e 85 b0 89 be
       0.40954006 0.19729467 -0.26892486

arr_2 f4 [40, 63]
000000 68 65 72 38 aa bd 60 b6 0e a7 5c 35 6e b5 89 3e
       5.7791738e-05 -3.3489e-06 8.2199483e-07 0.26896232
000010 07 e4 1b 3e 4f 4d a3 3e ad 77 a6 3e 81 4d b6 3e
       0.15223704 0.3189492 0.3251318 0.35606006
000020 e1 84 b7 3e a0 b3 c4 3e 46 a3 f2 3e 0c d3 c9 3e
       0.35843566 0.38418293 0.47390193 0.39418828
000030 ba 1a ec 3e 11 25 09 3f 82 f3 df 3e 52 bd 94 3e
       0.4611414 0.53572184 0.4374047 0.2905069
000040 bb fb a3 3e 5d 0b a8 3e 97 aa 90 3e ae f9 03 3f
       0.32027993 0.3282117 0.2825515 0.51552856
000050 74 9a 94 3e b6 fb 64 3e 0b 6f 17 3f 29 bb b9 3e
       0.29024088 0.22361645 0.59153813 0.36275604
000060 0c 88 4b 3e 40 b6 21 3f 16 7a a3 3e 9b 15 85 3e
       0.19876117 0.63168716 0.31929082 0.25993046
000070 a8 c9 e8 3e eb 9b a0 3e b6 c7 5e 3e 93 bc 12 3f
       0.45466352 0.31368956 0.21755871 0.5731899
000080 8c 3a a1 3e a4 1f fe 3d 98 63 1a 3f ba 7b 90 3e
       0.3148998 0.12408379 0.6030822 0.28219396
000090 21 f1 15 3e be 27 13 3f 92 ee 06 3e 83 98 54 3e
       0.14642765 0.57482517 0.13176945 0.20761304
0000a0 cb e7 18 3f 18 ea 80 3e 64 7f 3e 3d 13 d9 14 3f
       0.5972869 0.251786 0.046508208 0.5814373
0000b0 b3 d5 88 3e 8d 9e 78 bd 4a 47 12 3f 5e 55 78 3e
       0.2672554 -0.06069808 0.5714003 0.24251315
0000c0 e8 2f a3 bd 57 dc 15 3f dd fb 4f 3e a7 c0 b1 3d
       -0.07968122 0.58539337 0.20310922 0.08679324
0000d0 19 19 cb 3c 49 d8 15 3e 90 19 18 3e bf 5e 35 3d
       0.024792241 0.14633287 0.14853501 0.04427981
0000e0 b6 12 6e 3e 58 f9 45 3e 60 5e 35 3e 20 a5 92 3e
       0.23249325 0.19333398 0.17711782 0.28641605
0000f0 2b 04 6a 3e 25 37 70 3e 2b f1 8c 3e a4 37 13 38
       0.22853152 0.23458536 0.27527747 3.509935e-05
000100 4f 93 97 b7 d2 2d 89 37 47 be c8 be f6 1b af 3c
       -1.8069199e-05 1.635301e-05 -0.3920767 0.021375638
000110 41 f2 a4 3e 13 10 1a bf c5 a3 87 3e 57 6c b6 3e
       0.32216075 -0.6018078 0.26492134 0.35629532
000120 36 25 30 bf 3e 05 f8 3e b9 88 92 3e 78 9c 38 bf
       -0.6880678 0.484415 0.28619936 -0.7211375
000130 34 ee 20 3f 85 f6 65 3e 36 6c b0 be 64 7c 9a bd
       0.6286347 0.22457321 -0.34457558 -0.07543257
000140 19 d7 c5 3e 0f 9e 26 bf 5a f1 0f 3e 06 6f ae 3e
       0.3864067 -0.6508493 0.14056912 0.3406908
000150 24 57 44 bf 93 b1 4a 3e 26 cb 08 3e 1b 39 46 bf
       -0.76695466 0.19794302 0.13358745 -0.77430886
000160 bd 83 05 3e e1 b6 a3 bb 57 e0 87 be 56 3c 18 be
       0.13038535 -0.004996166 -0.26538345 -0.14866766
000170 34 24 cc 3e 91 6a 13 bf 86 5c f0 3b bc 51 5e 3e
       0.3987137 -0.5758448 0.0073352484 0.21710867
000180 0e 62 2b bf 56 67 e0 3d 33 da 40 bd 29 75 24 bf
       -0.66946495 0.1095721 -0.04708309 -0.6424127
000190 bd 59 1b 3e 5e c4 54 be cb 57 2d be bc d2 40 be
       0.15170951 -0.20778033 -0.16928022 -0.18830389
0001a0 bf 61 a4 3e 48 c4 9c be 04 ae 00 be 2d f4 20 3e
       0.32105824 -0.306185 -0.12566382 0.15718146
0001b0 5f 4c ab be 3e 7d 29 be b4 01 18 3d 32 0a bd be
       -0.33456704 -0.16551682 0.037111 -0.3692184
0001c0 6b ae 90 be 8b 48 36 bc d8 3c 93 be 0a 11 58 3d
       -0.2825807 -0.011125694 -0.28757358 0.052750625
0001d0 ab 72 80 bd 26 a5 06 bf 10 f8 73 3d 2a 59 bf bc
       -0.06271871 -0.52595747 0.059562743 -0.023357946
0001e0 ce 1c fc be 3f be bf 3d 3b 8a 34 bd 7e 5c 14 bf
       -0.49240726 0.093624584 -0.04407714 -0.5795363
0001f0 d5 87 b7 3d a8 f2 4b bd 11 ec 77 38 06 16 b4 36
       0.08961455 -0.049791962 5.9109243e-05 5.366982e-06
000200 f2 98 3b b7 1e dc 63 be 34 ed e7 3e fc 41 f3 3e
       -1.1181679e-05 -0.22251937 0.4529816 0.4751128
000210 b9 1c dc bd 04 37 18 3f 08 72 55 3f ca 26 86 3d
       -0.10747666 0.5945895 0.8337712 0.06550367
000220 f6 bc 27 3f f3 a1 70 3f 20 bb 34 3e d6 f9 28 3f
       0.65522707 0.93997115 0.17649508 0.6600622
000230 ec 61 71 3f 14 3d 8f be 00 18 9f 3e 70 aa b4 3e
       0.9429004 -0.27976286 0.31072998 0.35286283
000240 bd c4 ec bd 95 6f 8d 3e dd 46 0f 3f 77 7f c8 bc
       -0.11560962 0.27624193 0.55967504 -0.024474842
000250 3d b5 9d 3d 7b 8b 39 3f f2 6c 92 bd f0 3c 46 bd
       0.07700584 0.72478455 -0.07149686 -0.04839796
000260 4f 2f 86 3f bc b2 99 be f7 0a 0c 3e 0a 5f 4c 3e
       1.0483187 -0.30019176 0.13676058 0.1995813
000270 b9 5a 9b bd de bc 40 3e 7f 5f 9f 3e fd fd c0 3d
       -0.07585663 0.18822047 0.31127545 0.094234444
000280 dc 37 19 3e ca 10 b2 3e 1e 1e f2 3d e4 5b 0d 3e
       0.14962715 0.34778434 0.11822151 0.13804585
000290 10 63 da 3e 9d 80 74 be 84 17 ae bd 79 4e 8d 3b
       0.42653704 -0.23877187 -0.08500579 0.004312333
0002a0 82 2e 55 be 64 b4 eb bd bc a1 f0 3c 3b 04 16 be
       -0.20818523 -0.11509016 0.029373996 -0.14650051
0002b0 92 7a 03 be 54 c2 e0 3b 2f 99 99 bd de 7f e7 bd
       -0.12839726 0.006859103 -0.074999206 -0.113036856
0002c0 4a 27 e0 bb 25 db 47 3e 32 0e b2 3e 01 6e af 3e
       -0.006840621 0.19517191 0.34776455 0.34263614
0002d0 bc 25 a7 3e 51 56 35 3f 4a f3 29 3f 66 a3 c3 3e
       0.32645977 0.70834833 0.66386855 0.382106
0002e0 4f 45 28 3f aa 70 36 3f 98 a2 f3 3e dc cd 30 3f
       0.65730757 0.7126566 0.47584987 0.69064116
0002f0 b9 7b 33 3f 1d e1 62 38 2e 02 26 38 b4 30 43 b6
       0.7011066 5.4092252e-05 3.9579514e-05 -2.9085613e-06
000300 ef e1 51 be 64 05 88 3e 13 e3 97 bc aa 76 1d ba
       -0.20496343 0.26566613 -0.018540895 -0.0006006757
000310 7c 1f e6 3e a0 23 ed bc ef fd 4c 3e e5 80 05 3f
       0.44945896 -0.028947651 0.20018743 0.521498
000320 b1 3a b6 bd 0d 3d 98 3e a0 1e 0d 3f ff 51 ba bd
       -0.08897913 0.29734078 0.55124855 -0.09097671
000330 5d d9 83 bc 11 6a a6 3d 42 11 7c be 4d c0 1f bc
       -0.016094858 0.08125699 -0.24615958 -0.009750438
000340 85 60 1a 3f 98 36 cf bc 82 19 a7 bc 1b bf 4b 3f
       0.6030353 -0.025294587 -0.020397905 0.7958848
000350 bb b4 90 bd 9d c7 22 be 38 75 58 3f 59 96 b7 bd
       -0.070657216 -0.15896459 0.8455386 -0.089642234
000360 4f 64 1a 3e e4 7b c7 bd 2e 32 d4 be dd 81 8c 3d
       0.15077327 -0.09740427 -0.41444534 0.06860707
000370 04 d2 0f 3e 8f 90 b4 be 17 26 49 3e 1e 46 67 3e
       0.14044958 -0.3526654 0.19643436 0.22585341
000380 a3 0d c9 be b3 e6 d2 3e 3b 0c 88 3e 7a d6 ad be
       -0.39268216 0.41191635 0.2657183 -0.33952695
000390 cc aa c5 3e a9 80 8f be 9c c7 0c bf 9b 2f cf 3e
       0.3860687 -0.28027847 -0.5499208 0.40466008
0003a0 cb da be be 83 55 0d bf f6 97 e3 3e b3 93 00 bf
       -0.372763 -0.55208606 0.44451874 -0.5022537
0003b0 17 4e 07 bf 09 d2 0a 3f e9 78 23 bf 27 17 f3 be
       -0.5285353 0.5422674 -0.6385637 -0.474786
0003c0 93 ca 1e 3c 88 69 7c 3e 70 29 23 3d b2 28 86 bd
       0.009691852 0.24649632 0.03983444 -0.06550731
0003d0 12 5a eb 3e 86 ee 00 3d 59 23 2d 3d 38 ab ec 3e
       0.45967156 0.031477474 0.04227004 0.4622438
0003e0 74 02 49 3d b9 76 55 be d3 ac 49 3e be e4 05 3e
       0.049074605 -0.2084607 0.19694833 0.1307554
0003f0 9c d2 7c 38 1c 79 09 b7 fe e4 00 b7 f1 2b 98 3e
       6.0277627e-05 -8.194034e-06 -7.682711e-06 0.29721025
