pretrained_model/MSRA_pretrained/p5/params/-1_dis_params.npz (npz, 603798 bytes, 26 tensors)

arr_24 f4 [32]
0.39531586 0.39291522 0.38265258 0.3838643 0.41463625 0.37999257 0.4202036 0.360624
0.39769167 0.4152486 0.38806644 0.3790849 0.39619043 0.37271398 0.36358568 0.346739
0.39636984 0.4540935 0.38818294 0.36999825 0.41305304 0.39919347 0.35639393 0.36850655
0.3931167 0.41532886 0.3754002 0.45185235 0.36804232 0.37278762 0.35729772 0.43503508
00000000: d766 ca3e 2f2c c93e 0aeb c33e dd89 c43e
00000010: 344b d43e 638e c23e ed24 d73e b5a3 b83e
00000020: 3e9e cb3e 779b d43e a5b0 c63e 6a17 c23e
00000030: 79d9 ca3e 5ed4 be3e e727 ba3e c687 b13e
00000040: fdf0 ca3e f17e e83e eabf c63e 6970 bd3e
00000050: b07b d33e 1663 cc3e 4479 b63e e4ac bc3e
00000060: 9846 c93e fca5 d43e 7434 c03e 3159 e73e
00000070: 0b70 bc3e 05de be3e baef b63e ebbc de3e

arr_25 f4 [512, 1]
-1.2112254 0.54184467 -0.12165419 0.08562307 -0.027607044 -0.10135873 -0.041836247 -0.08759093
0.57756454 -0.13170607 -0.011292506 0.5616782 0.41872784 0.706289 0.03677984 -0.23146065
0.14582843 0.017969538 0.5844 -1.0069427 0.019913206 -0.10361633 -0.15151946 0.6201053
-0.046746515 -0.16309652 -0.13735521 0.5020058 -0.7666399 0.40321803 0.23104696 0.7444976
0.81860214 -0.23258434 -0.10548146 0.5301561 -0.34134084 0.046853054 -0.1685221 0.320612
-0.38998425 -0.099549636 0.55171794 -0.6753078 0.61183894 0.30118954 -0.88928664 0.4672534
0.82047474 -0.053518414 -0.16020216 0.50326425 -0.28860626 -0.035155535 -0.058580294 0.0809431
-0.015748218 0.3750478 -0.16262293 0.110503815 0.8259992 -0.6830945 0.30803207 -0.29885718
-0.13280837 -0.21894126 -0.13101415 -0.6442526 0.13048616 0.18839231 0.04161574 -0.25115553
0.07551414 0.061868653 -0.06192131 0.37362996 -0.7960882 -0.41115263 -0.11305634 0.6168795
0.033544235 0.049426004 -0.033872247 -0.08195487 -0.714912 0.13497901 0.15943275 -0.70627254
-0.33272046 0.108420484 0.044771846 -0.6474152 0.80071974 -0.8971237 -0.6893287 1.060761
-0.9741728 0.39588165 0.11715419 -0.14107737 0.7053824 -0.13692842 0.013720207 -0.21667577
0.4880298 -0.3147215 -0.3781844 0.01259603 -0.7640011 0.44242543 -0.3721274 0.5683559
-0.4749464 0.6645291 -0.045478195 -0.8666142 -0.17706688 -0.051500928 -0.015506262 0.59633934
-0.4078147 0.5991129 -0.19129066 0.035540417 0.47153553 -0.6814021 0.4039545 0.65167904
-0.65713197 -0.096807785 0.22629055 0.04464672 -0.5512682 0.25879914 0.12165195 -0.037832502
-0.050002366 -0.4855218 0.10745818 -0.15835518 -0.41576365 0.058511116 -0.62852705 -0.34285197
-0.95669824 -0.035472516 0.48626375 -0.86285216 0.6724298 0.14425385 0.10370118 -0.09955052
0.15704907 -0.333662 0.10869234 -0.15400282 -0.8870272 0.008473808 0.20344262 -0.21448626
-0.72751206 -0.7013289 0.26626313 -0.3903756 -0.12747543 0.34408635 0.11416254 -0.397257
-0.14609228 0.11158829 -0.15835266 0.9787363 0.69509816 -0.13244194 0.8617799 -0.889594
0.8127454 0.15885566 -0.075903445 0.7278979 0.06942892 -0.030715913 0.06646803 -0.016104542
-0.48360127 -0.1406829 -0.056089643 -0.2535192 0.86602986 -0.579014 0.7214727 0.6627625
-0.8585176 0.28504336 -0.01211811 -0.55618644 -0.5686193 -0.6948386 0.05019647 0.013381392
-0.50900924 0.37465453 0.09632482 -0.021091355 -0.4817191 0.46144164 0.2407605 0.31184432
-0.66673523 -0.074635535 -0.058498453 0.30160254 0.83201385 -0.061424263 -0.038398042 -0.1218476
-0.08374313 -0.11236858 0.023456682 -0.03229624 0.81208 0.7499316 -0.63260263 0.52331513
-0.7482032 -0.4143184 -0.6761807 0.20407207 -0.55652213 0.054562956 0.07428777 0.07997403
0.25173306 -0.07570025 0.11822619 0.13293536 0.65558934 0.47834158 -0.32719326 -0.17316125
0.0033446797 -0.17580433 0.21015683 -0.31712654 -0.29848117 0.11901776 -0.5435877 -0.18466744
0.3996891 0.26016116 0.36667708 0.7316056 0.15138635 -0.29115206 1.0635581 -0.8366347
00000000: 6f09 9bbf 55b6 0a3f d525 f9bd 265b af3d
00000010: 2b28 e2bc 2a95 cfbd 7c5c 2bbd e062 b3bd
00000020: 45db 133f f5dd 06be 3404 39bc 24ca 0f3f
00000030: 7f63 d63e 5bcf 343f 75a6 163d 0504 6dbe
00000040: 0c54 153e da34 933c 3d9b 153f 80e3 80bf
00000050: 0521 a33c cc34 d4bd eb27 1bbe 39bf 1e3f
00000060: 4679 3fbd c602 27be d8a6 0cbe 7483 003f
00000070: 8342 44bf 9872 ce3e 9397 6c3e 6597 3e3f
00000080: e98f 513f 972a 6ebe aa06 d8bd 4fb8 073f
00000090: 3ac4 aebe fde8 3f3d 0f91 2cbe 4227 a43e
000000a0: 04ac c7be aee0 cbbd 633d 0d3f f9e0 2cbf
000000b0: 7aa1 1c3f 8435 9a3e 4aa8 63bf d63b ef3e
000000c0: a20a 523f 2036 5bbd 090c 24be edd5 003f
000000d0: 33c4 93be 40ff 0fbd e4f1 6fbd 7fc5 a53d
000000e0: 6802 81bc 4406 c03e a086 26be d34f e23d
000000f0: af74 533f 48df 2ebf 61b6 9d3e cf03 99be
00000100: ebfe 07be 2332 60be 9328 06be bded 24bf
00000110: 2a9e 053e eae9 403e 4475 2a3d 7597 80be
00000120: 28a7 9a3d fc69 7d3d 33a1 7dbd 6d4c bf3e
00000130: 70cc 4bbf 9982 d2be 158a e7bd d1eb 1d3f
00000140: ae65 093d ec72 4a3d a0bd 0abd f4d7 a7bd
00000150: 7904 37bf f037 0a3e 5742 233e 47ce 34bf
00000160: 565a aabe 8f0b de3d af62 373d 01bd 25bf
00000170: f8fb 4c3f e6a9 65bf d877 30bf 04c7 873f
00000180: 6363 79bf 00b1 ca3e 89ee ef3d 9676 10be
00000190: f193 343f f736 0cbe b8ca 603c 41e0 5dbe
000001a0: 0bdf f93e 2d23 a1be 63a1 c1be 945f 4e3c
000001b0: 9395 43bf 9685 e23e 7c87 bebe c67f 113f
000001c0: 2d2c f3be 941e 2a3f 5847 3abd 6eda 5dbf
000001d0: 0551 35be a3f2 52bd fa0d 7ebc b2a9 183f
000001e0: 17cd d0be 775f 193f b3e1 43be d492 113d
000001f0: 1b6d f13e 5e70 2ebf 20d3 ce3e 70d4 263f
00000200: cd39 28bf 2943 c6bd b6b8 673e 7bdf 363d
00000210: ea1f 0dbf 5281 843e a824 f93d 41f6 1abd
00000220: 48cf 4cbd 5096 f8be 0913 dc3d dc27 22be
00000230: f9de d4be 5aa9 6f3d 26e7 20bf 4b8a afbe
00000240: 2dea 74bf a14b 11bd 90f7 f83e e1e3 5cbf
00000250: 5c24 2c3f 48b7 133e 4961 d43d 25e1 cbbd
00000260: 79d1 203e bfd5 aabe 179a de3d eab2 1dbe
00000270: 3714 63bf bad5 0a3c 4353 503e 49a2 5bbe
00000280: 3b3e 3abf 4a8a 33bf a453 883e 50df c7be
00000290: eb88 02be 162c b03e 0dce e93d 4565 cbbe
000002a0: 3799 15be 6788 e43d 3327 22be 768e 7a3f
000002b0: f4f1 313f dc9e 07be 9c9d 5c3f 6fbc 63bf
000002c0: 1510 503f 0fab 223e 4473 9bbd 8457 3a3f
000002d0: c030 8e3d f09f fbbc 6420 883d aced 83bc
000002e0: 969a f7be 2e0f 10be 41be 65bd 45cd 81be
000002f0: 22b4 5d3f 433a 14bf 6fb2 383f ceaa 293f
00000300: cfc7 5bbf 34f1 913e 0a8b 46bc 3c62 0ebf
00000310: 0991 11bf f1e0 31bf d09a 4d3d a03d 5b3c
00000320: 6e4e 02bf b8d2 bf3e f245 c53d c7c7 acbc
00000330: e3a3 f6be 1442 ec3e ec89 763e 0faa 9f3e
00000340: 29af 2abf 84da 98bd 139c 6fbd a66b 9a3e
00000350: dcfe 543f 0298 7bbd 4447 1dbd 3c8b f9bd
00000360: 8581 abbd 8021 e6bd 3a28 c03c 1049 04bd
00000370: 7ae4 4f3f 84fb 3f3f 3ff2 21bf fbf7 053f
00000380: 3f8a 3fbf 8b21 d4be 2e1a 2dbf 45f8 503e
00000390: 3c78 0ebf 687d 5f3d 3024 983d 6dc9 a33d
000003a0: 28e3 803e bc08 9bbd 9320 f23d 3520 083e
000003b0: b4d4 273f 30e9 f43e e085 a7be 2f51 31be
000003c0: 6a32 5b3b 0d06 34be 5a33 573e 695e a2be
000003d0: 86d2 98be 95bf f33d 9028 0bbf 7619 3dbe
000003e0: 0da4 cc3e d833 853e 19bd bb3e 814a 3b3f
000003f0: 0605 1b3e e211 95be ac22 883f b12d 56bf

arr_20 f4 [32, 32, 6, 6]
-0.19126141 0.23122373 0.19833142 0.15214227 0.22961807 -0.026437286 -0.0012264788 0.2801813
-0.14036162 -0.02675238 -0.2467676 -0.23853986 -0.038643513 -0.1397916 0.14578563 0.021697555
-0.12930724 -0.13326685 0.09887409 0.288998 -0.002523193 0.5324472 0.020208789 0.21263456
0.08252789 0.052091744 -0.2476465 -0.09745589 -0.010059128 -0.2035759 -0.072385974 -0.22143313
-0.003466935 0.05754339 -0.043059144 0.3580043 0.13174723 0.05189561 -0.3366423 -0.12695543
-0.078223355 0.11254614 -0.22052969 -0.2630534 -0.120350294 0.16397958 0.0154864285 -0.06693715
-0.115312934 0.082386844 -0.16424878 0.005619524 0.12047216 0.1689671 0.27730605 0.16295509
0.15015316 -0.41920775 0.108347386 0.06578446 0.01906043 0.18683325 -0.12810889 -0.56450117
-0.16702597 -0.10978267 -0.14627631 -0.11113328 -0.11428058 -0.32544145 0.17010681 -0.2694582
0.007881792 -0.034608718 0.14835654 -0.08097628 0.24502738 -0.31659114 0.06705071 0.24683411
-0.018097963 0.45079365 -0.21811447 0.19026867 -0.29373616 -0.2647092 -0.12226442 -0.2765037
0.16453168 -0.25560987 -0.022678245 0.001913901 -0.045491386 -0.19809204 -0.09397684 -0.066729695
-0.09886343 0.28259557 0.037921876 0.24870826 0.06485048 0.1588248 -0.15378742 -0.17957787
-0.2124852 -0.10815286 -0.19030409 -0.16693884 -0.39372852 -0.16774607 -0.13921939 -0.14318715
-0.14768842 -0.2577014 -0.31529945 -0.34882352 -0.04823178 -0.09413989 -0.019912435 0.02145938
0.28512087 0.08552354 0.3470475 0.103743866 0.45005786 -0.03781071 0.43644378 0.33778575
-0.04417367 -0.2992371 0.28617385 0.07712297 -0.06891229 0.20580107 -0.045838326 0.42824408
0.024813706 -0.091175914 -0.24019082 -0.2303328 -0.1670238 -0.1998007 -0.20154047 -0.03438537
-0.12067927 0.11516317 -0.21393652 -0.10734996 0.15997477 0.09011397 0.077775225 0.27210027
-0.10694117 0.09561026 -0.07302083 0.17753126 0.10932051 -0.20290126 -0.06603764 0.26527712
0.003450901 -0.16643406 0.041969374 -0.35868242 0.05391125 0.3686149 -0.8788558 0.17518476
0.32004127 0.314451 0.2923443 0.19988877 0.72528774 0.1638545 -0.15450561 -0.13016464
0.14718394 0.12227271 -0.011155732 0.1759493 0.01291175 -0.061904952 0.35423768 -0.122124285
-0.04873553 -0.18027475 0.21725467 0.12087182 0.08840029 -0.09862424 -0.03378741 0.40940917
0.13985838 -0.15801494 -0.058517314 -0.26673242 0.025496354 -0.28261444 -0.383181 -0.1791931
0.18095542 0.49431163 0.039349124 -0.017039267 -0.24625927 -0.09319649 -0.064760625 -0.43135926
0.24847837 -0.08165605 0.012495053 -0.22119425 -0.1896009 -0.14413923 -0.06824898 0.025275866
0.18818459 -0.016348083 -0.13359493 0.12716344 -0.16925444 0.4361652 -0.23082101 -0.018119235
-0.07026223 -0.06710236 -0.15535516 0.44810456 -0.14792877 0.040968355 -0.017810715 0.16950719
-0.16715048 0.1598166 0.00032109485 -0.008450452 -0.05522592 -0.018691014 0.25387537 0.014156803
0.02390337 -0.00915874 0.025054997 -0.17436013 0.05082057 0.03154347 -0.21797062 -0.11235602
-0.17868544 0.06458049 -0.32378283 0.15696444 -0.32228127 -0.21352561 -0.31276917 -0.36291006
00000000: 08da 43be eac5 6c3e 6417 4b3e 2fcb 1b3e
00000010: 0021 6b3e 0293 d8bc cdc1 a0ba ec73 8f3e
00000020: f5ba 0fbe cf27 dbbc a5b0 7cbe cb43 74be
00000030: a948 1ebd 8725 0fbe d448 153e 12bf b13c
00000040: 1e69 04be 1b77 08be 807e ca3d 8cf7 933e
00000050: 275c 25bb 764e 083f e78c a53c e0bc 593e
00000060: 6204 a93d 275e 553d 0b97 7dbe f496 c7bd
00000070: 0acf 24bc 3376 50be 193f 94bd 5ebf 62be
00000080: 8435 63bb 9eb2 6b3d c95e 30bd 574c b73e
00000090: bfe8 063e 7e90 543d 615c acbe 9b00 02be
000000a0: 9133 a0bd 977e e63d 89d2 61be efae 86be
000000b0: 377a f6bd 43ea 273e caba 7d3c 5816 89bd
000000c0: 3029 ecbd 6fba a83d d530 28be fc23 b83b
000000d0: 1cba f63d b605 2d3e 0ffb 8d3e b3dd 263e
000000e0: c0c1 193e 66a2 d6be 3ce5 dd3d 01ba 863d
000000f0: 9e24 9c3c 3751 3f3e fa2e 03be 2683 10bf
00000100: db08 2bbe bdd5 e0bd 75c9 15be d899 e3bd
00000110: f00b eabd 43a0 a6be 7b30 2e3e 6df6 89be
00000120: a222 013c dfc1 0dbd c7ea 173e e4d6 a5bd
00000130: 75e8 7a3e 3c18 a2be e251 893d 15c2 7c3e
00000140: 2e42 94bc 6dce e63e 6659 5fbe cad5 423e
00000150: 9664 96be f787 87be c565 fabd e591 8dbe
00000160: fe7a 283e 4cdf 82be bac7 b9bc dcdb fa3a
00000170: 2d55 3abd a4d8 4abe ee76 c0bd 94a9 88bd
00000180: e978 cabd 5eb0 903e f853 1b3d 61ad 7e3e
00000190: 54d0 843d f8a2 223e 737a 1dbe 43e3 37be
000001a0: b895 59be 3f7f ddbd 13df 42be 04f2 2abe
000001b0: c996 c9be a0c5 2bbe 878f 0ebe a79f 12be
000001c0: a23b 17be 70f1 83be ee6e a1be ff98 b2be
000001d0: b08e 45bd 6acc c0bd 671f a3bc 95cb af3c
000001e0: 5dfb 913e f726 af3d 36b0 b13e aa77 d43d
000001f0: fc6d e63e 67df 1abd 8f75 df3e 41f2 ac3e
00000200: 73ef 34bd 9b35 99be 6185 923e a6f2 9d3d
00000210: e321 8dbd 84bd 523e f8c0 3bbd cf42 db3e
00000220: 1d46 cb3c 70ba babd 95f4 75be 5ddc 6bbe
00000230: 4908 2bbe 8e98 4cbe a060 4ebe acd7 0cbd
00000240: b126 f7bd abda eb3d 2d12 5bbe 4cda dbbd
00000250: 6dd0 233e ac8d b83d 9e48 9f3d ba50 8b3e
00000260: f903 dbbd 50cf c33d f28b 95bd c1ca 353e
00000270: 6ee3 df3d 59c5 4fbe be3e 87bd 67d2 873e
00000280: 8328 623b b16d 2abe 14e8 2b3d 39a5 b7be
00000290: 0bd2 5c3d 18bb bc3e b2fc 60bf a263 333e
000002a0: 73dc a33e b9ff a03e 27ae 953e a4af 4c3e
000002b0: 75ac 393f 79c9 273e b836 1ebe e149 05be
000002c0: 63b7 163e 1d6a fa3d 88c6 36bc 0e2c 343e
000002d0: ce8b 533c 0c90 7dbd a45e b53e 4c1c fabd
000002e0: e89e 47bd f299 38be 0278 5e3e a58b f73d
000002f0: 360b b53d 81fb c9bd ab64 0abd 149e d13e
00000300: 0937 0f3e abce 21be daaf 6fbd 2791 88be
00000310: bbdd d03c d7b2 90be 4d30 c4be 657e 37be
00000320: 614c 393e 6a16 fd3e 8c2c 213d ef95 8bbc
00000330: 642b 7cbe cddd bebd 38a1 84bd 1fdb dcbe
00000340: 1d71 7e3e 4a3b a7bd 0db8 4c3c bf80 62be
00000350: bd26 42be 3c99 13be 1fc6 8bbd 550f cf3c
00000360: 76b3 403e 6aec 85bc 1ccd 08be 2237 023e
00000370: 0951 2dbe 0c51 df3e 585c 6cbe ca6e 94bc
00000380: a5e5 8fbd f66c 89bd 6c15 1fbe f66d e53e
00000390: a47a 17be 6fce 273d c7e7 91bc 4b93 2d3e
000003a0: 7f29 2bbe f6a6 233e 9f58 a839 c473 0abc
000003b0: 9334 62bd e61d 99bc f4fb 813e eff1 673c
000003c0: 00d1 c33c 8a0e 16bc 2340 cd3c 768b 32be
000003d0: 3b29 503d ba33 013d b133 5fbe ea1a e6bd
000003e0: 51f9 36be c742 843d ddc6 a5be 49bb 203e
000003f0: 0d02 a5be 75a6 5abe 4823 a0be 59cf b9be

arr_21 f4 [32]
0.13786845 0.04176145 0.13606416 0.23006485 -0.057283368 -0.049704727 1.9577205 0.09147398
-0.03468531 -0.05704582 -0.034209777 0.073979326 -0.01704056 0.08994962 -0.011456999 0.16559148
-0.038714457 -0.11532969 0.086501114 0.07590394 0.041101415 0.027277632 -0.081266984 0.0054732747
0.11222577 -0.018209986 0.31207582 -0.10562409 0.0475359 -0.013443271 -0.34171697 -0.016220529
00000000: 632d 0d3e 0e0e 2b3d 6754 0b3e 1f96 6b3e
00000010: f7a1 6abd 2f97 4bbd 9696 fa3f b656 bb3d
00000020: 2f12 0ebd e1a8 69bd 8d1f 0cbd 7982 973d
00000030: a598 8bbc 8237 b83d 23b6 3bbc d090 293e
00000040: 0d93 1ebd f931 ecbd 7f27 b13d 8673 9b3d
00000050: f559 283d 5775 df3c 4e6f a6bd 2859 b33b
00000060: a0d6 e53d 1c2d 95bc 67c8 9f3e 7151 d8bd
00000070: 01b5 423d 2a41 5cbc 87f5 aebe eae0 84bc

arr_22 f4 [32]
1.6434913 1.6700004 1.6678243 1.769173 1.6118155 1.7025175 1.5551925 1.659296
1.6507362 1.7991683 1.7471653 1.762957 1.6691747 1.7078254 1.6088412 1.7136699
1.6711173 1.5548323 1.6847607 1.6792392 1.768243 1.7275681 1.4355192 1.7262822
1.7229403 1.9010173 1.685527 1.7952414 1.6815369 1.6505187 1.5930103 1.8281573
00000000: ec5d d23f 93c2 d53f 447b d53f 4374 e23f
00000010: f84f ce3f 18ec d93f 8c10 c73f d063 d43f
00000020: 534b d33f 264b e63f 1da3 df3f 93a8 e13f
00000030: 84a7 d53f 069a da3f 82ee cd3f 8959 db3f
00000040: 2ce7 d53f bf04 c73f 3da6 d73f 4ff1 d63f
00000050: c955 e23f f420 dd3f 18bf b73f d1f6 dc3f
00000060: 4f89 dc3f 8954 f33f 59bf d73f 78ca e53f
00000070: 9a3c d73f 3244 d33f c3e7 cb3f 0f01 ea3f

arr_23 f4 [32]
1.2307737 0.61255383 -1.1241144 -0.77577543 -0.26053175 -0.65784985 0.07312591 -1.7733955
0.45957658 -1.7321532 -1.2160292 -2.7001307 -0.03295193 -1.3089417 -0.18282536 -1.1383046
-0.9192504 1.0106633 -1.637496 -1.458193 0.8687435 -0.41573915 -0.74230015 -1.6230129
1.1417491 -1.5300912 -1.3600538 0.7642807 0.33153108 -0.15872157 -0.14445622 -1.5918479
00000000: fe89 9d3f 54d0 1c3f fbe2 8fbf 3899 46bf
00000010: 6b64 85be d968 28bf 09c3 953d a0fe e2bf
00000020: 9f4d eb3e 32b7 ddbf d8a6 9bbf f1ce 2cc0
00000030: 9af8 06bd 678b a7bf 9236 3bbe f7b3 91bf
00000040: ff53 6bbf 6a5d 813f 7899 d1bf 11a6 babf
00000050: f965 5e3f c3db d4be 6207 3ebf e3be cfbf
00000060: d624 923f 07da c3bf 3e16 aebf e6a7 433f
00000070: 71be a93e e887 22be 55ec 13be acc1 cbbf

arr_19 f4 [32]
0.23651403 0.22072205 0.26367205 0.23904775 0.21826269 0.2713109 0.22163036 0.19773076
0.24686481 0.19375978 0.21349047 0.19720192 0.22694163 0.23816396 0.2737605 0.24917932
0.23017839 0.26091108 0.21688841 0.25466064 0.26585802 0.24597135 0.25756818 0.29654092
0.24690685 0.24106582 0.22529882 0.2361201 0.22053488 0.2431985 0.21150386 0.21931785
00000000: bc30 723e f604 623e 0600 873e efc8 743e
00000010: 4180 5f3e 43e9 8a3e 12f3 623e ef79 4a3e
00000020: 21ca 7c3e f768 463e 3f9d 5a3e 4def 493e
00000030: 6363 683e 41e1 733e 562a 8c3e dd28 7f3e
00000040: e2b3 6b3e 2396 853e ff17 5e3e e162 823e
00000050: 8b1e 883e eadf 7b3e fadf 833e 36d4 973e
00000060: 26d5 7c3e f5d9 763e bcb4 663e 78c9 713e
00000070: e5d3 613e 0709 793e 7894 583e dc94 603e

arr_18 f4 [32]
-2.568266 -2.2585018 -1.671423 -2.077396 -0.6903253 -1.3264315 -0.51011753 -0.13664393
-0.8675023 -4.8923583 -0.6551136 0.6516294 -1.5203346 -1.4911315 -2.4344294 -1.1328624
-1.6377577 -2.209782 -3.796608 -2.9279292 -1.8718312 -1.6669403 -0.8646579 -1.2625867
-0.87926286 -0.6908613 -1.3355923 -2.26129 0.04736728 -1.8501203 -0.39324263 -2.9992955
00000000: 785e 24c0 4b8b 10c0 30f1 d5bf 0ef4 04c0
00000010: 29b9 30bf 82c8 a9bf 1097 02bf 63ec 0bbe
00000020: a114 5ebf 338e 9cc0 86b5 27bf 2fd1 263f
00000030: 539a c2bf 66dd bebf b1cd 1bc0 a301 91bf
00000040: 0ba2 d1bf 116d 0dc0 a0fb 72c0 3163 3bc0
00000050: 2a98 efbf 4d5e d5bf 385a 5dbf 719c a1bf
00000060: 5f17 61bf 49dc 30bf b0f4 aabf fab8 10c0
00000070: 3104 423d bed0 ecbf 1957 c9be 75f4 3fc0

arr_11 f4 [32]
-0.5324639 -0.31360954 -0.6023495 -0.41942906 -0.23881908 -0.82134014 -0.5452484 -1.047497
-0.3523159 -0.45605335 -0.5661109 -0.06914706 -0.81921923 -0.24246497 -0.39694065 -0.38183612
-0.7951115 -0.8354444 -0.008166354 -0.5265412 -1.0040389 -0.30940717 -0.9523494 -1.1215488
-0.5234581 -0.101762965 -0.7476026 -0.66180456 -0.3363448 -0.74789196 -0.47455588 -0.59418595
00000000: 8e4f 08bf 6e91 a0be 9433 1abf 68bf d6be
00000010: fd8c 74be 5943 52bf 6695 0bbf 6214 86bf
00000020: c062 b4be d37f e9be a5ec 10bf f99c 8dbd
00000030: 5ab8 51bf bd48 78be ce3b cbbe 0680 c3be
00000040: 6d8c 4bbf afdf 55bf 2ccc 05bc 67cb 06bf
00000050: 5984 80bf 9e6a 9ebe 2ccd 73bf e98e 8fbf
00000060: 5a01 06bf 1a69 d0bd e262 3fbf 066c 29bf
00000070: 6335 acbe d975 3fbf fdf8 f2be 921c 18bf

arr_10 f4 [32, 32, 6, 6]
-0.021256903 0.13457273 -0.007881666 -0.29531705 -0.27781117 0.051450215 0.15634534 -0.56572616
-0.021823071 -0.5428379 -0.5047659 -0.044980384 0.057573974 -0.061968222 -0.029950514 -0.54084414
0.08611817 0.564712 0.26208395 0.115002654 0.04052815 -0.07824632 0.08250482 0.013849656
0.4817049 0.5078546 0.5532502 -0.041440222 -0.48361292 -0.0017640984 0.24203043 0.4644427
0.15478997 -0.30496415 -0.062906675 -0.14631608 0.09479718 0.13217954 -0.13485327 -0.0019488921
-0.031051507 0.03179811 0.3189133 0.23808743 0.11525967 -0.058633644 -0.3230073 -0.42752004
0.114177495 0.14441092 0.2988957 0.16891655 0.09709887 -0.53767574 0.08820565 0.33157519
0.2534037 0.34018087 -0.26349428 -0.17860219 0.053477325 -0.035457764 0.043634262 -0.1552879
-0.19540234 0.11271759 -0.08081563 -0.21241567 -0.11853403 -0.09479938 -0.4810789 0.04719474
0.05698513 0.12685023 0.078950346 -0.039460167 0.23311844 0.06695117 -0.15039824 -0.4492707
-0.071950845 0.026675802 0.11877456 -0.008535079 -0.4082838 -0.36462125 -0.07310031 0.39557612
-0.0837419 0.093579955 -0.25881442 -0.56392825 -0.049553156 0.050021645 0.07821376 0.15094522
-0.42030558 -0.9455027 -0.28372663 -0.35768288 -0.3500686 0.077065535 -0.5827382 -0.4970651
-0.3490423 -0.4397659 0.17113523 -0.008914122 -0.14248939 -0.4524181 -0.2977691 0.10092686
0.054239508 0.26054183 -0.33163506 0.058621574 0.1479395 -0.2568353 -0.4851791 0.17786938
0.30307823 0.29701254 -0.15326461 -0.3356887 -0.47042722 -0.036460824 0.263149 -0.12953348
-0.26264423 -0.10291654 -0.036356237 0.22587962 -0.20653616 -0.11074094 -0.057908528 -0.27259463
-0.012455253 0.20634654 0.01147206 0.12650701 0.49199265 0.13190795 -0.2032958 0.5644793
-0.21053928 -0.020317964 0.35984623 -0.044892836 -0.17691411 -0.301461 0.03771137 0.058025464
-0.2674322 0.027147144 -0.32962245 -0.10077923 0.1697272 -0.19103765 -0.26880887 -0.334308
0.009237966 0.27433908 -0.060640786 -0.088693246 0.032467585 -0.16343088 0.17742638 0.37339965
-0.018476287 0.32436153 0.11076442 -0.007694535 0.21744984 0.23884298 -0.18985829 0.070349544
0.11376601 -0.004813297 -0.07593503 0.1545761 0.047255803 0.12666088 0.18240865 0.020198882
-0.08511525 -0.4652341 0.27901095 0.25535536 0.013104519 -0.2530378 0.044083055 -0.19063659
0.08547737 0.34896776 -0.07683686 -0.09480145 0.120677084 -0.10072384 0.075846374 0.008687948
-0.074714415 0.023573091 -0.022950752 -0.40710846 0.06871131 -0.0605112 -0.24534336 -0.16808295
0.015577925 -0.2278101 0.0036723395 -0.2837924 -0.23376565 -0.17648202 0.10531212 -0.53425056
0.13595895 -0.046214648 0.07788736 0.16716503 0.006985593 -0.06586156 0.240509 0.11615964
0.1008618 -0.025319995 -0.3993864 -0.12221696 -0.23928945 0.12079862 -0.347888 -0.2410734
-0.10049507 -0.11995179 -0.26329058 -0.2664788 -0.2199536 -0.13786057 0.011201966 -0.092628114
-0.28270003 -0.23674957 -0.09195895 0.13891433 0.2650076 0.03967018 -0.18743384 -0.25180116
0.1170317 0.08227118 0.18341531 0.02680994 -0.15971124 -0.07908432 0.082444616 -0.20643337
00000000: f522 aebc 6fcd 093e 1a22 01bc cc33 97be
00000010: 443d 8ebe 76bd 523d fe18 203e 6ed3 10bf
00000020: 4cc6 b2bc 6df7 0abf 5738 01bf 5a3d 38bd
00000030: b0d2 6b3d 64d2 7dbd c85a f5bc c374 0abf
00000040: b95e b03d f790 103f de2f 863e 8386 eb3d
00000050: d800 263d 9b3f a0bd 49f8 a83d abe9 623c
00000060: 06a2 f63e c202 023f cea1 0d3f 39bd 29bd
00000070: 1d9c f7be 5239 e7ba d3d6 773e 6fcb ed3e
00000080: 4381 1e3e 4324 9cbe 37d5 80bd e2d3 15be
00000090: 0625 c23d 135a 073e fa16 0abe f871 ffba
000000a0: bb5f febc bc3e 023d 9b48 a33e 31cd 733e
000000b0: 430d ec3d d529 70bd 3661 a5be e8e3 dabe
000000c0: e4d5 e93d 75e0 133e db08 993e 76f8 2c3e
000000d0: c6db c63d 1ea5 09bf 2aa5 b43d 39c4 a93e
000000e0: 21be 813e 302c ae3e b9e8 86be 7ee3 36be
000000f0: 0a0b 5b3d 293c 11bd d7b9 323d cb03 1fbe
00000100: 8d17 48be 7bd8 e63d aa82 a5bd 7e83 59be
00000110: f8c1 f2bd 2d26 c2bd f94f f6be 464f 413d
00000120: 3d69 693d 07e5 013e b8b0 a13d fca0 21bd
00000130: 9ab6 6e3e b21d 893d ff01 1abe cf06 e6be
00000140: f75a 93bd 3687 da3c 1440 f33d b7d6 0bbc
00000150: 930a d1be a3af babe 9eb5 95bd f488 ca3e
00000160: e080 abbd d9a6 bf3d 5383 84be 9a5d 10bf
00000170: 40f8 4abd 7fe3 4c3d 892e a03d 6291 1a3e
00000180: 4b32 d7be 770c 72bf 9e44 91be 3622 b7be
00000190: 313c b3be 89d4 9d3d 552e 15bf 517f febe
000001a0: acb5 b2be ff28 e1be 133e 2f3e 8a0c 12bc
000001b0: bde8 11be 58a3 e7be 3175 98be beb2 ce3d
000001c0: 3f2a 5e3d bd65 853e 12cc a9be 2d1d 703d
000001d0: 747d 173e eb7f 83be 6569 f8be 6423 363e
000001e0: 122d 9b3e 0712 983e 66f1 1cbe 64df abbe
000001f0: d6db f0be f257 15bd 77bb 863e 6da4 04be
00000200: 4e79 86be e8c5 d2bd 47ea 14bd fd4c 673e
00000210: 377e 53be 25cc e2bd 7e31 6dbd 8691 8bbe
00000220: 1e11 4cbc 824c 533e 4ff5 3b3c 0e8b 013e
00000230: 76e6 fb3e e112 073e c62c 50be b781 103f
00000240: 9c97 57be dc71 a6bc c43d b83e 8de1 37bd
00000250: f928 35be 1959 9abe 3d77 1a3d 1cac 6d3d
00000260: e0ec 88be b063 de3c 46c4 a8be 5765 cebd
00000270: f8cc 2d3e 609f 43be 51a1 89be 6b2a abbe
00000280: d65a 173c 2c76 8c3e 7962 78bd cea4 b5bd
00000290: bbfc 043d 6d5a 27be 43af 353e 3d2e bf3e
000002a0: 955b 97bc b712 a63e 75d8 e23d 7022 fcbb
000002b0: 2cab 5e3e 4193 743e 366a 42be 6c13 903d
000002c0: 27fe e83d ddb8 9dbb d383 9bbd 3249 1e3e
000002d0: 4d8f 413d 64b3 013e 55c9 3a3e 2078 a53c
000002e0: e750 aebd 2a33 eebe 86da 8e3e f0bd 823e
000002f0: 56b4 563c 2c8e 81be 6f90 343d 3d36 43be
00000300: c20e af3d e7ab b23e a55c 9dbd 4327 c2bd
00000310: 8c25 f73d 4d48 cebd 5855 9b3d e557 0e3c
00000320: df03 99bd 5b1c c13c 3703 bcbc 8570 d0be
00000330: 84b8 8c3d 98da 77bd 4a3b 7bbe f01d 2cbe
00000340: 8e3a 7f3c 0d47 69be a2ab 703b 3d4d 91be
00000350: 4360 6fbe b4b7 34be e1ad d73d a5c4 08bf
00000360: d338 0b3e 924b 3dbd 6883 9f3d 4f2d 2b3e
00000370: 67e7 e43b 6de2 86bd fe47 763e 1be5 ed3d
00000380: a290 ce3d e16b cfbc 607c ccbe e34c fabd
00000390: 4b08 75be 4465 f73d 601e b2be f2db 76be
000003a0: 5cd0 cdbd 49a9 f5bd 06ce 86be e96f 88be
000003b0: 843b 61be 522b 0dbe 7388 373c cfb3 bdbd
000003c0: 0fbe 90be 7b6e 72be f954 bcbd 8f3f 0e3e
000003d0: 13af 873e 337d 223d a8ee 3fbe 15ec 80be
000003e0: 51ae ef3d cb7d a83d 39d1 3b3e 85a0 db3c
000003f0: 588b 23be f6f6 a1bd b9d8 a83d 4563 53be

arr_13 f4 [32]
1.0861812 1.5731859 0.23914418 0.20499727 3.422975 0.15962636 2.4951072 -1.1028609
1.5872098 0.90304893 2.3444018 0.5656938 -0.8199294 2.2587852 0.8498066 0.5304656
-0.25039592 -0.19570914 -0.25739715 -0.14721005 -1.9356366 -0.3412758 -0.18829627 -6.6915092
2.1315331 1.2973742 -2.245806 2.9603534 0.2802698 -0.67799014 -2.4720664 1.7256205
00000000: fc07 8b3f 285e c93f 36e2 743e ceea 513e
00000010: 0612 5b40 1875 233e d6af 1f40 8c2a 8dbf
00000020: b129 cb3f 372e 673f ae0a 1640 4fd1 103f
00000030: e5e6 51bf f08f 1040 ed8c 593f 98cc 073f
00000040: e533 80be fa67 48be 8fc9 83be 3bbe 16be
00000050: f1c2 f7bf b4bb aebe bdd0 40be d820 d6c0
00000060: 0a6b 0840 5c10 a63f 49bb 0fc0 6e76 3d40
00000070: 867f 8f3e c390 2dbf 5636 1ec0 22e1 dc3f

arr_12 f4 [32]
0.8917197 1.0540413 1.0215869 0.9674028 0.971052 1.1620597 1.2164706 0.91099596
0.9863179 1.1101543 1.0861403 0.8619333 0.99081415 1.0338 1.0006131 0.9999391
1.228845 1.1221505 1.003459 1.041629 0.97191906 0.91921073 0.92813456 0.858564
1.0019567 0.9317627 1.0974929 1.0295906 0.97562265 1.0219659 0.7300612 0.9436826
00000000: be47 643f d3ea 863f 5cc3 823f b6a7 773f
00000010: dd96 783f 5fbe 943f 4fb5 9b3f 0837 693f
00000020: 547f 7c3f 8919 8e3f a506 8b3f a9a7 5c3f
00000030: ffa5 7d3f 8f53 843f 1714 803f 02fc 7f3f
00000040: cb4a 9d3f a1a2 8f3f 5871 803f 1954 853f
00000050: b0cf 783f 6551 6b3f 3a9a 6d3f daca 5b3f
00000060: 1e40 803f 0088 6e3f a67a 8c3f a0c9 833f
00000070: 68c2 793f c7cf 823f 4ae5 3a3f 2f95 713f

arr_15 f4 [32, 32, 6, 6]
0.24441311 0.15587309 0.25908157 0.17894697 0.15221912 -0.18796003 -0.1028082 -0.100229375
-0.18673278 -0.23354717 -0.21012193 0.16410007 -0.18784796 0.100356564 -0.21077892 -0.2273637
0.051069688 0.23293743 0.36030808 -0.3641437 0.04082341 0.23803298 0.01891086 -0.27954143
0.4175048 0.13132153 0.20921485 -0.017273134 -0.18665618 -0.23055242 0.17812595 -0.08146308
-0.19374211 0.2511372 0.082290426 0.085701376 -0.09113629 0.14142832 -0.087512426 -0.25760946
0.06641778 0.00033134123 0.18305013 0.32844067 -0.062185153 -0.23972888 0.4126364 0.18025349
0.34194863 0.050379276 0.23225224 0.28396794 0.32931083 0.08005598 -0.044884693 0.14530802
0.25063303 -0.35449332 -0.039862998 -0.19265103 0.23232383 0.12897766 0.069601685 -0.105853446
0.055705324 0.29686818 0.17308465 0.16848424 0.06399087 -0.16011074 0.22002222 -0.09244277
-0.17619559 -0.017181028 0.15260203 0.054214727 -0.015479827 -0.027454868 0.109204195 0.2357867
-0.15420814 -0.24732514 -0.86463594 -0.40835965 -0.097523175 0.09187508 0.119901985 -0.089778446
-0.48977733 -0.14832306 -0.102256194 -0.18993421 0.1659388 0.21436922 0.035995428 -0.24433114
-0.26412636 0.014401361 0.028848514 0.051442172 0.011872908 0.047417123 -0.051730994 -0.2388138
0.0895621 0.011821658 -0.27960154 -0.33782682 -0.08121041 0.16988313 0.26283264 0.29481775
0.2983155 0.2052837 -0.21020104 -0.0022249562 0.10805569 -0.148041 0.09653631 0.478708
0.34073776 0.13578498 -0.019481748 -0.010486749 0.074613445 0.008282702 -0.0832608 0.15009448
-0.45922893 0.029757978 0.15721504 -0.15281068 -0.06023997 -0.36382684 -0.28789312 0.059408773
0.16880718 0.056468803 0.050117653 0.17474578 -0.12730393 -0.124313384 0.21478324 0.10634165
-0.23080182 -0.236709 -0.11406044 0.13209268 -0.3056678 -0.07373078 -0.35740724 -0.050809782
-0.024789637 0.1918865 0.1414882 -0.26093322 0.3916759 0.033568494 -0.073318616 -0.051739458
-0.14772415 -0.59823364 -0.06571771 -0.01696418 0.09397338 -0.026945662 0.05846079 -0.24806216
-0.20941997 -0.20182402 0.079020984 0.020091971 -0.1859735 -0.14096695 -0.28933382 -0.24052747
-0.23626943 0.030190887 -0.17297982 -0.070631035 0.16461608 -0.28967264 -0.07838887 0.20645207
0.1813941 0.14835599 -0.15933518 0.15733872 -0.19723983 0.057606682 -0.05908484 0.2455567
0.35652325 -0.41255164 -0.12367292 -0.23379725 -0.41455784 -0.32499257 0.26456347 -0.5303377
-0.19854753 -0.116178 -0.5030463 -0.05367386 0.19312286 -0.06977309 0.04742149 -0.14070387
-0.044117365 0.14364277 0.397839 0.13723195 0.27641886 0.20123969 0.08205109 0.20529953
-0.3422596 -0.105287574 0.24860413 -0.10195569 0.2914741 0.12120399 -0.12544483 0.17776178
0.037013683 0.2677637 0.115173474 0.13077854 -0.1188439 -0.037334125 0.33821398 0.06539176
-0.3214819 -0.15589088 -0.055641443 0.40781346 0.15441163 0.05873357 0.06903126 -0.040163115
-0.333084 0.1414269 -0.1025666 -0.08127511 -0.19799587 -0.32263327 0.004686946 -0.23668976
-0.24389087 0.08489013 0.0828892 -0.31733403 -0.09648329 0.060215555 0.07398663 -0.2415654
00000000: 6e47 7a3e 329d 1f3e 57a6 843e e03d 373e
00000010: 54df 1b3e 9878 40be 1b8d d2bd 0f45 cdbd
00000020: e136 3fbe fd26 6fbe 342a 57be d909 283e
00000030: 375b 40be be87 cd3d 6ed6 57be 08d2 68be
00000040: 732e 513d 2687 6e3e 4d7a b83e 0b71 babe
00000050: 7336 273d ebbe 733e f3ea 9a3c 0e20 8fbe
00000060: 30c3 d53e 2779 063e 6b3c 563e 6380 8dbc
00000070: cc22 3fbe ef15 6cbe a666 363e 1ed6 a6bd
00000080: 5564 46be 0e95 803e e287 a83d 3484 af3d
00000090: aaa5 babd 96d2 103e b739 b3bd 63e5 83be
000000a0: 0c06 883d deb7 ad39 7e71 3b3e 6029 a83e
000000b0: dcb5 7ebd 7d7b 75be 1445 d33e 5f94 383e
000000c0: e413 af3e 805a 4e3d 88d3 6d3e 3f64 913e
000000d0: 6e9b a83e 64f4 a33d 03d9 37bd a0cb 143e
000000e0: f952 803e 2680 b5be 6247 23bd 5046 45be
000000f0: 4ce6 6d3e b812 043e 548b 8e3d b1c9 d8bd
00000100: 442b 643d 1bff 973e 1a3d 313e 2287 2c3e
00000110: a50d 833d 12f4 23be 814d 613e a352 bdbd
00000120: 9e6c 34be 3abf 8cbc b543 1c3e 4310 5e3d
00000130: 1a9f 7dbc 08e9 e0bc 73a6 df3d 1272 713e
00000140: bde8 1dbe cd42 7dbe c858 5dbf 8414 d1be
00000150: 3bba c7bd 0029 bc3d 2c8f f53d c3dd b7bd
00000160: 18c4 fabe 00e2 17be b26b d1bd 1d7e 42be
00000170: dceb 293e 9b83 5b3e f16f 133d f131 7abe
00000180: 923b 87be b0f3 6b3c b853 ec3c 07b5 523d
00000190: 9686 423c 7538 423d e1e3 53bd 9b8b 74be
000001a0: 566c b73d a1af 413c ef27 8fbe a3f7 acbe
000001b0: a551 a6bd d8f5 2d3e 0092 863e 5af2 963e
000001c0: cfbc 983e e435 523e f13e 57be 92d0 11bb
000001d0: 4d4c dd3d 0f98 17be d4b4 c53d 3719 f53e
000001e0: 2e75 ae3e 380b 0b3e 3098 9fbc 9dd0 2bbc
000001f0: efce 983d 2cb4 073c a384 aabd 5eb2 193e
00000200: 0e20 ebbe 01c7 f33c fbfc 203e 677a 1cbe
00000210: 30be 76bd 8347 babe ba66 93be 9d56 733d
00000220: cadb 2c3e d54b 673d 2b48 4d3d 8ff0 323e
00000230: f65b 02be 0498 febd 23f0 5b3e a7c9 d93d
00000240: 5057 6cbe d863 72be 8598 e9bd 4e43 073e
00000250: 7d80 9cbe 2a00 97bd 15fe b6be eb1d 50bd
00000260: a313 cbbc e57d 443e 48e2 103e 0a99 85be
00000270: be89 c83e 1e7f 093d 1228 96bd c1ec 53bd
00000280: 0045 17be d725 19bf 0297 86bd 77f8 8abc
00000290: 1e75 c03d 26bd dcbc 9574 6f3d 0204 7ebe
000002a0: 3072 56be f5aa 4ebe c1d5 a13d eb97 a43c
000002b0: d66f 3ebe a459 10be 9023 94be d54c 76be
000002c0: 9df0 71be e152 f73c 9f21 31be 01a7 90bd
000002d0: 1e91 283e f94f 94be 588a a0bd 2c68 533e
000002e0: 60bf 393e a2ea 173e c328 23be 671d 213e
000002f0: 3df9 49be fcf4 6b3d f202 72bd 3773 7b3e
00000300: 378a b63e f839 d3be 3a48 fdbd 8c68 6fbe
00000310: ed40 d4be 6d65 a6be dd74 873e 36c4 07bf
00000320: 0b50 4bbe bbee edbd a4c7 00bf 1fd9 5bbd
00000330: 00c2 453e 32e5 8ebd 093d 423d ad14 10be
00000340: 69b4 34bd 1717 133e 8eb1 cb3e 8886 0c3e
00000350: c686 8d3e c711 4e3e 670a a83d 0a3a 523e
00000360: a63c afbe 03a1 d7bd 1592 7e3e 25ce d0bd
00000370: 183c 953e cc39 f83d 9c74 00be 2f07 363e
00000380: a99b 173d 5318 893e 12e0 eb3d cfea 053e
00000390: 6e64 f3bd abeb 18bd 622a ad3e 1dec 853d
000003a0: 4799 a4be dca1 1fbe 48e8 63bd edcc d03e
000003b0: 151e 1e3e 9d92 703d 4360 8d3d 1482 24bd
000003c0: fc89 aabe 37d2 103e 700e d2bd 9173 a6bd
000003d0: 6ebf 4abe 3030 a5be f494 993b cd5e 72be
000003e0: 87be 79be e0da ad3d d0c1 a93d 9b79 a2be
000003f0: 0899 c5bd 96a4 763d 4d86 973d ec5c 77be

arr_14 f4 [32]
0.23260407 0.18897904 0.17698306 0.25428304 0.16797954 0.17985389 0.1793784 0.17123626
0.19803931 0.15814401 0.1699183 0.1332957 0.21258014 0.16966994 0.17692773 0.30043364
0.17954195 0.20514914 0.16031803 0.18922986 0.2507292 0.16834834 0.237764 0.27225268
0.18320405 0.1906401 0.18694076 0.1679431 0.17728731 0.17782271 0.16355239 0.19476718
00000000: c32f 6e3e b983 413e 0c3b 353e 6331 823e
00000010: d402 2c3e 9e2b 383e f9ae 373e 8f58 2f3e
00000020: d1ca 4a3e 81f0 213e 10ff 2d3e ab7e 083e
00000030: 9cae 593e f5bd 2d3e 8b2c 353e 70d2 993e
00000040: d8d9 373e 9e12 523e 692a 243e 79c5 413e
00000050: 945f 803e 8263 2c3e 6878 733e b464 8b3e
00000060: d899 3b3e 2937 433e 666d 3f3e 47f9 2b3e
00000070: ce8a 353e 2817 363e 477a 273e 0c71 473e

arr_17 f4 [32]
0.89278835 0.9614515 0.9603196 0.97099406 0.93369365 1.0556111 0.83364946 0.9811712
0.989238 0.99603635 0.83719105 0.9082417 1.1192747 0.90280163 0.88328826 0.862656
0.91359395 0.9152813 0.929392 1.0022452 0.8871747 0.941394 0.8102071 0.9126258
1.0820674 0.9703606 0.9748085 0.90808004 0.86430836 0.8606981 0.9335381 0.9679023
00000000: c78d 643f af21 763f 81d7 753f 1193 783f
00000010: 8c06 6f3f 441e 873f 0d6a 553f 092e 7b3f
00000020: b43e 7d3f 3dfc 7e3f 2752 563f 8782 683f
00000030: 6544 8f3f 021e 673f 2e1f 623f 06d7 5c3f
00000040: 4be1 693f e04f 6a3f a2ec 6d3f 9249 803f
00000050: e21d 633f 32ff 703f bc69 4f3f d8a1 693f
00000060: 2f81 8a3f 8d69 783f 0d8d 793f ef77 683f
00000070: 5043 5d3f b656 5c3f 5afc 6e3f 72c8 773f

arr_16 f4 [32]
-0.4833455 -0.83467406 -0.66751945 -0.7171875 -0.36944354 -1.2073017 -0.4125176 -0.46753013
-0.43647262 -0.25695476 -0.3556709 -0.4279856 -0.6098048 -0.8807706 -0.92616737 -0.6876728
-0.6611166 -0.5941427 -0.65097916 -0.6103843 -0.60611784 -0.53951937 -0.6373028 -0.91487813
-0.76355827 -0.49218786 -0.29929823 -0.70857745 -0.30750665 -0.38173816 -0.40734878 -0.5350764
00000000: 1079 f7be 33ad 55bf 8ee2 2abf 9a99 37bf
00000010: b427 bdbe dd88 9abf 8235 d3be 1c60 efbe
00000020: 5779 dfbe 938f 83be 7f1a b6be ee20 dbbe
00000030: 2b1c 1cbf 2f7a 61bf 4e19 6dbf 530b 30bf
00000040: f03e 29bf bc19 18bf 92a6 26bf 2542 1cbf
00000050: 8a2a 1bbf f11d 0abf 4726 23bf 7435 6abf
00000060: 8e78 43bf 0c00 fcbe 9e3d 99be 5565 35bf
00000070: 8371 9dbe 2f73 c3be 0590 d0be c4fa 08bf

arr_1 f4 [32]
0.035471298 -0.24254104 -0.7615996 -0.8953359 -0.51393217 -0.40410638 0.27946833 -0.31458527
0.025796704 -0.8470484 -0.20437384 -0.4191658 -0.23672043 0.103448175 0.056697734 -0.08072218
-0.30979228 -0.81358784 -0.68787277 0.1130537 0.025285913 -0.6192121 0.17870943 0.039817914
0.030840307 -0.55140495 -0.17799103 0.21691102 0.23511763 -0.5898658 -0.8463126 -0.742575
00000000: 5a4a 113d ae5c 78be 31f8 42bf bc34 65bf
00000010: 0f91 03bf 08e7 cebe 7916 8f3e 5211 a1be
00000020: 9c53 d33c 2ad8 58bf 6047 51be e69c d6be
00000030: d766 72be a3dc d33d e23b 683d ac51 a5bd
00000040: 189d 9ebe 4b47 50bf 6e18 30bf b388 e73d
00000050: 6724 cf3c af84 1ebf 9bff 363e 1c18 233d
00000060: d0a4 fc3c e028 0dbf 4843 36be ec1d 5e3e
00000070: adc2 703e 7201 17bf f1a7 58bf 6519 3ebf

arr_0 f4 [32, 1, 6, 6]
-0.0054635108 0.16086753 -0.014912147 0.17486265 0.045504276 -0.019447869 -0.11682747 0.07964813
0.26892325 -0.054254256 -0.025452126 -0.13396885 -0.14355929 -0.16846259 0.95718616 -0.030277945
0.017551698 -0.12690377 -0.0490117 0.16781993 0.34633335 0.080586165 -0.028917672 -0.14551295
-0.15859833 0.108340345 1.512942 0.14706616 -0.05216686 -0.10805265 -0.07566468 -0.12704562
0.18402465 -0.013287154 -0.03544661 -0.15357842 0.108231686 0.006549365 -0.026172904 -0.014628674
-0.049770717 -0.06854282 0.052667767 0.07331823 0.032070253 -0.022229074 -0.10902331 -0.00284159
0.11415852 -0.010743046 -0.21121779 0.045344535 -0.05823308 -0.06421772 -0.003169506 -0.37237284
1.3311895 -0.062428895 0.0036047273 -0.06289191 -0.09915742 -0.080428176 0.2404756 0.32361776
-0.017382653 -0.09200764 -0.046182588 -0.18650691 0.019209025 0.9414324 -0.0026841548 -0.13482182
0.017864062 -0.18296716 -0.28305942 -0.2446173 -0.003767615 0.038179148 0.2628667 -0.0050453
-0.09222817 -0.040583804 -0.019503398 -0.014858456 0.22518644 0.84864056 0.40147942 0.051464446
-0.09904046 -0.010611208 -0.13016029 0.0027797965 0.14223655 0.0782332 -0.043788597 -0.004557323
-0.34797728 -0.34603897 -0.047893804 0.028966483 0.040604483 0.008890451 0.006925724 -0.042521585
-0.0080472585 0.06390057 -0.013382798 0.05782015 0.36380318 0.06055792 -0.04508341 -0.072642036
0.022667764 0.10502971 0.14269586 -0.015504313 -0.17718567 -0.27045015 -0.17348675 -0.13070327
0.11338379 0.038290102 -0.059858732 -0.08526899 -0.28346574 -0.10672979 0.19967625 0.04062572
-0.061902896 0.027525276 -0.20572546 -0.82767946 0.18195204 0.067797594 0.0762317 -0.03909869
0.16908248 -0.94165283 0.26205775 0.049393494 -0.10303324 -0.15224658 -0.2493347 -0.6244749
-0.16401666 -0.183837 1.1214095 0.07776009 -0.45692587 0.068778895 -0.11239225 -0.1117121
1.1053046 -0.24219671 -0.16242678 -0.030604368 -0.01793101 0.029580763 -0.23465589 -0.29735407
0.027582018 -0.03846452 -0.03599947 0.064019166 0.024032209 -0.042451248 -0.10754424 0.004197659
-0.0067782383 -0.0146403685 0.03352132 0.028506955 0.11327509 0.07534022 -0.035329122 0.019217515
0.011973089 -0.041259028 0.014475751 0.018382506 0.17867097 0.15531072 -0.019477392 -0.3415892
-0.23169735 -0.05243768 0.24327636 0.21687096 -0.017580312 -0.31554148 -0.16874067 0.05406091
0.37429354 0.20461428 -0.06398832 -0.18133691 -0.008349861 0.21719635 0.23796001 -0.017801888
-0.18209557 -0.19309717 0.12131314 0.30824834 0.019278852 -0.3405458 -0.36174878 -0.11225729
0.21277378 0.4519817 -0.043805923 -0.38278657 -0.1478603 0.10949089 0.15355322 0.22697964
0.35966474 0.12701777 0.16262336 0.09834311 -0.08689046 -0.51508284 -0.01171993 0.088104464
-0.07982149 0.11174625 0.2730978 -0.19900054 0.13896194 -0.25990847 -0.019743968 0.023258531
0.29793295 0.04287953 0.19267514 0.24948236 -0.2660341 -0.027022464 0.17813446 0.32799855
0.055505276 -0.043635886 -0.0485308 -0.13821931 0.131767 0.035085037 -0.07556456 0.35614175
0.0112790195 0.26671892 -0.15027928 -0.10205612 0.02755668 -0.038902346 -0.08341771 0.102061905
00000000: 4007 b3bb 75ba 243e 1452 74bc 320f 333e
00000010: b162 3a3d 2351 9fbc 3e43 efbd 8f1e a33d
00000020: 4fb0 893e b639 5ebd fa80 d0bc 212f 09be
00000030: 3501 13be 7581 2cbe 270a 753f 7409 f8bc
00000040: 94c8 8f3c 10f3 01be 7ec0 48bd fdd8 2b3e
00000050: 9b52 b13e 5c0a a53d c1e4 ecbc 5901 15be
00000060: 9a67 22be 8be1 dd3d 15a8 c13f 8398 163e
00000070: ebac 55bd b54a ddbd 15f6 9abd 3f18 02be
00000080: f570 3c3e 5db2 59bc 7730 11bd a943 1dbe
00000090: 93a8 dd3d 0e9c d63b 8f68 d6bc 1bad 6fbc
000000a0: 61dc 4bbd 2e60 8cbd 28ba 573d de27 963d
000000b0: 195c 033d bf19 b6bc 9d47 dfbd f839 3abb
000000c0: f1cb e93d 9a03 30bc 7a49 58be 31bb 393d
000000d0: cf85 6ebd 9484 83bd 7db7 4fbb a7a7 bebe
000000e0: 6b64 aa3f 71b5 7fbd 4a3d 6c3b 79cd 80bd
000000f0: 0c13 cbbd 87b7 a4bd 3c3f 763e 3ab1 a53e
00000100: 1166 8ebc 806e bcbd f429 3dbd abfb 3ebe
00000110: 3f5c 9d3c b701 713f a5e8 2fbb bb0e 0abe
00000120: a757 923c be5b 3bbe 2aed 90be f57c 7abe
00000130: 17ea 76bb bd61 1c3d 7796 863e 0b53 a5bb
00000140: 1fe2 bcbd 343b 26bd 97c5 9fbc e270 73bc
00000150: 4697 663e 8240 593f b68e cd3e 62cc 523d
00000160: bad5 cabd a2da 2dbc bd48 05be 3f2d 363b
00000170: 75a6 113e ba38 a03d ac5b 33bd 9955 95bb
00000180: 142a b2be 052c b1be 4b2c 44bd 1e4b ed3c
00000190: e350 263d 41a9 113c 2ff1 e23b 1d2b 2ebd
000001a0: a6d8 03bc 4dde 823d 8643 5bbc d2d4 6c3d
000001b0: 6944 ba3e 950b 783d 62a9 38bd 59c5 94bd
000001c0: bfb1 b93c d119 d73d dd1e 123e cd05 7ebc
000001d0: 2970 35be 7178 8abe 83a6 31be 14d7 05be
000001e0: c335 e83d 15d6 1c3d 6e2e 75bd 82a1 aebd
000001f0: 6c22 91be 2695 dabd ee77 4c3e 2867 263d
00000200: e48d 7dbd b07c e13c b2a9 52be cde2 53bf
00000210: a351 3a3e 77d9 8a3d 5e1f 9c3d f325 20bd
00000220: f523 2d3e 2910 71bf 6f2c 863e d550 4a3d
00000230: 1703 d3bd 87e6 1bbe 9851 7fbe 96dd 1fbf
00000240: fcf3 27be c43f 3cbe 598a 8f3f af40 9f3d
00000250: 30f2 e9be f3db 8c3d e82d e6bd 50c9 e4bd
00000260: 9f7a 8d3f 6a02 78be 3553 26be 03b6 fabc
00000270: 0ee4 92bc 5b53 f23c a249 70be cb3e 98be
00000280: aff3 e13c f98c 1dbd 2e74 13bd 7b1c 833d
00000290: 32df c43c 5ce1 2dbd 2840 dcbd 848c 893b
000002a0: fc1b debb 28de 6fbc a74d 093d 6b87 e93c
000002b0: c5fc e73d f94b 9a3d 45b5 10bd 0d6e 9d3c
000002c0: c62a 443c 3aff 28bd b32b 6d3c e996 963c
000002d0: 86f5 363e c609 1f3e 0d8f 9fbc c8e4 aebe
000002e0: 1242 6dbe e5c8 56bd 701d 793e 6c13 5e3e
000002f0: 9604 90bc a78e a1be 5bca 2cbe f96e 5d3d
00000300: 67a3 bf3e 6886 513e 4f0c 83bd 62b0 39be
00000310: dbcd 08bc b868 5e3e caab 733e 44d5 91bc
00000320: 4377 3abe 44bb 45be 0673 f83d bad2 9d3e
00000330: afee 9d3c 055c aebe 2337 b9be 26e7 e5bd
00000340: 5fe1 593e 256a e73e d76d 33bd 9afc c3be
00000350: b168 17be c23c e03d 0e3d 1d3e 5a6d 683e
00000360: fa25 b83e f210 023e bd86 263e 1d68 c93d
00000370: a0f3 b1bd 78dc 03bf f304 40bc 1d70 b43d
00000380: 7379 a3bd 38db e43d 7ad3 8b3e ccc6 4bbe
00000390: 0a4c 0e3e b912 85be 1abe a1bc ad88 be3c
000003a0: ab8a 983e 72a2 2f3d a24c 453e 4e78 7f3e
000003b0: 9f35 88be 375e ddbc e168 363e 6def a73e
000003c0: 8059 633d 8bbb 32bd 3bc8 46bd 5d89 0dbe
000003d0: eeed 063e 54b5 0f3d 98c1 9abd 3658 b63e
000003e0: a3cb 383c 628f 883e d0e2 19be cd02 d1bd
000003f0: 8cbe e13c 1158 1fbd e8d6 aabd d505 d13d

arr_3 f4 [32]
2.0953555 1.2791108 0.26968205 -2.2621992 0.42782703 0.23742302 1.2473186 0.12214361
0.18921041 -2.8479695 1.9921126 -3.0371463 1.1022243 0.18999125 0.21480502 0.9427976
0.30493027 -2.1202335 -2.7078676 1.5893154 0.15499888 -0.10363666 0.24134833 1.2117636
2.0645018 0.24792187 0.82367593 0.20547695 1.8025417 -2.803687 -1.7025324 -1.1794473
00000000: 4e1a 0640 e7b9 a33f c413 8a3e dfc7 10c0
00000010: 250c db3e 051f 733e 23a8 9f3f 6e26 fa3d
00000020: 60c0 413e 2245 36c0 8cfd fe3f 9b60 42c0
00000030: b015 8d3f 118d 423e d9f5 5b3e 2f5b 713f
00000040: d21f 9c3e e8b1 07c0 b44d 2dc0 b06e cb3f
00000050: 07b8 1e3e 753f d4bd 0424 773e 121b 9b3f
00000060: cc20 0440 3bdf 7d3e 6ddc 523f 8d68 523e
00000070: b0b9 e63f 9c6f 33c0 95ec d9bf 21f8 96bf

arr_2 f4 [32]
1.1737193 1.1109817 1.1924103 0.55670136 0.90188634 1.3264602 1.0371987 1.711441
0.60087276 0.6705123 1.0097221 0.5543531 1.0051903 1.6971514 1.1416683 0.9048032
1.4450516 0.59590155 0.6040137 1.1155591 1.3624415 0.8004496 1.5395131 0.99602956
1.2891219 0.9402154 0.94255847 1.7287794 1.0792708 0.642413 0.41448623 0.5323844
00000000: 6f3c 963f a634 8e3f e7a0 983f fb83 0e3f
00000010: 06e2 663f 73c9 a93f edc2 843f 8010 db3f
00000020: ccd2 193f b2a6 2b3f 933e 813f 16ea 0d3f
00000030: 13aa 803f 423c d93f 3022 923f 2fa1 673f
00000040: 73f7 b83f 018d 183f a4a0 1a3f a4ca 8e3f
00000050: 7c64 ae3f 44ea 4c3f c40e c53f cbfb 7e3f
00000060: f201 a53f f5b1 703f 834b 713f a548 dd3f
00000070: 8c25 8a3f 2e75 243f 8a37 d43e 584a 083f

arr_5 f4 [32, 32, 6, 6]
-0.35591745 -0.19551939 -0.27343592 -0.12130974 -0.067158245 -0.060549416 -0.5352641 -0.3951177
-0.45047277 -0.26992956 -0.12316163 -0.19446233 -0.46591884 -0.46019676 -0.5223634 -0.29103404
-0.08161137 -0.12791534 -0.3209518 -0.40182373 -0.33413017 -0.26752195 -0.25210157 -0.010979354
-0.08450214 -0.20726831 -0.30614692 -0.076021925 -0.2775251 0.109369464 0.006548359 -0.07687944
-0.11652767 0.02303957 -0.037751567 0.25029504 -0.24543534 -0.14366329 -0.12450297 -0.27091005
-0.041452542 -0.09899598 -0.4223744 -0.395126 -0.37852627 -0.52059567 -0.3110651 -0.2664273
-0.27693683 -0.070175946 -0.3445699 -0.46548098 -0.2592763 0.04591532 -0.17912035 -0.25758958
-0.27098644 -0.26394546 -0.03956028 0.19017866 -0.02764813 -0.115092985 -0.04801991 0.19478333
0.17043227 0.4329932 0.048237953 0.15141469 0.25867045 -0.034894224 0.10021008 0.015992615
0.16651057 0.17538962 0.0055660265 0.21537337 -0.09218967 -0.12556776 0.08467942 0.42021742
0.033325523 -0.37662464 -0.37696394 -0.50940865 0.0017649829 -0.015243164 -0.27536136 -0.29320776
-0.26421547 -0.26444232 0.056844104 0.09442366 0.09093245 0.033987083 0.16515969 0.2438724
0.0990009 0.18136051 0.3438994 0.2380878 0.636296 0.3907982 0.042961188 0.30634743
0.061037462 0.22616272 0.13973907 0.25028792 -0.049173743 -0.078881204 -0.053046677 0.0720618
0.07334836 0.16996893 -0.3332533 -0.25713333 -0.08514173 -0.09582068 -0.11884087 0.04216223
-0.2590777 -0.3809343 -0.21897726 -0.2042953 -0.17495666 -0.08605315 -0.34513664 -0.30586934
-0.23123783 -0.26040843 -0.1471235 -0.19521011 -0.35285118 -0.32866508 -0.35393924 -0.3132978
-0.39728117 -0.3965005 -0.3678736 -0.3753855 -0.3097469 -0.17768022 -0.19806114 -0.23367134
0.17052017 0.34003553 0.12355316 -0.062075198 0.31273124 -0.20611744 0.06066888 0.012896837
0.031778328 -0.18783578 -0.08540323 -0.10685963 -0.024144713 -0.2544396 -0.1124665 -0.2817378
-0.024157852 -0.20378406 -0.25120807 -0.04317814 -0.12882148 -0.26125503 -0.11048368 0.053033557
-0.1641162 -0.17600562 -0.0517083 0.0061201705 0.1810753 0.15754479 -0.035381865 -0.100908965
0.010763547 0.35470647 0.36416945 0.2561014 0.21905796 0.25855222 -0.13892506 -0.13041095
-0.12745853 -0.027626606 0.10660871 -0.007842154 -0.35898894 -0.19295873 -0.059046302 0.035464186
-0.0602388 -0.07929143 -0.18887724 0.049681593 -0.16940187 0.13883775 0.028337425 -0.27694142
-0.06688296 0.09781133 0.10148841 0.24619117 -0.018529503 -0.21648827 -0.21754341 0.1413377
-0.25773135 -0.20842849 -0.22353132 -0.32958737 -0.1351683 -0.12920764 -0.07786095 -0.30322126
-0.16012093 -0.2863076 -0.2756527 -0.23342752 -0.19841643 -0.071172655 -0.14149518 -0.2791467
-0.24089512 -0.35228717 -0.22654413 -0.15587373 -0.096310176 -0.29233757 -0.3957366 -0.28782207
-0.25935173 -0.10148461 -0.23676573 -0.38034418 -0.52005494 -0.45395517 -0.23034777 -0.28864112
-0.10830437 -0.22379403 -0.3169282 -0.33184707 -0.21490443 -0.30619124 -0.18078388 -0.36643782
-0.32285187 -0.2895308 -0.17009903 -0.16164328 0.20444812 0.19805202 0.08808851 0.104258634
00000000: d03a b6be 3c36 48be cbff 8bbe 3e71 f8bd
00000010: 438a 89bd aa02 78bd 1107 09bf de4c cabe
00000020: 5ea4 e6be 3534 8abe 2a3c fcbd 2221 47be
00000030: ea8c eebe e99e ebbe 9cb9 05bf 6a02 95be
00000040: dd23 a7bd 3dfc 02be cb53 a4be d7bb cdbe
00000050: 1c13 abbe a3f8 88be 7513 81be c0e2 33bc
00000060: 750f adbd 253e 54be 4abf 9cbe 62b1 9bbd
00000070: c517 8ebe 19fd df3d 9e93 d63b f872 9dbd
00000080: 0fa6 eebd 7bbd bc3c 63a1 1abd ac26 803e
00000090: 6753 7bbe 781c 13be 6afb febd b9b4 8abe
000000a0: 24ca 29bd 68be cabd 7541 d8be f44d cabe
000000b0: 32ce c1be c245 05bf ed43 9fbe 2969 88be
000000c0: aaca 8dbe 68b8 8fbd 776b b0be 8653 eebe
000000d0: ddbf 84be b411 3c3d 536b 37be c8e2 83be
000000e0: bcbe 8abe dc23 87be f609 22bd 32be 423e
000000f0: 557e e2bc dfb5 ebbd 86b0 44bd 4875 473e
00000100: cc85 2e3e 49b1 dd3e 2995 453d 740c 1b3e
00000110: 7470 843e 3fed 0ebd f13a cd3d f202 833c
00000120: bf81 2a3e 5699 333e 3763 b63b d68a 5c3e
00000130: f0cd bcbd d694 00be 676c ad3d bd26 d73e
00000140: 5880 083d f2d4 c0be 6b01 c1be 9b68 02bf
00000150: 0057 e73a 77be 79bc 2afc 8cbe 541f 96be
00000160: 4047 87be fc64 87be 5dd5 683d 3161 c13d
00000170: cb3a ba3d 0a36 0b3d 9f1f 293e b0b9 793e
00000180: fcc0 ca3d 92b6 393e 9513 b03e 4acd 733e
00000190: 4be4 223f b416 c83e 12f8 2f3d 92d9 9c3e
000001a0: 6b02 7a3d 3397 673e c217 0f3e bd25 803e
000001b0: 686a 49bd 788c a1bd 7947 59bd 2395 933d
000001c0: aa37 963d 560c 2e3e 2da0 aabe fba6 83be
000001d0: ca5e aebd a23d c4bd d862 f3bd 4db2 2c3d
000001e0: d5a5 84be d209 c3be 933b 60be ca32 51be
000001f0: d727 33be a23c b0bd c0b5 b0be e89a 9cbe
00000200: 9cc9 6cbe 4154 85be 8ba7 16be 29e5 47be
00000210: e9a8 b4be ca46 a8be 8637 b5be 9268 a0be
00000220: 7068 cbbe 1d02 cbbe ee59 bcbe 8732 c0be
00000230: 2597 9ebe cef1 35be 8ad0 4abe 8a47 6fbe
00000240: d79c 2e3e 2319 ae3e 7009 fd3d 9042 7ebd
00000250: 4f1e a03e 7310 53be ee7f 783d 414d 533c
00000260: fe29 023d 0658 40be e3e7 aebd 39d9 dabd
00000270: 22cb c5bc e845 82be d654 e6bd f03f 90be
00000280: b0e6 c5bc c5ac 50be 589e 80be 90db 30bd
00000290: c7e9 03be 38c3 85be 4545 e2bd b739 593d
000002a0: 140e 28be d13a 34be 15cc 53bd b68b c83b
000002b0: ce6b 393e 6c53 213e 93ec 10bd 5ca9 cebd
000002c0: 9759 303c 169c b53e 6b74 ba3e b91f 833e
000002d0: bb50 603e f560 843e 5f42 0ebe 738a 05be
000002e0: 7d84 02be 3151 e2bc ab55 da3d 617c 00bc
000002f0: 66cd b7be f996 45be 89da 71bd e542 113d
00000300: f6bc 76bd 8c63 a2bd 0969 41be ed7e 4b3d
00000310: af77 2dbe 7c2b 0e3e e323 e83c 44cb 8dbe
00000320: eff9 88bd 4e51 c83d 28d9 cf3d 8a19 7c3e
00000330: 2fcb 97bc 1aaf 5dbe b3c3 5ebe d4ba 103e
00000340: 5df5 83be 476e 55be 65e5 64be adbf a8be
00000350: 8f69 0abe 024f 04be 9075 9fbd d13f 9bbe
00000360: bef6 23be e996 92be 5a22 8dbe a007 6fbe
00000370: ad2d 4bbe f8c2 91bd 1de4 10be 51ec 8ebe
00000380: 36ad 76be fc5e b4be 2ffb 67be 5d9d 1fbe
00000390: 453e c5bd 45ad 95be fd9d cabe 6a5d 93be
000003a0: c0c9 84be 2ad7 cfbd b772 72be 79bc c2be
000003b0: 5222 05bf d06c e8be 49e0 6bbe c5c8 93be
000003c0: aece ddbd 432a 65be 6a44 a2be dce7 a9be
000003d0: e80f 5cbe 19c5 9cbe 691f 39be bd9d bbbe
000003e0: d74c a5be 623d 94be 712e 2ebe d185 25be
000003f0: d95a 513e 26ce 4a3e c067 b43d 8d85 d53d

arr_4 f4 [32]
0.86341894 1.3653249 3.8175356 0.71778065 2.784147 2.6382413 1.4925538 3.096153
3.3573182 0.6459296 0.93761206 0.6316296 1.5629127 2.871035 3.1781542 1.9574907
3.3965235 0.8579983 0.6641428 1.1757357 1.980852 1.2571079 2.4238956 1.5315562
0.8843851 3.779891 2.1760654 1.9470705 0.8940925 0.6587109 0.9904519 1.4836664
00000000: 0609 5d3f f7c2 ae3f 8152 7440 79c0 373f
00000010: 772f 3240 f2d8 2840 010c bf3f 5f27 4640
00000020: 4dde 5640 a45b 253f 5807 703f 7ab2 213f
00000030: 860d c83f 0abf 3740 e166 4b40 0e8f fa3f
00000040: a460 5940 c7a5 5b3f 4305 2a3f 827e 963f
00000050: 8f8c fd3f e9e8 a03f 1b21 1b40 090a c43f
00000060: 1067 623f bce9 7140 a844 0b40 9b39 f93f
00000070: 3fe3 643f 47a1 283f 418e 7d3f c8e8 bd3f

arr_7 f4 [32]
1.1054251 0.81162256 1.0657432 1.1611308 1.0379412 0.82427716 1.1763037 0.6998507
1.0684773 0.61923105 1.4131483 1.6482105 1.135231 1.0251098 1.1591879 1.2008208
0.95147985 1.1285951 0.6650446 0.9367118 1.2388723 1.1973083 0.5881442 0.9021534
1.0035542 0.4693616 1.2250432 0.71802187 1.2592077 0.61366427 0.8179571 1.0004997
00000000: 927e 8d3f 7fc6 4f3f 466a 883f ef9f 943f
00000010: 42db 843f d403 533f 1f91 963f 6a29 333f
00000020: ddc3 883f ed85 1e3f 0be2 b43f 90f8 d23f
00000030: 404f 913f cc36 833f 4560 943f 7fb4 993f
00000040: 2f94 733f ce75 903f 5d40 2a3f 58cc 6f3f
00000050: 5e93 9e3f 6641 993f 9e90 163f 86f3 663f
00000060: 7774 803f 2a50 f03e 37ce 9c3f 48d0 373f
00000070: b82d a13f 1a19 1d3f a365 513f 6010 803f
