pretrained_model/MSRA_pretrained/p5/params/-1_en_params.npz (npz, 17866 bytes, 6 tensors)

arr_1 f4 [40]
0	0x3cd40c9f	0.025884924
1	0xbd4da31b	-0.050204378
2	0x3f06cf80	0.5266037
3	0x3c8a0e95	0.016852656
4	0x3e632270	0.22181106
5	0x3e4d33e3	0.20039324
6	0x3e765f85	0.24059875
7	0x3edac1cb	0.42725977
8	0x3e4283b8	0.18995559
9	0x3db11661	0.086468466
10	0xbe927279	-0.2860296
11	0x3d973ea5	0.07384995
12	0xbd36bdbd	-0.044614542
13	0xbe53b19a	-0.20673218
14	0x3d9b6afa	0.075887635
15	0x3c419015	0.011814137
16	0xbd3be139	-0.045869086
17	0xbd85aaa7	-0.0652669
18	0x3ec1b98d	0.37836877
19	0x3de57ea9	0.11205799
20	0xbe04e003	-0.12976079
21	0xbd897ed5	-0.067136444
22	0xbe853028	-0.26013303
23	0xbe45277e	-0.19253346
24	0xbe9e1849	-0.30877903
25	0xbe58644b	-0.21132009
26	0xbe87afaa	-0.2650121
27	0xbda027b0	-0.0782007
28	0xbedaf1fa	-0.42762738
29	0xbd5b6e5f	-0.053572055
30	0x3e046b49	0.12931551
31	0xbe8fdb2a	-0.28096896
32	0xbe91b0ba	-0.28455144
33	0x3e1d62cf	0.15369724
34	0xbea8d620	-0.32975864
35	0xbe37b799	-0.1794113
36	0xbdee00f8	-0.116212785
37	0x3cda1b57	0.026624365
38	0x3e8d6474	0.27615702
39	0xbe28a4bb	-0.1646909

arr_0 f4 [63, 40]
0	0x2ee8b1a2	1.05816925e-10
1	0x2ef3b029	1.1081653e-10
2	0x2f2ad41f	1.553677e-10
3	0x2f19daa5	1.3992947e-10
4	0xae0688cb	-3.058957e-11
5	0x2f7a48c4	2.2763219e-10
6	0xb096554b	-1.0938178e-09
7	0x30483f39	7.284942e-10
8	0xaf5214f1	-1.9106829e-10
9	0x300bffcb	5.093141e-10
10	0xaff472e7	-4.4464984e-10
11	0xb10996f0	-2.0021922e-09
12	0x2f93fe5f	2.6919886e-10
13	0x309ed72f	1.1557172e-09
14	0x3105311e	1.9381967e-09
15	0xb0df6fc3	-1.625715e-09
16	0xb0c61be6	-1.4414325e-09
17	0x2fedda22	4.3265042e-10
18	0xb13e9d54	-2.773807e-09
19	0x30a4a682	1.1979895e-09
20	0xb1048ec2	-1.9289677e-09
21	0x301d4ced	5.7225585e-10
22	0xb0a542e7	-1.2024345e-09
23	0x2e916653	6.612013e-11
24	0x318b3133	4.0510257e-09
25	0xb1a6967b	-4.8483435e-09
26	0xaee46cea	-1.03875866e-10
27	0x3221d130	9.418997e-09
28	0xb23812d8	-1.0714494e-08
29	0xb193ca49	-4.3012602e-09
30	0xb19adfb6	-4.507423e-09
31	0xb2134d22	-8.574064e-09
32	0x312a0507	2.4741114e-09
33	0x31c4b8e6	5.7253713e-09
34	0x31c8559c	5.8304988e-09
35	0x3163c284	3.3143417e-09
36	0xb23106e1	-1.030432e-08
37	0xb136da10	-2.660844e-09
38	0xb1d7f151	-6.284758e-09
39	0xb358e31f	-5.0497984e-08
40	0x33800000	5.9604645e-08
41	0x33000000	2.9802322e-08
42	0xb4000000	-1.1920929e-07
43	0x32800000	1.4901161e-08
44	0x33180000	3.5390258e-08
45	0x34200000	1.4901161e-07
46	0xb4400000	-1.7881393e-07
47	0xb3800000	-5.9604645e-08
48	0x34400000	1.7881393e-07
49	0xb4380000	-1.7136335e-07
50	0x33e00000	1.0430813e-07
51	0x34000000	1.1920929e-07
52	0xb3880000	-6.3329935e-08
53	0x32c00000	2.2351742e-08
54	0xb3800000	-5.9604645e-08
55	0x33d00000	9.685755e-08
56	0x34080000	1.2665987e-07
57	0xb4920000	-2.719462e-07
58	0x33600000	5.2154064e-08
59	0x33f00000	1.1175871e-07
60	0xb3400000	-4.4703484e-08
61	0xb4130000	-1.3690442e-07
62	0x33740000	5.6810677e-08
63	0xb29a0000	-1.792796e-08
64	0xb1800000	-3.7252903e-09
65	0xb42c0000	-1.6018748e-07
66	0x33c24000	9.0454705e-08
67	0x33600000	5.2154064e-08
68	0xb50f0000	-5.327165e-07
69	0x350d8000	5.271286e-07
70	0x33b80000	8.568168e-08
71	0x34b00000	3.2782555e-07
72	0xb4730000	-2.2631139e-07
73	0x32300000	1.0244548e-08
74	0x332c0000	4.004687e-08
75	0xb4170000	-1.4062971e-07
76	0xb4250000	-1.5366822e-07
77	0xb38a0000	-6.426126e-08
78	0xb4a78000	-3.1199306e-07
79	0xb4180000	-1.4156103e-07
80	0x33800000	5.9604645e-08
81	0x32800000	1.4901161e-08
82	0xb2800000	-1.4901161e-08
83	0x32c00000	2.2351742e-08
84	0xb32c0000	-4.004687e-08
85	0xb4000000	-1.1920929e-07
86	0x34200000	1.4901161e-07
87	0xb3800000	-5.9604645e-08
88	0xb2000000	-7.450581e-09
89	0x33000000	2.9802322e-08
90	0xb2c00000	-2.2351742e-08
91	0xb3c00000	-8.940697e-08
92	0x33600000	5.2154064e-08
93	0xb3800000	-5.9604645e-08
94	0x33c00000	8.940697e-08
95	0xb2800000	-1.4901161e-08
96	0xb3e00000	-1.0430813e-07
97	0xb3480000	-4.656613e-08
98	0xb4080000	-1.2665987e-07
99	0xb3300000	-4.0978193e-08
100	0xb2800000	-1.4901161e-08
101	0x339a0000	7.171184e-08
102	0x32000000	7.450581e-09
103	0xb4aea000	-3.252644e-07
104	0x351f0000	5.9232116e-07
105	0x35240000	6.109476e-07
106	0x34501000	1.937733e-07
107	0x35470000	7.4133277e-07
108	0x35230000	6.072223e-07
109	0x351c0000	5.811453e-07
110	0xb4950000	-2.7753413e-07
111	0x34a50000	3.0733645e-07
112	0x34c78000	3.715977e-07
113	0x35328000	6.649643e-07
114	0x34b10000	3.296882e-07
115	0x34030000	1.2200326e-07
116	0x34a90000	3.1478703e-07
117	0xb416c000	-1.4039688e-07
118	0x34ddc000	4.1304156e-07
119	0x36336000	2.6728958e-06
120	0x3dd54e74	0.10415354
121	0xbe61f904	-0.22067648
122	0x3b4b31b7	0.0031004974
123	0xbdd63999	-0.10460205
124	0x3e3abb91	0.18235613
125	0x3df7cdfe	0.12099837
126	0x3dcab1b9	0.09897179
127	0x3e168945	0.14700802
128	0xbdf54e75	-0.11977855
129	0xbe2a9915	-0.16659959
130	0xbc86b38c	-0.016443036
131	0xbc299984	-0.010351542
132	0x3c8621c7	0.016373528
133	0x3eaa5909	0.33271053
134	0x3e15be98	0.14623487
135	0x3dc00d86	0.093775794
136	0xbe9f1ae0	-0.31075191
137	0xbe015a24	-0.12632042
138	0xbd2d8042	-0.042358644
139	0x3edeaf46	0.43493098
140	0xbde42193	-0.11139216
141	0xbb9231b2	-0.0044614905
142	0x3e1f669c	0.15566486
143	0xbd4a24c8	-0.049351484
144	0xbd804630	-0.06263387
145	0x3e0c8572	0.1372278
146	0x3ebe5260	0.37172222
147	0x3dd41d79	0.10357184
148	0xbe686744	-0.22695643
149	0xbbf6377f	-0.00751394
150	0x3b8ab16f	0.0042325775
151	0xbe31967a	-0.17342559
152	0xbd5ed8f1	-0.05440611
153	0x3d585536	0.05281564
154	0x3e1c363d	0.15255065
155	0xbce07c33	-0.027402973
156	0x3b0cbd75	0.002147523
157	0x3df639c6	0.12022738
158	0x3d16b01a	0.036789037
159	0xbcfdac04	-0.030965813
160	0x3dbeaff2	0.09310903
161	0x3dd2610c	0.102724165
162	0xbd5b413c	-0.05352901
163	0x3d870f7e	0.06594752
164	0xbc71c95c	-0.0147574805
165	0x3d91c790	0.07118142
166	0xbdc8434d	-0.097784616
167	0x3dd0b7fe	0.10191344
168	0xbb307513	-0.002692525
169	0xbd4f5eb2	-0.050627418
170	0x3df1e7fa	0.11811824
171	0xbd4a6bce	-0.049419217
172	0x3e28081d	0.16409345
173	0x3ea01411	0.3126531
174	0x3e41c9f8	0.18924701
175	0x3e859df1	0.26097062
176	0xbd1aea04	-0.03782083
177	0xbce23b29	-0.0276161
178	0x3e18e619	0.14931525
179	0x3dee4318	0.11633891
180	0xbba72c7b	-0.005101738
181	0xbe34bbd6	-0.17649779
182	0x3c6cd75d	0.0144556435
183	0x3e334ae1	0.17509033
184	0xbd811cb6	-0.06304304
185	0xbc8a68fe	-0.016895767
186	0xbe22c9f6	-0.15897354
187	0x3e17f9ff	0.1484146
188	0x3ea7fd41	0.32810405
189	0x3e28142d	0.16413946
190	0xbe6b4048	-0.2297374
191	0x3db8c15e	0.09021257
192	0xbd41272c	-0.047156498
193	0x3df1bfcb	0.1180416
194	0xbd234c8c	-0.039867923
195	0xbdfc7b7d	-0.12328241
196	0xbd66764d	-0.056265164
197	0xbd18072f	-0.037116226
198	0x3cce3a2a	0.02517422
199	0xbd1a10a1	-0.037613515
200	0x3dd2a897	0.10286062
201	0xbd106f28	-0.035262257
202	0x3e879b78	0.264858
203	0xbe1edd32	-0.15514067
204	0xbe8d2c77	-0.27572986
205	0xbe7c4f86	-0.24639711
206	0x3bb56660	0.0055358857
207	0xbdb6d011	-0.08926404
208	0xbdec8381	-0.1154852
209	0xbe0949ba	-0.1340703
210	0xbe19a3a4	-0.1500383
211	0xbde1043b	-0.10987135
212	0xbb81269b	-0.0039413697
213	0x3de8dabb	0.113698445
214	0xbdd45c96	-0.10369222
215	0x3e493639	0.1964959
216	0xbea1f1ac	-0.31629694
217	0x3eb4e173	0.35328254
218	0x3ddc169b	0.10746499
219	0xbdad7e6b	-0.08471378
220	0xbe19fc74	-0.1503771
221	0x3d862176	0.06549351
222	0xbe3eba1c	-0.18625683
223	0x3d920cd1	0.07131351
224	0xbe36d69d	-0.17855306
225	0xbdddb9cc	-0.108264536
226	0xbc45dde9	-0.012076833
227	0xbbddc33b	-0.006767658
228	0xbd2eab90	-0.042644083
229	0x3dbb8636	0.09156458
230	0xbe3b3246	-0.18280897
231	0xbe0c91f2	-0.13727549
232	0xbc69f51d	-0.014279631
233	0xbe9cf88d	-0.3065838
234	0xbe466a35	-0.19376452
235	0x3e6ae3a1	0.22938396
236	0xbb4ffb15	-0.003173535
237	0x3c9533f2	0.018213246
238	0x3c542e65	0.012950514
239	0xbe358068	-0.17724764
240	0x3e28a79a	0.16470185
241	0xbe4c423f	-0.19947146
242	0xbd9a605f	-0.075379126
243	0xbe10a9bc	-0.14127249
244	0x3df1df81	0.11810208
245	0x3dc21d6c	0.09478268
246	0x3d51094c	0.051034257
247	0x3e94800f	0.2900395
248	0x39817c2e	0.00024697318
249	0xbe172ad7	-0.14762436
250	0xbe2df093	-0.16986303
251	0xbe146b5f	-0.14494084
252	0xbc9331da	-0.017968107
253	0x3de4080b	0.111343466
254	0x3cb9c061	0.022674741
255	0xbc44c99c	-0.012010958

arr_3 f4 [20]
0	0x3e5cbfbc	0.21557516
1	0x3d1a0526	0.037602566
2	0x3dcf7c5f	0.10131144
3	0xbe0c1bad	-0.13682432
4	0xbd89e978	-0.06733984
5	0x3e69b2ee	0.22822163
6	0x3e57cfc9	0.21075357
7	0x3e5e9c93	0.21739416
8	0xbdb0cb4d	-0.086325265
9	0xbd7d463f	-0.06183457
10	0xbe91c02f	-0.28466937
11	0x3e495a9d	0.19663472
12	0xbe7f1d3b	-0.24913494
13	0xbe5848eb	-0.21121566
14	0x3d8eb7be	0.0696864
15	0x3e814775	0.2524983
16	0x3d0d0ba6	0.034434937
17	0x3ea93775	0.33050123
18	0x3e33ec2d	0.17570563
19	0x3e8243fa	0.25442487

arr_2 f4 [40, 20]
0	0x3c2c6f24	0.010524545
1	0x3a693c0e	0.00088971935
2	0x3d0f1475	0.03493162
3	0x3d320b67	0.043467905
4	0x3c860039	0.016357528
5	0x3d219ee3	0.039458167
6	0xbd2e7660	-0.04259336
7	0x3cdc6237	0.026902301
8	0x3c12ddc0	0.008964002
9	0x3cdf537e	0.027261492
10	0x3d45c5f0	0.04828447
11	0x3ccf6678	0.025317416
12	0xbb355cc5	-0.0027673703
13	0xbc20d689	-0.009816774
14	0xbca3c631	-0.019991966
15	0x3d2b1cea	0.04177562
16	0xbc031398	-0.008000277
17	0x3c1c3fd8	0.009536706
18	0xbcd4cf39	-0.025977718
19	0x3cfa582c	0.030559622
20	0x3c48e6ab	0.012262027
21	0xbb641074	-0.0034799846
22	0xbd014263	-0.031557452
23	0x3d2f5579	0.042806122
24	0x3d331871	0.04372448
25	0x3c1640a0	0.009170681
26	0x3bfc51bc	0.007700173
27	0xbd049100	-0.032364845
28	0xbcf2b9dd	-0.029629642
29	0x3b25a0bc	0.0025272807
30	0xbd071ea3	-0.0329882
31	0xbd256619	-0.04038057
32	0xbd07e372	-0.033175893
33	0xbd1e6f71	-0.038680498
34	0xbd458eda	-0.048231937
35	0x3b3d6c88	0.00289038
36	0x3c7cde23	0.015433821
37	0xbd149488	-0.036274463
38	0xbd3a2ec3	-0.04545475
39	0xbc64e43d	-0.013970432
40	0x3cafb301	0.02144766
41	0x3ce8f13b	0.02843534
42	0x3c495da1	0.012290389
43	0xbb3a67f3	-0.0028443306
44	0xbd0bcefa	-0.034132935
45	0x3cba3ec8	0.022735015
46	0x3cda3d62	0.026640598
47	0x3d2de544	0.042454973
48	0x3d17ba83	0.037043106
49	0xbd3961a6	-0.04525914
50	0xbda55fa8	-0.080748856
51	0x3c06c490	0.008225575
52	0xbd0909c4	-0.03345658
53	0xbd7f9a45	-0.062402982
54	0xbc9fddd2	-0.019514952
55	0x3d549a2b	0.05190484
56	0xbe13a176	-0.14417061
57	0x3d431dcc	0.04763584
58	0x3ce67f23	0.028136795
59	0x3d40f457	0.04710802
60	0xbd1711e8	-0.03688231
61	0x3de43e94	0.11144748
62	0x3d596f5a	0.05308471
63	0xbd39788b	-0.045280974
64	0x3d7c80f8	0.06164643
65	0x3b262a45	0.0025354784
66	0xbc7a620d	-0.015282166
67	0x3d06fc19	0.032955263
68	0x3d3a0dd4	0.045423344
69	0xbb65fea3	-0.0035094402
70	0x3ca76b7e	0.020436998
71	0xbda22727	-0.07917624
72	0xbcd737f5	-0.0262718
73	0x3bda4eb3	0.0066622137
74	0x3cd99406	0.02655984
75	0x3c9f096f	0.019413678
76	0xbcb00000	-0.021484375
77	0xbb9ddbc5	-0.0048174583
78	0xbc19673e	-0.009362994
79	0x3c7da5c5	0.015481417
80	0xbda67c36	-0.0812916
81	0xbca5a826	-0.020221781
82	0x3ac3d108	0.0014939616
83	0xbb413ae2	-0.002948456
84	0x3d19833e	0.037478678
85	0x3ce75149	0.028237002
86	0x3d0f5bf9	0.03499982
87	0x3d1eef53	0.038802456
88	0xbd66475d	-0.0562204
89	0xbcff17c3	-0.03113926
90	0xbcc29379	-0.023751961
91	0x3cfa897f	0.030583141
92	0xbc9f3ca5	-0.019438097
93	0x3dde5778	0.10856527
94	0xbd38136a	-0.04494039
95	0xbcb07b94	-0.021543302
96	0x3d1438cd	0.036186982
97	0xbd22977d	-0.03969525
98	0x3c7eefd0	0.015560105
99	0x3d8c79d2	0.06859173
100	0x3d344d65	0.04401912
101	0xbd0cb85e	-0.034355514
102	0x3d4a2648	0.049352914
103	0x3d619a92	0.05507905
104	0x3c6b7cd1	0.01437302
105	0x3d8baed0	0.06820452
106	0x3c9b3672	0.01894686
107	0xbcede0ec	-0.029037915
108	0x3d259d57	0.040433254
109	0x3d0e9eb0	0.034819305
110	0x3d1d9552	0.03847248
111	0x3c33dffe	0.010978697
112	0xbd255a90	-0.04036957
113	0x3caea826	0.021320414
114	0x3d00830d	0.03137498
115	0xbc855c66	-0.01627941
116	0xbd7a6a3c	-0.06113647
117	0xbd118f53	-0.035537075
118	0x3d9e8288	0.077397406
119	0xbd27ff31	-0.041014854
120	0x3bec219c	0.007206155
121	0xbd365639	-0.044515822
122	0xbbc1671b	-0.0059021837
123	0x3d9685af	0.07349717
124	0xbd181107	-0.037125614
125	0x3ccac97b	0.024754276
126	0x3da685e5	0.08131007
127	0xbd4bf82c	-0.049797222
128	0xbd5f3313	-0.054492068
129	0x3d2dc264	0.042421713
130	0xbd92e0dd	-0.071717955
131	0x3dd9e78f	0.106398694
132	0xbcbb6ecd	-0.022879982
133	0x3c029d79	0.007972115
134	0xba97c4d8	-0.001157905
135	0x3ccf87d4	0.025333323
136	0x3c9f79d1	0.019467266
137	0x3d77f6bb	0.060538035
138	0x3ce35563	0.027750676
139	0x3cad3012	0.021141086
140	0x3cd64298	0.026154801
141	0x3d2aa151	0.04165775
142	0x3d0f3d50	0.03497058
143	0x3d8c88a8	0.068620026
144	0xbd8286c5	-0.063733615
145	0x3c8896c6	0.016673457
146	0x3d145d4a	0.03622178
147	0x3c195e54	0.0093608685
148	0x3d962e83	0.0733309
149	0xbd81b7df	-0.06333899
150	0xbd6c12e9	-0.05763522
151	0x3cab943c	0.020944707
152	0x3ce1b5ed	0.02755257
153	0x3d0d94a6	0.03456559
154	0x3c6324ef	0.013863786
155	0x3c9bf4f7	0.019037707
156	0xbd79946f	-0.060932573
157	0x3d16700c	0.03672795
158	0xbd83d316	-0.06436746
159	0xbbdb8621	-0.006699339
160	0xbcf03b00	-0.029325008
161	0xbc50bb38	-0.012739949
162	0xbd10ca36	-0.035349093
163	0xbd254783	-0.040351402
164	0x3c406702	0.011743309
165	0xbd54e9cd	-0.051980782
166	0x3d5aba5e	0.05340039
167	0xbd95e8c1	-0.07319785
168	0x3d6d54e3	0.057942282
169	0x3cfcd0be	0.030861255
170	0x3c8103b6	0.01574884
171	0x3d908672	0.070568934
172	0x3caa6c73	0.020803666
173	0xbc0fe3bc	-0.008782323
174	0xbcf7f28b	-0.03026702
175	0x3da14718	0.07874888
176	0xbdfe8361	-0.12427402
177	0xbd170ed1	-0.036879364
178	0x3c62cb2f	0.013842388
179	0x3d23875e	0.039924018
180	0xbc1c1311	-0.00952603
181	0xbc06789c	-0.008207466
182	0xbc80793e	-0.015682813
183	0xbccfae1d	-0.025351578
184	0xbc854ca0	-0.01627189
185	0xbc8505c5	-0.016238103
186	0x3c210829	0.009828606
187	0xbc24c6d4	-0.01005717
188	0x3b48bb6a	0.0030629286
189	0x3b5636f6	0.0032686568
190	0xbd177f1f	-0.036986466
191	0xbc5ed928	-0.013601579
192	0xbc271133	-0.010196972
193	0x3c76fc9b	0.015074874
194	0x3adee57d	0.0017005649
195	0xbc145c11	-0.0090551535
196	0x3ade4856	0.0016958814
197	0xbaaf9aee	-0.0013397613
198	0x3b83f61b	0.004027141
199	0xbca134b6	-0.019678455
200	0xbd2310fd	-0.039811123
201	0xbc89a19e	-0.016800698
202	0x3d46957a	0.048482396
203	0xbd31ce14	-0.043409422
204	0x3c903bf2	0.01760671
205	0x3d7bf9c9	0.06151751
206	0x3ca69064	0.020332523
207	0xbd569470	-0.052387655
208	0x3d1921b2	0.03738565
209	0x3bc3e62b	0.005978366
210	0x3cf01fd4	0.029312052
211	0x3c93663f	0.01799309
212	0x3d6fb5ac	0.058522865
213	0xbd12e941	-0.03586698
214	0x3c63413f	0.013870536
215	0x3c02214a	0.007942507
216	0x3e09a84d	0.13443108
217	0xbcf0fde0	-0.029417932
218	0xbd5797b5	-0.052634913
219	0xbd6faabb	-0.05851243
220	0xbbc3da98	-0.005976986
221	0x3bd729a8	0.006566245
222	0xbcfd17d2	-0.030895147
223	0xbd102827	-0.035194542
224	0xbc5c4e76	-0.013446441
225	0xbd05a884	-0.032631412
226	0x3d442941	0.047890905
227	0xbcd2315b	-0.0256583
228	0xbc6f624b	-0.014610837
229	0xbd11093e	-0.035409205
230	0xbce178a7	-0.027523352
231	0xbccc04d5	-0.024904648
232	0x3c58a00b	0.013221751
233	0xb9e55d54	-0.0004374782
234	0x3c89acb4	0.016805984
235	0xbd49b7dd	-0.04924761
236	0x3c102b13	0.008799332
237	0xbbfb6678	-0.0076721273
238	0x3ce6dba8	0.028180912
239	0xbca4f9ad	-0.020138586
240	0xbd5c4c3f	-0.05378365
241	0xbc50570d	-0.012716067
242	0x3d92aa01	0.07161332
243	0x3cc31a11	0.02381614
244	0x3b9cd9c5	0.0047867023
245	0xbdcaebbe	-0.099082455
246	0xba92e823	-0.0011208098
247	0xbd0b12f5	-0.033953626
248	0xbcf11256	-0.029427689
249	0x3d12cf3d	0.03584217
250	0x3ad78a7f	0.0016444473
251	0x3d6f61f0	0.05844301
252	0xbd8e09ea	-0.06935485
253	0xbd516af0	-0.051127374
254	0xbb9f7e17	-0.004867326
255	0xbdfdf1dd	-0.123996474

arr_5 f4 [20]
0	0xbcb0260d	-0.021502519
1	0xbcaafca8	-0.020872429
2	0xbcb654e7	-0.022257281
3	0xbd360ca1	-0.044445638
4	0xbd0d8184	-0.034547344
5	0xbd0c9a7b	-0.03432701
6	0xbcf90ab8	-0.030400619
7	0xbccecfd5	-0.025245586
8	0xbcc72159	-0.024307894
9	0xbcc1ad59	-0.023642229
10	0xbd110e18	-0.03541383
11	0xbd07b396	-0.03313025
12	0xbd2337a3	-0.03984798
13	0xbd121f4f	-0.03567439
14	0xbd18ecdb	-0.037335258
15	0xbceaed16	-0.028677505
16	0xbcc80c41	-0.024419906
17	0xbd0ff9a9	-0.035150204
18	0xbd09a001	-0.033599857
19	0xbcc3f593	-0.02392081

arr_4 f4 [40, 20]
0	0xba0e7932	-0.00054349296
1	0x38249900	3.924314e-05
2	0x39135918	0.00014052202
3	0xb9d089f1	-0.00039775626
4	0xba8b8478	-0.0010644337
5	0xb82bae70	-4.0932035e-05
6	0xb9f553e2	-0.0004679254
7	0x3a12a71c	0.0005594359
8	0xb99ea29c	-0.00030257262
9	0x3962ceab	0.0002163003
10	0x398b858a	0.0002661164
11	0xb9dc15dc	-0.00041977956
12	0x396266b3	0.00021591298
13	0xb99e8ad9	-0.00030239558
14	0xb922356e	-0.00015469428
15	0xb974755a	-0.0002331337
16	0x38b48781	8.6083084e-05
17	0xba2d6a78	-0.00066152913
18	0xb893ac79	-7.041632e-05
19	0xb9f48c36	-0.00046643772
20	0x3a558e70	0.000814653
21	0x38cf6b1e	9.890481e-05
22	0x38be250c	9.0668065e-05
23	0xb9afaef6	-0.00033508957
24	0xb8996b8c	-7.315641e-05
25	0xb9130064	-0.00014019158
26	0x391831d2	0.00014514409
27	0x371ad270	9.228112e-06
28	0xb98911c6	-0.00026143919
29	0xb90ac364	-0.00013233494
30	0xb846f3d4	-4.743396e-05
31	0x39c0605d	0.0003669289
32	0xb7d302e0	-2.5154499e-05
33	0xb9c2b637	-0.00037138324
34	0x390798cf	0.00012931529
35	0xb8985db0	-7.2653755e-05
36	0x3999f05e	0.00029361522
37	0x39091c5e	0.00013075906
38	0xba1b4432	-0.00059229427
39	0x39afe94a	0.00033552415
40	0x3a11ca16	0.0005561424
41	0x3b601015	0.0034189273
42	0x3b5dbd8f	0.003383491
43	0xbb6e1449	-0.003632801
44	0x3b159c09	0.00228286
45	0xbaa89f89	-0.0012864928
46	0xbaa88373	-0.0012856558
47	0xbb0d6b0c	-0.0021578697
48	0xbabf4429	-0.0014592457
49	0xbb073f39	-0.002063705
50	0xbaca01dd	-0.0015411932
51	0x3a396580	0.00070723146
52	0xbad7df66	-0.0016469776
53	0xbb36ec22	-0.0027911742
54	0xbb224604	-0.002476097
55	0xbaa62c18	-0.0012677936
56	0x3a5b350a	0.00083620904
57	0xbae410af	-0.0017399992
58	0x3b160dc6	0.0022896393
59	0x3ade90db	0.0016980426
60	0xb8ff4ab5	-0.00012173263
61	0xb9407f11	-0.00018357883
62	0x381b99c0	3.709807e-05
63	0xba79efd9	-0.0009534336
64	0xb8a15ba4	-7.694148e-05
65	0x384b1036	4.841407e-05
66	0xba16e952	-0.00057568133
67	0x3853d558	5.0505012e-05
68	0xb9e96c62	-0.00044521975
69	0x38e6d341	0.00011006604
70	0xba8383cf	-0.0010033789
71	0xba3dd8e2	-0.0007242096
72	0xba31d358	-0.0006783507
73	0xba11a647	-0.0005556088
74	0xba82df1c	-0.0009984705
75	0xb91a514c	-0.0001471687
76	0x38b0573c	8.408583e-05
77	0xba85a471	-0.0010196102
78	0xba048aa9	-0.00050560624
79	0xb9e7930e	-0.00044169318
80	0x386e4468	5.680733e-05
81	0xb971da99	-0.00023064985
82	0xb8a0bb02	-7.6642275e-05
83	0xb9851581	-0.00025383758
84	0xb8cce867	-9.770766e-05
85	0xb9a87468	-0.00032130186
86	0xb9e938aa	-0.0004448344
87	0xb9c78e04	-0.00038062048
88	0xba2d3e4d	-0.000660871
89	0x39a03dfc	0.0003056376
90	0x38817b98	6.1742205e-05
91	0x39bdd4aa	0.00036207336
92	0x394efac3	0.00019739107
93	0xba0502ef	-0.00050739845
94	0xb99c90a8	-0.00029862416
95	0xb5594280	-8.093557e-07
96	0xb8d9dcce	-0.000103884944
97	0xba0c6ce6	-0.00053568033
98	0xb9fea625	-0.00048570443
99	0xb9c6d184	-0.00037921604
100	0xb733bc40	-1.0713062e-05
101	0xb9358f72	-0.00017314943
102	0x37094c30	8.183575e-06
103	0xb9cea4bc	-0.00039414119
104	0xb9f8e6af	-0.0004747412
105	0x364d8720	3.0626034e-06
106	0xb82a5ad8	-4.0615763e-05
107	0x38a583e4	7.89238e-05
108	0x3a012c9d	0.00049276074
109	0x39ae7200	0.00033272803
110	0xb7ac2d60	-2.0525127e-05
111	0x3a140d8b	0.000564777
112	0xb9fbacf5	-0.00048003314
113	0xb81230fc	-3.4854733e-05
114	0x38245052	3.917545e-05
115	0x38a81c30	8.0161146e-05
116	0x3916f676	0.00014396929
117	0xb8e6de6f	-0.00011008686
118	0x37dd15c0	2.6355381e-05
119	0xb88643da	-6.402256e-05
120	0x3b161d93	0.0022905811
121	0x3a24f721	0.00062929286
122	0x3a416a94	0.0007378247
123	0xb9dacc49	-0.00041732404
124	0xba1e567c	-0.0006040109
125	0x3a1e4386	0.00060372835
126	0xbae96707	-0.0017807194
127	0xba7e78b5	-0.0009707318
128	0x39b3ba32	0.00034280267
129	0xbad01548	-0.0015875483
130	0xbb3d0a60	-0.0028845295
131	0x3acf9787	0.0015838005
132	0xbb16cc26	-0.0023009866
133	0xbb83d402	-0.004023076
134	0xba8d906a	-0.0010800485
135	0x388e43db	6.783727e-05
136	0x3a8c5134	0.0010705353
137	0xba19af30	-0.0005862592
138	0xbb396ebd	-0.0028294765
139	0x3b1d0da0	0.002396442
140	0xba1e7edb	-0.00060461246
141	0xb99823f9	-0.000290185
142	0xb7e1d920	-2.6923197e-05
143	0xba99b6d3	-0.001172746
144	0xba146324	-0.0005660525
145	0xbaa088af	-0.0012247766
146	0xbaa34fd2	-0.0012459701
147	0xb9c9514e	-0.00038398284
148	0xb9e9f038	-0.000446202
149	0xb8f18591	-0.00011516654
150	0xbacf2ef6	-0.0015806842
151	0xbaca9966	-0.0015457093
152	0xba01d188	-0.0004952182
153	0xbab5fb85	-0.0013884163
154	0xbab78c97	-0.0014003691
155	0xba5b40ca	-0.00083638413
156	0xb859eb6a	-5.1956078e-05
157	0xba0b7650	-0.0005320059
158	0xba6a75e9	-0.00089439616
159	0xba5b9096	-0.0008375732
160	0xb5ef5ac0	-1.7833299e-06
161	0x39bc47c9	0.00035911638
162	0x38d101ae	9.9662095e-05
163	0x3a7ef856	0.0009726336
164	0xb9c4ea41	-0.00037558566
165	0xb9ceadae	-0.00039420783
166	0xb8eec7f0	-0.000113859656
167	0xb92bcea5	-0.00016384812
168	0x382b05c6	4.0774954e-05
169	0xba537ebb	-0.00080678955
170	0xba70cdba	-0.0009185929
171	0xb882b2eb	-6.232209e-05
172	0xba152a2d	-0.00056901836
173	0xba305f9e	-0.0006728115
174	0x390daf7d	0.00013512182
175	0xba3fda93	-0.0007318642
176	0x39aa6c6a	0.00032505702
177	0xba2514ac	-0.0006297331
178	0xb9e1a87b	-0.00043040872
179	0xb98659f1	-0.00025625483
180	0xb90d8976	-0.00013498016
181	0x3877abd4	5.9049416e-05
182	0x39328dea	0.0001702827
183	0x3a54ae75	0.00081131543
184	0x3ae17262	0.0017200226
185	0x3a81b7f6	0.0009896744
186	0x3a1850ba	0.0005810369
187	0x370c3850	8.3577615e-06
188	0x3a609c52	0.00085682154
189	0x3a194761	0.0005847123
190	0x3a69a322	0.00089125533
191	0xb9a9343e	-0.00032273115
192	0x3b00cac6	0.0019652112
193	0xba43d165	-0.0007469862
194	0x3a08857e	0.000520788
195	0x3a0a9022	0.00052857597
196	0xba415d62	-0.0007376281
197	0x3aaad7cf	0.0013034287
198	0x3a790ead	0.0009500783
199	0x3a799d80	0.00095220655
200	0x39095944	0.00013098592
201	0x3a120920	0.0005570818
202	0x38fd631e	0.00012082442
203	0x3acf9dfa	0.0015839927
204	0x3a56d792	0.00081955746
205	0x396a570d	0.00022348408
206	0x3a9a00f3	0.001174955
207	0x3a3d5962	0.0007223097
208	0x3a4c3865	0.0007790386
209	0x3a2410ef	0.0006258627
210	0x39e81fab	0.00044274083
211	0x3905ca0a	0.00012759134
212	0x3863d276	5.4317024e-05
213	0x3a06fcfb	0.00051493914
214	0x3a627c04	0.00086396956
215	0x38449d56	4.6876572e-05
216	0xb90c73e6	-0.00013394616
217	0xb9769479	-0.00023515699
218	0x3851651e	4.9923656e-05
219	0x3a76ea43	0.0009419063
220	0x39905c3d	0.00027534543
221	0x39e3df95	0.00043463396
222	0x388f2b54	6.826842e-05
223	0x3a8d255a	0.0010768578
224	0xba2c8e1d	-0.0006582456
225	0x398c6c15	0.00026783408
226	0x3ab3e821	0.0013725796
227	0x3a2084a6	0.0006123282
228	0x390d4e55	0.00013475989
229	0xbafe90c2	-0.0019421803
230	0x381cb6f8	3.73637e-05
231	0x3a255669	0.00063071266
232	0x39cbba16	0.00038857822
233	0x39fa061c	0.00047688268
234	0x39db1a04	0.00041790318
235	0xba4054eb	-0.00073368725
236	0xb911f0f6	-0.00013918043
237	0xb82e518a	-4.1560772e-05
238	0x396830e9	0.00022143465
239	0xb9ce3c65	-0.0003933638
240	0x3a290f99	0.00064491626
241	0x39322a68	0.000169912
242	0x399a9147	0.0002948141
243	0x3921d75c	0.00015434384
244	0x39cf9c86	0.00039598736
245	0x39fc0a08	0.0004807266
246	0xb8cad446	-9.6716496e-05
247	0x3a1bf5ae	0.000594939
248	0xb9a629a9	-0.00031693027
249	0x398ca21f	0.0002682367
250	0x3a39450c	0.0007067479
251	0x39b69a23	0.00034828586
252	0x39a76ba1	0.00031932912
253	0x39a43ab5	0.00031324258
254	0x3aac8160	0.0013161115
255	0xb785b0fc	-1.593725e-05
