pretrained_model/MSRA_pretrained/p5/params/-1_gen_params.npz (npz, 656534 bytes, 26 tensors)

arr_24 f4 [32]
000000 8b f2 be 3e 8d db 2a 3f ff 65 19 3f cb 04 d4 3e
       0.3729442 0.6674126 0.5992126 0.41409907
000010 80 fb 15 3f a0 21 77 3e 84 d9 19 3f c9 6c a7 3e
       0.58586884 0.2413392 0.6009753 0.32700184
000020 f2 9d 27 3f 28 0f da 3e 7b 4d 35 3f c6 9b d8 3e
       0.6547538 0.42589688 0.7082135 0.42306346
000030 ea b4 e6 3e 37 a2 2a 3f 53 bd 09 3f 5a 08 22 3f
       0.450599 0.6665377 0.5380451 0.63293993
000040 94 c6 0b 3f 46 e5 04 3f b0 5f 0d 3f 8f e0 a1 3e
       0.5459988 0.51912344 0.5522413 0.31616637
000050 c0 99 c1 3e 63 b7 c1 3e 51 e5 1d 3f 3f f6 fb 3e
       0.37812614 0.37835225 0.61678034 0.49211308
000060 fb 70 32 3f 7d b8 cc 3e cc 35 21 3f ad 94 0b 3f
       0.69703645 0.39984503 0.6297271 0.54523736
000070 47 b6 a8 3e d1 de c8 3e 45 2d 34 3f 63 30 f2 3e
       0.32951567 0.39232495 0.70381576 0.4730254

arr_25 f4 [32, 1, 6, 6]
000000 88 0e 70 3d d8 94 4d 3e a7 20 2e 3e 17 95 35 3e
       0.058607608 0.2007631 0.17004643 0.17732655
000010 36 13 f3 3d 91 60 9a 3d 92 17 40 3e 92 4c 06 3e
       0.118688986 0.0753795 0.18758991 0.13115147
000020 9b f9 ba 3e 86 99 9e 3e 8a 81 89 3e 2a 80 14 3e
       0.3651856 0.30976504 0.26856643 0.14502016
000030 ce e5 09 3e 9c 08 ba 3e e4 37 4e 3e 56 ae c2 3e
       0.1346657 0.36334693 0.20138508 0.38023633
000040 60 01 bd 3e aa 16 4f 3e 4b 15 64 3e 02 8f 5c 3e
       0.36915112 0.2022349 0.22273748 0.21538928
000050 fd 0c a4 3e cf 01 dc 3e 0a 73 b6 3e d7 2a 3a 3e
       0.3204116 0.4297013 0.35634643 0.18180405
000060 f7 b2 4f 3e 3f 10 d5 3e f9 3b ba 3e 3e 42 c9 3e
       0.20283113 0.41613957 0.3637388 0.3930835
000070 0b 89 9e 3e 9d 94 1d 3e f4 a3 10 3e a1 5e 33 3e
       0.3096393 0.15388723 0.14125043 0.17516567
000080 8b 89 aa 3e 4a 0c 3d 3e 4e 2c 71 3e 5e a0 44 3d
       0.33308062 0.18461719 0.23552057 0.0480045
000090 27 fd c0 bc eb 8c c5 be 8b d7 b2 be dd 74 1f bf
       -0.023558212 -0.38584074 -0.3493007 -0.62287694
0000a0 8a 78 38 be b8 17 76 be b9 7e b2 be 87 00 02 bf
       -0.18014732 -0.24032485 -0.34862307 -0.50782055
0000b0 b6 78 09 bf 70 d3 16 bf d7 3b 44 bf 7a 8e 85 be
       -0.53699815 -0.5891638 -0.7665381 -0.26085263
0000c0 3a 34 91 be 53 1f c4 be 0c f3 59 bf ae e1 8f bf
       -0.28360158 -0.38305148 -0.85136485 -1.1240747
0000d0 51 ed 5b bf 47 b9 e4 be b9 44 99 be 77 69 fe be
       -0.8590899 -0.44672605 -0.29935244 -0.49689838
0000e0 18 2c 0f bf 14 d1 2e bf ee 5e ab be f7 2a 87 be
       -0.55926657 -0.6828778 -0.33470863 -0.26399967
0000f0 91 2b 91 be 59 85 ed bd f4 55 03 bf a7 cf 31 bf
       -0.2835355 -0.115977 -0.5130303 -0.6945748
000100 30 f4 45 bf 40 9a a3 be 61 e5 00 be 08 f9 99 be
       -0.77325726 -0.3195362 -0.12587501 -0.30072808
000110 7f 87 8e be cc 6b 53 be 13 6c e6 bd 7a 1a aa bd
       -0.2783775 -0.2064659 -0.11251082 -0.08305831
000120 b7 b2 90 3d 39 68 2c 3f 03 ff 5f 3e 8f 51 36 3f
       0.07065337 0.6734653 0.21874623 0.712182
000130 68 fd fd 3d 73 74 80 3e e8 2d 56 3e bc fe 84 3e
       0.12401849 0.25088844 0.2091595 0.25975597
000140 e3 b6 9f 3f 80 92 91 3d 9b 41 87 3f a6 17 3b bd
       1.2477688 0.07108021 1.0566896 -0.04567685
000150 23 5f 97 3e 5a 0b a4 3f 11 d3 7a 3e 68 9e cf 3f
       0.2956477 1.2815964 0.24494578 1.6220217
000160 5d e6 9f 3e 1b 3d 1a 3f 47 9b 4a 3e 76 15 ea 3d
       0.3123044 0.6024949 0.19785796 0.114298746
000170 06 fd 84 3f 71 26 a6 3d b8 1e 78 3f 8c 71 3b 3e
       1.0389717 0.08112801 0.96921873 0.18305033
000180 ff f2 04 3e 48 31 85 3e 6e a1 78 3e af 9e c6 3e
       0.1298332 0.2601416 0.2428033 0.3879294
000190 30 82 88 3e 37 44 27 3d 4f b7 95 bb f6 bd 82 3e
       0.26661825 0.04083654 -0.004568971 0.25535554
0001a0 b4 82 b9 3d 21 5c 21 3f a7 8e dc 3e db 6c eb 3e
       0.09058133 0.630312 0.43077585 0.45981488
0001b0 74 30 a5 3d a7 4f 60 3e d4 5c 33 3e fd 9e 9a 3e
       0.08065882 0.21905385 0.1751588 0.30199423
0001c0 02 9a 09 3e 6a 47 0e 3e 03 3c 17 3e a6 dc aa 3e
       0.13437656 0.1389443 0.14768986 0.33371466
0001d0 d9 57 7a 3e 37 0f 13 3f 53 7b 49 3e 0d 99 59 3e
       0.24447574 0.5744509 0.1967595 0.2124979
0001e0 0f f6 9d 3e 8a 6b 0e 3f b2 f9 09 3f 95 31 45 3f
       0.3085179 0.5563284 0.5389663 0.7702878
0001f0 ca 94 a3 3e c0 2c 3c 3e 73 b0 72 3e ed 2a fb 3e
       0.31949455 0.18376446 0.23700123 0.49056187
000200 8d a5 ee 3e 32 21 35 3f 66 ed c3 3e 3a 9b 80 3e
       0.4661068 0.7075378 0.38267058 0.25118428
000210 5f d7 43 3e 7f a8 ca 3e 27 d8 d6 3e 16 ab da 3e
       0.19125126 0.39581677 0.41961786 0.42708653
000220 13 1e d9 3e 16 00 8c 3d 9a d3 1c 3e b6 61 23 3e
       0.42405757 0.06835954 0.15315095 0.15955243
000230 ca 7b 7e 3e 99 6e dc 3d ac d0 23 3e 2e 89 72 3d
       0.2485191 0.10763282 0.15997571 0.059212856
000240 f1 a5 92 3d f3 cf b2 bd 23 2b 3c be f8 f0 85 3e
       0.07160557 -0.087310694 -0.1837583 0.26160407
000250 e3 62 86 3f 6f 63 18 3e f1 4c 8a bd 95 f3 b6 bd
       1.0498928 0.14881681 -0.06752957 -0.08933178
000260 e0 9c 04 be d8 30 bf 3f 7d c3 8f 3f 9d 34 7e 3e
       -0.12950468 1.4936781 1.1231533 0.24824758
000270 18 cc 03 bc 27 38 88 bd 2e 48 10 3e 4b 1c c1 3f
       -0.008044265 -0.06651335 0.14090034 1.5086759
000280 9b 47 f4 3f 13 c9 1e bd c1 3e 9d bc 0d cd 5d 3d
       1.9084352 -0.038765978 -0.019194962 0.05415063
000290 ee 95 e6 3c da 30 ea 3f b6 9d b4 3f 0e c4 76 3e
       0.028147664 1.8296158 1.411063 0.24098226
0002a0 b4 5f 0b bd ef 93 89 3c 88 59 2a 3d 65 0e b1 3f
       -0.034026816 0.016794173 0.04158929 1.3832518
0002b0 b7 4e d7 3f a1 df 03 be f9 4f 19 bc a7 14 20 3d
       1.6820897 -0.12878276 -0.009357446 0.039082196
0002c0 d1 e4 6e 3d 8c 21 af 3e f1 91 86 3f 78 db 1f be
       0.058323685 0.34205282 1.0513288 -0.15611064
0002d0 21 11 bc bd b9 9f 2f be c8 98 95 bd 5e 55 08 be
       -0.091829546 -0.17150773 -0.07304531 -0.13313815
0002e0 32 99 36 be 0b 00 76 bd 25 d8 19 be bc 22 65 be
       -0.17831877 -0.060058635 -0.15023859 -0.22376531
0002f0 cf 8f d1 bd f6 ec 28 be d3 27 95 be 08 5a 39 be
       -0.102325074 -0.16496643 -0.29131946 -0.1810075
000300 ba 0e ed 3c 3b 57 bc 3b 2a e2 b1 3c 6c 11 6c bd
       0.028937686 0.0057477034 0.021714289 -0.057633802
000310 52 bd aa bd af 46 17 bd 7d d6 09 3d 10 5b e9 bc
       -0.08336891 -0.036932644 0.033651818 -0.028485805
000320 d0 1d 35 3d 25 46 3e 3d 46 a0 d3 bd 28 cf 84 bd
       0.044217885 0.046453614 -0.10333304 -0.064848244
000330 fc 42 32 be f4 a9 99 be f6 5d 26 be 07 a5 30 bd
       -0.17408365 -0.30012476 -0.16246781 -0.043126132
000340 51 0e 98 be 90 18 22 be 3b d2 f2 bd 4a f0 4b be
       -0.29698423 -0.15829682 -0.118565045 -0.19915882
000350 3a cf 0a be c4 35 91 bd 68 f9 36 be 1a 46 eb bd
       -0.13555613 -0.07090333 -0.17868578 -0.1148798
000360 04 ef 8e be 9e a7 51 bf b3 1e 98 bf 13 24 d1 be
       -0.2791673 -0.8189639 -1.1884369 -0.40847835
000370 fc 54 1b bf fe 08 b0 3d 81 10 8e bf d6 c6 b3 bf
       -0.6067655 0.08595465 -1.1098787 -1.4045055
000380 99 f9 78 bf df 06 a2 bf 75 c3 84 3d 12 56 c2 be
       -0.97255856 -1.2658347 0.06482593 -0.3795629
000390 a2 b6 ac bf 15 75 f9 bf 46 08 b1 bf 5c 14 8c bf
       -1.3493235 -1.9488856 -1.383065 -1.0943713
0003a0 b6 23 2e bf 33 d2 cb be 28 6e f1 bf 3c bc ac bf
       -0.6802324 -0.39808807 -1.8861742 -1.3494945
0003b0 c2 ea 3c c0 1b f7 41 bf 96 eb 49 bf 3f 25 84 bd
       -2.9518285 -0.7576768 -0.788751 -0.06452417
0003c0 eb 92 2f bf 02 d7 b7 bf b4 db ed be b1 82 76 bf
       -0.68583554 -1.436249 -0.46456683 -0.9629317
0003d0 63 4a 51 3d 23 54 37 be b8 fa 4f bf 03 22 11 bf
       0.05109633 -0.1790319 -0.8124194 -0.5669252
0003e0 61 2e 3b bf 00 00 bf bc 93 42 fb be d6 cb 20 bd
       -0.73117644 -0.02331543 -0.4907423 -0.039256893
0003f0 43 21 65 bd ba 3c 7a ba 44 c9 3a 3d 0c e3 eb 3c
       -0.055939924 -0.0009545792 0.045602098 0.028794788

arr_20 f4 [32, 32, 6, 6]
000000 5e 9e 21 3d 18 91 92 3e 08 fe c5 bd 82 c9 21 3d
       0.03945767 0.28626323 -0.09667593 0.039498813
000010 71 78 ab bd 16 98 49 bd 59 50 8f bd 05 cf 7e bd
       -0.08372582 -0.049217306 -0.06997747 -0.062209148
000020 3e 01 95 bd 04 41 83 be 60 77 60 3e 23 6c cb bd
       -0.072756276 -0.2563554 0.21920538 -0.09932735
000030 9f a6 a1 be 8f 5d 8c 3e 62 b2 de 3b 13 e2 da 3e
       -0.31572434 0.2741513 0.006796167 0.42750606
000040 ac 47 be 3d 78 a4 61 be 4c b7 ee bd be 41 b7 3e
       0.09291014 -0.22035396 -0.11656055 0.35792345
000050 1c 36 e2 be 9d 32 ef be 8d e0 a0 bd 42 71 4b 3e
       -0.44181907 -0.46718302 -0.0785533 0.19867423
000060 82 16 ee 3d 1b 25 c3 3d 99 81 fe 3d 5d cc f9 bd
       0.11625387 0.09528562 0.124270625 -0.12197182
000070 a3 36 e2 be 8d bc f6 bd c1 42 8b 3e da 4f c5 3c
       -0.4418231 -0.12047682 0.27199367 0.024085928
000080 2f 33 bb 3e 0a 3e 24 3e 3f 45 bf 3d 77 15 72 be
       0.36562487 0.16039291 0.093393795 -0.23641
000090 97 55 6f be 38 9b ed 3e 72 18 5a bd b2 fb be 3e
       -0.23372494 0.46407485 -0.05324597 0.37301403
0000a0 ce 77 8e be 3a bd 66 3e 7a c3 5d be 61 b3 de 3d
       -0.2782578 0.22533122 -0.216566 0.108740576
0000b0 70 36 64 be 5b 3e 0d 3e 31 78 08 3e 9d 09 42 be
       -0.22286391 0.13793318 0.133271 -0.1894898
0000c0 73 8f 55 3d 25 32 17 be a1 df c5 be 7f cb a8 3e
       0.052138757 -0.14765222 -0.38647178 0.32967755
0000d0 5d 07 93 bd 60 8b 66 3c 8c 03 51 be 8a 3d 4e bd
       -0.07179139 0.0140713155 -0.2041151 -0.050351657
0000e0 58 2a bf bd d1 cc d3 bc ee 39 0c 3d 74 50 05 be
       -0.09334248 -0.0258545 0.034234934 -0.13018972
0000f0 f1 00 ba be fd 35 ba bc df 2a 48 be 23 4b c2 bd
       -0.36328843 -0.022730822 -0.19547604 -0.094869874
000100 b3 bf 22 bd 89 a1 6f 3d 1d dc d2 3c a8 a7 c3 be
       -0.0397336 0.05850366 0.025739724 -0.3821385
000110 ec e6 21 3d cf a2 0a be 4a 2c 7a bd 9c ae 87 be
       0.039526865 -0.13538669 -0.061077394 -0.26500404
000120 15 41 c8 bc 18 31 02 be 28 15 82 3e 88 87 5c 3e
       -0.024445096 -0.1271404 0.25406766 0.21536076
000130 31 0d c2 3e dc 9c 0e be 43 f2 17 bf 31 b3 52 be
       0.3790069 -0.13927025 -0.5935404 -0.20576169
000140 2a 93 1e be 80 70 d8 be 8b bc 42 3e b4 63 17 bf
       -0.15485826 -0.4227333 0.19017236 -0.5913651
000150 83 d9 8b be 8c a0 b8 3e 8c 30 b7 be 15 00 da bd
       -0.27314386 0.36059988 -0.35779226 -0.10644547
000160 88 8b 6e be 7d ba d3 bd d3 97 09 be b5 86 ea be
       -0.23295414 -0.10338304 -0.13436823 -0.45805898
000170 e7 26 58 be c4 84 fe 3d b0 97 97 3e df bc b9 3d
       -0.2110859 0.12427667 0.29607916 0.090692274
000180 ac a8 f2 be 60 28 a0 3e fb 50 ce 3c e9 9d a2 3d
       -0.4739431 0.31280804 0.025185099 0.07940275
000190 7d ed f3 bb e5 36 c4 bc e7 41 9c be f6 d8 c0 3e
       -0.0074440823 -0.023951957 -0.3051903 0.37665528
0001a0 08 ca 09 bf 28 bf 8d bd 25 c8 b0 3e 79 1d 7b 3c
       -0.538239 -0.06921226 0.34527698 0.015326851
0001b0 f6 0c bd 3e 8e 01 fe 3c 42 50 2a 3f fc 16 8f be
       0.3692395 0.0310066 0.66528714 -0.27947223
0001c0 b8 9a 14 3f 55 e8 fe bd 1c 5e 11 3e e7 2a 83 be
       0.5804858 -0.124466576 0.14196056 -0.2561867
0001d0 8c 1d 28 bf 24 11 9c be af 48 e6 be 9c 4a fe bd
       -0.65670085 -0.30481827 -0.44977328 -0.12416574
0001e0 fc ad d9 bd 37 20 82 be 4e 09 c1 be 0d 15 d9 3e
       -0.10628888 -0.25415203 -0.3770241 0.42398873
0001f0 3a 37 fb be 9a 68 f5 3e 2f 98 ee 3d 09 ae 74 be
       -0.49065572 0.47931367 0.116501205 -0.23894514
000200 81 13 2b bd 45 75 d3 bd 2e 55 01 bf f0 64 93 3d
       -0.041766647 -0.10325102 -0.505206 0.07196987
000210 d9 d8 8d be 7d cf 4b be 33 63 8d bd 4a d8 7f be
       -0.27704504 -0.19903369 -0.069036864 -0.24984851
000220 3c d8 64 be 8b d1 4a 3d cf 89 a6 be 44 a1 a8 bd
       -0.22348112 0.049516242 -0.32527015 -0.08233884
000230 8a bf 07 bf 56 f8 64 be dc 7d 95 be 4d d4 0b 3e
       -0.5302664 -0.22360358 -0.29197586 0.13655205
000240 6c 1a c1 bd 37 45 e7 3c b5 25 24 be 80 16 a8 bd
       -0.09428868 0.028231246 -0.16030009 -0.082074165
000250 cd 66 c1 bd 1d 84 bb 3c fa fe a5 3d 7a 0d 95 be
       -0.09443436 0.022890145 0.081052735 -0.29111844
000260 8b c1 0e be 2a ed b5 3e cc 24 8d be 8d 28 b2 3d
       -0.13941018 0.35532504 -0.27567136 0.08699141
000270 65 4d fd 3d e7 9b 5a 3e 54 ea bb bd 60 51 ae bd
       0.123682775 0.21348535 -0.09175554 -0.08511615
000280 0d 2e 83 3e d6 41 45 be e3 13 71 be 26 25 fa be
       0.2562107 -0.19263396 -0.23542742 -0.48856467
000290 9d f6 98 3d a3 36 13 3e af 4c 8f 3e a1 25 98 3e
       0.07468913 0.14376311 0.27988192 0.2971621
0002a0 53 92 12 3c c3 96 3f 3b a1 a0 1b be 01 9b 59 be
       0.008946019 0.0029234148 -0.15197994 -0.21250536
0002b0 b6 94 3e 3e 7f 5a 74 bd 95 26 82 3e 5c 2e 99 be
       0.18611416 -0.059656616 0.2542006 -0.29918182
0002c0 c3 bc 1d be 9f 32 18 be 04 89 03 bf f4 31 a8 3e
       -0.15404038 -0.1486306 -0.51380944 0.3285061
0002d0 70 de b4 3d a9 fe d7 3d 45 de 9c 3e 49 c8 cb 3d
       0.08831489 0.105466194 0.30638328 0.09950311
0002e0 ba e5 72 3d 10 e5 19 bd cf d9 d6 3e 1e 44 08 3f
       0.059301116 -0.037571967 0.4196305 0.5322894
0002f0 ae 60 f6 3e 8a 9f 4a 3e 7c 9e 6e 3e 63 ce 91 3e
       0.48120636 0.19787422 0.23302644 0.28477773
000300 ec f7 40 3e 73 60 95 3e cc af 6d 3e c7 de 3d 3e
       0.18844575 0.29175147 0.23211592 0.18542014
000310 1c ab 9f 3e a1 06 a8 3e 42 b1 89 bc 23 ee 70 3e
       0.31185234 0.32817557 -0.016808156 0.23528342
000320 f3 66 aa 3e 3a 27 3e 3e c4 21 4b 3e b1 c3 bc 3e
       0.3328167 0.18569651 0.198371 0.3686805
000330 6d ec 16 3e 28 fa 06 3f fd d8 92 3e 3a 79 b1 3e
       0.14738627 0.5272546 0.28681174 0.346628
000340 c4 0d 0b 3e d5 36 ed 3d 65 f1 3b 3e d1 38 4f 3e
       0.1357947 0.11582724 0.18353803 0.20236517
000350 27 7a ac 3e f4 3c da 3d e7 f7 b3 3d 34 11 b7 bd
       0.33686945 0.10656157 0.08787518 -0.08938828
000360 d1 80 f7 3d 89 94 1d be e9 ab ba bc 65 e4 9f 3d
       0.12085117 -0.15388693 -0.022787051 0.07807235
000370 ef 6f 2a 3e d6 f5 e9 3e f1 50 eb be 54 5e c2 bc
       0.16644262 0.4569537 -0.4596019 -0.02372662
000380 bc 38 c8 bd 13 a3 8d 3d a2 a3 00 3d 98 db d9 3d
       -0.09776446 0.069158696 0.031406052 0.10637587
000390 b9 9e c3 be 17 41 9c bd f6 3d 48 3c 57 ae d4 bd
       -0.38207033 -0.076296024 0.012221804 -0.10384815
0003a0 c5 78 93 bd 65 9f e4 3d d8 31 98 bd a3 17 27 3d
       -0.07200769 0.111632146 -0.07431382 0.040794026
0003b0 70 be 93 be 7f 12 92 3e b4 37 03 be d6 19 81 be
       -0.2885623 0.28529736 -0.12814218 -0.25215024
0003c0 0d b8 0d be f4 c2 18 3d 29 98 99 bd ee db 5d be
       -0.13839741 0.037295297 -0.07499725 -0.21665928
0003d0 35 5a 45 bd b1 86 17 3d 25 ce c1 be 32 dc 62 3e
       -0.04818173 0.036993686 -0.37852588 0.2215431
0003e0 3b ed 9f bd d9 7c 6e bc c9 10 af 3d 92 3f 35 3d
       -0.0780892 -0.014556133 0.085481234 0.04425008
0003f0 b7 aa ab bd 69 fd 09 be 85 6d 61 bd c4 b2 46 3d
       -0.08382171 -0.13475575 -0.055036087 0.048510328

arr_21 f4 [32]
000000 e5 4e 59 3b fe 97 10 bf ba 71 b7 be b9 c2 35 3d
       0.0033158597 -0.5648192 -0.35828954 0.044375155
000010 cd f1 0d bf 73 8d 95 bd 33 57 45 bf 3a 7f 04 3f
       -0.55447084 -0.0730237 -0.7708618 0.5175663
000020 e9 38 f1 be d0 b8 b7 bf e6 de 0a bf 0b f8 c1 bd
       -0.47113732 -1.4353275 -0.54246366 -0.094711386
000030 60 b1 cf be 6c 4d 84 be 63 d8 c8 be 70 55 24 bf
       -0.40565014 -0.25840318 -0.3922759 -0.6419287
000040 11 58 90 be 6a fb 28 bf f8 62 70 be 03 bd 2b 3f
       -0.2819219 -0.6600863 -0.23475254 0.67085284
000050 52 67 6c be 84 90 01 bd 6d f2 e6 bf 79 13 6a be
       -0.23086289 -0.03163196 -1.8042732 -0.2285899
000060 1e 51 d9 be fe 83 1e bf f6 0f 55 be 17 22 84 be
       -0.424447 -0.61920154 -0.2080687 -0.25807258
000070 7b d8 ed 3e 78 85 77 be 72 d4 16 bf 6f 03 22 be
       0.46454224 -0.24172008 -0.58917916 -0.15821622

arr_22 f4 [32]
000000 49 e6 9a 3f f4 4f b1 3f de df d6 3f 86 d2 c4 3f
       1.2101527 1.3852525 1.6787069 1.5376747
000010 00 3b ef 3f a9 9d 8d 3f 6d 0c f0 3f 37 7e 15 41
       1.868988 1.1063739 1.8753792 9.343314
000020 83 8b 98 3f 59 3a 04 41 53 64 73 40 e8 21 9d 3f
       1.1917576 8.264245 3.8029983 1.2275972
000030 32 63 69 40 91 ae 78 3f 15 f6 c0 3f ec fe 29 40
       3.6466794 0.9714137 1.5075098 2.6561842
000040 12 6d 6c 40 d5 38 b5 3f d2 1f c4 3f 96 36 13 41
       3.6941571 1.4157969 1.5322211 9.200827
000050 2e fc 35 41 44 4e 76 3f a8 dc 31 40 b3 8d 5a 40
       11.374067 0.96213174 2.7790928 3.4148986
000060 35 23 6a 3f 80 9c 14 41 24 61 6f 3f 9f 84 8c 40
       0.9145997 9.288208 0.935076 4.391189
000070 6b 25 1d 41 aa 72 33 41 a8 5c 35 40 17 44 89 40
       9.821635 11.215494 2.8337803 4.2895617

arr_23 f4 [32]
000000 94 b1 67 3e d0 b2 89 bd 57 28 ae 3e b1 ce b0 3e
       0.22626334 -0.06723559 0.34015152 0.34532693
000010 33 57 49 3f 4a 9a 9a c0 7d ff 58 3e 97 d6 6f 3f
       0.7864868 -4.831334 0.21191211 0.93686813
000020 4e 28 19 be fa 17 06 40 ab 00 30 3e 6d 99 a0 3e
       -0.14956781 2.0952134 0.17187755 0.31367055
000030 08 4a 90 3f d0 09 e5 be 3f ed 46 3e 59 d1 a0 3e
       1.1272593 -0.4473405 0.1942644 0.3140972
000040 e3 d1 7b 3f b9 7a cc 3d 42 a7 92 3e e3 24 74 3f
       0.98367137 0.09984345 0.28643233 0.95368785
000050 34 3f c2 3f bd 4a 0c bf df 2f 01 3e 7c 8d b4 3f
       1.5175538 -0.5480154 0.12615918 1.4105678
000060 28 5b 85 bf 86 3d f2 3f 8f 17 07 3f 94 b4 a3 3e
       -1.0418444 1.8925025 0.5277032 0.31973708
000070 ec 09 6d 3f 98 c4 c3 3f 67 e6 87 3c fa 01 8f 3e
       0.92593265 1.5294371 0.016589357 0.27931195

arr_19 f4 [32]
000000 0b 2f 26 3f 85 a9 09 3f 91 d2 06 3f 0b 14 e6 3e
       0.6491553 0.5377429 0.5266505 0.44937167
000010 0f 08 1c 3f a5 a0 09 3f d4 45 16 3f f6 d2 3a 3f
       0.60949796 0.5376075 0.587003 0.7297815
000020 97 3a 4e 3f c7 28 51 3f e9 e3 25 3f 65 00 4a 3f
       0.8055815 0.81702846 0.6480089 0.7890685
000030 09 e6 40 3f e3 c0 fc 3e 53 fa 18 3f cf f0 42 3f
       0.75351006 0.4936591 0.59756964 0.76148695
000040 4e 89 0c 3f 84 00 ff 3e f8 d1 3b 3f b3 78 28 3f
       0.5489701 0.4980508 0.7336726 0.6580917
000050 d0 4a 27 3f d5 60 37 3f 61 62 1e 3f 8c 15 27 3f
       0.6534853 0.7163213 0.61868864 0.6526725
000060 20 41 38 3f c8 04 19 3f 57 4c 33 3f a7 75 35 3f
       0.7197437 0.5977292 0.7003836 0.7088265
000070 99 54 0c 3f d1 d4 24 3f 4e 8f 2b 3f d3 df 18 3f
       0.54816586 0.6438723 0.6701554 0.5971653

arr_18 f4 [32]
000000 54 58 47 bf 3a b0 24 be 85 05 3e bf 3a b1 d0 bf
       -0.77869153 -0.1608285 -0.7422717 -1.6304085
000010 46 1d 65 bf ac 72 a3 bf 38 d2 08 bf 9c a5 a7 bf
       -0.8949779 -1.276937 -0.5344577 -1.3097415
000020 bc c2 ab bf 9a 6d f4 be ce 9b 9a 3e 64 dc a0 bf
       -1.3418803 -0.4773987 0.30196995 -1.2567258
000030 6e 80 91 bf 3b 60 a1 bf 36 57 96 bf 04 48 3a bf
       -1.1367319 -1.2607492 -1.1745365 -0.7276614
000040 e3 cd 8f bf 56 49 bd bf 90 47 49 bf eb ac b4 bf
       -1.1234707 -1.4788005 -0.7862482 -1.411527
000050 32 46 99 bf 59 73 9a bf 6f a3 cb bf 00 a9 97 bf
       -1.1974547 -1.2066451 -1.5909251 -1.184845
000060 40 05 92 bf 1c ac ca bf 68 5f ea be 57 66 ca bf
       -1.1407852 -1.5833774 -0.45775914 -1.5812482
000070 83 86 92 bf f6 44 99 bf fa 27 78 3e 67 69 ce bf
       -1.14473 -1.197417 0.24234 -1.6125916

arr_11 f4 [32]
000000 2f f5 2a bf 6b 75 2f bf 49 a6 38 bf 58 de 4d bf
       -0.6678037 -0.6853854 -0.7212873 -0.80417395
000010 84 92 93 bf f1 f2 2a bf 64 76 1c bf 2a dc 01 bf
       -1.1529088 -0.6677695 -0.6111815 -0.5072657
000020 6d 31 45 bf 2b 18 f2 be 77 0a 73 be 01 46 65 bf
       -0.7702854 -0.47284064 -0.23734461 -0.8955994
000030 c4 2a 63 bf e2 e5 66 be 89 c7 ae be 42 9e 1d bf
       -0.8873713 -0.22548631 -0.34136608 -0.6156961
000040 83 93 41 bf 23 fa 13 bf cb 51 4a bf 8b a5 f5 be
       -0.7561571 -0.57803553 -0.79031056 -0.47977862
000050 a9 0c 11 bf 93 0b 26 bf c6 22 18 bf c0 cf 9e be
       -0.5665994 -0.6486141 -0.5942806 -0.31017876
000060 3c 13 fb be e7 f3 5a bf 7c f4 09 bf a5 fc 79 bf
       -0.49038112 -0.85528415 -0.5388868 -0.9765113
000070 d3 9e b7 be 96 1a 91 be e0 8e 9b bf 82 5e 83 bf
       -0.3586336 -0.28340596 -1.2152977 -1.0263216

arr_10 f4 [32, 32, 6, 6]
000000 0a 27 8b 3e 31 39 31 bf 02 e8 08 bd f8 c8 6d be
       0.27178222 -0.6922789 -0.033424385 -0.23221195
000010 b1 c1 9c be 2b ab 3e be a6 11 69 be ea f5 70 3a
       -0.30616525 -0.18619983 -0.22760639 0.00091919175
000020 5c 59 b3 be 3e c5 d6 be 2f 7a ee 3d a7 12 6d be
       -0.35029113 -0.4194736 0.116443984 -0.23151647
000030 f0 5b b3 3d b2 fc ae be ef 9c 11 3d ba e0 83 3d
       0.0875777 -0.34177166 0.035550054 0.064393476
000040 6f b6 83 bd bf b9 8b be 7b c8 9b bd 38 fa 8a 3d
       -0.06431281 -0.2729015 -0.07606598 0.06786007
000050 93 26 4e 3e ce a0 4e 3e f7 50 1e bf 6a 18 f6 bd
       0.20131902 0.2017853 -0.6184229 -0.12016375
000060 89 cb c0 3c 57 0f 3a bd 9e f8 90 be ef 59 a3 bd
       0.023534553 -0.045424785 -0.2831468 -0.07976138
000070 e5 9e bb 3e 62 a7 26 bf 5a 9b e4 bc 7d 31 0c bf
       0.36644664 -0.65099156 -0.027906109 -0.54763013
000080 28 1e 49 be 98 4d 66 be 12 9c 38 be 04 75 d2 bc
       -0.1964041 -0.22490537 -0.18028286 -0.025690563
000090 14 48 d2 3e e1 54 25 3d 47 38 ea 3e 3d c8 ae 3e
       0.41070616 0.04036415 0.4574606 0.34137145
0000a0 2e eb 8f bd bc b3 28 3d 64 42 a9 3e e4 bd a7 3e
       -0.07027279 0.041187033 0.33058465 0.32762063
0000b0 1f 43 d3 3d 2c 61 18 3e 4a 30 0b bf 2e e9 88 3e
       0.10315537 0.14880818 -0.5437056 0.26740402
0000c0 81 57 39 3c 88 60 c0 3e d9 7a 08 3e 74 bb 43 3d
       0.011312366 0.37573647 0.13328113 0.04778619
0000d0 ec b1 37 3e 1e b8 22 bf 7a e3 c7 bd 28 c0 c4 bd
       0.17938966 -0.6356219 -0.097601846 -0.096069634
0000e0 f3 e5 6c 3b 55 a5 af be c8 c7 4b bd ca e3 b4 3c
       0.0036147803 -0.34305826 -0.049751073 0.022081275
0000f0 99 ed 0f be 76 ac 65 be 2d 86 2a be ef 90 60 3e
       -0.1405548 -0.2242907 -0.16652746 0.21930288
000100 ca 7d f5 bd d7 6d be 3c 44 12 b6 3e 8f 69 a9 3c
       -0.11986883 0.023245735 0.3556081 0.020680217
000110 35 0a 52 be 67 42 82 3e 69 9f 30 bf a6 93 13 be
       -0.20511706 0.25441286 -0.6899324 -0.14411792
000120 17 47 67 bd f6 c5 fd bd 8f 75 3a bd 41 5e a9 bd
       -0.05646428 -0.12391274 -0.04552227 -0.08269931
000130 4d 4e 75 3d a1 cf 10 be 84 d2 6a be 34 e6 fb be
       0.059889127 -0.14141704 -0.22931868 -0.4919907
000140 42 7f 0f 3e f6 25 8e bd e7 71 92 bb 3f af 77 be
       0.14013389 -0.06940834 -0.0044691446 -0.24187945
000150 a8 30 16 bf 26 7b 4c 3d 45 3c b6 bd a1 89 bc bb
       -0.58667994 0.04992213 -0.08898214 -0.0057537113
000160 d6 0a 35 be f9 f7 1f 3d fb 20 60 bf f8 4e de 3d
       -0.17679915 0.039054845 -0.87550324 0.10854906
000170 dc 50 87 be 33 d8 57 3e 89 26 7f be 17 eb d0 bd
       -0.26428878 0.21078567 -0.24917044 -0.1020109
000180 6e b7 3a be ac fa 10 3e 61 50 9b be 01 c6 bf be
       -0.18234035 0.14158124 -0.30334762 -0.37455752
000190 c3 af 8f 3e be c1 fb be 7f af 14 bf 6f e1 12 bf
       0.28063783 -0.4917125 -0.58080286 -0.57375234
0001a0 43 d2 3b be 6c 96 f2 3d b4 26 b4 3d ea b7 86 bf
       -0.18341927 0.11845097 0.087964445 -1.0524876
0001b0 7b 1e e8 be 82 0e 9a bd 44 9a 1e 3e cf 10 9f 3e
       -0.45335755 -0.075222984 0.15488535 0.3106751
0001c0 fd 97 6f 3c 55 30 f0 bc 18 c3 06 bf 1a c9 a4 be
       0.014623639 -0.029319922 -0.5264144 -0.32184678
0001d0 d0 50 44 3e 1e 59 51 3d 27 e9 f0 be 4c 2d 14 bd
       0.19171453 0.05111038 -0.4705288 -0.03617601
0001e0 31 b6 9e bd b3 e0 2b be 64 bb fc be d5 07 2a 3e
       -0.07749594 -0.16784935 -0.49361718 0.1660455
0001f0 86 1d 0b be 97 9a 42 be 40 e4 90 be bf b4 aa 3e
       -0.13585481 -0.19004284 -0.2829914 0.33341023
000200 3c 1c 82 3e b7 cf 69 be 82 13 14 3d 59 16 7b 3e
       0.25412166 -0.22833143 0.036151417 0.24520244
000210 6e 06 24 3e ed 04 ca 3c 17 62 b5 3e 40 d9 4e be
       0.16018078 0.024660552 0.354264 -0.20200062
000220 e2 54 e9 be 0f 25 bb bd 6e bf 20 3c 58 42 22 be
       -0.45572573 -0.09137928 0.009811265 -0.1584562
000230 a5 98 9a 3c 1f f3 0d 3f a4 77 b5 bd 8f d3 5b 3e
       0.018871615 0.554491 -0.0886071 0.21467422
000240 d3 96 0a 3d f2 34 78 3b c0 5b 58 be d0 30 e7 bd
       0.033835243 0.0037873355 -0.2112875 -0.11288607
000250 01 9a 1b be 41 3a 27 3d 96 50 20 bd 66 f3 05 3d
       -0.15195467 0.04082704 -0.039139353 0.032702826
000260 71 b9 c9 3c 58 ff 65 3c 4d 2e ca 3e 5d 8e 18 3e
       0.024624558 0.0140379295 0.3948845 0.14898057
000270 9f ea ae bd 88 05 a7 3e 23 b3 d9 3e e4 1e 33 3e
       -0.08540844 0.32621408 0.42519483 0.17492253
000280 03 3b ed 3e 37 60 47 3e 77 38 23 be 53 59 21 be
       0.46334085 0.19470297 -0.15939508 -0.1575673
000290 2d 52 e7 3e 90 73 08 3f 22 3c b4 3e b4 e5 41 3e
       0.45179883 0.53301334 0.35202128 0.18935281
0002a0 3e b2 26 3e e9 e4 f1 be 0c 07 10 bf 9d 94 13 3e
       0.16278931 -0.47244957 -0.5626075 0.1441216
0002b0 35 60 7c 3e 4c 43 97 3e b8 69 cc bd 51 e8 8e 3d
       0.24646075 0.2954353 -0.09981102 0.069779046
0002c0 2c c2 c4 bd 84 46 f3 be 4d a9 a8 bd c6 8f 7a 3d
       -0.09607348 -0.47514737 -0.082354166 0.06117227
0002d0 88 8e 78 be 66 02 21 3e 32 e2 a7 3d cd 45 4e bf
       -0.24273121 0.15723571 0.0819744 -0.8057526
0002e0 e3 5e 91 be 3f 3c a5 3e a3 01 fe 3d 5a bd 9a 3a
       -0.28392705 0.32272527 0.12402656 0.0011805699
0002f0 c3 99 b1 be 1d 6a b8 3d 0d 70 e0 3e bd 48 88 3e
       -0.34687623 0.090046145 0.43835488 0.26617995
000300 85 07 2d 3e 1a 36 dd 3d 84 be 74 bf 28 df 32 be
       0.168974 0.10801335 -0.95603204 -0.1746794
000310 97 ca f8 3d c3 c4 8f 3e c8 c3 e7 bc 9b 43 2b 3e
       0.12148016 0.28079805 -0.028291598 0.16725008
000320 65 21 1e bf 71 d5 e7 bc f7 17 cb 3e a0 76 cb 3e
       -0.61769706 -0.028300019 0.3966672 0.3973894
000330 7f 0e aa be c9 16 0f 3e 14 5e bd 3c 5f ec d4 bd
       -0.33214185 0.13973536 0.023116149 -0.10396647
000340 d8 b1 b9 bd c3 c2 b8 3e d1 e7 f5 3b 6f b8 45 be
       -0.09067124 0.3608609 0.0075044413 -0.19308637
000350 42 2c 18 3d 00 ac 03 bd 2e 25 57 3d 22 cd 6e be
       0.037151583 -0.032146454 0.05252569 -0.2332044
000360 d1 1f 34 be c4 3a 54 3e 3f 1d 85 be 84 35 a4 3c
       -0.17590262 0.20725542 -0.25998875 0.02004505
000370 a8 23 fa bc d8 4c cb bd 8b 7e 51 3e ec 6f 46 3e
       -0.03053458 -0.09926766 0.20458429 0.19378632
000380 3c b8 4a 3e c0 26 5e 3e 41 66 00 bf fa dd bb 3c
       0.19796842 0.2169447 -0.5015603 0.022932995
000390 a5 f5 94 3d 70 a0 50 be 7e d1 2f be 31 3f e6 be
       0.072734155 -0.20373702 -0.17169759 -0.44970086
0003a0 e9 39 00 bf 47 ff 76 3e 1b 79 3a 3e 4f f2 9b 3d
       -0.50088364 0.24120818 0.1821026 0.07614576
0003b0 9d 5c 63 be 49 7e e1 be 73 ac bc 3d a1 81 bd be
       -0.22203298 -0.4404166 0.092125796 -0.37012962
0003c0 e4 5f 90 3d 93 21 56 3e 9b 30 d0 3d 38 f5 1a bf
       0.0704954 0.20911245 0.10165521 -0.60530424
0003d0 0b c8 72 3e 21 22 ac be d8 a6 12 be a2 fc a3 bd
       0.23709123 -0.33619788 -0.14321458 -0.0800717
0003e0 1a a1 0e bf 0f 08 a6 bd e8 8d 75 bd 93 93 2f bf
       -0.5571457 -0.08107006 -0.059949785 -0.68584555
0003f0 b0 e0 ab 3d 20 cd 8f 3e 29 38 68 3e 77 e0 94 3e
       0.08392465 0.28086185 0.22677673 0.29077503

arr_13 f4 [32]
000000 11 17 a9 bf 83 e4 bb bf 7b b9 d8 bf 16 5e ce bf
       -1.3210164 -1.4679111 -1.6931604 -1.6122463
000010 aa 9f b8 bf ba 9c 9d bf a8 e8 bf bf 2c 87 41 bf
       -1.4423726 -1.2313454 -1.4992876 -0.7559688
000020 19 12 98 bf 67 8e 78 bf 4a e4 ff be 7b 26 aa bf
       -1.1880523 -0.9709229 -0.49978858 -1.3292993
000030 9d d9 df bf 8e 43 cb bf c6 68 78 bf 13 be ad bf
       -1.7488285 -1.5879991 -0.9703487 -1.3573631
000040 aa c5 97 bf 39 4d 85 bf c8 8e e8 bf 20 5d 6f bf
       -1.1857197 -1.0414191 -1.8168573 -0.9350147
000050 d0 49 b8 bf 0b c1 aa bf 2e 7f 86 bf d9 25 64 bf
       -1.4397526 -1.3340162 -1.0507562 -0.8912025
000060 d8 cc 82 bf 1d a6 d3 bf e8 b4 bf bf 0f 5d 9b bf
       -1.0218763 -1.6535069 -1.4977083 -1.2137774
000070 30 11 66 be 6f ea 25 bf 9a b9 11 c0 4e 19 fb bf
       -0.22467494 -0.6481084 -2.2769532 -1.9617097

arr_12 f4 [32]
000000 27 e6 27 3f bb d5 3c 3f f4 dd 6f 3f 3b c3 6a 3f
       0.6558556 0.73763627 0.9369805 0.9170415
000010 7f 2d 85 3f bd 7a 26 3f f8 a6 60 3f 71 38 75 3f
       1.0404509 0.65031034 0.87754774 0.9578925
000020 6b 83 33 3f 0e 93 37 3f c2 8b 0b 3f 50 02 84 3f
       0.701224 0.7170876 0.5451013 1.0313206
000030 0f 46 57 3f d0 98 3b 3f 90 32 2c 3f 46 74 58 3f
       0.84091276 0.7328005 0.6726465 0.8455242
000040 8b f4 58 3f a8 7f 1f 3f fc 4f 68 3f 7f b1 75 3f
       0.8474814 0.6230416 0.90747046 0.9597396
000050 6a 78 6d 3f 5c 0c 36 3f ee 61 24 3f c6 d5 7e 3f
       0.9276186 0.7111261 0.6421193 0.9954494
000060 50 0a 26 3f ab a4 70 3f 77 83 47 3f ee 18 48 3f
       0.64859486 0.94001263 0.77934974 0.7816304
000070 fd c5 33 3f d9 b6 16 3f 66 d2 8c 3f f4 fa 8c 3f
       0.7022398 0.58872753 1.1001709 1.1014085

arr_15 f4 [32, 32, 6, 6]
000000 49 15 dd be 36 6e 09 be 0f e3 9c 3c 7c b8 ea 3c
       -0.43180302 -0.13420948 0.019151239 0.028652422
000010 f3 a0 51 3e 3a 0c 5a bd 58 c2 80 be 1b 68 19 bd
       0.20471554 -0.053234316 -0.25148273 -0.0374528
000020 96 50 6f be fd e3 93 be d2 1a 7d 3c ca 9f 96 3e
       -0.23370585 -0.2888488 0.015448289 0.29418784
000030 0d 71 66 3e 11 82 81 3e b7 dd f6 be 1e f7 87 3e
       0.22504063 0.25294545 -0.4821603 0.26555723
000040 e8 c3 e5 be a4 a0 06 3e 08 a3 2b be c4 0f 02 3e
       -0.44876027 0.13147217 -0.1676141 0.12701327
000050 45 59 7e be d7 1a ad bd 3f be 3d 3e 3a f4 37 3d
       -0.24838741 -0.08452385 0.18529604 0.044910647
000060 cc bd e0 3d b4 4e 86 3e 4a 67 ab bc b7 96 c4 3d
       0.10973701 0.2623192 -0.020923276 0.09599059
000070 0d 3c cd be e1 7e 7f 3e 17 a7 80 be 5b 74 dd bd
       -0.40084878 0.24950744 -0.2512748 -0.10813209
000080 72 b2 13 3e 06 a9 67 bc f6 03 ff bd cf bd a9 3e
       0.1442354 -0.014139419 -0.12451927 0.33152625
000090 8d 9e 77 bd 7b d6 73 bf 15 26 a1 be 69 9c 29 be
       -0.06045394 -0.95249146 -0.31474367 -0.16563572
0000a0 e7 e8 d2 be db 54 21 bf f5 41 09 bf a0 e4 d7 bd
       -0.41193315 -0.63020104 -0.5361627 -0.10541654
0000b0 78 bd ba be 2d 35 2c bf 41 26 f4 be d7 e1 9d bd
       -0.36472678 -0.6726864 -0.47685435 -0.07709091
0000c0 06 87 4b bc 88 57 9c be 7b 18 d7 be e0 be 05 3d
       -0.012422329 -0.3053553 -0.42010865 0.032652736
0000d0 c6 f4 e3 3c 05 48 27 be 88 93 55 be e3 5a be 3d
       0.027826678 -0.16336067 -0.2085706 0.09294679
0000e0 16 28 27 bf 00 0e bd bd 2a 41 f2 bd 33 41 ac bd
       -0.6529554 -0.09231186 -0.11828835 -0.08410873
0000f0 44 3d ce be 3a 69 9a be f1 8f 01 be ce 9e 58 be
       -0.40281117 -0.30158406 -0.12652566 -0.21154329
000100 78 4a 08 be d9 19 ff bd fe 2f 51 3e 7e 56 de be
       -0.13309658 -0.12456102 0.20428464 -0.43425363
000110 c8 b5 af be 9b aa 9b be 1b cc b2 be df 45 74 3e
       -0.34318376 -0.304036 -0.34921345 0.23854779
000120 4d c2 a5 3d 74 9e 78 3c 6f b6 cc 3c a7 0c 17 3e
       0.080937006 0.015174497 0.024989335 0.1475092
000130 2c db 52 ba 15 ac 34 3e 26 03 8e bd 5f 46 65 3e
       -0.00080435234 0.17643769 -0.06934194 0.22390126
000140 9d f6 8e be 01 82 eb be ea aa 78 3e fc b0 f4 3b
       -0.27922526 -0.45997623 0.24283949 0.0074673872
000150 30 36 e2 be e5 39 6c bd ec 53 00 bf 4a 1b 00 be
       -0.44181967 -0.0576724 -0.50128055 -0.1251041
000160 45 d9 9c 3d d8 93 cf be a1 e0 82 be d0 d9 8c be
       0.076586284 -0.40542483 -0.25562003 -0.27509928
000170 0a c7 e5 bd b4 ad cc be f7 fe 70 3e be ab f2 be
       -0.11219604 -0.39976275 0.23534761 -0.47396654
000180 4f bd e0 be b3 7e 70 be 3e fc 93 be 96 38 b2 be
       -0.4389443 -0.23485832 -0.28903383 -0.34808797
000190 a7 f9 59 3d 7f 73 8e be ce ab 28 3e bb 94 3f 3e
       0.053216603 -0.27822492 0.16471788 0.1870908
0001a0 cc c2 14 be e1 1c cc 3e 8d 39 cf 3e bf 77 dc 3d
       -0.14527434 0.39865783 0.40473595 0.10765027
0001b0 65 67 df be fc 4b 01 3f 63 2d 13 3d 12 07 cf bd
       -0.4363357 0.5050657 0.035931956 -0.101087704
0001c0 41 a6 37 be f6 5d 9a 3e 20 58 b4 be 8a 34 cb 3c
       -0.17934515 0.30149812 -0.35223484 0.024805326
0001d0 5a 30 bb bd 85 d7 8c 3d 83 d8 a2 3d bd 82 bd 3e
       -0.09140082 0.068770446 0.079514526 0.37013808
0001e0 3b a1 e1 3c fc 5e ad be 1d 54 10 bc 11 1d bd 3e
       0.027542701 -0.3386153 -0.008809117 0.36936238
0001f0 ec 3e 2d 3d 66 b3 24 3f 96 d2 90 3c 2a de 0e be
       0.042296335 0.6433624 0.01767854 -0.13951936
000200 93 03 02 bf 95 f2 73 bc 2b 3a 6c be d9 de d2 bd
       -0.50786704 -0.014889379 -0.23069064 -0.10296411
000210 78 80 46 b9 db a6 d6 bd 62 88 fc 3d 08 4a da 3e
       -0.0001893061 -0.10481044 0.123307005 0.42634606
000220 1f e5 47 3e c1 55 54 bd a3 6f 01 be b9 fc 16 be
       0.19520997 -0.051839594 -0.12640242 -0.14744844
000230 66 3c 8c be 09 ae 2c be 41 29 7d 3d f3 52 6c bd
       -0.2738983 -0.16863264 0.06180692 -0.057696294
000240 59 26 73 3e 04 d7 ec be 83 40 8f bd 17 9a e2 3e
       0.23745097 -0.46257794 -0.069947265 0.44258186
000250 38 44 08 3d 3b 17 33 3d 39 14 d7 3e 55 e1 d2 3d
       0.033268183 0.043723326 0.42007616 0.10296885
000260 75 dc 06 bd a9 05 96 bd ac 37 aa 3c b8 80 9d bd
       -0.032925088 -0.07325298 0.0207785 -0.07690567
000270 d6 9c 87 be 1b 9e 0a 3e 5c 9d d8 3a cd b7 75 3d
       -0.26486844 0.13536875 0.0016526389 0.05998974
000280 57 86 9d 3e 7f 9e e0 bd 29 ef a1 3e 32 43 f4 3d
       0.30766556 -0.10967731 0.31627777 0.11926879
000290 55 3b 94 3c 42 27 77 3e aa 83 ae 3e 4f e2 3f be
       0.018094698 0.2413607 0.34084827 -0.18738674
0002a0 0b 37 82 3e 3f d0 70 be d0 55 6b 3e 56 3c d7 bd
       0.2543262 -0.2351694 0.22981954 -0.10509555
0002b0 2d 1d b5 3e 59 7d d3 bd d7 08 9b be 40 85 ed 3b
       0.35373822 -0.103266425 -0.30280182 0.0072485507
0002c0 1b 6c 93 bd 2e 8b 9b 3d 9a 03 55 bd aa 0e de bd
       -0.07198354 0.07594906 -0.052005388 -0.10842641
0002d0 5a 6d ee bd eb 12 31 be 5e 9e a2 bd 84 25 dc bd
       -0.11641951 -0.17292373 -0.079403624 -0.10749343
0002e0 ab 85 bd 3e f3 ec ad bc 57 15 af be 10 99 05 3e
       0.37016043 -0.02123115 -0.34195969 0.1304667
0002f0 a8 5c 2f be 85 fb 12 bf 73 14 ee be 98 5c e0 be
       -0.1712519 -0.5741504 -0.46499977 -0.43820643
000300 d0 ad 6c 3d 26 fd 3c 3e 9e 0f ce 3e d6 34 83 3e
       0.057782948 0.18455943 0.4024629 0.25626248
000310 96 35 1d 3e cb 0d 8c 3d 4a 9b 4c bd 87 3f d6 bc
       0.15352473 0.06838568 -0.049952783 -0.02615334
000320 12 3c b0 be ff dc 02 bf 1a 8d a9 be 97 e4 37 bf
       -0.3442083 -0.51118463 -0.33115464 -0.71833175
000330 9a cf 39 3e e3 94 ad 3e 67 6d 61 bc 0e 9a 20 be
       0.181456 0.33902654 -0.013758994 -0.15683767
000340 24 17 f6 bc 0e 20 b6 bd a5 25 88 be 8c 34 9c be
       -0.030040331 -0.08892833 -0.2659122 -0.3050884
000350 2f 49 1c 3e 7b 6e 64 be 67 b0 b1 bd d3 f7 6a bd
       0.15262292 -0.2230777 -0.08676224 -0.05736525
000360 c8 06 b1 3e 97 22 67 bd 74 03 ae 3e 4c a3 8f be
       0.34575486 -0.05642947 0.3398701 -0.28054273
000370 5b 0f b0 3e 76 df 00 be d7 a9 1d 3b d1 ea 45 3e
       0.34386715 -0.12585244 0.0024057531 0.19327857
000380 af 48 8d 3e 52 b1 51 3d 6d 0d 47 3d 0f 5f bd 3b
       0.27594516 0.051194496 0.04859679 0.005779154
000390 da de 1d 3e db 9c 87 bd 01 ef 52 be 6e a9 65 be
       0.15417042 -0.06621715 -0.20598985 -0.22427914
0003a0 7b d4 da bc e5 ff 7c 3e 65 62 80 be db 7f d3 bb
       -0.026712647 0.24706991 -0.2507507 -0.0064544505
0003b0 59 9c 0a be 61 f0 f5 bd b2 c7 cf be 1e 60 b9 be
       -0.13536204 -0.12008739 -0.40582043 -0.36206144
0003c0 de 97 0d 3e dc 74 d8 be e2 b7 08 bf b7 90 19 be
       0.13827464 -0.42276657 -0.5340558 -0.1499661
0003d0 83 d4 9b be 86 88 52 bf 7a c1 68 3d 5b c0 68 bd
       -0.3043557 -0.8223957 0.05682514 -0.05682407
0003e0 30 22 66 be 8f 90 87 be 2a 29 1a be b1 c1 e2 be
       -0.22473979 -0.26477477 -0.15054765 -0.442884
0003f0 cf 5e 37 3e 4e 95 46 3e ce 57 bb be 53 f3 00 bf
       0.1790726 0.19392893 -0.36590427 -0.50371283

arr_14 f4 [32]
000000 5c 46 16 3f 96 04 1b 3f 54 fa 0b 3f 13 8c 1c 3f
       0.5870111 0.6055387 0.54678845 0.61151236
000010 af b3 19 3f 79 4d 21 3f 64 26 08 3f e8 d3 0b 3f
       0.600398 0.6300884 0.5318358 0.5462022
000020 d1 fc 1b 3f 01 df 18 3f 46 f6 ef 3e 5b 31 1b 3f
       0.6093264 0.59715277 0.4686758 0.60622185
000030 ad 31 15 3f 6e 17 0c 3f 16 ac 07 3f f2 93 11 3f
       0.58278924 0.5472325 0.5299696 0.5686637
000040 6f 19 21 3f bf 34 0f 3f da 82 08 3f 8c aa 06 3f
       0.62929434 0.5593986 0.53324664 0.52603984
000050 4e b5 0a 3f 95 c1 21 3f a5 e7 18 3f 33 d5 01 3f
       0.541829 0.6318601 0.5972846 0.5071594
000060 48 a7 d7 3e 62 8b 0f 3f 2e 06 10 3f b9 80 24 3f
       0.42119813 0.56072056 0.5625943 0.64258915
000070 c8 b4 17 3f b1 48 19 3f 9a 2f 0e 3f f2 88 10 3f
       0.59260225 0.59876543 0.55541384 0.5645896

arr_17 f4 [32]
000000 83 24 08 3f 62 1a 9b 3f 8d f3 79 3f fa 75 16 3f
       0.5318071 1.2117426 0.97637254 0.5877377
000010 23 59 19 3f 4c e5 22 3f 11 06 6f 3f 0e 3f 2e 3f
       0.59901637 0.6363113 0.9336863 0.68064964
000020 5c 04 72 3f bd b1 4c 3f 57 de a5 3f 4d 56 fa 3e
       0.945379 0.7995871 1.2958478 0.48893967
000030 c0 81 35 3f 09 23 70 3f cc 2d 6a 3f 78 7c 0b 3f
       0.7090111 0.9380346 0.9147613 0.544868
000040 98 24 76 3f f3 58 1b 3f d5 fa 60 3f 9d f2 39 3f
       0.9614959 0.606826 0.8788274 0.72635823
000050 20 c1 44 3f a5 b4 1f 3f 6e 2c 4b 3f b3 89 24 3f
       0.76857185 0.62385017 0.7936467 0.6427261
000060 5d ed 1b 3f 56 8f 63 3f c4 e7 ed 3e 49 62 93 3f
       0.6090906 0.8889059 0.46465886 1.1514369
000070 86 ca 54 3f 34 8a 11 3f 42 ab 22 3f af 6a 81 3f
       0.83121526 0.56851506 0.6354257 1.0110682

arr_16 f4 [32]
000000 33 3c d1 be 4b 57 fb bd 3b 88 c5 be d0 2f b2 bd
       -0.4086624 -0.12272509 -0.38580498 -0.08700526
000010 78 10 a4 be 61 0d 10 be b6 05 4f be 63 47 39 bf
       -0.32043815 -0.14067604 -0.20217022 -0.7237455
000020 0e 04 88 bf 0f 75 59 bf b4 cc 75 be 82 b0 17 bf
       -1.0626237 -0.8494424 -0.2400387 -0.59253705
000030 07 11 28 bf c8 f7 50 be 23 8a 2e bf 27 7b eb be
       -0.6565098 -0.20407021 -0.6817953 -0.45992395
000040 86 5f 2b bf 4a 18 d4 be 4a bb 1e bf 12 28 10 bf
       -0.6694263 -0.4142478 -0.6200453 -0.5631114
000050 87 ce 24 bf 0e f6 1a bf 67 b7 5c bf e7 14 01 bf
       -0.64377636 -0.605317 -0.8621735 -0.5042252
000060 34 9a 00 bf 45 dc 32 bf 7f f0 8b be 95 82 87 bf
       -0.50235295 -0.69867355 -0.2733192 -1.0586725
000070 a5 24 e0 be df 89 d9 be 27 c8 2d bf 63 e9 38 bf
       -0.43777958 -0.42488 -0.67883533 -0.7223112

arr_1 f4 [512]
000000 e0 3f e6 bd c7 6c a9 3d 26 6f dd bd 84 1e 42 be
       -0.11242652 0.08272701 -0.108122155 -0.18956953
000010 3d 31 24 be f7 af 1f bf b5 10 cf be a9 62 57 bf
       -0.16034408 -0.62377876 -0.40442434 -0.8413492
000020 b4 7e b6 bc a2 e0 56 bf 5a 58 6b be 24 c7 b0 be
       -0.022277214 -0.8393651 -0.22982922 -0.34526932
000030 94 bd a4 be c7 81 ce be 57 28 74 bd f3 30 cb 3d
       -0.32175887 -0.40333387 -0.059608784 0.09921446
000040 00 13 ce be b7 12 83 bd 58 5e 8f bb 97 2f 6d 3e
       -0.4024887 -0.06400054 -0.0043752603 0.23162685
000050 0b fa 83 3e 6b a6 56 3e b1 56 dd be 2c a3 b6 3e
       0.25776705 0.20961921 -0.43230203 0.35671365
000060 30 80 22 be e5 38 3b bf 7d 4f 15 be e3 e3 d4 be
       -0.15869212 -0.7313369 -0.14581104 -0.41580114
000070 0f ac 97 be ac 0c d2 3d 99 2c 36 bd a8 6d 00 bf
       -0.29623458 0.10256323 -0.044476125 -0.5016732
000080 b2 a3 16 be 95 4c 12 bf c3 4f 20 be 33 29 6b be
       -0.14710882 -0.57148105 -0.15655427 -0.22964935
000090 07 04 fd be d7 fc 4f bf 7f e9 0c bf f6 63 59 be
       -0.49417135 -0.8124518 -0.55043787 -0.21229538
0000a0 76 f6 32 be ea 57 19 bf 24 9b 84 bb e0 4c 1e bf
       -0.1747683 -0.5989977 -0.0040468145 -0.6183605
0000b0 77 2d 3b be 3e 69 25 be 5b d8 54 bd 36 26 a3 3e
       -0.18279062 -0.16153428 -0.051964145 0.3186509
0000c0 0c 53 02 be 76 94 95 be eb 21 d0 be 56 1f a3 3d
       -0.12726992 -0.2921483 -0.40650877 0.07964961
0000d0 64 3e 0c be 75 4e 9c 3d a7 fe 18 bf 31 61 82 bc
       -0.13695675 0.07632152 -0.5976357 -0.015915485
0000e0 9a 94 e3 be a9 ab aa bd 0e 32 3a bf dd ed 95 be
       -0.44449311 -0.08333523 -0.7273263 -0.29283038
0000f0 42 75 84 bd 3d 12 96 be dd 33 22 be e2 b8 92 be
       -0.06467678 -0.2931079 -0.15840097 -0.2865668
000100 dc 8c 9c be 25 76 e9 be 51 4c 0f be 66 46 9d be
       -0.30576217 -0.4559795 -0.13993956 -0.30717772
000110 4f 5d 3c be f0 fd d3 be 5a 14 7e 3e 70 e4 b0 be
       -0.1839497 -0.41404676 0.24812451 -0.34549284
000120 e4 dc 83 3d 45 b4 6f bf 29 1d e0 be 31 1e 19 3d
       0.06438616 -0.93634444 -0.43772247 0.03738231
000130 08 b9 a3 bd 54 0b 0c bf cc 73 0c bf c5 d2 ab 3e
       -0.07994276 -0.54704785 -0.5486419 0.33559242
000140 d0 34 b1 be 46 f2 8c bc 0d 20 24 bf b7 aa 99 bd
       -0.34610605 -0.017205369 -0.64111406 -0.075032644
000150 25 db 06 bf bc af 17 bf ad 69 c3 3d e6 a3 72 be
       -0.5267814 -0.59252524 0.095416404 -0.23695335
000160 a0 5a e2 be e8 e9 03 bf 15 4e 1b bf 7c d4 09 be
       -0.44209766 -0.5152879 -0.6066602 -0.13459963
000170 e2 34 dd be 39 1c 55 3e 67 ae c4 bd f1 d6 fb 3e
       -0.4320441 0.20811547 -0.09603577 0.49187425
000180 6c 8b 8f 3b 18 ec 5e be a7 c3 e2 3e 51 c4 20 bf
       0.004380634 -0.2176975 0.44289896 -0.62799555
000190 bb 61 d6 be a1 ee 8b be ff 2e 13 bf 8c 05 d3 be
       -0.41871437 -0.27330497 -0.57493585 -0.4121517
0001a0 26 b0 8e bd f2 51 60 bf 16 84 a9 3e c8 10 4e bf
       -0.069671914 -0.8762504 0.33108586 -0.80494356
0001b0 54 9c 1e bd 56 49 0b bf 18 0e 25 be 1e 9b bd bd
       -0.038723305 -0.54408777 -0.16118658 -0.09258102
0001c0 19 35 74 3e 31 83 d1 3d 93 86 c4 be 79 df d5 bc
       0.2384838 0.10230101 -0.38383922 -0.026107537
0001d0 35 ed fb be c5 11 69 be 53 e4 66 bf 11 9c 24 be
       -0.49204412 -0.22760685 -0.90192145 -0.1607516
0001e0 6c 23 1c bf f5 f6 2c bf 87 36 aa bf c3 34 7f be
       -0.6099155 -0.67564327 -1.329789 -0.24922471
0001f0 f2 88 e0 be 3a b4 a6 3e 3f 2d 0f be 3a 74 7a be
       -0.4385448 0.32559377 -0.13982104 -0.244584
000200 c0 76 02 bf 13 18 b0 be a0 a9 d4 be ea 36 24 bf
       -0.5096245 -0.34393367 -0.41535664 -0.6414629
000210 a5 00 8f be b8 e9 c9 be cd 75 96 bd 9e 84 1a be
       -0.2793018 -0.39436126 -0.073466875 -0.15089652
000220 2f cb a5 be f6 a5 95 be 2a 9d 38 be f1 ef 66 be
       -0.3238158 -0.2922818 -0.18028703 -0.22552468
000230 5d bb c5 3e ea 1f 88 be b9 74 5f bc 0e 1b d9 be
       0.3861951 -0.26586848 -0.013638669 -0.42403454
000240 ef db ee 3d 94 ab 23 bf 10 68 01 bf 71 b9 6c be
       0.11663043 -0.6393368 -0.5054941 -0.23117615
000250 5a 82 f5 be e2 cc dc bd 88 a1 e0 be 09 5e 4f bf
       -0.47951013 -0.10781266 -0.4387324 -0.8100286
000260 cb 86 21 bf ee 66 a0 be ae a7 04 bf 84 35 09 3e
       -0.630963 -0.3132853 -0.5181836 0.13399321
000270 d1 c6 ad be 20 7d 3a bf b1 04 4e bc 3c 29 b0 3e
       -0.33940747 -0.72847176 -0.012574361 0.3440646
000280 69 bc 16 bf 7d a0 a0 be 83 b2 07 bf 8e 24 c7 be
       -0.5888124 -0.31372443 -0.5300676 -0.38895077
000290 00 70 bc 3c a9 11 c1 be 23 0e 3d be 8e 4d 1e bf
       0.023002625 -0.37708786 -0.18462424 -0.6183709
0002a0 92 e2 8d be 02 3e 2e bf 42 7f ea 3d 04 24 fd 3d
       -0.27711922 -0.68063366 0.11450054 0.12360385
0002b0 bb 88 10 be 9b 38 8b be 1d 7f ac be d2 31 7a be
       -0.14114659 -0.27191624 -0.3369073 -0.24433067
0002c0 03 09 8c bd a0 63 96 3d 9b 95 22 be 78 a4 01 bf
       -0.06837656 0.07343221 -0.15877382 -0.50641584
0002d0 3b 17 2b bf f2 46 23 bf 43 e7 78 bd c4 75 ee be
       -0.6683232 -0.6378013 -0.060767423 -0.46574223
0002e0 67 e6 05 bf 15 b9 22 bf 27 6b bd be 80 3f 35 bf
       -0.5230469 -0.6356366 -0.36995813 -0.7080002
0002f0 a8 c3 d1 bd 8b d5 d1 bc 1c 97 dc be a9 0c 28 3f
       -0.102423966 -0.02561452 -0.43084037 0.6564432
000300 5f bd ce be 8e ae 3f 3d 00 ee 99 bd ad 81 81 3d
       -0.40378854 0.046797328 -0.07516098 0.06323562
000310 cc 6f 14 be 49 32 d1 be ce cd 95 bf aa 24 69 be
       -0.14495772 -0.40858677 -1.1703432 -0.22767892
000320 63 3d 51 3e ce 2c f4 be a8 97 c4 be 34 c6 df be
       0.20433573 -0.47690433 -0.38396955 -0.43705904
000330 33 6a 88 be f8 92 be be a4 03 89 3d ee 57 84 be
       -0.26643524 -0.37221503 0.066901475 -0.25848335
000340 f4 0c 4a bc cc ec 1a be 8c 63 c0 be 96 4e a8 be
       -0.01233219 -0.15129393 -0.37575948 -0.32872456
000350 f1 8a 90 be ea e1 77 be a2 34 55 bf a1 16 ac be
       -0.28231004 -0.24207273 -0.83283436 -0.33611014
000360 a2 9d 4f bf 53 16 21 bf 06 60 21 bf 84 51 bf be
       -0.81099904 -0.6292469 -0.63037145 -0.3736688
000370 6f 30 e7 bd 04 ce d3 3e b6 50 31 bf 65 0c 7a bf
       -0.11288535 0.41368115 -0.6926378 -0.9767516
000380 43 ff 58 be 6c eb ed bd 3f c4 f4 3a 63 cd 1f bf
       -0.21191125 -0.11617169 0.0018674209 -0.6242277
000390 db 67 86 be 33 bd ee be 91 cb b9 be 3b c1 2d 3e
       -0.2625111 -0.46628723 -0.3628812 0.16968243
0003a0 cd 3c bc be 54 4b f6 be 71 b6 d1 bd 51 49 65 be
       -0.36765137 -0.48104346 -0.10239876 -0.22391249
0003b0 87 65 c1 be d3 2f 33 be 66 58 8d be 47 c2 02 be
       -0.37772772 -0.17498712 -0.27606505 -0.12769423
0003c0 72 3c 19 bf ba 07 ec be 15 47 64 bd 7a b7 0e bf
       -0.5985786 -0.46099645 -0.05573185 -0.55748713
0003d0 7a 04 ab be ff 51 11 bf 43 ea be be 04 e3 44 bf
       -0.33401853 -0.5676574 -0.37288103 -0.769089
0003e0 dd 9e 92 be f3 5b f6 be 0b bd c6 be d0 94 04 bf
       -0.28636828 -0.48117027 -0.38816103 -0.5178957
0003f0 b6 68 58 bf 6a 46 f7 be 15 0e 2b bf aa f0 03 3e
       -0.84534776 -0.4829591 -0.6681836 0.12884775
