pretrained_model/MSRA_pretrained/p5/params/-1_reco_params.npz (npz, 497458 bytes, 22 tensors)

arr_20 f4 [23, 23]
0.052271 -0.023212362 0.09156398 -0.25828397 -0.301145 0.00841089 0.24470599 0.23982921
0.1606426 -0.1458155 -0.28570405 0.08405333 -0.05012382 -0.03573965 0.20152706 0.12687737
-0.22998826 0.026857803 0.28441864 0.12963027 -0.07851037 0.57429785 0.2148689 -0.06037007
0.07425225 -0.00831114 -0.0835409 -0.07772408 0.018337296 -0.15825047 0.1459412 0.08144949
-0.028352596 0.12344481 0.04117574 0.1373119 0.062708594 0.07777621 -0.08119999 0.031897552
0.12687376 0.0784866 -0.018243438 -0.903217 0.13458098 -0.7226555 -0.15452707 -0.24100736
-0.23691392 -0.0315857 0.10007104 -0.22201878 -0.18957496 -0.29600582 -0.20680982 -0.18850246
0.027023101 -0.2027215 -0.2255644 0.0480789 -0.10013225 -0.05616989 -0.06125735 -0.14035669
-0.11840926 -0.21195613 0.2950982 -0.13388549 0.5847089 0.40079993 -0.41482186 0.029995581
0.28111488 0.028072324 0.51500785 -0.09368602 0.30434963 0.04791632 -0.15415615 -0.035000555
0.28173596 -0.14402224 -0.04100369 -0.054666325 0.055204038 -0.16436306 0.08890007 -0.15741226
0.31869766 -0.22570416 -0.1548705 -0.41064143 0.100176446 0.24831678 -0.5576753 0.121114925
0.3057611 0.45172158 0.03576503 0.09666177 -0.08427622 -0.08000059 -0.27236706 -0.86203456
0.013942334 -0.108425 0.093360126 -0.105513446 0.25917172 0.12579794 -0.002155297 -0.119837366
0.340629 -0.09345965 0.034303486 -0.029632559 -0.093549825 -0.26938716 -0.18156627 -0.043752424
-0.20877859 -0.12086127 -0.04137944 0.054619547 -0.03479455 0.10544993 -0.09410412 0.1269725
0.18970099 -0.09753578 -0.20100793 -0.28311777 -0.17253989 0.30836695 -0.1961923 0.016607441
-0.04726072 0.7480364 -0.22007203 -0.07193344 -0.18118475 -0.18719615 -0.0133979395 0.042449694
-0.5351668 -0.06102355 0.24985638 0.3980758 0.27697253 0.30139214 -0.079441845 0.15446554
0.38794872 -0.52247995 -0.11546674 -0.13915776 -0.25489292 0.066397 -0.054085217 -0.46152225
0.5390876 0.2703557 -0.32816434 -0.22254679 -0.15257119 -0.17579591 0.57163423 0.33796325
-0.42394412 0.24701817 -0.35408863 0.22822037 0.024105042 0.6637968 0.018156128 0.36350805
0.32598913 0.16196845 0.10790414 -0.16205937 0.0015454476 -0.18763718 -0.20566997 0.45857713
-0.12674296 0.007751949 -0.3696939 -0.109892584 0.11043409 -0.09078479 0.022741407 0.15587409
-0.51523626 0.08289552 0.1373425 0.15514007 0.5297545 0.21592036 -0.40334624 -0.13537426
0.50459766 -0.12717319 0.2138942 0.29834595 0.08582898 -0.41098353 0.29015234 -0.41104758
0.1819704 0.50130105 0.265221 -0.14706166 -0.019095156 0.0835214 0.34843332 -0.1635678
0.16009772 0.17709997 -0.16036339 0.20174475 -0.5718943 0.2494957 -0.5255285 0.04623603
-0.3339487 0.22102663 -0.10215512 -0.3328109 -0.17132133 0.60380673 -0.4784926 0.0823021
0.32971904 -0.36677766 0.4393034 0.36597067 -0.12000537 0.12634978 -0.058042686 0.034570027
-0.069977075 -0.05173772 0.16006853 0.15833509 0.07814424 0.15672766 -0.23729317 -0.1646878
-0.08242267 0.16634984 -0.15132473 -0.009381955 0.042810515 0.1310444 -0.7461491 0.008188458
00000000: 1e1a 563d da27 bebc e585 bb3d cc3d 84be
00000010: ad2f 9abe d4cd 093c 3594 7a3e ca95 753e
00000020: 7e7f 243e a950 15be cd47 92be 2724 ac3d
00000030: a24e 4dbd bd63 12bd 1c5d 4e3e 24ec 013e
00000040: 0b82 6bbe e504 dc3c 529f 913e ccbd 043e
00000050: 0bca a0bd 2f05 133f 9806 5c3e 9b46 77bd
00000060: 9011 983d 732b 08bc 7e17 abbd cd2d 9fbd
00000070: 1938 963c 690c 22be 9c71 153e fdce a63d
00000080: b443 e8bc a2d0 fc3d e5a7 283d 7e9b 0c3e
00000090: 5d6d 803d 2249 9f3d 2e4c a6bd 02a7 023d
000000a0: 32eb 013e 95bd a03d 4373 95bc 3b39 67bf
000000b0: 99cf 093e f3ff 38bf 583c 1ebe a2ca 76be
000000c0: 9099 72be 0260 01bd 0cf2 cc3d e458 63be
000000d0: f01f 42be 138e 97be f4c5 53be ca06 41be
000000e0: 8d5f dd3c 3a96 4fbe 5bfa 66be 61ee 443d
000000f0: 2312 cdbd 6612 66bd fde8 7abd aab9 0fbe
00000100: 8e80 f2bd 070b 59be 1c17 973e 4719 09be
00000110: 7caf 153f a635 cd3e 8863 d4be 4bb9 f53c
00000120: 4aee 8f3e eef7 e53c 8ed7 033f 75de bfbd
00000130: b7d3 9b3e e743 443d 1cdb 1dbe be5c 0fbd
00000140: b23f 903e 917a 13be 7cf3 27bd cce9 5fbd
00000150: a11d 623d ca4e 28be 3d11 b63d ae30 21be
00000160: 572c a33e fe1e 67be 5f96 1ebe 983f d2be
00000170: 4f29 cd3d c146 7e3e cfc3 0ebf 1a0b f83d
00000180: b88c 9c3e 0d48 e73e 5a7e 123d 9bf6 c53d
00000190: 0399 acbd 59d7 a3bd b273 8bbe 4cae 5cbf
000001a0: 636e 643c ed0d debd 9833 bf3d 6f17 d8bd
000001b0: 28b2 843e 2dd1 003e e23f 0dbb 4b6d f5bd
000001c0: ed66 ae3e c667 bfbd d081 0c3d fbbf f2bc
000001d0: 0d97 bfbd 1ded 89be 82ec 39be be35 33bd
000001e0: 0eca 55be 1d86 f7bd 7d7d 29bd bfb8 5f3d
000001f0: bb84 0ebd 22f6 d73d a9b9 c0bd 1405 023e
00000200: fa40 423e d7c0 c7bd 06d5 4dbe d0f4 90be
00000210: 4cae 30be 46e2 9d3e a2e6 48be 540c 883c
00000220: 7594 41bd 507f 3f3f 905a 61be d751 93bd
00000230: 7f88 39be 59b0 3fbe 0883 5bbc bbdf 2d3d
00000240: b100 09bf d4f3 79bd 5ada 7f3e 97d0 cb3e
00000250: 58cf 8d3e 1250 9a3e 68b2 a2bd 372c 1e3e
00000260: 37a1 c63e 3fc1 05bf d479 ecbd 5f7f 0ebe
00000270: 5381 82be 26fb 873d 7688 5dbd a54c ecbe
00000280: a501 0a3f 106c 8a3e 2805 a8be 4ee3 63be
00000290: 9f3b 1cbe d803 34be 9f56 123f 8509 ad3e
000002a0: 340f d9be 55f2 7c3e 1b4b b5be 9ab2 693e
000002b0: f077 c53c 96ee 293f 29bc 943c ba1d ba3e
000002c0: 0ce8 a63e 0fdb 253e d9fc dc3d e4f2 25be
000002d0: 9e90 ca3a f623 40be 269b 52be 9fca ea3e
000002e0: e8c8 01be 1004 fe3b 8548 bdbe 5d0f e1bd
000002f0: 452b e23d 60ed b9bd 304c ba3c 759d 1f3e
00000300: 86e6 03bf 20c5 a93d 83a3 0c3e 0add 1e3e
00000310: fe9d 073f 3a1a 5d3e 6683 cebe 8d9f 0abe
00000320: 502d 013f b039 02be 1507 5b3e cdc0 983e
00000330: 1bc7 af3d 6f6c d2be d98e 943e d474 d2be
00000340: 7356 3a3e 4455 003f 0ccb 873e 5597 16be
00000350: 726d 9cbc 450d ab3d da65 b23e 517e 27be
00000360: a8f0 233e b259 353e 4d36 24be 2d96 4e3e
00000370: aa67 12bf cd7b 7f3e 0989 06bf fe61 3d3d
00000380: 53fb aabe ce54 623e b436 d1bd 3166 aabe
00000390: dc6e 2fbe 1493 1a3f fbfc f4be 018e a83d
000003a0: efd0 a83e 48ca bbbe 60ec e03e 8260 bb3e
000003b0: 60c5 f5bd d661 013e 2bbe 6dbd 4d99 0d3d
000003c0: 2450 8fbd eeea 53bd 01e9 233e 9822 223e
000003d0: 160a a03d 377d 203e fbfc 72be eba3 28be
000003e0: 38cd a8bd 9d57 2a3e dff4 1abe c5b6 19bc
000003f0: 145a 2f3d 8130 063e a103 3fbf e228 063c

arr_21 f4 [23]
0.026992092 0.04560463 -0.036354467 -0.16667832 -0.052316096 -0.12902667 0.054608893 -0.040268376
-0.111830406 -0.11541539 -0.12362242 0.02569676 -0.07277325 -0.053513195 -0.12429851 0.021324208
-0.18244937 -0.096779115 0.010743037 0.050235078 0.08784659 -0.31277475 0.6045412
00000000: 851e dd3c eccb 3a3d 6ce8 14bd b9ad 2abe
00000010: 6749 56bd 911f 04be 93ad 5f3d 74f0 24bd
00000020: 5707 e5bd e75e ecbd c02d fdbd 0382 d23c
00000030: 240a 95bd a730 5bbd 3890 febd 1bb0 ae3c
00000040: 02d4 3abe 2134 c6bd 9003 303c 4cc3 4d3d
00000050: eae8 b33d 0324 a0be 36c3 1a3f

arr_19 f4 [23]
0.093873724 0.07963859 0.10626823 0.13409698 0.12542868 0.1070609 0.13545306 0.12976424
0.12408579 0.14814578 0.12256732 0.13399817 0.1533345 0.10995481 0.14192925 0.17651942
0.09799297 0.105723195 0.16010694 0.12672956 0.13757184 0.120888755 0.14710517
00000000: de40 c03d 8f19 a33d 28a3 d93d b850 093e
00000010: 6070 003e bf42 db3d 35b4 0a3e ebe0 043e
00000020: b120 fe3d 87b3 173e 9304 fb3d d136 093e
00000030: b803 1d3e fd2f e13d e755 113e 82c1 343e
00000040: 8ab0 c83d 6785 d83d 13f3 233e 65c5 013e
00000050: a2df 0c3e 8694 f73d bda2 163e

arr_18 f4 [23]
-6.071554 -11.3958435 5.73451 -3.5184338 -2.9345796 -1.1430873 -1.7813534 4.7911243
-2.7896204 5.4253683 -3.0827963 -2.636601 0.36804217 -6.1732774 -4.498101 -2.0575483
-1.1237389 0.5616325 1.882889 -1.1110739 -5.1406584 0.91462344 0.5069647
00000000: 2c4a c2c0 6055 36c1 1b81 b740 052e 61c0
00000010: 27d0 3bc0 af50 92bf 6303 e4bf e450 9940
00000020: 2489 32c0 9e9c ad40 894c 45c0 12be 28c0
00000030: 0670 bc3e 7d8b c5c0 72f0 8fc0 dfae 03c0
00000040: add6 8fbf 26c7 0f3f 8202 f13f ab37 8ebf
00000050: 4680 a4c0 c324 6a3f 70c8 013f

arr_11 f4 [32]
-0.8038815 -0.72960484 -0.9307454 -1.253299 -1.0245922 -0.47242168 -0.6801944 -0.5153622
-0.9303652 -0.8914975 -1.1520004 -0.80763155 -0.79691523 -1.0593069 -1.2137337 -1.3426654
-0.95522314 -0.8199568 -0.56551325 -1.1375417 -0.6693305 -0.9903355 -0.8788329 -0.8896926
-0.987722 -0.9674985 -1.0663695 -0.9880809 -0.75256705 -0.9963445 -0.8425354 -0.51357394
00000000: 2ecb 4dbf 62c7 3abf 5545 6ebf 1a6c a0bf
00000010: d625 83bf 41e1 f1be 3821 2ebf c7ee 03bf
00000020: 6a2c 6ebf 2e39 64bf c074 93bf f1c0 4ebf
00000030: a302 4cbf 5e97 87bf a05b 9bbf 76dc abbf
00000040: 8189 74bf b0e8 51bf 7ac5 10bf f79a 91bf
00000050: 3e59 2bbf a186 7dbf 31fb 60bf e5c2 63bf
00000060: 59db 7cbf fbad 77bf cc7e 88bf dff2 7cbf
00000070: 3ca8 40bf 6f10 7fbf 66b0 57bf 9579 03bf

arr_10 f4 [32, 32, 6, 6]
0.13793887 0.2050052 -0.58936954 0.43182036 -0.1641266 -1.7467053 -0.16979834 -0.90994245
-1.7795013 0.052606277 0.20035952 -0.48149234 -0.014842812 -0.6572297 0.29158616 -0.1268593
-0.20208761 -0.82096153 -0.3352482 0.89413863 -1.0481018 -0.54221654 -0.41434303 -0.36029565
-0.5181269 0.28417408 0.033040944 0.11578134 1.2354977 -0.14291997 -0.083015166 -0.6079209
0.3775739 -0.468341 -0.28670123 -0.063018344 -0.37132475 0.6093172 0.18404365 0.13216475
-0.44522366 0.119458094 -1.8635218 -0.723585 -1.5449569 -0.8581254 0.21140999 0.3797915
0.33959123 0.3184974 -0.89344555 0.20775409 -0.0088825915 -0.44935876 0.37996483 -1.4346365
0.9095696 -0.26879162 0.5252154 -0.5975705 0.8350142 0.64917284 -0.2429283 0.07871323
-0.44093114 0.03354646 -0.98306954 0.6231544 -0.63034153 0.26697978 -0.4123382 1.5209559
0.6429775 0.47543854 -0.6348349 0.1821924 0.21024364 -0.023916436 -0.5908096 0.7435312
0.9189622 0.099112555 0.9438049 -0.49363193 -1.0950872 -0.08255691 0.20587608 -0.17010751
0.71528834 -0.023131339 -0.070804656 -0.89074373 0.19990978 -0.49822336 1.1873393 0.6440263
1.3390902 0.4811333 0.15368848 -0.084858276 -0.8012432 0.69522655 0.4389656 -0.81388247
0.08098669 -1.4235494 0.121921144 -0.21607175 -1.3194491 -0.19907342 0.91283053 0.5824696
-0.032969918 0.42997006 0.17296025 -0.52204835 -0.6312931 0.25979286 -0.3604022 -0.27317974
-0.75514853 0.598392 0.04485656 0.3004732 -0.15550101 -0.7105969 -0.34322587 0.24579671
-0.80085003 0.20029505 0.8401568 -1.0347369 -1.186699 -0.3786653 -0.6061012 -0.044109754
0.59055275 0.57515854 -1.0098137 -0.2503953 -0.45959094 0.41072127 -0.1244053 0.3337822
0.49823278 -0.28941283 -0.58532566 -0.11022091 0.20496392 0.43998134 -1.022149 0.44716167
-0.6321292 -0.24903224 0.019172342 0.07693728 0.77617455 -0.10557014 0.1403737 0.26325268
-0.21183588 0.8638499 0.20500572 -0.27550957 0.41248012 -0.23794736 0.098999985 0.99136925
-0.22472134 -0.45947328 0.23539993 -1.3579745 -0.85380936 0.26256233 -1.4304459 -0.068291694
-0.8697178 0.016339976 -0.60926133 0.17056441 1.573095 -0.48770073 0.33862922 0.27605984
-0.43101552 0.22186974 0.36922693 -0.64521456 -1.0683289 -0.49071267 0.32363346 0.7625758
0.27792358 0.3551892 -0.54343885 0.23544356 0.7022725 -0.7621726 0.5846012 -0.08550165
0.62840927 -0.22125827 0.2712206 -0.6667792 -1.3020518 0.56748456 1.2330117 -0.43386364
0.9429869 0.38801458 -0.6379529 0.30259123 0.09037757 -0.43676248 -1.0671327 -0.3093495
-0.09806083 0.30899927 0.17035848 -0.6444334 -1.1332548 0.526142 0.7559723 -1.302676
0.26924944 0.38261825 0.7573416 -0.51089996 0.109656446 -1.0840397 -0.68119454 0.24263123
-0.21993227 -0.880027 -0.49441165 0.4829003 -0.42562547 -0.74331856 0.7215714 -0.16314843
0.025185762 0.00068634085 0.10562483 -0.19078778 -0.23227017 -0.3835657 0.5949906 -0.3868277
0.7966432 0.29114294 -0.24170655 0.59614843 0.04873419 0.6655387 -0.86771744 1.0239906
00000000: d93f 0d3e e2ec 513e ece0 16bf 8f17 dd3e
00000010: ce10 28be 0a94 dfbf 9edf 2dbe fdf1 68bf
00000020: b3c6 e3bf ae79 573d 0c2b 4d3e 2a86 f6be
00000030: 442f 73bc 3540 28bf c84a 953e 68e7 01be
00000040: 0ef0 4ebe 892a 52bf a7a5 abbe 45e6 643f
00000050: 3328 86bf b4ce 0abf c524 d4be ac78 b8be
00000060: f7a3 04bf 447f 913e f155 073d c41e ed3d
00000070: ca24 9e3f 9d59 12be db03 aabd b4a0 1bbf
00000080: 5e51 c13e 64ca efbe 81ca 92be c30f 81bd
00000090: 471e bebe 36fc 1b3f f075 3c3e 3256 073e
000000a0: 5bf4 e3be 72a6 f43d e287 eebf de3c 39bf
000000b0: 26c1 c5bf 1bae 5bbf dc7b 583e 0874 c23e
000000c0: e7de ad3e 1712 a33e d9b8 64bf 7dbd 543e
000000d0: 4a88 11bc 5a12 e6be c08a c23e 2ba2 b7bf
000000e0: 8ed9 683f 0e9f 89be 8474 063f 61fa 18bf
000000f0: 7ec3 553f 3130 263f 32c2 78be 6734 a13d
00000100: bac1 e1be 0368 093d 72aa 7bbf 0c87 1f3f
00000110: 105e 21bf 93b1 883e fe1d d3be afae c23f
00000120: 2c9a 243f ae6c f33e 8a84 22bf a590 3a3e
00000130: 1c4a 573e 67ec c3bc 4c3f 17bf 1058 3e3f
00000140: 1b41 6b3f 86fb ca3d 339d 713f 53bd fcbe
00000150: d12b 8cbf 9913 a9bd 2ed1 523e aa30 2ebe
00000160: 231d 373f ef7d bdbc 0802 91bd c807 64bf
00000170: 26b5 4c3e 2217 ffbe bcfa 973f e8de 243f
00000180: 4f67 ab3f 1b57 f63e 8360 1d3e 2dca adbd
00000190: 461e 4dbf 5efa 313f 19c0 e03e 9a5a 50bf
000001a0: 5adc a53d de36 b6bf cbb1 f93d ea41 5dbe
000001b0: b5e3 a8bf e7d9 4bbe 43af 693f ba1c 153f
000001c0: 770b 07bd 0925 dc3e 7e1c 313e f6a4 05bf
000001d0: 6d9c 21bf 9203 853e a386 b8be 37de 8bbe
000001e0: 6a51 41bf 3830 193f 83bb 373d a0d7 993e
000001f0: a83b 1fbe aee9 35bf 4dbb afbe 22b2 7b3e
00000200: 8204 4dbf 251a 4d3e 8414 573f 4272 84bf
00000210: c1e5 97bf 6be0 c1be 7329 1bbf 6eac 34bd
00000220: 772e 173f 973d 133f 9341 81bf d033 80be
00000230: 814f ebbe 0f4a d23e 35c8 febd 80e5 aa3e
00000240: 5e18 ff3e eb2d 94be e7d7 15bf 80bb e1bd
00000250: 10e2 513e 3c45 e13e c7d5 82bf 60f2 e43e
00000260: 38d3 21bf 4f02 7fbe 510f 9d3c 4b91 9d3d
00000270: 60b3 463f 2835 d8bd 20be 0f3e 0ec9 863e
00000280: 81eb 58be 4425 5d3f 05ed 513e 970f 8dbe
00000290: 9830 d33e 79a8 73be 81c0 ca3d 60ca 7d3f
000002a0: 5a1d 66be 1540 ebbe ae0c 713e 1cd2 adbf
000002b0: 4093 5abf 926e 863e da18 b7bf 84dc 8bbd
000002c0: d3a5 5ebf 6adb 853c 8df8 1bbf 70a8 2e3e
000002d0: 2d5b c93f e9b3 f9be cf60 ad3e b757 8d3e
000002e0: 11ae dcbe d231 633e 500b bd3e c82c 25bf
000002f0: 00bf 88bf b13e fbbe 49b3 a53e 2b38 433f
00000300: 004c 8e3e 5cdb b53e cf1e 0bbf 1e18 713e
00000310: 21c8 333f be1d 43bf 6da8 153f 7d1b afbd
00000320: 6edf 203f 8791 62be 6ddd 8a3e 0bb2 2abf
00000330: a2a9 a6bf ab46 113f 54d3 9d3f 6023 debe
00000340: 9767 713f d9a9 c63e e250 23bf 3ded 9a3e
00000350: e017 b93d 559f dfbe ce97 88bf 0f63 9ebe
00000360: 1ed4 c8bd 2735 9e3e 7472 2e3e 96f9 24bf
00000370: 7e0e 91bf 3eb1 063f 6787 413f 16be a6bf
00000380: 10db 893e 8ae6 c33e 24e1 413f 57ca 02bf
00000390: 8f93 e03d d0c1 8abf c462 2ebf 5274 783e
000003a0: ed35 61be 7349 61bf 8623 fdbe b53e f73e
000003b0: 95eb d9be 204a 3ebf e7b8 383f 6210 27be
000003c0: 5f52 ce3c 8eeb 333a d551 d83d df5d 43be
000003d0: 3bd8 6dbe b962 c4be 4e51 183f 480e c6be
000003e0: cff0 4b3f b010 953e ec81 77be 2f9d 183f
000003f0: 819d 473d bf60 2a3f bb22 5ebf 2012 833f

arr_13 f4 [32]
-1.6208768 -2.57907 -2.9921181 -4.3043804 -1.0849972 4.193469 -2.6236484 1.9940988
-4.075963 -0.27575502 -4.5778394 0.5697688 -1.9765041 0.20363334 -1.9552437 -3.135628
-2.2589033 -0.20774484 -1.6279442 -5.769511 -3.0274363 0.25011632 -4.3921394 -0.43765563
-1.3230944 -3.1005623 -1.7246232 -0.87788695 -0.5718622 -4.082299 -0.4844733 -0.030452892
00000000: e478 cfbf 7c0f 25c0 dd7e 3fc0 7cbd 89c0
00000010: 30e1 8abf e630 8640 dbe9 27c0 a13e ff3f
00000020: 4a6e 82c0 c32f 8dbe a97d 92c0 5edc 113f
00000030: 16fe fcbf 4285 503e 6d45 fabf 21ae 48c0
00000040: df91 10c0 10bb 54be 7a60 d0bf d69f b8c0
00000050: 84c1 41c0 3f0f 803e 688c 8cc0 6614 e0be
00000060: 285b a9bf 9d6f 46c0 74c0 dcbf 33bd 60bf
00000070: 9065 12bf 32a2 82c0 e20c f8be 5878 f9bc

arr_12 f4 [32]
1.1959099 1.2388548 1.2081413 1.4637693 1.2383249 1.0099969 1.0840665 1.0319006
1.2293844 1.2042365 1.3573315 1.0145457 1.1492791 1.2348394 1.1958264 1.3835781
1.2333277 1.1182414 1.0406415 1.3862916 1.1416903 1.2728996 1.2558682 1.1465324
1.2736276 1.2314532 1.485515 1.1016908 1.1316735 1.2466137 1.2335182 0.91680545
00000000: 9313 993f cb92 9e3f 60a4 9a3f cb5c bb3f
00000010: 6e81 9e3f 9447 813f b1c2 8a3f 5215 843f
00000020: 785c 9d3f 6c24 9a3f 0abd ad3f a2dc 813f
00000030: 941b 933f 380f 9e3f d710 993f 1619 b13f
00000040: afdd 9d3f 8922 8f3f be33 853f 0172 b13f
00000050: e822 923f 60ee a23f 4ac0 a03f 93c1 923f
00000060: 3b06 a33f 42a0 9d3f 5b25 be3f 3404 8d3f
00000070: adda 903f 0a91 9f3f ede3 9d3f c3b3 6a3f

arr_15 f4 [512, 23]
0.37444022 0.21253228 0.1548395 -0.24121349 0.5982457 -0.33635464 0.7250601 0.22715884
-0.45489645 -0.20240943 -0.12877478 -0.1304202 0.7441359 0.584389 -0.4935026 0.30125886
-1.3421406 0.7471279 0.09958934 0.38497585 -0.8008992 -0.25751024 -0.06943467 0.84005344
0.65581244 -0.4899548 0.24078308 0.97847974 -2.5550656 0.36448854 -0.10336504 0.5282165
-0.22440211 0.5314653 -0.37406394 -0.366117 -0.38124943 1.3946153 -0.4938933 -0.7622822
-0.4650012 1.1848322 0.28824136 -0.07562374 0.32388285 0.39514995 0.30765676 0.39137483
-0.041732337 -0.5028081 -0.32614788 1.1417817 -0.42548454 0.15640005 0.4428282 0.09332229
0.05829924 0.45609325 0.00015013057 0.11585772 0.1570724 0.22856724 -0.065114245 -0.3202709
-0.20732123 -0.26526126 -0.91244054 -0.33373156 -0.15596254 0.24726765 0.39928547 -0.35384703
-0.36555433 -0.073008634 -0.4919668 0.1879458 -0.068077214 -0.19570598 0.36707854 -0.38682112
0.08803429 -0.22478558 0.055138085 0.11539719 0.42681268 0.5392648 -0.2598866 0.12423445
0.9132306 -0.3779221 0.45077163 0.4292175 -0.115607716 -0.35197 0.7192101 0.008254546
0.1306349 0.14834863 -0.3756679 0.111002564 -0.101716384 -0.97770005 -0.9570712 -0.27634105
-0.4345337 0.06913343 1.3226947 -0.5672343 2.0358584 0.20492823 -1.5231014 -0.53943664
0.2577548 0.33162087 -1.3635728 1.1933435 0.3066916 0.0066108913 -0.5209121 0.0038162782
-0.22129588 -0.87506664 0.001924491 -0.58962166 0.16216144 0.692774 -2.3038332 -0.54235774
-0.39892465 -0.052887768 -1.0025797 -0.68332493 -0.11373021 0.84448195 0.32488835 1.1371222
0.054793846 0.1419121 -2.1206262 0.16979834 -0.17938054 0.6424777 0.38195977 -0.14022665
0.17438278 -0.07715131 0.73163474 0.5880419 -0.02972668 0.7108401 -1.2361373 0.3466032
-0.69286597 -0.026241586 -0.6751621 0.53776115 0.56897736 0.09112208 0.80378675 -0.6727657
0.20959376 -2.835186 -0.9628096 -0.014577049 0.39054102 0.6930676 0.10957553 0.3393737
-0.66308147 0.46307537 -0.6218335 -0.41003263 -0.106555015 -0.54437745 0.7636002 -0.26193964
-0.027251087 0.666396 -0.5595808 0.41285875 0.105089664 -1.1703473 -0.76414675 -0.068487875
0.5875516 -0.28246918 -1.2175896 -0.3800116 0.20545432 -0.6811343 -0.09621665 0.5112804
-0.12757857 0.20672378 -0.3139555 -0.34998778 -0.10544822 -0.07388448 -1.784423 -0.24509448
0.027502768 0.39330965 -0.12808725 -0.599498 -0.5380779 0.022797495 -0.17146389 0.3679764
0.56823343 -0.018224189 -0.23886222 -0.38362676 0.092263594 -0.58005494 0.4471411 0.21962368
-0.26959983 0.22307992 -0.6023376 0.07640701 -0.7082229 0.6524269 -0.14240192 0.43098056
-0.2489155 0.24715151 0.31161407 -0.001807409 0.4610217 -0.006415574 0.35968944 0.051695872
0.1506108 -0.14978965 -0.5660805 -0.0706179 -0.6977616 0.29618087 0.17652227 0.43167648
-0.21143897 -0.032496966 -0.10273013 -0.6261835 0.03190457 -0.093764134 0.08956452 0.23992828
0.11402916 -0.6856804 0.058636084 0.119545504 0.13424814 -0.14052401 -0.058034595 0.17059492
00000000: a1b6 bf3e 10a2 593e 3f8e 1e3e ab00 77be
00000010: a126 193f ad36 acbe 8a9d 393f 549c 683e
00000020: 30e8 e8be 6b44 4fbe 89dd 03be df8c 05be
00000030: b17f 3e3f 849a 153f 5fac fcbe 9a3e 9a3e
00000040: 43cb abbf c643 3f3f 7ff5 cb3d 8e1b c53e
00000050: bb07 4dbf 62d8 83be c433 8ebd be0d 573f
00000060: 53e3 273f 5bdb fabe d78f 763e a67d 7a3f
00000070: 3286 23c0 3e9e ba3e 0db1 d3bd 3239 073f
00000080: abc9 65be 1c0e 083f 4f85 bfbe b073 bbbe
00000090: 2033 c3be c182 b23f 95df fcbe ed24 43bf
000000a0: a314 eebe 95a8 973f 5f94 933e 9fe0 9abd
000000b0: f9d3 a53e 1851 ca3e 3085 9d3e 4862 c83e
000000c0: 87ef 2abd 08b8 00bf dbfc a6be e725 923f
000000d0: 1cd9 d9be 5627 203e 61ba e23e c21f bf3d
000000e0: 2fcb 6e3d 0e85 e93e 5e6c 1d39 d046 ed3d
000000f0: 96d7 203e 880d 6a3e 9e5a 85bd 8cfa a3be
00000100: 044c 54be 53d0 87be b495 69bf ddde aabe
00000110: a5b4 1fbe bb33 7d3e 256f cc3e 702b b5be
00000120: f029 bbbe 8d85 95bd 13e3 fbbe dd74 403e
00000130: 116c 8bbd 2667 48be b8f1 bb3e 6b0d c6be
00000140: 524b b43d 312e 66be 79d8 613d 5d55 ec3d
00000150: 3187 da3e 420d 0a3f db0f 85be a26e fe3d
00000160: 7bc9 693f 017f c1be 8acb e63e 65c2 db3e
00000170: bdc3 ecbd 6935 b4be 271e 383f 133e 073c
00000180: 28c5 053e b4e8 173e 8b57 c0be 5055 e33d
00000190: ae50 d0bd 8d4a 7abf 9e02 75bf 937c 8dbe
000001a0: 337b debe d495 8d3d 0f4e a93f 4436 11bf
000001b0: 814b 0240 b5d8 513e fdf4 c2bf 8518 0abf
000001c0: 70f8 833e 36ca a93e 8e89 aebf 7bbf 983f
000001d0: ae06 9d3e 2da0 d83b 7f5a 05bf 861a 7a3b
000001e0: 639b 62be 5e04 60bf 343f fc3a 72f1 16bf
000001f0: a60d 263e a359 313f 0172 13c0 f5d7 0abf
00000200: da3f ccbe d8a0 58bd 8854 80bf 62ee 2ebf
00000210: 62eb e8bd f82f 583f c457 a63e 388d 913f
00000220: 836f 603d 6851 113e 57b8 07c0 9edf 2d3e
00000230: 88af 37be 6b79 243f 3b90 c33e 9397 0fbe
00000240: 6691 323e 8201 9ebd 6a4c 3b3f ea89 163f
00000250: 5e85 f3bc 9ef9 353f bf39 9ebf fa75 b13e
00000260: aa5f 31bf 98f8 d6bc 6cd7 2cbf b7aa 093f
00000270: 80a8 113f 379e ba3d f8c4 4d3f 5f3a 2cbf
00000280: bf9f 563e b073 35c0 b17a 76bf 93d4 6ebc
00000290: fef4 c73e e16c 313f 2369 e03d 64c2 ad3e
000002a0: b5bf 29bf 3718 ed3e 7b30 1fbf ccef d1be
000002b0: 8439 dabd 525c 0bbf 4d7b 433f f41c 86be
000002c0: ac3d dfbc ee98 2a3f b040 0fbf 3962 d33e
000002d0: 4039 d73d f1cd 95bf 1f9f 43bf 5f43 8cbd
000002e0: c869 163f cd9f 90be fad9 9bbf e190 c2be
000002f0: 9e62 523e d15e 2ebf 3c0d c5bd 46e3 023f
00000300: f5a3 02be 66af 533e c6be a0be 9931 b3be
00000310: 3df5 d7bd bf50 97bd f967 e4bf 0cfa 7abe
00000320: 7c4d e13c e25f c93e 4e29 03be b378 19bf
00000330: 79bf 09bf d0c1 ba3c 3b94 2fbe 6767 bc3e
00000340: bf77 113f e54a 95bc 4c98 74be ba6a c4be
00000350: b2f4 bc3d 7b7e 14bf aeef e43e 08e5 603e
00000360: fd08 8abe 106f 643e cc32 1abf 477b 9c3d
00000370: 194e 35bf 7305 273f cfd1 11be 7ca9 dc3e
00000380: b4e3 7ebe 4915 7d3e e18b 9f3e 95e6 ecba
00000390: 090b ec3e bc39 d2bb 3729 b83e 0dbf 533d
000003a0: b839 1a3e 7562 19be a7ea 10bf 1ea0 90bd
000003b0: 81a0 32bf 05a5 973e 41c2 343e b304 dd3e
000003c0: 7583 58be 8a1b 05bd 2d64 d2bd 904d 20bf
000003d0: 5eae 023d 6907 c0bd 9a6d b73d c2af 753e
000003e0: 1f88 e93d c088 2fbf 642c 703d 46d4 f43d
000003f0: 5878 093e 87e5 0fbe afb5 6dbd 6fb0 2e3e

arr_14 f4 [32]
0.08240552 0.06946907 0.082149565 0.07828251 0.07847993 0.07911804 0.08451147 0.07854897
0.079134256 0.079749614 0.074251786 0.07890348 0.08420842 0.083804734 0.082165636 0.08073679
0.080615245 0.083731666 0.08755765 0.0773385 0.07659887 0.0803817 0.07373327 0.075773954
0.08202178 0.07857563 0.080104165 0.088314965 0.08293115 0.07974187 0.07815711 0.08290266
00000000: 3ac4 a83d cd45 8e3d 083e a83d 9552 a03d
00000010: 16ba a03d a408 a23d 5914 ad3d 48de a03d
00000020: 2411 a23d c453 a33d 5211 983d 2698 a13d
00000030: 7775 ac3d d1a1 ab3d 7546 a83d 5559 a53d
00000040: 9b19 a53d 827b ab3d 6d51 b33d a663 9e3d
00000050: dedf 9c3d 299f a43d 7801 973d 602f 9b3d
00000060: 09fb a73d 43ec a03d a70d a43d 7ade b43d
00000070: cfd7 a93d b54f a33d d610 a03d dfc8 a93d

arr_17 f4 [23]
0.4880816 0.57049763 0.29700682 0.19213903 0.19582264 0.32789138 0.16115619 0.20355651
0.22640432 0.17436254 0.30688173 0.13595943 0.22031912 0.2221933 0.25237536 0.10076413
0.321791 0.20938647 0.105271116 0.18964386 0.18527429 0.15748939 0.20347548
00000000: d5e5 f93e 220c 123f 4711 983e 18c0 443e
00000010: bb85 483e 61e1 a73e 2106 253e 1e71 503e
00000020: 89d6 673e 188c 323e 9a1f 9d3e f338 0b3e
00000030: 569b 613e a486 633e 5837 813e 6d5d ce3d
00000040: cac1 a43e 6869 563e 6298 d73d 0032 423e
00000050: 8bb8 3d3e e644 213e e05b 503e

arr_16 f4 [23]
-0.15894593 -0.38703227 -0.007882334 0.0950717 0.097077034 -0.020058587 0.103393205 0.063998535
0.060187537 0.11849013 -0.15220495 0.107272625 -0.011022298 0.059024453 0.11826739 0.1258266
0.046187863 0.1447298 0.106244065 0.104342744 0.10307554 0.06344978 0.06783331
00000000: b9c2 22be 1829 c6be e824 01bc f4b4 c23d
00000010: 53d0 c63d e851 a4bc d1bf d33d aa11 833d
00000020: 3587 763d f4aa f23d 9ddb 1bbe c0b1 db3d
00000030: de96 34bc a0c3 713d 2c36 f23d b0d8 003e
00000040: 7c2f 3d3d 0c34 143e 7d96 d93d a6b1 d53d
00000050: 4519 d33d f5f1 813d 31ec 8a3d

arr_1 f4 [32]
-1.2967685 -0.19352645 -0.74722123 -1.0748076 -0.88304955 -0.7942755 -0.80907655 -0.60524625
-0.45631748 -0.12109202 -1.0523033 -0.38945794 -0.70462793 -0.78077006 -0.66318935 -0.9115172
-0.063544415 -0.5886451 -0.7326695 -0.62097716 -0.8414672 -0.51351684 -0.19060941 -0.6324131
-0.359117 -0.1661585 -0.43431434 -0.5291764 -0.99521 -0.35425958 -0.7776588 -0.533312
00000000: 83fc a5bf cc2b 46be e449 3fbf 4c93 89bf
00000010: 890f 62bf a455 4bbf a41f 4fbf 6bf1 1abf
00000020: 72a2 e9be 18ff f7bd e0b1 86bf 0867 c7be
00000030: 7f62 34bf 8ce0 47bf c7c6 29bf 3159 69bf
00000040: 9323 82bd 72b1 16bf 3a90 3bbf 5cf8 1ebf
00000050: 656a 57bf d775 03bf 1d2f 43be d3e5 21bf
00000060: 2fde b7be 7425 2abe 735e debe 1b78 07bf
00000070: 15c6 7ebf 8361 b5be a614 47bf 2387 08bf

arr_0 f4 [32, 32, 6, 6]
0.8783898 0.07940085 0.5119894 -0.16267744 -0.6572742 -0.34204406 -0.06885365 0.031854376
0.4847754 0.68880564 -1.0790056 -0.6524662 0.1051517 -0.1268847 0.3701305 -0.6272878
-0.23306018 0.6617609 -0.05935706 0.118057914 0.17184348 -0.40288213 0.2056572 0.48954615
0.6151025 0.07361644 -0.3011586 0.18080086 -0.4607953 0.11036966 0.6637967 0.35764718
0.001528232 -0.31238276 -0.077217795 -0.056722872 0.67197037 0.5781578 0.24321307 0.23295504
0.29640618 -0.5072001 -0.13524026 0.3804549 0.22642715 0.40798244 -0.31686834 -0.059899036
0.22903447 -0.29284754 -0.41027036 -0.52824783 -0.2585883 -0.5644519 0.4488782 -0.68505645
-0.4741631 -0.06567069 -0.6675759 -0.7100174 -0.6435356 -0.67542225 -0.10276811 0.16587132
-0.23123804 0.2506962 -0.6697322 -0.4765043 0.0007378917 -0.3242091 0.65968466 0.51860225
-0.4270888 -0.7451109 -0.27687666 0.59087574 0.59140784 0.21882124 0.27207783 -0.09477548
-0.037003964 1.0665389 0.3553497 -0.089605905 -0.068493865 -0.4631015 -0.20820805 -0.16767512
-0.39783946 -0.22001109 0.0901388 -0.39418635 -0.9993366 -1.2616017 -0.7168638 0.52242285
0.52718157 0.6802355 -0.17734577 -0.79816234 0.17816265 0.92222947 0.4971473 0.006071432
-0.7263744 -0.913592 -0.21072865 0.1875253 -0.08614653 0.8001941 -0.3404824 -0.009638122
-0.14421318 0.14884649 0.33109498 0.61446404 0.2555766 0.6377106 0.0020936106 -0.38927433
0.013803007 0.07846126 0.9007799 -0.16862275 -0.10085147 0.028541118 -0.35376996 -0.34148887
-0.29240212 -0.6346984 0.2591051 0.088794515 -0.6688176 -0.5664471 -0.21022414 -0.2758025
0.07184801 0.36010355 0.16325407 0.19157116 -0.15609175 -0.58220226 -0.6209208 0.13530955
0.5792388 1.3863496 0.49709922 -0.29690334 -0.62208134 -0.031435788 0.3627986 0.17221265
-0.3100366 0.3303499 -0.1723274 -0.008944479 0.40345645 0.40271577 -0.14393187 -0.77801704
0.113450736 -0.53675014 0.39517573 0.7982351 0.682631 0.57282335 0.104241066 -0.32093853
1.1335638 0.8565697 0.6194142 0.23964445 0.40831572 0.35281196 0.9420777 0.67829925
1.1034473 0.30759853 0.1150845 0.5942367 0.42824367 -0.3705881 -0.20622045 -0.5483482
-0.81388545 -1.3556734 0.0932616 -0.52791864 -0.53509396 -0.3111607 -0.5348925 -0.6905904
-0.37895778 -1.1030288 -0.6378557 -0.3609355 -0.67407495 -0.7370118 -0.27452183 -0.15385744
-0.06836046 0.47147557 -0.5015989 -1.1545057 -0.31693044 0.014307397 0.49553767 0.77369165
-0.2753923 -0.61902696 0.25727332 0.3855959 0.40350083 0.33102548 0.08820124 -0.24546847
0.3445145 -0.31848666 -0.31512183 -0.5421231 -0.64806706 -0.3065021 -0.12975627 -0.349777
0.3924 -0.19781539 -0.064191595 -0.63400114 -0.73138905 -0.6530123 -0.76431787 -0.5857017
-0.44966927 -0.69173545 -0.42200765 -1.045321 -0.94899374 -1.0533373 -0.11857299 -0.45723048
-0.80248004 -1.0526447 -0.57765245 -0.22753567 0.6312636 0.40946996 -0.36056015 -0.38848186
-0.37275356 0.28581452 1.4348915 1.0273771 -0.24906603 0.29190794 0.24123853 -0.006433632
00000000: 27de 603f ea9c a23d bd11 033f ea94 26be
00000010: 1f43 28bf 6620 afbe 2403 8dbd bc79 023d
00000020: 7b34 f83e 9155 303f db1c 8abf 0608 27bf
00000030: c659 d73d 10ee 01be bf81 bd3e ef95 20bf
00000040: 54a7 6ebe 2a69 293f 6320 73bd 59c8 f13d
00000050: bdf7 2f3e 9146 cebe cd97 523e cba5 fa3e
00000060: 5c77 1d3f 37c4 963d 7631 9abe dc23 393e
00000070: 5ded ebbe 7d09 e23d 95ee 293f 881d b73e
00000080: f54e c83a a2f0 9fbe 5d24 9ebd 3e56 68bd
00000090: 4006 2c3f 2602 143f d90c 793e c48b 6e3e
000000a0: 8dc2 973e ded7 01bf 6c7c 0abe fcca c23e
000000b0: 85dc 673e 13e3 d03e 913c a2be b158 75bd
000000c0: 0388 6a3e 1df0 95be f50e d2be 403b 07bf
000000d0: b065 84be eb7f 10bf 5dd3 e53e dc5f 2fbf
000000e0: 81c5 f2be 5b7e 86bd 41e6 2abf b3c3 35bf
000000f0: c0be 24bf 79e8 2cbf 1678 d2bd 2cda 293e
00000100: aac9 6cbe 415b 803e 9273 2bbf 5ff8 f3be
00000110: 136f 413a bcfe a5be 18e1 283f 1ec3 043f
00000120: 62ab dabe 97bf 3ebf c7c2 8dbe a243 173f
00000130: 8166 173f ad12 603e c94d 8b3e a619 c2bd
00000140: 7891 17bd 5984 883f 65f0 b53e 4d83 b7bd
00000150: 8346 8cbd a41b edbe 7e34 55be 07b3 2bbe
00000160: 9db1 cbbe 964a 61be b19a b83d cbd2 c9be
00000170: 86d4 7fbf 2a7c a1bf 6384 37bf 81bd 053f
00000180: 5ff5 063f ea23 2e3f 219a 35be 5e54 4cbf
00000190: 4570 363e 3b17 6c3f 178a fe3e ddf2 c63b
000001a0: acf3 39bf 2ae1 69bf 40c9 57be a206 403e
000001b0: 986d b0bd 85d9 4c3f b653 aebe 37e9 1dbc
000001c0: 9fac 13be 376b 183e 4885 a93e 844d 1d3f
000001d0: f0da 823e 0041 233f f534 093b f74e c7be
000001e0: 0226 623c 4cb0 a03d 8399 663f 71ab 2cbe
000001f0: 378b cebd 10cf e93c 5621 b5be a1d7 aebe
00000200: bbb5 95be 987b 22bf 6ca9 843e e6d9 b53d
00000210: a137 2bbf ad02 11bf ff44 57be fc35 8dbe
00000220: 0d25 933d 7e5f b83e 132c 273e 3b2b 443e
00000230: 84d6 1fbe 350b 15bf aaf4 1ebf 968e 0a3e
00000240: fe48 143f e773 b13f ca83 fe3e b703 98be
00000250: b940 1fbf d0c2 00bd bdc0 b93e 8358 303e
00000260: 1ebd 9ebe 9f23 a93e 9876 30be dd8b 12bc
00000270: d891 ce3e c330 ce3e e062 13be 202c 47bf
00000280: dc58 e83d 7568 09bf 7954 ca3e 2359 4c3f
00000290: e8c0 2e3f 8da4 123f 577c d53d 0e52 a4be
000002a0: 9e18 913f 2748 5b3f ee91 1e3f 5b65 753e
000002b0: c20e d13e c5a3 b43e 012c 713f 05a5 2d3f
000002c0: c33d 8d3f 8e7d 9d3e 6cb1 eb3d e51f 183f
000002d0: c142 db3e b9bd bdbe 742b 53be 8c60 0cbf
000002e0: cc5a 50bf b586 adbf f0ff be3d ad25 07bf
000002f0: ebfb 08bf 7550 9fbe b7ee 08bf 88ca 30bf
00000300: c106 c2be 0c30 8dbf 834a 23bf 8acc b8be
00000310: 2d90 2cbf ceac 3cbf 208e 8cbe ce8c 1dbe
00000320: 9200 8cbd 3f65 f13e c968 00bf d8c6 93bf
00000330: b544 a2be 9369 6a3c 1db7 fd3e a810 463f
00000340: 3800 8dbe 8d78 1ebf 54b9 833e d36c c53e
00000350: a997 ce3e 2c7c a93e daa2 b43d 165c 7bbe
00000360: 3464 b03e af10 a3be a657 a1be 94c8 0abf
00000370: b9e7 25bf d8ed 9cbe d4de 04be f915 b3be
00000380: a7e8 c83e 1e90 4abe e276 83bd e64d 22bf
00000390: 503c 3bbf d02b 27bf 56aa 43bf 8cf0 15bf
000003a0: 0d3b e6be 9315 31bf 6311 d8be 14cd 85bf
000003b0: 41f1 72bf c2d3 86bf 65d6 f2bd 1d1a eabe
000003c0: 556f 4dbf 10bd 86bf 08e1 13bf 1cff 68be
000003d0: 7e9a 213f 0ca6 d13e 579b b8be 18e7 c6be
000003e0: 8ed9 bebe 4856 923e 86aa b73f 1881 833f
000003f0: 2a0b 7fbe f574 953e 3c07 773e 38d1 d2bb

arr_3 f4 [32]
-2.500744 8.034139 -0.7368768 0.57973737 3.3060234 6.4437003 -6.4057617 -3.8648567
3.6859643 6.426527 1.5454793 -7.1340156 -1.8307282 -11.732933 -3.5498126 0.21505326
9.061613 -1.5298212 6.91148 -7.3573174 1.7441285 2.61787 4.62221 0.6723623
4.96994 10.071401 8.760212 3.0899055 5.1357245 5.1356587 4.7302766 0.6654677
00000000: 310c 20c0 d58b 0041 f5a3 3cbf ab69 143f
00000010: e395 5340 cb32 ce40 00fc ccc0 d059 77c0
00000020: d7e6 6b40 1ca6 cd40 44d2 c53f db49 e4c0
00000030: 4d55 eabf 18ba 3bc1 2130 63c0 ec36 5c3e
00000040: 5efc 1041 2ed1 c3bf d82a dd40 256f ebc0
00000050: 9a3f df3f 2f8b 2740 25e9 9340 f01f 2c3f
00000060: c009 9f40 7524 2141 d429 0c41 03c1 4540
00000070: db57 a440 5157 a440 6d5e 9740 175c 2a3f

arr_2 f4 [32]
1.5711164 1.648836 1.2887489 1.4349647 1.3149036 1.4893514 0.9634134 1.3581841
1.1976455 1.1364897 1.2635158 1.1884954 0.90578437 1.2509781 1.0774037 1.0489496
1.5619775 1.2177773 1.2933569 1.0554998 1.2460161 1.180796 1.2148271 1.1290461
1.0399157 1.6122215 1.1407824 0.96042794 1.3730384 1.6478393 1.495749 1.3087835
00000000: 581a c93f 0f0d d33f b9f5 a43f ecac b73f
00000010: c34e a83f 11a3 be3f 43a2 763f fad8 ad3f
00000020: 734c 993f 7f78 913f e3ba a13f 9e20 983f
00000030: 7ce1 673f 0d20 a03f 5de8 893f fb43 863f
00000040: e1ee c73f 20e0 9b3f b88c a53f 9e1a 873f
00000050: 757d 9f3f 5324 973f 747f 9b3f 9584 903f
00000060: f51b 853f 465d ce3f 2805 923f 9bde 753f
00000070: b9bf af3f 66ec d23f b474 bf3f 3886 a73f

arr_5 f4 [32, 32, 6, 6]
-0.27456158 -0.33823937 1.0463256 0.90771484 1.4936405 1.1058697 -0.709074 -1.0758715
-0.87555486 0.40964046 -0.60663134 0.46443105 0.23046891 -1.0839671 1.0214006 0.1547775
0.32839644 -0.14174318 -0.07493383 -0.12636618 1.3552002 -0.09410546 0.56307644 -0.11926354
0.23021506 0.21900354 1.0386491 1.2419494 0.69609666 0.4749924 0.3804292 0.0708445
-0.00050928775 0.2389352 1.0802082 -0.039543238 0.986453 -0.83780897 -0.2999527 -0.039655466
-1.2361805 -1.1838233 -0.47998622 0.04419067 0.20827843 0.05597188 -1.1214795 -0.33543184
-0.15731303 -0.20714043 1.2706671 1.0120623 -0.6547864 -0.50404274 0.130364 0.14242688
0.3213333 -0.13150603 -0.4901507 0.65192467 0.13812952 -0.49061146 -1.6307224 -0.39284983
-0.88044506 0.14523636 0.30644694 -1.0138954 -0.15663601 -0.4245106 -0.34606227 -1.0603373
1.0327824 0.52176803 0.55296695 0.017742064 -0.96194565 0.9837265 0.18906967 0.13622856
0.29864 -0.18751286 0.42829254 -0.3908024 -0.18903834 -0.090336286 -0.33546546 -0.49038222
-0.8634027 -0.22961017 -0.33929196 -0.6461269 -0.31689373 0.5589824 -0.64570445 -0.86568505
-0.541374 0.24701086 0.31832016 -1.2056566 0.19515045 0.26118377 -0.469527 0.3320123
0.09321623 -0.32921457 -0.45789003 -0.71272457 0.6838983 0.27838227 -0.23043455 1.2107412
0.75029534 0.7897139 1.0730414 -0.25334486 0.9594787 1.0004168 -0.090309136 -0.18818173
-0.63700247 -0.18959512 0.09481595 0.18724796 -0.21617398 0.48848197 -0.9412919 0.5815003
0.34487146 -0.6716959 0.33917838 0.23447317 -0.46184266 0.6902754 1.723882 -0.29266873
0.30955166 0.11344935 0.45182177 0.92870146 0.0880796 1.1540593 0.44192463 0.4116994
-1.0417873 0.61443126 1.2036451 -0.27701497 -0.119729474 -1.188508 -1.6114317 0.5382003
-0.42464554 -0.4974164 -0.79834074 1.0649142 -1.234337 0.23584333 -0.8774661 -1.259077
-0.34486493 0.87066793 0.3773477 -0.6938825 0.12479567 -0.8696806 -1.077023 0.050148625
1.0777409 0.98597336 -1.1396668 -1.1153634 -0.04748085 -0.16713144 -0.3679942 1.5738456
0.5072608 -0.09858009 -0.043344665 -0.6737506 -0.11471413 0.07771437 -0.18777248 -0.73229986
-0.46639663 0.32643694 -0.1512486 -0.26111427 0.37921548 -0.8129335 0.17891526 1.1593704
-0.02959864 -0.122765794 0.14634623 0.20532167 0.03781484 0.4796168 -0.41906404 -0.5792585
0.36903352 0.2225832 -0.18608208 -0.5521069 -0.66910505 0.7597441 -0.2714382 0.80968815
0.41290548 0.18246497 -0.1404403 -0.58565634 -0.2506318 0.24487934 0.51152533 0.35646152
0.18889117 -0.010030376 -0.12550156 0.84861076 0.9951207 -0.04417602 -0.622498 -0.92878056
0.48322016 0.52143246 0.35014048 0.21068469 0.59555966 0.11655942 -0.48864555 0.7374914
1.5634025 0.49827883 0.7972851 0.76866263 0.5099605 -0.28004572 1.1971588 0.8880418
-0.03868143 -0.66603166 -0.48489967 -0.70883715 0.14205614 0.71992147 -0.6045899 -0.45233285
1.4137437 1.5672531 -0.20063065 0.75344455 -0.21609631 0.4053661 0.94544595 1.0515754
00000000: 5693 8cbe b62d adbe ffed 853f 0060 683f
00000010: 9d2f bf3f 238d 8d3f e085 35bf 28b6 89bf
00000020: 5d24 60bf 65bc d13e 314c 1bbf e8c9 ed3e
00000030: 0b00 6c3e 6fbf 8abf 41bd 823f fe7d 1e3e
00000040: 9423 a83e 2025 11be e876 99bd 2366 01be
00000050: 3377 ad3f 5dba c0bd c725 103f 7140 f4bd
00000060: 7fbd 6b3e 7742 603e 74f2 843f 33f8 9e3f
00000070: 6433 323f 3432 f33e 9ec7 c23e ec16 913d
00000080: b981 05ba 6eab 743e 4344 8a3f 17f8 21bd
00000090: 2f88 7c3f a67a 56bf 6693 99be c56d 22bd
000000a0: 2a3b 9ebf 8687 97bf c1c0 f5be 4701 353d
000000b0: f146 553e c542 653d a48c 8fbf b9bd abbe
000000c0: ab16 21be 9f1c 54be 38a5 a23f 428b 813f
000000d0: 15a0 27bf f208 01bf 247e 053e 5ad8 113e
000000e0: cc85 a43e 84a9 06be 08f5 fabe 89e4 263f
000000f0: d371 0d3e 6d31 fbbe 83bb d0bf 9d23 c9be
00000100: d964 61bf d7b8 143e 9de6 9c3e 53c7 81bf
00000110: 3165 20be 7459 d9be 132f b1be 22b9 87bf
00000120: 3732 843f 9792 053f 3e8f 0d3f ce57 913c
00000130: 1242 76bf 80d5 7b3f 7b9b 413e 807f 0b3e
00000140: 58e7 983e 5f03 40be 2949 db3e 4117 c8be
00000150: 4493 41be 3b02 b9bd 21c2 abbe 6113 fbbe
00000160: f607 5dbf ee1e 6bbe adb7 adbe 9368 25bf
00000170: e53f a2be 7819 0f3f e34c 25bf 899d 5dbf
00000180: 7d97 0abf 6af0 7c3e dcfa a23e f552 9abf
00000190: 85d5 473e e1b9 853e d865 f0be 84fd a93e
000001a0: 27e8 be3d d08e a8be 9070 eabe 1e75 36bf
000001b0: f613 2f3f 1f88 8e3e 09f7 6bbe 91f9 9a3f
000001c0: 5b13 403f b12a 4a3f 6c59 893f 6bb6 81be
000001d0: 65a0 753f a80d 803f fff3 b8bd b6b2 40be
000001e0: 9812 23bf 3925 42be dd2e c23d eebd 3f3e
000001f0: b65c 5dbe 4f1a fa3e 82f8 70bf 34dd 143f
00000200: fe92 b03e 43f4 2bbf caa8 ad3e bc19 703e
00000210: a476 ecbe e3b5 303f 2aa8 dc3f add8 95be
00000220: 8e7d 9e3e 2258 e83d 2f55 e73e 61bf 6d3f
00000230: 1463 b43d 37b8 933f f243 e23e 44ca d23e
00000240: 4959 85bf 5e4b 1d3f 0b11 9a3f e8d4 8dbe
00000250: ba34 f5bd 0821 98bf 6543 cebf 7fc7 093f
00000260: 246b d9be 5dad febe 0f60 4cbf 1c4f 883f
00000270: c1fe 9dbf ea80 713e 9ea1 60bf 6f29 a1bf
00000280: 2392 b0be 18e4 5e3f b833 c13e 49a2 31bf
00000290: df94 ff3d 63a3 5ebf e4db 89bf a568 4d3d
000002a0: 6af3 893f c068 7c3f 9ae0 91bf 3ac4 8ebf
000002b0: 487b 42bd 8124 2bbe bc69 bcbe c673 c93f
000002c0: d8db 013f 5ce4 c9bd 2d8a 31bd eb7a 2cbf
000002d0: 3eef eabd b628 9f3d 6e47 40be 0178 3bbf
000002e0: 8acb eebe be22 a73e eae0 1abe c5b0 85be
000002f0: 8828 c23e 691c 50bf 9035 373e 4066 943f
00000300: d978 f2bc a26c fbbd c9db 153e d83f 523e
00000310: bce3 1a3d 5590 f53e 908f d6be 494a 14bf
00000320: f6f1 bc3e daec 633e 4d8c 3ebe e156 0dbf
00000330: 784a 2bbf 977e 423f f3f9 8abe b947 4f3f
00000340: 5968 d33e 19d8 3a3e 95cf 0fbe 93ed 15bf
00000350: d052 80be a6c1 7a3e 53f3 023f 2082 b63e
00000360: b06c 413e 7256 24bc 7b83 00be 8e3e 593f
00000370: 3bc0 7e3f eaf1 34bd 075c 1fbf 90c4 6dbf
00000380: a268 f73e 997c 053f 9d45 b33e babd 573e
00000390: 9976 183f b5b6 ee3d c02f fabe 3dcc 3c3f
000003a0: 931d c83f 671e ff3e e01a 4c3f 13c7 443f
000003b0: c58c 023f 2762 8fbe 803c 993f b556 633f
000003c0: 6b70 1ebd 0d81 2abf c544 f8be 5a76 35bf
000003d0: 2a77 113e c64c 383f 67c6 1abf 2c98 e7be
000003e0: 8ef5 b43f c09b c83f 1f72 4dbe bee1 403f
000003f0: 5a48 5dbe 258c cf3e bf08 723f 069a 863f

arr_4 f4 [32]
0.04989582 0.048014004 0.06739908 0.070644885 0.06333737 0.051850904 0.072172455 0.056835666
0.05536458 0.05644653 0.06000694 0.060868327 0.0754612 0.066072315 0.05683309 0.06143404
0.04522757 0.06237263 0.058092766 0.06951953 0.060929712 0.058992594 0.051871058 0.06144571
0.068781815 0.05923795 0.06373738 0.076210566 0.05740987 0.053070534 0.0513801 0.056842566
00000000: 8f5f 4c3d 55aa 443d 8708 8a3d 44ae 903d
00000010: 06b7 813d 9d61 543d 27cf 933d 84cc 683d
00000020: f8c5 623d 7a34 673d d6c9 753d 1151 793d
00000030: 678b 9a3d ec50 873d d0c9 683d 43a2 7b3d
00000040: 8b40 393d 717a 7f3d aef2 6d3d 4160 8e3d
00000050: 6f91 793d 38a2 713d bf76 543d 7fae 7b3d
00000060: 7bdd 8c3d 7ea3 723d be88 823d 4914 9c3d
00000070: 9d26 6b3d 7d60 593d f173 523d c0d3 683d

arr_7 f4 [32]
1.1073953 1.1418507 1.5468218 1.0958849 1.0135777 1.3403884 1.280546 1.2481203
1.3640456 1.316613 1.3388904 1.2031864 1.0788138 1.336843 1.2786275 1.4271117
1.424833 1.2208251 1.2180947 1.1455381 1.3202205 1.3889129 1.0071276 1.0833488
1.1075411 1.2813525 1.1940473 1.0764934 1.7732294 1.0670764 1.4204298 1.1510886
00000000: 21bf 8d3f 2a28 923f 42fe c53f f545 8c3f
00000010: eabc 813f d991 ab3f eee8 a33f 68c2 9f3f
00000020: 0c99 ae3f c686 a83f c360 ab3f 0302 9a3f
00000030: 9216 8a3f ac1d ab3f 11aa a33f 99ab b63f
00000040: ee60 b63f ff43 9c3f 87ea 9b3f fea0 923f
00000050: fcfc a83f e6c7 b13f 8fe9 803f 2cab 8a3f
00000060: e8c3 8d3f 5c03 a43f 8bd6 983f 89ca 893f
00000070: 2ef9 e23f f695 883f a5d0 b53f df56 933f

arr_6 f4 [32]
-0.76027185 -0.5361277 -0.83970344 -0.4735995 -0.4189914 -1.0804907 -0.7319782 -0.78641367
-0.96065515 -0.91285616 -0.6896166 -0.45337328 -0.6161256 -0.9781478 -0.81268525 -1.1250443
-1.1453531 -0.8641324 -0.6064603 -0.52062476 -0.83759624 -1.338613 -0.42489374 -0.65565026
-0.6410451 -0.7317404 -0.77033144 -0.5242514 -0.6584152 -0.5896731 -0.80572927 -0.35871252
00000000: 2da1 42bf aa3f 09bf cef6 56bf a27b f2be
00000010: 0a86 d6be 854d 8abf ec62 3bbf 6852 49bf
00000020: 7fed 75bf f1b0 69bf b78a 30bf 8b20 e8be
00000030: 68ba 1dbf e567 7abf 240c 50bf 7401 90bf
00000040: ee9a 92bf c837 5dbf fb40 1bbf aa47 05bf
00000050: b56c 56bf ac57 abbf ac8b d9be b2d8 27bf
00000060: 881b 24bf 5753 3bbf 7134 45bf 5735 06bf
00000070: e68d 28bf d1f4 16bf 4644 4ebf 2ba9 b7be

arr_9 f4 [32]
0.067244686 0.06641868 0.055180162 0.07277777 0.07092583 0.073354065 0.06451801 0.06416219
0.07151017 0.0606502 0.06025393 0.06348223 0.06909557 0.0760394 0.06920279 0.062406123
0.06729835 0.06902225 0.065841585 0.06332402 0.066057414 0.059706785 0.07138071 0.066740714
0.07220269 0.05930842 0.07225848 0.06622272 0.049373813 0.06822408 0.05850811 0.06380838
00000000: 95b7 893d 8406 883d 9804 623d 830c 953d
00000010: 9041 913d a83a 963d 0522 843d 7767 833d
00000020: ed73 923d 586c 783d d3cc 763d f902 823d
00000030: fa81 8d3d 8cba 9b3d 31ba 8d3d 909d 7f3d
00000040: b8d3 893d 8a5b 8d3d f4d7 863d 06b0 813d
00000050: 1c49 873d 1a8f 743d 0d30 923d 5baf 883d
00000060: 01df 933d 63ed 723d 41fc 933d c79f 873d
00000070: 323c 4a3d 11b9 8b3d 33a6 6f3d f8ad 823d

arr_8 f4 [32]
2.4900851 1.3735765 8.73808 -1.2857653 -2.7972596 -0.4705426 2.442219 1.4260857
2.238278 -0.4278828 -11.191589 4.2354684 0.08196674 3.243275 5.024645 3.047859
-0.08802573 3.5371947 -1.317798 -0.7724349 2.8310099 5.767941 -1.8859799 -1.9437985
-3.9945319 -0.73828924 1.1586444 4.212199 10.460429 3.9076748 5.4891696 -10.185007
00000000: 8e5d 1f40 5bd1 af3f 2dcf 0b41 f593 a4bf
00000010: 4d06 33c0 f6ea f0be 514d 1c40 fa89 b63f
00000020: f23f 0f40 7413 dbbe c010 33c1 f588 8740
00000030: 2ede a73d d191 4f40 e4c9 a040 1f10 4340
00000040: d546 b4bd 6661 6240 9bad a8bf 4bbe 45bf
00000050: 442f 3540 f992 b840 ca67 f1bf 64ce f8bf
00000060: 69a6 7fc0 8600 3dbf 764e 943f 56ca 8640
00000070: eb5d 2741 5817 7a40 47a7 af40 caf5 22c1
