pretrained_model/NYU_pretrained/params/-1_dis_params.npz (npz, 603798 bytes, 26 tensors)

arr_24 f4 [32]
00000000: 4b43 cf3e eb4e d63e d007 cd3e 23fc d03e
00000010: efab d43e 015a c33e 93d4 d33e 95af be3e
00000020: 4b4f d33e 7fd3 cb3e 0143 cc3e 6933 cd3e
00000030: 9ce8 bc3e dc58 ba3e a0f2 c33e e0a3 c43e
00000040: 8a8a c33e 8766 e03e ea37 d33e 506c cf3e
00000050: f1fc c63e e262 c63e c94f c53e 1063 cd3e
00000060: ae57 cb3e f59f c63e 7d66 d63e 74be c33e
00000070: 8c65 c63e 60fb c43e 6970 bd3e 978e d73e
0.40481028 0.41857085 0.40045023 0.40817365 0.41537425 0.38154605 0.4137312 0.37243333
0.41271433 0.39809796 0.3989487 0.40078285 0.36896217 0.3639592 0.38271046 0.38406277
0.38191634 0.43828222 0.41253597 0.40512323 0.38864854 0.38747317 0.38537434 0.4011464
0.39715332 0.38793913 0.41875067 0.38231242 0.3874935 0.38473034 0.36999825 0.42100975

arr_25 f4 [512, 1]
00000000: 27d8 95be a368 77be 173c 2c3e 86a1 4e3f
00000010: 176b 483f 7343 5abe 756d b1bc d22b 3abe
00000020: 147a cb3d fbdc 373d f82f 5abe da5e 103f
00000030: f6ee 623f 331c 513e b124 2bbe ec66 e83e
00000040: cb59 62bf 4f7b 4a3f 1459 153e bc22 c8bc
00000050: ab7d b1be e127 453c 6ca1 ebbd b220 f73c
00000060: 0b38 223f 187f 23be b661 d73e ceec c8be
00000070: d5ea 353f ccb3 2abf 5404 ec3e 07e2 0abf
00000080: d6fb 793f c830 87bb 3e0e 2e3d 05f7 443f
00000090: de55 3f3f 534a a8bd e8f5 00bd b50e febd
000000a0: 1f62 63be 03f9 573e 10c0 44be a381 2b3d
000000b0: 8a00 243e c25d 6d3e 9a80 71be f9c7 a7bc
000000c0: 1c6d 86bf 47b9 3dbf bd2b 30bf 59a1 7dbc
000000d0: b107 523e 5f8b a23e 4d01 b73e 726a cabe
000000e0: 32b2 d0be a104 09bb 4194 0f3d aaf2 2dbf
000000f0: 802b c33e aee6 003f ae97 9abd 0def cdbe
00000100: 9919 3c3f 3462 913e ce8a 433d afe4 fc3e
00000110: ab81 803e 1a30 27bf f17a dcbb 5d55 48bf
00000120: 67fc 6dbf 2d9b 293d 537f be3d 4e6d e23e
00000130: 6466 57bf a9da 663e 4606 20bf 71af 273f
00000140: dcc2 25bf 2220 dcbe 652a 9a3e b5c7 9a3f
00000150: 6c92 593f 9aa7 bfbe f734 4abc 77ee f5be
00000160: ddaa 963e 173d e5bd 53ad 713e 404a 16bd
00000170: 4ef3 0b3f bc2c 4cbe cdc1 13bf 901a 1abf
00000180: 4aa0 55bf d277 013f 8c4a 5bbf 7333 b2bd
00000190: 3882 b7be cc2b 12be f05a 923e 4ff7 20bf
000001a0: 0668 31bf f3ad a03e ccd1 3b3d fe72 f5bb
000001b0: fab4 27bf 4351 40bf e70d 033f 4dac 26bf
000001c0: 4bbc 6b3e 2d38 303f 3aa7 143f f07c 163f
000001d0: dfed 313f fb26 c7be e78d 37be aad5 09be
000001e0: 7d42 27bf 6028 89be 88ea 0abe 5594 443e
000001f0: 13ff 3dbe 241d 7ebe dd76 16be 9b86 723d
00000200: b8a7 6dbf b37e 633e 3160 3fbe ed86 c7be
00000210: 650f 603f 532b d73e 3ae7 003e fcd9 dcbc
00000220: d908 06bf d647 1abf d8aa 053e 1ec2 403e
00000230: 872d 0bbf 2fb0 0e3e 93f7 1cbe 1163 fcbc
00000240: 9509 7a3f 591c 7dbc 4b7d e6bd 3530 b7bc
00000250: ea1c 23be 7286 363f f1a7 d6bd e271 cdbd
00000260: 7936 6c3f f857 89be c908 5fbe ef3e 01be
00000270: f45b 1dbe 3144 153f e442 253f b3c8 88be
00000280: 2aea a0be 87de c6bc 7418 73be bbf4 5ebf
00000290: 60a3 9c3d 1149 49bf 6ade 303e 730e 8c3e
000002a0: 8be5 ef3e 511b f23e 2cce 1e3e 1a3e a03e
000002b0: 0a88 15bf 1435 f1be 376b 1bbe 5743 2fbf
000002c0: 233c 33bf bb6b ae3e 71f8 73bd 09da e83e
000002d0: 6a9d 50bf a3ba f93e 019b 7ebd ace4 1cbf
000002e0: fd78 00be d9b7 efbd 4107 7ebc 7c21 9b3e
000002f0: 1a5b 02bf 99f5 d2bd 9bdf 0a3d 5eee 75bf
00000300: c896 36bf 2a57 dd3e b93e c53e 579c d8be
00000310: c523 1dbd b0d8 c93d 216e 6a3e dac2 f4be
00000320: c8b5 89bd 3869 10be c144 98bd 259e c03d
00000330: 53d9 f2bd 41b7 1ebf ecd3 0f3f ec94 0cbf
00000340: b374 893e 0fa1 1bbe 8f2d e2be a366 bf3e
00000350: 1928 fdbe ddb2 bebd e184 3a3e 203e d7be
00000360: 27b7 e23e 16f1 a33e 6e20 9abe ed6b 003f
00000370: 4507 c23e f825 18be 5ac3 203e 881a a43e
00000380: 58d2 08bf fb30 72be bba0 43bd a8f9 c6be
00000390: 22cc 843e 3bc2 fa3e caab 703e ec45 a1be
000003a0: 6c08 f1be 98ed ecbe f40f 233d c928 c8be
000003b0: 2f92 983f 3d17 1d3f 3739 d7be dc03 f23e
000003c0: 34db 093f 964a 43be 286d 563d 5c16 c0be
000003d0: f6ef ff3e 0fa8 ebbe fac3 94be f4d6 64bd
000003e0: 237c f83e 5253 f9bd 6852 463f 2cfe a8bb
000003f0: d411 4a3e ad7b 4d3f a7ff eebe c25b 303f
-0.29266474 -0.2416101 0.16819797 0.80715215 0.78288406 -0.21314792 -0.021658638 -0.18180779
0.09935394 0.044888478 -0.21307361 0.5639473 0.88645875 0.20420913 -0.16713215 0.45391023
-0.88418263 0.79094404 0.14584762 -0.024430625 -0.3466619 0.012033434 -0.11505398 0.030166958
0.63366765 -0.15966451 0.42066735 -0.39243168 0.7106145 -0.666806 0.46097052 -0.5425114
0.97649896 -0.004125688 0.04249405 0.7693942 0.747404 -0.08217301 -0.031484514 -0.12405149
-0.22205399 0.21091084 -0.19213891 0.041871678 0.1601583 0.23180297 -0.23584214 -0.020481097
-1.0502048 -0.74110836 -0.6881674 -0.015480363 0.20510747 0.31746957 0.3574318 -0.39534336
-0.40760952 -0.00209073 0.035053495 -0.679484 0.38119125 0.5035199 -0.07548462 -0.40221444
0.7347656 0.28395236 0.047739796 0.49393222 0.2509893 -0.6530777 -0.006728523 -0.78255254
-0.9296326 0.041407753 0.09301629 0.44224018 -0.8414061 0.2254435 -0.6250957 0.6550208
-0.64750457 -0.42993265 0.3011047 1.2092196 0.8498905 -0.37432557 -0.012341729 -0.48033497
0.29427233 -0.111932926 0.23601274 -0.036691904 0.5466813 -0.1993894 -0.5771759 -0.6019678
-0.83447707 0.50573456 -0.85660625 -0.087012194 -0.35841537 -0.1427452 0.28585005 -0.6287736
-0.6929935 0.31382713 0.045854375 -0.007490515 -0.65510523 -0.75123996 0.5119309 -0.6510666
0.23021047 0.6883572 0.5806767 0.5878439 0.6950359 -0.38896927 -0.17925225 -0.13460413
-0.6533583 -0.26788616 -0.13566029 0.19197209 -0.18554334 -0.24815804 -0.1469378 0.0592104
-0.92834044 0.222163 -0.18689038 -0.38970128 0.8752349 0.4202524 0.12588206 -0.026959412
-0.5235725 -0.6026586 0.13053453 0.1882405 -0.54366344 0.13934396 -0.15328817 -0.030808957
0.9767087 -0.015448653 -0.112543665 -0.022361854 -0.15928999 0.712989 -0.10481251 -0.10031487
0.9227062 -0.26824927 -0.21780695 -0.12621664 -0.15367109 0.58307177 0.6455519 -0.2671562
-0.31428653 -0.024276031 -0.23739797 -0.8709218 0.07648349 -0.78627115 0.17272344 0.27354774
0.46854815 0.47286466 0.15508336 0.3129738 -0.58410704 -0.47110808 -0.15177618 -0.6846213
-0.70013636 0.34066567 -0.059563104 0.45478848 -0.81490195 0.48775205 -0.062159542 -0.61286426
-0.12546153 -0.11704988 -0.015504659 0.30298984 -0.5092026 -0.1030075 0.033904653 -0.96066844
-0.71323824 0.43230563 0.38524416 -0.42306778 -0.03836419 0.09855783 0.22893573 -0.4780491
-0.06724125 -0.14102638 -0.07434989 0.09405164 -0.118578576 -0.61998373 0.5618274 -0.54914737
0.26846847 -0.15198158 -0.44175383 0.37382993 -0.49444655 -0.09311459 0.18214752 -0.42039585
0.4428036 0.3201987 -0.30102867 0.5016468 0.3789617 -0.14858234 0.1569952 0.32051492
-0.5344596 -0.23651497 -0.047760706 -0.38862348 0.2593699 0.4897631 0.23503032 -0.3149866
-0.47076738 -0.4627502 0.039810136 -0.39093617 1.1919612 0.61363584 -0.4203584 0.4726857
0.538501 -0.19071421 0.052350193 -0.3751706 0.49987763 -0.46026656 -0.29055768 -0.055869058
0.4853221 -0.12174095 0.7746949 -0.005157253 0.19733363 0.8026684 -0.46679422 0.6889001

arr_20 f4 [32, 32, 6, 6]
00000000: 6a49 a73e 1dca af3e fc0e 08bd 1a03 f93d
00000010: 5ac5 9c3e 0e95 e3bd 469f 93bd b789 c0bd
00000020: 78ba d3bd 7184 78bc dbff a63e 3566 013f
00000030: fdc1 27bd b966 523e 1aed e53d 407b 05bd
00000040: 1d11 893e 7ccc 6f3e 146e d13d d142 57bc
00000050: c7e5 c03d 221f 7d3d 87dd e6bd fadb e9bd
00000060: e321 163e 3da3 253d 07e7 09be d847 193e
00000070: f67c 7a3e e14b 383e 1e77 8e3d e39b d2bd
00000080: c15f 533d 690e ccbd 7726 b0be 799f 15be
00000090: 08b8 40be 9e53 18be edcc 303d 30f7 acbd
000000a0: 3825 2cbe 67a9 9a3e f74a fdbc f1a7 d63e
000000b0: 5e41 433d 4f7e 12be 4f4a 4ebd 4eb3 023f
000000c0: 20c3 98bd cf2a d93d fe61 a4bd ce63 103c
000000d0: af7a d13d 80b5 963e 6454 9abd 158f 61be
000000e0: 5873 723c db48 683e 5477 c1bd 6f82 0a3d
000000f0: ed6f dcbc 2c86 753e cc16 62bd 346a 9d3a
00000100: 0d3a b9bd 5946 ddbe befe e1bd f285 8fbe
00000110: 09fd 0a3e 1ee1 2a3e c054 6b3e 88f1 d33e
00000120: b871 61be 3c91 503e 3fd7 d73e d45c b6be
00000130: 582b 50be 1658 c53e 4b0b 62be acb7 68be
00000140: dc51 89be e277 b53d e808 6abe e8b8 35bd
00000150: a5c5 b43d 5e0f da3d 8939 aebb b580 253e
00000160: 3945 dd3d 2385 69be 80d8 50be 1d3d a2bd
00000170: 27af b23d 533a 57bd 7168 80be 439e a43d
00000180: b78e a83d 824b 8abd bde4 01be 960f b63e
00000190: aa96 5fbe fbca 65bd a669 4e3d 6dc3 c13e
000001a0: 71ee 0b3d 8589 ae3c f2ae 9bbe 1215 363c
000001b0: d67c 523c b82e 9fbe d341 04be 2db6 9b3d
000001c0: 4eba 1b3d 0af0 913e 0ae6 8c3e b3fc b3bb
000001d0: 6ae5 623c 47e3 49bd 3837 58be 8050 29be
000001e0: 6034 c3bd c119 5dbe a44e 973e 154e 3b3d
000001f0: 8304 e23c fa14 57be 6e10 cdbd 95ed dcbc
00000200: e554 d03a 6fe0 e4bd e697 98be 460e f9bc
00000210: 648f b13d c49c 823e 5791 9fbb 41f1 9d3d
00000220: 7b82 183e 4d3d afbd 1a97 123e 6511 bc3c
00000230: 6bb7 893e de7a 5a3e b953 8dbc d292 413b
00000240: e616 32be 4fda b5be 38ef 31be 56a2 a03d
00000250: 822f 393e 8fa3 223d 6733 98be 198a 5fbe
00000260: 57f4 f83e bdc1 5cbe c38e 13bf 093c 863d
00000270: 3a30 733e 11a9 99be c5a9 493e 03e7 afbd
00000280: d9e0 f73c 0fe1 c1be b30d 9bbd 1614 843a
00000290: d602 e23d 13cb dcbc d818 23be f775 63bc
000002a0: ca37 4bbd da56 493e 1d32 1dbe 1600 c9bd
000002b0: 49e6 abbe 95af b23e 6f23 913e f33d 883c
000002c0: b333 06bd 840a 9cbe aa0c c0bd 98bb 003c
000002d0: ec94 3cbe f2b6 08be 682e 0dbe 82f7 c9bc
000002e0: 0412 503e 0c80 1d3e 97d5 123d f00b 5b3c
000002f0: a6cd b1bc fbcb 1abe 08b9 12bc db70 72bc
00000300: 7c7a f53d 70ee 8cbe b6ee d2bd 9f1d b43c
00000310: 6915 13be 61b9 bcbd 5598 50be f83e 88be
00000320: ff92 c9bd 55ea db3d 5be7 b73e 478b c93d
00000330: cd0f 9ebb dc82 163e 695d 3d3d 9d70 613e
00000340: f646 023d 350e 53be 42c2 04be 7687 37be
00000350: 44bc 123d 2505 c7bd ea27 a3bd 0bc0 853d
00000360: 2464 ab3c 2245 6a3d 07a7 c93c a56f b3bd
00000370: 09bc b6bd 4e7b b8bd bc22 33bd 51bc 4abe
00000380: 00ad a03d 3465 75bd 59e7 c8be b9c6 c03d
00000390: d884 043d b52b 61be b5b1 863d c2ab 803e
000003a0: fe96 083d 794f e5be cf2c e2bd 8b77 e8bd
000003b0: 6519 9dbe 511b 06be d862 53be 2dbc e73a
000003c0: 806f 30bd 7bc3 1e3e 6020 8b3e ca8e 893d
000003d0: 766b 9a3d e890 383d d403 cbbc 0ecb d6bc
000003e0: 04e6 5ebe a9e4 13be 895b 7fbe 4527 acbe
000003f0: 9906 a2be 7211 ccbb 3568 a4bd f195 573e
0.32673198 0.34333888 -0.033217415 0.12158795 0.30619317 -0.11112414 -0.07208113 -0.09401267
-0.103383005 -0.015168295 0.32617077 0.5054658 -0.040956486 0.20546998 0.11226864 -0.032588243
0.2677087 0.23417848 0.10226074 -0.013138489 0.094188266 0.06179727 -0.11272722 -0.1141891
0.14661364 0.04043888 -0.13467036 0.14968812 0.24461731 0.17997696 0.069563136 -0.10283639
0.05160499 -0.09963686 -0.34404346 -0.14611615 -0.18820202 -0.14875647 0.043164182 -0.08445585
-0.16811073 0.3020737 -0.030919535 0.41925004 0.04766976 -0.14305995 -0.050363835 0.5105485
-0.07459092 0.10603868 -0.08026503 0.008812858 0.10228478 0.2943535 -0.075356275 -0.22027238
0.014798008 0.22684042 -0.09446588 0.033815797 -0.02690884 0.23976964 -0.055197522 0.00120098
-0.090442754 -0.43217734 -0.11034916 -0.2803188 0.13573088 0.16687438 0.22981548 0.4139521
-0.22016037 0.20367903 0.42156407 -0.35617697 -0.20329034 0.38543767 -0.2207462 -0.22726315
-0.26820266 0.088607565 -0.2285496 -0.044365793 0.0882676 0.10647462 -0.0053169173 0.16162379
0.10804219 -0.22804694 -0.20395088 -0.07921813 0.08724814 -0.052545857 -0.25079682 0.080379985
0.08230346 -0.06752683 -0.12684913 0.35558766 -0.21834818 -0.05610178 0.050393723 0.3784441
0.034162942 0.021305809 -0.3040691 0.011113422 0.012847146 -0.3109033 -0.12915735 0.07603107
0.03801947 0.28503448 0.27519256 -0.0054927706 0.013848642 -0.049289014 -0.21114814 -0.16534615
-0.09531474 -0.21591856 0.29552186 0.04572876 0.027590042 -0.21004096 -0.10012899 -0.026968757
0.0015894441 -0.1117562 -0.2980339 -0.030402314 0.08669928 0.25510228 -0.004869621 0.07712031
0.14893524 -0.08556614 0.14315453 0.022957513 0.2689775 0.21335933 -0.017251836 0.0029536975
-0.17391548 -0.3551812 -0.17376411 0.07843463 0.18084529 0.039706763 -0.29726717 -0.21830024
0.48623917 -0.2155828 -0.5763971 0.065544195 0.23748866 -0.300118 0.19693668 -0.08588984
0.030258583 -0.3786702 -0.07570972 0.0010076787 0.11035697 -0.026952302 -0.15927446 -0.0138831055
-0.04961375 0.19662037 -0.15351148 -0.098144695 -0.3357413 0.34899583 0.28347346 0.016631102
-0.032764148 -0.30476773 -0.093774155 0.007857226 -0.18416184 -0.13351038 -0.13787234 -0.024654154
0.20319372 0.15380877 0.035848226 0.013369545 -0.021704506 -0.15116875 -0.008955248 -0.014797415
0.11986253 -0.27525663 -0.10299437 0.02198678 -0.14363636 -0.09215046 -0.2037061 -0.2661054
-0.098424904 0.10738055 0.35918698 0.09841018 -0.004823661 0.14698356 0.04623166 0.22015615
0.031805955 -0.20610888 -0.12964728 -0.17922768 0.035824075 -0.09717778 -0.079665974 0.0653077
0.020921774 0.057194836 0.024615778 -0.08761529 -0.089225836 -0.090078935 -0.043734297 -0.197984
0.07845497 -0.059910968 -0.39239004 0.09412903 0.032353252 -0.21989329 0.06576864 0.2513104
0.033347122 -0.44787195 -0.11043703 -0.11350926 -0.30683437 -0.13096358 -0.20643175 0.0017679982
-0.043075085 0.15504257 0.27173138 0.06716688 0.07540028 0.04506007 -0.024782099 -0.02621987
-0.21767431 -0.14442696 -0.24937262 -0.3362371 -0.3164566 -0.0062276656 -0.080276884 0.21053292

arr_21 f4 [32]
00000000: b279 f03d b32c a53d 4294 373e fe90 533c
00000010: cff4 993d 4abc 223e 3b8f bb3c 4126 fd3e
00000020: 730a 2a3e db39 0a3e 985e 89bd b411 9fbd
00000030: 4cb8 38be ff37 1c3e f56a c73d 6995 1f3e
00000040: 2f12 e43b cb3b a63c 8a30 a23e 45cb e73d
00000050: 269a c43d 14a3 183e 9038 a0bc c428 8e3e
00000060: 9268 f1ba c693 e53d 0480 803d 6ddf f73d
00000070: 7848 c83e 4f5f 6c39 9074 ff3c b4cc dcbd
0.117419615 0.08065166 0.1792765 0.012912987 0.07517397 0.15892139 0.022895446 0.49443248
0.16605549 0.13498633 -0.067074955 -0.077670485 -0.18039054 0.15255736 0.09737197 0.15584339
0.0069601755 0.020292183 0.31677657 0.113180675 0.09599714 0.1490596 -0.019558221 0.27765477
-0.0018418005 0.11209826 0.06274417 0.12103162 0.3911779 0.00022542219 0.031183511 -0.107812315

arr_22 f4 [32]
00000000: 3a63 f53f 59b5 d73f 4315 f03f d492 de3f
00000010: 7078 e93f 0378 df3f e182 e43f e26d cf3f
00000020: 3e8e ff3f 10ab de3f 476c d33f 2270 ea3f
00000030: 1bb7 d13f 5834 f83f 38fb c73f 4612 d63f
00000040: a432 dd3f d2cd f03f 76d4 e53f 5c16 de3f
00000050: edc4 db3f 360d e53f 168a e63f 7c79 ef3f
00000060: 545d ce3f 94ca e13f 849d ed3f feee dc3f
00000070: 5ea7 f73f 87fb ea3f 0687 e43f 72cc d93f
1.9170907 1.6852218 1.8756489 1.7388558 1.823988 1.74585 1.7852441 1.6205409
1.9965284 1.7395954 1.6517419 1.831547 1.6384004 1.9390974 1.5623541 1.6724327
1.7281079 1.8812811 1.7955463 1.7350574 1.7169472 1.7894657 1.801089 1.8708949
1.6122231 1.7639947 1.8563695 1.7260435 1.9347951 1.835801 1.7853706 1.7015517

arr_23 f4 [32]
00000000: 7c52 69bf 45c5 0d3e e3db 96bf c29b ebbd
00000010: b340 283f 0571 b9bd b5f5 cbbf 08f8 4dbe
00000020: a504 c2bf 7941 493f 00de 84bf 4eb9 48bf
00000030: b672 9ebf cc6e 963f bac8 d83e a3a8 64bf
00000040: 6fe5 31be 8d82 99bd 120b 12bf 53d5 5cbf
00000050: d983 f0bc a9bf a0bf 6f19 a7bf c84b 7cbe
00000060: c290 76bf 38fa ec3d e745 133f 8da5 17bf
00000070: 3144 033f 70fd 59be aa10 10bf 49c5 83be
-0.91141486 0.13844784 -1.1785854 -0.11504318 0.65723723 -0.0905476 -1.5934359 -0.20114148
-1.5157667 0.7861553 -1.0380249 -0.7840775 -1.2378757 1.1752563 0.42340642 -0.8931982
-0.17372678 -0.07495604 -0.5704814 -0.86263007 -0.029359745 -1.255849 -1.3054637 -0.24638283
-0.9631463 0.11571163 0.5752854 -0.59236985 0.51275927 -0.21288085 -0.5627543 -0.25736454

arr_19 f4 [32]
00000000: 2d5f ad3e 8534 b43e 7ef8 923e 8b82 a83e
00000010: a0d7 7c3e 0a32 b43e b0ae a83e 8575 8d3e
00000020: e907 c93e dec9 d03e 0f9d 9c3e 3340 a03e
00000030: d743 8f3e f246 703e 066f 883e 6ce4 873e
00000040: a552 b13e 6a65 9f3e 9e03 9f3e 7b98 a93e
00000050: 0b1d 8f3e 2c59 a13e a1a5 a33e 4fbb a73e
00000060: e767 b53e 8306 9d3e 8210 aa3e 2ea3 a63e
00000070: defb bb3e d902 be3e 93c2 a63e 0009 a83e
0.33861676 0.3519632 0.2870521 0.32912096 0.2469163 0.35194427 0.32945776 0.27628723
0.39263847 0.40779012 0.30588576 0.3129898 0.27981445 0.23464563 0.26647204 0.2654146
0.34633365 0.3113206 0.31057447 0.33124146 0.27951846 0.31513345 0.31962302 0.32760093
0.35430834 0.3066903 0.3321572 0.3254637 0.36715597 0.37111548 0.32570323 0.32819366

arr_18 f4 [32]
00000000: a7ab d3be 3736 15bf 5cf6 45be 0b22 8bbf
00000010: c3ec f2be 94eb c5bd 2da8 8cbf fc03 fabe
00000020: 7fcf 093e bd00 69be a406 b0bf 28c7 b1bf
00000030: 3fb7 4a3f d59e 31bf 5abd d9bf 249d a8be
00000040: 91a4 c2bf 1713 edbe df28 a8be e3d6 6bbe
00000050: cde1 8b3f 2af8 cd3e 19df 97be a5da ea3e
00000060: 2e8b 70bf 732f bbbf 4149 84bf 5aa6 403e
00000070: 2e98 28bd da9f 55bf 38f9 0f3f 9f6c 50be
-0.41341898 -0.5828585 -0.1933226 -1.0869764 -0.4744626 -0.096640736 -1.0988823 -0.48831165
0.1345806 -0.22754188 -1.3752027 -1.3888903 0.7918586 -0.69382983 -1.701091 -0.3293239
-1.5206472 -0.46303627 -0.32843682 -0.23031192 1.0928284 0.40228397 -0.29662398 0.45869938
-0.9396237 -1.4623855 -1.0334855 0.18813458 -0.041160755 -0.8344704 0.5623965 -0.20353936

arr_11 f4 [32]
00000000: bdb6 00bf ef90 e8be 6341 58bf a4c5 a1be
00000010: ec8c d4be 3809 5abe ba49 dbbe cdbe c0be
00000020: 769b f0be 0ef0 1dbf cf11 22bf bf57 23bf
00000030: f9ab 00bf 14ee 1dbf 3043 22bf 67dd 69be
00000040: b1b0 09bf 59e8 11bf 1574 d8be 9811 dbbe
00000050: b1f3 00bf 85ce e8be 1bdc fdbe 5e53 39bf
00000060: a527 20bf 9279 41bf de73 2bbf 9789 50bf
00000070: 9567 64be 6df5 89be 9209 2abf 03fa 22be
-0.50278836 -0.45423076 -0.8447477 -0.315961 -0.41513765 -0.21292579 -0.42829686 -0.3764557
-0.46993607 -0.6169442 -0.63308424 -0.63805765 -0.5026241 -0.61691403 -0.6338377 -0.22838365
-0.53785235 -0.5699516 -0.42276064 -0.4278686 -0.50371844 -0.45470062 -0.4958199 -0.72392833
-0.6256049 -0.75576127 -0.66973674 -0.81459945 -0.22305138 -0.26945058 -0.66420853 -0.15915684

arr_10 f4 [32, 32, 6, 6]
00000000: cf9f 1f3e fc3c 36be 8da9 d6be 7217 e6be
00000010: 363e 35be 71ba 933e f66e 74be fa8a 38be
00000020: c572 79bc 608f 9ebe edd6 d4be cf72 183e
00000030: fdb3 e7bc 8c5d 0fbe 94b3 a0bd 3a0b 983d
00000040: e6f6 97be f5cc 5dbe 03fa f1bd 3cd9 b4bd
00000050: d077 873e 7768 473e 3dbf 06be 921b abbd
00000060: b7e1 9cbe 4b49 2cbe 46de 233e 84eb b9bd
00000070: a931 1bbc 6e98 ee3d 4b2f 7c3e 13a4 9cbe
00000080: dad5 9d3e 3bab 693e e3d7 bf3e 10df 923e
00000090: eb2a 233e ce89 553e fb56 ac3d 6ea6 66be
000000a0: d08a 61bc 78a7 47be 6bce 01be f479 77bc
000000b0: 19dc 15be 3823 31be 3d65 f5bd d482 033e
000000c0: 6d14 713d 4657 c6bd 8db7 923d f41b 8e3b
000000d0: f51c db3c 5383 9b3e f95c 923b 0930 b83c
000000e0: 6ac7 60bd 6c3d 523d f9b7 a2bc 9c4c 183e
000000f0: 690c 1abc 2e37 8abd 50d1 3f3e 1ab4 a43e
00000100: 3ae5 023e 3d1d d3bd 9d96 913d 63d1 60be
00000110: 0b4f c13d 48c6 85be 3cba f33d e763 c6bd
00000120: 89d2 08be 88c2 d3bd d711 5ebe 51e9 e5be
00000130: a72f 8fbe 62ad a3be 6874 16be 1f6d 3b3e
00000140: 8cda ccbc 84a6 99be 2278 4dbe 03b2 74bd
00000150: 307c 26bd 7380 b93d 72e4 cf3d b298 643d
00000160: d95a e4bc 4bd3 3d3e 7278 02be 73f3 a6be
00000170: efed 50be d574 b6be 4a1c 2fbd 181a 5c3e
00000180: f7d1 c4bd f81b 0ebe dcc8 73be 9993 23be
00000190: 32dc 8bbd dc76 453d b2ea e1bd 8eff ca3d
000001a0: 1d02 9cbe a412 b3bc a0e9 563d 2582 c53d
000001b0: 36e8 bebe 3f5c 3dbe e0a2 f53d 22a8 13be
000001c0: 57f1 ff3c 0d35 e7be 6aa2 d9bd 2986 48be
000001d0: 2939 2c3d 350a bcbd 898a fdbc cde0 2fbe
000001e0: 76f9 de3d 218e 303d 80bd 943e 59f9 3d3e
000001f0: 12ce d43a ce22 a13d e2d7 55be 46da f5bd
00000200: 0f1c 4c3e a2ad 283c f04c 6bbe 5b9c b1be
00000210: 689e 7dbe 2832 8f3c 5f32 b53e de45 093c
00000220: 64f6 84be 1086 8abe 2d97 94be 9355 e2be
00000230: c3be 0e3e dc7c 57bd 2ddc a13d 0bd6 66be
00000240: 17cf 20bd cc20 1ebe 6b2f 4dbe b101 d2bd
00000250: a36e 26bd 6fee 8dbd 8d3e 29bd 6505 2dbe
00000260: 8cab 68be 207a 7ebc 66fa 803c 58f1 8c3e
00000270: 7dea edbc 470c 9e3d 2d18 423d 2fc1 89bc
00000280: 5a86 8b3e 2465 063f 8186 703d badd 9dbb
00000290: 7f14 96be eb42 82be d12f f7bd c4b7 733e
000002a0: 7d0b e53d 66c1 bbbd d829 473e 0796 bbbe
000002b0: c982 aabe d899 c93d 9970 463e d839 653e
000002c0: c70a 913e 5881 8dbe 947e 68be af66 07be
000002d0: 35df 263d 4ff5 e8bd d1e8 84bd a3e2 79be
000002e0: d25a 94be e0d0 06bd 6c4b cf3d 533a abbd
000002f0: 56da 47bc aad6 d0bd e6b0 83be b954 883c
00000300: 18fe 30bd f389 823e d8e4 553d c98f e9bd
00000310: 784f a1be b71d 44be 730d a9bd 2362 e0bd
00000320: 9b94 463d 9ea3 f83d d951 26ba 4071 1a3e
00000330: 3e39 06be bdf8 aebd 9531 ba3d 9a22 493d
00000340: 86b2 1cbe d79e 64be 933d 95be 8ee4 96bd
00000350: fca6 863d 7a6c 7c3e 2466 1f3e f7b3 783d
00000360: 3683 5d3e 9f71 a3bd 0f99 89bd fd33 0cbe
00000370: bf1b a1bd 6a4a 103d 724a bb3d 2ce8 703e
00000380: 54f7 2c3e 5710 12be 0a9c 8dbe 5282 0ebe
00000390: ac93 80bd 8060 023e 0353 7f3e ad91 0dbe
000003a0: 0e04 7abe 8694 85be 37d6 a93d 0b73 89bd
000003b0: 4b93 ba3d 2507 6d3e 10d1 66be a189 3cbe
000003c0: aa60 0e3d b45a 713e 2e4f 943c 8cab 823c
000003d0: b01f 81be 05e1 08be d0ae 7b3e 8fca 913e
000003e0: 6950 9d3e 368d 8d3d df8d 9f3e 1e11 583e
000003f0: 5b3f 6c3e 5d78 1cbc 3dd2 87bd d359 15be
0.15588306 -0.17796701 -0.41926232 -0.44939762 -0.17699513 0.2885318 -0.23870453 -0.18021765
-0.015225117 -0.3096876 -0.41570225 0.14887546 -0.028284067 -0.14000529 -0.07846752 0.07424016
-0.29680556 -0.21660216 -0.11815264 -0.08830497 0.26458597 0.19473444 -0.13158889 -0.08354868
-0.30640957 -0.16824834 0.1600276 -0.09078124 -0.009472289 0.116501674 0.24627416 -0.3059393
0.30827218 0.22819225 0.37469396 0.28685808 0.1593434 0.2085335 0.08415028 -0.22524425
-0.013766006 -0.19497478 -0.12676398 -0.0151047595 -0.14634742 -0.17298591 -0.119822 0.12842876
0.05885737 -0.09684615 0.07163916 0.0043368284 0.026747206 0.3037363 0.0044666496 0.022483842
-0.054877676 0.051328108 -0.019863116 0.14872974 -0.009402373 -0.06748806 0.1873219 0.32168657
0.12782755 -0.10308311 0.07108805 -0.21954875 0.094389044 -0.2612784 0.11900756 -0.096870236
-0.13361563 -0.10339838 -0.21686493 -0.4490457 -0.27966043 -0.31968218 -0.14692843 0.18303345
-0.025006555 -0.30009854 -0.20065358 -0.059740078 -0.04064578 0.09057703 0.10150994 0.055809684
-0.02787535 0.18537633 -0.12741259 -0.32607612 -0.20403264 -0.3563601 -0.042751588 0.21494329
-0.0961036 -0.13877857 -0.2380709 -0.15974273 -0.06829108 0.048209056 -0.11031093 0.099120244
-0.30470362 -0.021859474 0.052468896 0.09643964 -0.37286538 -0.1849222 0.119939566 -0.14419606
0.03124301 -0.45157662 -0.10626681 -0.19582428 0.0420467 -0.09181634 -0.030949848 -0.17175598
0.10887425 0.043104295 0.29050827 0.1855215 0.001623573 0.078679666 -0.20883134 -0.12004523
0.19932579 0.010295304 -0.22978568 -0.34689602 -0.24767458 0.017479971 0.35389993 0.008378474
-0.2596923 -0.27055407 -0.29021588 -0.44205913 0.13939957 -0.05260931 0.07903323 -0.22542588
-0.039259996 -0.15442199 -0.2003762 -0.10254229 -0.040632855 -0.06930243 -0.04131942 -0.16896589
-0.2272169 -0.015532047 0.0157444 0.2752788 -0.029042477 0.077171855 0.047386337 -0.01681575
0.2725094 0.5249808 0.058722023 -0.0048176916 -0.29312512 -0.2544168 -0.12069667 0.2380057
0.11183832 -0.09167747 0.19449556 -0.366379 -0.33302906 0.098437965 0.1937889 0.22385347
0.28328535 -0.27637744 -0.22704536 -0.13222764 0.04074021 -0.11374914 -0.06489719 -0.24402861
-0.2897554 -0.032914042 0.101218075 -0.08360734 -0.012198051 -0.10197194 -0.257209 0.016641961
-0.043211073 0.25495872 0.052220196 -0.11404378 -0.31505942 -0.1915196 -0.08254518 -0.10956218
0.048481565 0.121405825 -0.0006344594 0.15082264 -0.13107774 -0.08543537 0.09091488 0.049105264
-0.15302476 -0.22326218 -0.2914854 -0.07367812 0.065748185 0.24650756 0.15566307 0.060718503
0.21632084 -0.07980656 -0.06718647 -0.13691707 -0.0786662 0.035227217 0.09145059 0.23526067
0.16891223 -0.14264046 -0.2765811 -0.13916901 -0.06278166 0.12732124 0.2493401 -0.13825102
-0.24415609 -0.26089877 0.08292811 -0.06711396 0.09110125 0.23147257 -0.22540689 -0.18411876
0.034760155 0.23569757 0.018104162 0.01595094 -0.25219488 -0.13367088 0.24578404 0.28474852
0.3072541 0.069116995 0.31162927 0.2110028 0.23071043 -0.009550181 -0.06631897 -0.14585046

arr_13 f4 [32]
00000000: 2dfc 5fbf be11 33c0 b878 41c0 b88a 8dbf
00000010: 63dd 103f 6814 533d 2b99 62bf a2c7 d53f
00000020: 719a f23e 6fe9 c6be 1e1b f83f c05f 6ebf
00000030: 236c 323f 889b 55c0 9819 483f 2715 3a3f
00000040: 64a4 5e3f 0f2f 0dbf 3871 0abf 765a 83bf
00000050: 4c72 68bf cc27 a1be e649 0fbf e353 893e
00000060: 26b8 1b3f 1e42 c4be f21b 58bf 862a fb3e
00000070: 3537 7e3e 497e 82bf b429 203f ee9c dabf
-0.87494165 -2.797958 -3.022993 -1.1057959 0.5658781 0.051533133 -0.88514966 1.6701548
0.47383454 -0.3884997 1.9383276 -0.9311485 0.69696254 -3.3376179 0.7816405 0.72688526
0.8696959 -0.5514993 -0.5407901 -1.0261981 -0.90799403 -0.31475675 -0.55972135 0.26821813
0.60827863 -0.38331693 -0.8441764 0.4905588 0.24825747 -1.0194789 0.62563634 -1.7079141

arr_12 f4 [32]
00000000: 40a0 873f 9657 803f 6b1b 433f 6f0e 7f3f
00000010: 3435 5f3f 8c0b 833f 5dec 803f b698 8d3f
00000020: 8ade 8d3f e653 653f af59 7d3f a36d 783f
00000030: 5e2e 603f ea35 473f 87ab 753f f879 223f
00000040: 3301 683f c217 823f e445 7b3f 4cc7 5c3f
00000050: f20b 6a3f 72ad 853f cf0d 833f 4026 853f
00000060: 4020 8e3f c15f 813f f0fa 803f ca6c 533f
00000070: fc38 873f c38e 7a3f 81f4 883f c6ac 843f
1.059578 1.0026729 0.7621371 0.996314 0.87190557 1.0237899 1.0072132 1.1062229
1.1083539 0.89581144 0.9896497 0.9704229 0.8757075 0.7781664 0.95964855 0.6346736
0.9062683 1.01635 0.9815352 0.862416 0.9142448 1.0443556 1.0238589 1.0402298
1.1103592 1.0107347 1.007658 0.82587874 1.0564265 0.9787409 1.0699617 1.0365226

arr_15 f4 [32, 32, 6, 6]
00000000: 6dbb 813d 38b7 19bd 4a5c a4bd 48a4 bb3d
00000010: 8993 63bd 68d0 e83d ceaa 963d a702 66be
00000020: 0450 24bd b5d4 843e f678 f73d dacb 85bd
00000030: cd6f b33e c187 fe3d fb6d 893e 4c1a 0c3d
00000040: 0022 c83d 02be a9be 9893 e3bd a216 d2bd
00000050: 5ae2 9f3d e644 f93d c218 183e 864c e7bd
00000060: 630a 34be 5476 443d 0cd5 113e aac9 40bd
00000070: 6633 6b3e 81dc 3a3e e8a3 f5bd 75d0 b8bd
00000080: 0ba0 353c 61be a8bd a2f0 64be a7ef b1be
00000090: 14b1 b83e a8bb 22be 72d1 923d f1fa b6bc
000000a0: d58d 5e3e 9c3b 023f 78e5 263e d7b5 f03d
000000b0: 5d95 2bbe 8ffd 81be 0453 86bd 4725 c5bd
000000c0: 908c 7fbb 6354 a33e 17f4 23bd 20a1 d9bd
000000d0: 8648 1abe 850a 973d 30d4 50be 1729 983d
000000e0: 4711 593e e2fa 2dbe b6cf a93c 8009 39be
000000f0: 22d8 09bf 9ae1 9bbd 4238 15bc da29 adbe
00000100: e983 47be 5b2f a63e e86a 25bb 977c a63d
00000110: a474 023e c7f3 f43d ba3c c93d 106a dc3b
00000120: 5c61 393e 5a84 2b3d 27e5 34be b398 34be
00000130: 538c 5ebe ca01 fd3d 4aa4 733e 8350 3f3e
00000140: d1c7 9cbe 7024 a83d b93e 843e 49e1 27be
00000150: 40d9 573e ca5f 0f3e 7e30 a83e 0234 5d3d
00000160: 1f7c 183d 088b 563e fa19 e83d 57e2 c2bd
00000170: a5a9 13bd 4fbe 343e ee4c 6d3c dc50 abbd
00000180: 0dd3 473e 3d57 9a3c 27e2 963e 40d6 123e
00000190: 0435 e2bc 283b c43d 702f 393e 469d ddbd
000001a0: 559b 343d d9fe 9fbe 3d1f 3b3e af73 973d
000001b0: 3e84 8dbe 6056 9e3e e5e2 8f3e 380b 3cbd
000001c0: 1a65 053e da2b 93bd b9a8 ed3d 9bd9 7b3e
000001d0: 27bc 1cbe c0c7 323e f690 c53e 30e9 523e
000001e0: 4d22 9bbd 9a10 8d3d 19af 5bbe b95b f4bd
000001f0: 258b 6c3c 6738 aabe e162 febd c173 02bc
00000200: fd36 5bbe 414c cdbe 9763 403d 0720 b23e
00000210: 5cf3 87bd 0e1a 12bd c9f2 433d 1331 13bd
00000220: 2311 63bd f6ab 323c b05c 883e 72df 45bc
00000230: 218a a63c c53b 1cbd e0ae 14be b6ed 343e
00000240: 1129 433d 9870 68bd 7549 e0be f51d 52be
00000250: 8918 4b3e f8b1 c5be 3ce8 25bd 0073 963d
00000260: 129c e03d c585 03be f163 98be d3a9 8d3d
00000270: 6e4b b63e 07eb 763e 7fd7 e53d d4ab 263e
00000280: a41c c93d c836 2cbd 3be5 9f3d f0cc 443d
00000290: 999d 19bf 9737 8b3d 5bb7 093c 5f79 013c
000002a0: 6d0d 87bd 0085 89bd 122e 6fbe 073c 00be
000002b0: dec2 03bd e653 8dbe 5eca 06be 72fc 9c3e
000002c0: 6c52 333e f82c ad3d 042e e03b c4a0 c5bc
000002d0: 92c2 f23d 4218 38be 3a0c 8cbe 1e57 3d3c
000002e0: ab27 6e3e 07e0 37bd b0e7 523d 39cc abbd
000002f0: 1eef 1fbc d1c1 543e e1da 57bd 52d8 133d
00000300: f6ee 9ebd 3959 e3bc a57c e33d 5312 d93e
00000310: 84f4 1cbe b7ed 313d e08a 053d 881c 14be
00000320: b30e 12bb 1944 573e ccd1 20be 57d2 09be
00000330: 148c 4cbe c5ee 523d 59cf 29be f6a4 033d
00000340: 90a7 61be ec32 ccbc dc3d 3e3e 1360 413d
00000350: 135d 27bd 8d57 91bd ddfd 9ebc 9186 bd3d
00000360: 0c15 80bd c940 e0bd 8d9d 3cbe e1c5 ff3d
00000370: 48ec 8ebe a0f2 54be 8cd4 623e 458a 90be
00000380: bc88 39be 5aca 163d 5ed5 913a 7586 1dbd
00000390: ce6f 0bbe 4a26 a23d adee 8dbd 4c63 0cbf
000003a0: fe39 603e ff89 893e a599 e13d 9337 193e
000003b0: e519 1bbe 689b ebbd e35f 9a3d e603 953e
000003c0: 3137 05be 1760 573e fd19 68bd 0ded 143e
000003d0: 0e5a b93d c9f6 673e d289 08be f9a8 0f3d
000003e0: f514 cbbd 42b4 38bd e430 92bd 1bb3 023d
000003f0: b3ec 06be c94a 213e 515a c63e df2e da3d
0.06334577 -0.037528247 -0.08025415 0.091621935 -0.055560622 0.11367875 0.07356797 -0.2246195
-0.04011537 0.25943533 0.12083618 -0.06533022 0.35046235 0.12428237 0.2684172 0.034204766
0.0977211 -0.33152777 -0.11112136 -0.10258223 0.07806845 0.121713445 0.14853194 -0.112938926
-0.17582087 0.04796441 0.14241427 -0.04706732 0.22968826 0.18248178 -0.11994153 -0.09024135
0.0110855205 -0.08239437 -0.22357419 -0.34753153 0.360726 -0.15891898 0.07168855 -0.022336455
0.21733792 0.50872207 0.16298473 0.11753433 -0.16756196 -0.25388762 -0.06558803 -0.09626251
-0.0038993694 0.3190032 -0.040027704 -0.10626435 -0.15066728 0.07375053 -0.20393443 0.07429712
0.21197997 -0.16990235 0.020728927 -0.1807003 -0.5384542 -0.076113895 -0.009107651 -0.33820993
-0.19483913 0.32458004 -0.0025240723 0.081292324 0.12739807 0.11960559 0.09826036 0.006726511
0.18103546 0.041874267 -0.1766554 -0.17636375 -0.21733217 0.12353857 0.2379314 0.18683057
-0.30621198 0.08210075 0.25829104 -0.16394533 0.21078968 0.14001384 0.32849497 0.054004677
0.037227746 0.20951474 0.1133308 -0.09515827 -0.036050458 0.17650722 0.0144836735 -0.08365032
0.19514103 0.018840427 0.29469416 0.14339542 -0.02761317 0.09581596 0.18084502 -0.10821013
0.04409345 -0.3124912 0.18273635 0.07395112 -0.27639955 0.30925274 0.28102794 -0.045909137
0.13026848 -0.071860984 0.11604447 0.24594729 -0.1530615 0.17459011 0.3858716 0.20596766
-0.07574902 0.06887932 -0.21453513 -0.11931557 0.0144374715 -0.33246157 -0.124212034 -0.007962168
-0.21407695 -0.4009724 0.046969976 0.3479006 -0.06638214 -0.03566938 0.04783896 -0.035935473
-0.055436265 0.0109052565 0.26633215 -0.012077199 0.020329537 -0.03814294 -0.14519835 0.17668805
0.047646586 -0.056748003 -0.43806043 -0.2051924 0.19833578 -0.38612342 -0.04050468 0.07346153
0.10967268 -0.12843998 -0.2976375 0.06917157 0.35604423 0.24113093 0.11222743 0.16276485
0.09819916 -0.04204443 0.07807394 0.048047006 -0.600061 0.06797712 0.008405532 0.007902472
-0.06594358 -0.06714821 -0.23357418 -0.12522899 -0.03216826 -0.27603072 -0.13163134 0.3066135
0.1751191 0.08455843 0.006841423 -0.02412451 0.118535176 -0.17978004 -0.27353078 0.011556415
0.2325732 -0.044891383 0.051490486 -0.08388562 -0.0097616 0.2077706 -0.052698974 0.03609497
-0.07760422 -0.027752506 0.111077584 0.42396793 -0.1532765 0.043439593 0.032603145 -0.14464009
-0.0022286593 0.21022071 -0.15705031 -0.13459145 -0.1997531 0.05149724 -0.16583003 0.03213974
-0.22036576 -0.024926625 0.18578285 0.047210764 -0.040860247 -0.07096777 -0.01940816 0.09254182
-0.062540144 -0.10949857 -0.18419476 0.12488914 -0.27914643 -0.20795679 0.22151393 -0.2823049
-0.18118566 0.03681407 0.001112621 -0.038458306 -0.13616869 0.07917459 -0.069302894 -0.54839015
0.21897122 0.26863095 0.110156335 0.14962606 -0.15146597 -0.11504251 0.0753782 0.29104537
-0.13009335 0.21032749 -0.05666541 0.14543553 0.0905038 0.22652735 -0.13333824 0.035073254
-0.099161066 -0.045093782 -0.071382314 0.03190909 -0.13176231 0.15751185 0.3874078 0.10653471

arr_14 f4 [32]
00000000: 5195 493e 1f96 1f3e 44b4 af3d d4ab 153e
00000010: 4a26 2a3e 8086 0a3e b205 393e 68dd 203e
00000020: fc55 113e 1249 3c3e 59f3 273e fa63 453e
00000030: e11c 5b3e 8686 813e 6be3 3b3e a8f3 593e
00000040: 0779 5a3e 5b62 0d3e e406 353e 9485 373e
00000050: cf68 2e3e ae26 1e3e 668e 4b3e a28a 3c3e
00000060: b5af 2c3e 43ab 533e 8ee5 3f3e 7145 403e
00000070: cfaf 213e cd20 043e bd80 403e 762a 213e
0.19685866 0.1558461 0.08579305 0.14616328 0.16616169 0.1352787 0.18068579 0.1570946
0.14192957 0.18387249 0.16401424 0.1927642 0.21397735 0.25297946 0.18348472 0.21284354
0.21335231 0.13807051 0.1767841 0.1792205 0.17032169 0.15444443 0.1987854 0.18412259
0.16863902 0.206708 0.18739912 0.1877649 0.15789722 0.12903138 0.1879911 0.15738854

arr_17 f4 [32]
00000000: fc33 763f a2c7 623f c7bc 703f e447 863f
00000010: 0759 843f 02c3 593f 5b10 523f 625f 753f
00000020: 9ce3 5a3f 237c 7b3f 4d7d 823f 3bb6 763f
00000030: 4565 8a3f 66fa 843f c79d 543f 4d08 693f
00000040: 4e74 713f f7fc 733f f555 803f 9a4e 763f
00000050: d395 5a3f fbaf 803f 2edb 813f 633d 673f
00000060: 2b19 793f a500 693f 875d 813f 82fb 843f
00000070: 01d4 843f d43d 663f 4217 793f fda9 7b3f
0.9617307 0.88585865 0.9403805 1.0490689 1.0339669 0.85063183 0.82056206 0.9584867
0.85503554 0.9823629 1.0194489 0.9637181 1.0812155 1.0388916 0.8305325 0.9102829
0.9431809 0.9530787 1.0026232 0.96213686 0.85384864 1.0053705 1.0145013 0.90328044
0.9730403 0.9101661 1.0106667 1.0389254 1.0377198 0.8993809 0.97301114 0.98306257

arr_16 f4 [32]
00000000: 9d27 34bf a2ff 1bbf 3f8c 08bf d0fe 2dbf
00000010: cce3 0bbf ca2a 29bf 34ec d8be 2a9f a0be
00000020: 6ef2 12bf b8d5 0bbf 9e80 d2be 8e50 d6be
00000030: 52d9 0dbf 2e71 62be a623 03bf 3b13 dbbe
00000040: 53d6 34bf 0d9b b7be c713 e4be 553c 48bf
00000050: 0992 b2be 4484 d6be fcf3 41bf f738 11bf
00000060: bec4 51bf fb9f d0be a70d 45bf fadf 1cbf
00000070: 1ecf 6ebf 3dfc 30bf 7b3d 5dbf baad 31bf
-0.70372945 -0.6093694 -0.53339 -0.6796694 -0.54644465 -0.66080916 -0.4236771 -0.31371433
-0.5740117 -0.54622984 -0.41113752 -0.41858333 -0.5540973 -0.22113487 -0.5122627 -0.4278811
-0.7063953 -0.35860482 -0.4454634 -0.7821706 -0.3487704 -0.41897786 -0.75762916 -0.56727546
-0.8194083 -0.40747055 -0.76973957 -0.6127926 -0.93284786 -0.69134885 -0.86421937 -0.6940571

arr_1 f4 [32]
00000000: 359f 17bf 0093 fdbe ef17 47bf ad3a 9e3c
00000010: 2c38 babe 13ad 3bbd 8bb7 b1be 26de d9bb
00000020: eb0a ac3d ae6b 74bd 3415 abbe 4586 4d3d
00000030: 56f3 c4be c462 5bbe ae8a 26bc 99c1 9b3c
00000040: fa6b 16bd bb3f 1abf 5e2e 40be 1867 c3bd
00000050: c9a5 31be 2826 aebc 65e0 353d 785d abbe
00000060: 16ee cd3d 0efc 8fbe ed05 92bc 531f 1cbe
00000070: f10d 29bf 5c78 313e 406e b5be d2de 18bf
-0.59227306 -0.49526215 -0.77770895 0.019315088 -0.3637098 -0.045819353 -0.34710345 -0.0066487966
0.0840052 -0.059673004 -0.33414614 0.050176878 -0.384669 -0.21424395 -0.0101649 0.019013213
-0.03672407 -0.60253495 -0.18767688 -0.09541148 -0.17348398 -0.021258429 0.044403452 -0.33469748
0.10055177 -0.2812199 -0.017825091 -0.15246324 -0.660369 0.1733107 -0.35435677 -0.59714997

arr_0 f4 [32, 1, 6, 6]
00000000: 40ad 973d 2033 0a3e 8fb8 2cbe b26a f33b
00000010: 5880 05be add6 afbc ca37 e0bd 58d6 41be
00000020: 5a48 36bf c43a 8bbe 41d5 1fbe f307 d4bd
00000030: 043b eb3d 0070 2c3e 9942 20bf a5a7 9e3d
00000040: b42d 9e3d b071 bc3c ba70 75be b720 5fbe
00000050: a9b8 36bf 9625 8abe 5308 7fbe cd34 ddbc
00000060: 2a83 4dbc c159 98bd 0a62 b2bd cbfa 503d
00000070: 852b 32be 40d1 a33c 5a86 09be 2030 b73c
00000080: b181 cfbd 9945 193e 9682 733b daa3 0f3e
00000090: f2ab 943c 594d cf3d b0c7 f73d 3e60 013e
000000a0: 1935 d53c 9a6d 133e 8bf2 603b 4bb8 813c
000000b0: 5124 b4bd d548 92bc 67cc bd3d 7cdd b2bb
000000c0: 5b24 67be b195 29be 092b bbbd 79e1 9f3c
000000d0: 58f0 68bd 166b 39bd 085a 38be b2b2 22be
000000e0: fb7b bebd 7e7b 423d 5a3c 633d 7039 d33b
000000f0: 8584 ffbe fa28 b1bf 0a5d 87be 7431 c4be
00000100: a091 eabd 78ab eabd 760b b0be f096 a1bd
00000110: 198f 10bf d2c9 97be ea18 79be 0509 f4bc
00000120: 6cf1 4e3d fff2 babd 11d3 2c3e 820d 53bd
00000130: 10a3 1ebd 85eb 03be 0783 efbe a10b 51bf
00000140: 500b 9dbe 02b5 42be 1428 11bb 3ab5 983d
00000150: f8f9 3abc 70e0 e3be a478 29bd 5c2c 8ebd
00000160: 23a2 e43c e667 83bc b891 94bc cc5e 3ebf
00000170: 6526 873d a6b3 883d c034 183e 5ec7 b53d
00000180: 7729 ccbe ca84 04bf ee45 44be 6266 7eba
00000190: ec4d 44be 4510 c5bd 49a9 173d 7fb5 d0bc
000001a0: 4157 803d 6181 c13c a346 8cbc 60d5 083e
000001b0: 8d07 613c bf19 30be cfa5 83be 818f 5dbd
000001c0: 7a22 33bc a778 263d 3220 0ebc a573 933b
000001d0: 8a10 91be 6c41 e0be dd5b 09bf e5ec c8bd
000001e0: c356 e03c 9128 c33d f3d4 28bd 9387 39bd
000001f0: f6f1 5ebd 811d 0d3d ce9e 0e3d 1abd 913d
00000200: bb89 143e d072 7d3d 7d63 1bbd 1c54 0c3e
00000210: 2905 91ba aa30 9f3c 6c20 323e 7af1 813e
00000220: b509 3d3e 8220 363e 71a2 2b3c 8cfd 2f3b
00000230: 3e2b 8c3d be8d aa3e 2b5d 533e 9481 8f3e
00000240: 102e 82bc 0e85 ecbd 4a17 b5bd a879 debb
00000250: c066 3e3d a3a2 243d 7e3c 45be 1b28 b03c
00000260: 7a7f f0bc b445 37bc 14a6 553b 70c8 f7bb
00000270: b12a 4fbd 45c9 3fbe f3b1 85bd 74af 6a3d
00000280: 86fc 3bbd 984e dc3c ee7c 59bd 97c1 cd3f
00000290: f5f7 663d 921b 99bc 92f0 083d 9203 90bd
000002a0: 38aa 5bbd de97 39be 1499 00be e495 b5bc
000002b0: c49e 51be c269 b73b e93b c9bd c384 1ebd
000002c0: 4201 24bd 8771 bbbd 9c84 d739 7c11 28bd
000002d0: d23d e83d 4935 b8bc 7b86 333d a301 00bd
000002e0: a05b 08bd 45ec f5bd ba0c 2f3c c388 703e
000002f0: 4e8f 623d 2e2d 5bbb d2f1 3ebd 9da2 41bd
00000300: 97aa d03d 3d2e c3bd 2fe5 3dbe 6776 e4bd
00000310: 7c8e 053d 0c25 d6bd 5823 163d 91dd 513e
00000320: 9035 2940 ac68 a33c bb4a e53d 64c8 1bbd
00000330: ef16 5fbd 2a2e 44be ee10 03be e18d 18be
00000340: e088 813e a363 dcbd 1caa c4bd 5843 b33d
00000350: 5a3f 1f3e 877c 0cbd 0fb6 223d bb5a 693d
00000360: 0f32 bbbc 8fa9 dabc 9e58 863d 17e1 4ebd
00000370: aa8e 3bbd 20ff 463d 2041 083e 72c3 b23e
00000380: 822f d73c eecc dbbe 9cb6 94be ff0f 6bbc
00000390: d124 683d a48e b83e cee8 5d3e 634c 1ebe
000003a0: 40a7 6bbe e009 423d 62f3 1ebc f2b2 3b3b
000003b0: 8c65 9fbd 3b04 ea3d 3df9 203c b612 e53b
000003c0: eb63 79bd 53c7 b9be 502b c4bd 7f19 e63d
000003d0: 8cab b73e d7de 70bd 02da 0fbd a70d a1be
000003e0: 7972 0dbd bff4 a13d 223f 833e 005d 473d
000003f0: e199 493e eb04 533e 9b53 67bc 2f18 f5bd
0.07406092 0.13496065 -0.16867279 0.0074284906 -0.1303724 -0.02146467 -0.10948141 -0.18929422
-0.7120415 -0.27193272 -0.15608694 -0.10353079 0.11485866 0.168396 -0.6260162 0.077468194
0.07723561 0.02300343 -0.23968783 -0.21789823 -0.7137552 -0.269818 -0.24905519 -0.027002716
-0.012543479 -0.07438994 -0.08710106 0.051020425 -0.17399414 0.01999724 -0.13430157 0.022361815
-0.101321585 0.14967956 0.0037156693 0.14027348 0.018148396 0.10122175 0.12098634 0.1263437
0.026026295 0.14397278 0.0034324254 0.015834948 -0.08795989 -0.017856995 0.09267502 -0.005458532
-0.22572462 -0.16561009 -0.09139068 0.019516693 -0.056869835 -0.04526814 -0.18003094 -0.1588848
-0.09300991 0.047481053 0.055477478 0.006446056 -0.49905792 -1.384063 -0.2643817 -0.3831898
-0.11453557 -0.11458486 -0.34383744 -0.07890117 -0.5646835 -0.29646164 -0.2432591 -0.029789457
0.050523207 -0.09128379 0.1687739 -0.051526554 -0.038729727 -0.12882812 -0.46779653 -0.8165837
-0.30672693 -0.19014362 -0.0022149133 0.07456441 -0.011412136 -0.4450717 -0.041374817 -0.06942055
0.027909344 -0.016040754 -0.01813589 -0.743634 0.0659912 0.0667489 0.14863873 0.08875917
-0.39875385 -0.5176512 -0.19167301 -0.0009704587 -0.1917035 -0.09622244 0.037026677 -0.02547717
0.06266642 0.023621263 -0.017123526 0.13362646 0.01373471 -0.17197321 -0.2571244 -0.054091934
-0.010933513 0.040642407 -0.008674668 0.00449987 -0.2833293 -0.43799913 -0.536558 -0.09810809
0.027385121 0.09529222 -0.04121871 -0.04529531 -0.05442997 0.034451965 0.034819417 0.071161464
0.14505665 0.06187707 -0.037936676 0.1370396 -0.001106416 0.019432385 0.1739518 0.25379544
0.18460734 0.17785838 0.010475741 0.0026854007 0.06844185 0.33311266 0.2064101 0.28028548
-0.015891105 -0.11548816 -0.08842333 -0.006789405 0.04648471 0.040194165 -0.19261357 0.021503499
-0.02935766 -0.011186052 0.003260021 -0.007561736 -0.050577823 -0.18729122 -0.06528082 0.05729623
-0.045895122 0.026892945 -0.053097658 1.6074704 0.056388814 -0.018689904 0.03343255 -0.07031931
-0.05362913 -0.18124339 -0.12558395 -0.0221662 -0.2047072 0.005597324 -0.0982588 -0.03870083
-0.040040262 -0.09152513 0.00041106797 -0.0410323 0.11339916 -0.022486346 0.043829422 -0.03125156
-0.033290505 -0.120079555 0.010684187 0.2348967 0.055312447 -0.0033443677 -0.046617337 -0.04727422
0.101887874 -0.095303036 -0.18544458 -0.11155396 0.032606587 -0.10456285 0.0366548 0.20494677
2.6438942 0.019947372 0.11195894 -0.038032904 -0.05446523 -0.19158235 -0.12799427 -0.14897873
0.2529974 -0.10761192 -0.09602758 0.08753079 0.1555151 -0.034298446 0.039724406 0.056971293
-0.022851018 -0.02669218 0.06559871 -0.05050763 -0.045790352 0.04858315 0.13306093 0.34914738
0.02626777 -0.42929786 -0.2904557 -0.0143470755 0.056675736 0.36046326 0.21670839 -0.15458827
-0.2301302 0.0473727 -0.009701582 0.0028640595 -0.077830404 0.11426588 0.009825048 0.006990756
-0.060886305 -0.36284885 -0.09578574 0.11235332 0.35873067 -0.058806267 -0.035120018 -0.31455728
-0.034532998 0.0790801 0.25634104 0.048672676 0.19687606 0.20607345 -0.014119054 -0.11967503

arr_3 f4 [32]
00000000: 4491 07c0 b73f 27c0 181e 0cc0 f255 473e
00000010: 5042 123d 9d5d bf3f 0075 cfbc f234 e43f
00000020: b987 5e3d 4f33 833c cd25 443b dc97 ed3e
00000030: 1edf ad3e 8214 c63d bfd8 683e c118 a93e
00000040: a1fa 9bbf 9c06 fabd 6ba4 473f 52c6 893f
00000050: 3d62 183f b46a c83f 0b32 993e e16a 1dc0
00000060: 0c07 ab3f 113b 5bbc 4310 f3bf b924 f2bc
00000070: 90ec 0d3e 500d b73e aadc 91bd b573 98bf
-2.1182413 -2.6132638 -2.1893368 0.1946638 0.03570777 1.4950444 -0.025324345 1.7828658
0.054328654 0.016015677 0.0029929758 0.46404922 0.33959287 0.0967188 0.22738932 0.33026698
-1.2185861 -0.12208292 0.77985257 1.0763648 0.595249 1.5657563 0.29920992 -2.4596484
1.3361526 -0.013380782 -1.8989338 -0.029558526 0.13859773 0.35752344 -0.071221665 -1.1910311

arr_2 f4 [32]
00000000: 262c 253f cbe2 4d3f 5130 3f3f 1c24 933f
00000010: ff00 813f 3cb2 953f 6b7e 203f 3126 9d3f
00000020: 67b3 bd3f 0826 cf3f 5e16 0c3f 5bda 513f
00000030: 0086 253f 4d87 ac3f e86c a13f 5fff a83f
00000040: cd09 5a3f 9b85 5e3f 0a8b a13f 5671 923f
00000050: 9bf3 343e c182 7d3f b0ea cc3f 8624 243f
00000060: 8005 713f 05e2 a43f 0c17 403f d253 693f
00000070: b738 2c3f 2d39 0440 b4a0 113f 5ee8 3a3f
0.6452049 0.80424184 0.746831 1.1495395 1.0078429 1.1695018 0.626929 1.227728
1.4820374 1.6183481 0.5472163 0.8197381 0.6465759 1.347879 1.261136 1.3202933
0.85171205 0.86922616 1.2620556 1.1440837 0.17671053 0.9902764 1.6009121 0.6411823
0.9414902 1.2881476 0.75035167 0.91143525 0.6727404 2.0659897 0.5688584 0.73010814

arr_5 f4 [32, 32, 6, 6]
00000000: 0022 a13e e4f7 943e 607b 443e e324 933e
00000010: 5876 213e f07a 963e 9e6f 333e 5d9e 123e
00000020: d768 1c3e 0250 e13d b858 5f3e 3d3d 9b3e
00000030: f0d5 863d 5239 15be a825 89bd 3cc9 743d
00000040: e36c 1c3e 0948 953d 9ad6 4abc 8c72 33be
00000050: f7eb d2bd 7e7a 06be c328 adbd f25f 203c
00000060: 0a47 21be 9a56 57be 6dae 44be f727 3cbe
00000070: 8a40 23be 9781 22bd ca56 c3bd 7108 88bd
00000080: 4b72 0fbd c605 6dbe f8db 84be c342 39be
00000090: 5726 2a3e cbc4 073e 188b 2b3e 53e7 bb3d
000000a0: 84f7 fb3d 729f 513e 030a 0d3e 3f31 583d
000000b0: 29b1 883d 90c1 883d da8e 913d a0f4 043e
000000c0: 9b8f a03d bae0 dfbc 4ee2 ac3c e1bb aebd
000000d0: 99af 6f3b 68d9 f63c 4006 c2bd 83cc e8bd
000000e0: 64ce 6e39 f87c 5fbe 80d8 92bd c85f 10bd
000000f0: 26b0 88bd eede 54be 891e 32bd 7e49 fdbd
00000100: 7642 d1bd f5bd 26be 38a7 5abe 71dd 6dbe
00000110: 531e 2dbe c1d6 a6bd 454f b8bd dc5e 90bc
00000120: 38bc a23e 9ac8 6b3e 589d af3e 7bf5 903e
00000130: cb88 a03e 91fc bf3e df7c c33e d5c3 983e
00000140: 461e a53e e7c6 653e 5b0d aa3e 32f7 963e
00000150: e109 883e f0ab 833d 340a 403e a19c 6c3d
00000160: 34ef 513e 4399 593e acb3 ee3d 10b9 1d3e
00000170: d157 9fbd 28bc 27be 2692 ecbd a99c 85bd
00000180: 68ce b2bd 0175 cdbd 7c5b 20be a8c7 99be
00000190: ed54 34be ea3e 81bd e348 d23b 8086 22be
000001a0: a65f faba 4eac 42bc a39b 2abe 2c7e 61be
000001b0: 3572 2d3e f4aa 783d 3400 063e 586c 233d
000001c0: 0cfd f3bc 726f debd 6cef 7f3e c088 693e
000001d0: dcc7 b83e bde4 6e3e 7336 3a3e 65a7 2ebe
000001e0: ad39 3dbc afa7 853d 27a4 5d3e b8a7 763d
000001f0: 7f65 053e 02c6 473e de3d 5fbe 51f9 9fbe
00000200: faaa 01bd 75a2 3d3e ce41 1b3e 8634 933b
00000210: 00e6 65be a2df 84be 674a 7b3d 18f2 6bbd
00000220: 65da 333e 0374 323c 70ac c9bd 8a4e d9bc
00000230: bd0c df3d dd55 66be 7266 11be 1876 35be
00000240: a914 df3d 008c 5f3e f0c6 e33d 8a6e 683e
00000250: f281 dd3d e35b 013c d8cb 383d fc03 14ba
00000260: 7ea9 8d3e 0066 583e 1a81 5d3e 51c7 7c3d
00000270: 2550 4ebc 0a53 8bbd c09a 903b 91bf 813d
00000280: 0ecf 1a3c e333 de3d dcee 83be 5c73 16be
00000290: 70b5 14be d91a eebd ba87 8a3d eec8 603d
000002a0: 8efa 2fbe 4cdb 6ebe 3290 62be 12df b7be
000002b0: b048 a1bd 0aaa 51bd fa23 fb3d 7509 b2bd
000002c0: 1814 aabd ef8a 74be 250b 47be de59 d73d
000002d0: 3896 003e f026 923e 8396 603e fdaa 303e
000002e0: 5c74 433e 78f0 843e c09d c03d 2ba7 193d
000002f0: 46c7 f83d 7262 093e 76f2 6e3e f3a7 653e
00000300: 7321 9abd e18e 21bd c220 b7bd 0e74 d8b9
00000310: c07e 27bd 0869 b23d b69b 8dbe 8c87 93be
00000320: dbe8 4dbe e0ad 75be 8400 f7bd 2d9b 5cbc
00000330: ebbe 68be 725c 2bbe 4bac 8cbe c1ce f9be
00000340: f4ee c0be 3fa0 52be 9caf 7cbe f27f 5ebe
00000350: b4b8 94be c218 f1be cdfb c8be ed7f b1be
00000360: 911b f1bc 9d09 73bd a613 9fbd 444b 98bd
00000370: e08e e9bb 2fd6 ddbd db96 5b3e ee2b bc3e
00000380: 0e54 923e 0518 623e a204 94bd 072f 4fbd
00000390: 73d3 363e 7382 373e 4e73 713e 17d5 e33d
000003a0: e196 c33d 0f30 113e 4d6d 4abe 7535 9fbe
000003b0: f528 cbbd 0882 73bd d22a b33d 3c20 5b3e
000003c0: d4f1 2c3e 64b6 823d 8cbd 1bbd afba 383e
000003d0: c068 7f3d a2c4 243e ce1e 483e db14 283d
000003e0: 169b da3c 25c6 b7bc 80d0 abbe f4f4 febb
000003f0: d859 cc3b d043 31bc c7b3 0b3e 1898 f13d
0.31471252 0.29095376 0.19187689 0.2873908 0.15767801 0.2939067 0.17523047 0.14318223
0.15274368 0.110015884 0.21811187 0.3032016 0.06583774 -0.14572647 -0.066966355 0.059762225
0.15275912 0.0728913 -0.012380267 -0.17524165 -0.10298913 -0.13132665 -0.0845504 0.0097885
-0.15749756 -0.2102913 -0.19207163 -0.1837462 -0.15942588 -0.039674368 -0.09538038 -0.06642235
-0.035021108 -0.23146734 -0.25949073 -0.18091874 0.16616188 0.13258664 0.16752279 0.09174981
0.12303069 0.2047098 0.1377335 0.05278134 0.066744156 0.06677544 0.07107325 0.12983942
0.078398906 -0.027328838 0.021104004 -0.08531929 0.003657317 0.030132964 -0.09473848 -0.113671325
0.00022774335 -0.21825016 -0.071702 -0.035247594 -0.06674223 -0.20788166 -0.04348615 -0.12367533
-0.102177545 -0.162834 -0.21352851 -0.23229004 -0.16906099 -0.0814643 -0.089994945 -0.017623357
0.31784225 0.23025742 0.3429973 0.28312287 0.31354365 0.3749738 0.38181207 0.29836908
0.3224966 0.22439156 0.33213314 0.2948547 0.26570037 0.06429279 0.18753892 0.05776656
0.20501405 0.21249871 0.116553634 0.15402627 -0.077804215 -0.1638037 -0.11551313 -0.06524021
-0.08730775 -0.10032082 -0.15659899 -0.30035138 -0.17610522 -0.06310828 0.00641738 -0.1587162
-0.0019101992 -0.011881901 -0.16660933 -0.22020787 0.16938098 0.06070991 0.13086015 0.039898247
-0.029783748 -0.108611 0.24993676 0.22806072 0.3608998 0.23329444 0.18184833 -0.17056043
-0.0115493955 0.06526124 0.2164465 0.060218543 0.13026999 0.19509128 -0.21800944 -0.312449
-0.031657197 0.18519004 0.15161821 0.0044923453 -0.2245102 -0.25951868 0.061350252 -0.057603925
0.1756378 0.010891917 -0.09847343 -0.026526708 0.108911015 -0.22493692 -0.14199236 -0.1772083
0.108926125 0.2183075 0.11121929 0.22698417 0.10815801 0.007895443 0.045116276 -0.00056463457
0.27668375 0.2113266 0.2163128 0.06171352 -0.01259235 -0.06802948 0.004412979 0.063353665
0.00944878 0.1084974 -0.25768173 -0.14692444 -0.14522338 -0.116262145 0.06764169 0.05487912
-0.17185423 -0.23325843 -0.22125319 -0.35912377 -0.07875192 -0.051187553 0.12262721 -0.0869321
-0.08304614 -0.23881124 -0.19437845 0.10515188 0.12557304 0.28545332 0.21932416 0.17252727
0.19087356 0.25964713 0.094050884 0.03751294 0.121473834 0.1341646 0.23334679 0.22427349
-0.07525911 -0.0394429 -0.08941795 -0.00041285198 -0.040892363 0.08711439 -0.2765786 -0.28814352
-0.20108359 -0.2399211 -0.12060645 -0.013464731 -0.2272908 -0.16734484 -0.274752 -0.48790553
-0.37682307 -0.20568942 -0.24676365 -0.21728495 -0.29047167 -0.470892 -0.3925461 -0.34667912
-0.02943209 -0.05933534 -0.077674195 -0.07436231 -0.0071276277 -0.10831868 0.21444266 0.36752266
0.28579754 0.22079475 -0.07227446 -0.05058196 0.17854099 0.17920856 0.23579141 0.11124628
0.09550262 0.14178489 -0.19768257 -0.31095472 -0.09919921 -0.05945018 0.08748402 0.21399015
0.16889125 0.063824445 -0.038022563 0.18039964 0.062355757 0.16090634 0.19543001 0.041035514
0.026685279 -0.02243335 -0.3355751 -0.0077806655 0.006236296 -0.01081939 0.13642798 0.11796588

arr_4 f4 [32]
00000000: 721f d53e 7f60 a83e 5ed5 c93e 33f8 d33f
00000010: ffab 5340 cb69 123f b31d 7940 af13 fe3e
00000020: b82c cb3f 8c6c cd3f eac3 0d40 0423 a73f
00000030: 765d 1340 4c26 1e40 17dc e73f 9115 c33f
00000040: 5c5a 293f 00b0 0840 6a3a 653f 22a3 283f
00000050: 621c bd3f cbab 093f 39fb b63f ac7b b63e
00000060: e840 2a3f 1f06 b03f a435 e23e 7a1c 4040
00000070: ab38 2940 469e 9d3f c4d6 6b40 2579 223f
0.41625553 0.3288612 0.394206 1.6560119 3.3073728 0.5719268 3.8924377 0.49624392
1.5873022 1.6048751 2.2150826 1.3057561 2.3025794 2.4710875 1.8114041 1.5240957
0.661535 2.1357422 0.8954226 0.6587392 1.4774287 0.5377776 1.4295417 0.3564123
0.6650529 1.3751868 0.4418155 3.001738 2.6440837 1.2313926 3.6849833 0.634661

arr_7 f4 [32]
00000000: 35df 8a3f 51fa 293f 3cf7 883f 45bd 873f
00000010: b3f8 8b3f 0ff5 5b3f d27b 983f 379d 803f
00000020: b20c 803f 9689 913f 2c35 803f 626a a83f
00000030: fd4f 673f 0322 4c3f 6287 833f f187 843f
00000040: 8827 303f 9e59 653f 9af9 543f f74d 823f
00000050: b8de 4e3f 3b29 863f 1a79 9c3f 1b0e 803f
00000060: 85be 8b3f 20c0 4f3f 39d3 443f dc58 673f
00000070: 1b82 733f c582 743f 3d02 803f d196 833f
1.0849367 0.6639758 1.070045 1.0604635 1.0935272 0.85920805 1.1912787 1.0047978
1.0003874 1.1370113 1.0016227 1.3157465 0.9035643 0.797394 1.027569 1.0353986
0.6881032 0.8958987 0.8319336 1.0180043 0.8080859 1.0481333 1.2224457 1.0004305
1.0917517 0.81152534 0.768848 0.90369964 0.951204 0.9551204 1.0000683 1.02804
