pretrained_model/NYU_pretrained/params/-1_de_params.npz (npz, 21790 bytes, 4 tensors)

arr_1 f4 [40]
0	0x3e21a296	0.15784678
1	0x3f157fa8	0.5839791
2	0x3f362e22	0.71164143
3	0x3f4dea58	0.80435705
4	0x3f075cfa	0.52876246
5	0x3f600587	0.87508434
6	0x3f3c1599	0.73470455
7	0x3f298d19	0.6623092
8	0x3f3ece6e	0.74533737
9	0x3f35bd49	0.7099195
10	0x3f595be8	0.8490586
11	0x3f433165	0.76247245
12	0x3f0deb9a	0.55437624
13	0x3f456c0d	0.77118
14	0x3f150007	0.58203167
15	0x3effdfa3	0.4997531
16	0x3e6b0744	0.2295199
17	0x3ddbc823	0.107315324
18	0x3e7959ea	0.24350706
19	0x3f422483	0.7583696
20	0x3e99ecf0	0.3006358
21	0x3ef05b75	0.46944776
22	0x3f32f5b0	0.6990614
23	0x3ec177a1	0.37786582
24	0x3ebb0620	0.3652811
25	0x3f26603c	0.6499059
26	0x3e35fa0d	0.17771168
27	0x3ee3d2cd	0.44496766
28	0x3ebc4043	0.36767778
29	0x3ec06162	0.37574297
30	0x3ed63bb3	0.41842422
31	0x3dd3f821	0.10350061
32	0x3e936fbe	0.2879619
33	0x3d91534e	0.07095967
34	0x3e1dafa7	0.15399037
35	0x3eae95eb	0.34098753
36	0x3eae26ae	0.34013885
37	0x3eb1efa4	0.34753144
38	0x3e69be25	0.2282644
39	0x3ef6f5fb	0.48234543

arr_0 f4 [20, 40]
0	0xbf1b0051	-0.6054736
1	0x3ee63b2a	0.44967014
2	0x3dae04cf	0.08497011
3	0xbdaa69c5	-0.08320955
4	0xbf1be98a	-0.6090323
5	0x3ee790df	0.45227715
6	0xbbe90aef	-0.007111899
7	0xbee2e4db	-0.44315228
8	0x3eaaf51e	0.33390135
9	0x3e8feb9e	0.2810945
10	0x3e5dad7f	0.21648215
11	0xbde3005c	-0.11084053
12	0xbe02e48c	-0.12782496
13	0xbe3427c0	-0.17593288
14	0xbd0b8b3b	-0.034068327
15	0xbdf16f40	-0.117887974
16	0xbda50865	-0.08058242
17	0xbeb3f7ed	-0.3515009
18	0x3ea3056d	0.31840077
19	0x3de11edf	0.10992216
20	0xbd832ac8	-0.06404644
21	0xbe37d2a3	-0.17951445
22	0x3f0cc0dc	0.5498178
23	0xbe8d7f65	-0.27636257
24	0x3dd60289	0.10449702
25	0x3e51340e	0.20430014
26	0x3e71bda1	0.23607494
27	0x3cd9444a	0.02652182
28	0xbddb4b35	-0.10707704
29	0x3e36bc4e	0.1784527
30	0xbe39e753	-0.1815465
31	0x3dfd4c6a	0.123680905
32	0x3ea35234	0.31898654
33	0x3f157d67	0.58394474
34	0x3e8d3dbf	0.2758617
35	0xbc0fd7a1	-0.008779437
36	0x3e218bb8	0.15775955
37	0xbd4b35f8	-0.049612015
38	0xbd05b6fe	-0.032645218
39	0x3da7d18d	0.081942655
40	0x3dd6f7ca	0.10496481
41	0xbe290dbe	-0.16509148
42	0x3e94032c	0.2890867
43	0x3e05123d	0.12995239
44	0xbe380d7b	-0.17973892
45	0x3ea2a3a2	0.31765467
46	0x3f1ee3d9	0.6206642
47	0x3e904a6b	0.28181776
48	0x3d35374d	0.044242192
49	0xbe47ae54	-0.19500095
50	0x3e7773e5	0.24165304
51	0xbee301bf	-0.4433727
52	0xbca86e0b	-0.020560285
53	0x3ea5464a	0.3228019
54	0x3e809222	0.2511149
55	0xbebc4236	-0.36769265
56	0x3f09b22d	0.537875
57	0x3e8e6d66	0.2781784
58	0xbd98f85e	-0.07469247
59	0x3e895e8f	0.26829955
60	0xbdd768ec	-0.10518059
61	0xbe852a21	-0.26008704
62	0x3e4f204c	0.20227164
63	0x3e020027	0.1269537
64	0xbdd0a079	-0.10186858
65	0x3e9f5999	0.31123045
66	0xbe2ea195	-0.17053826
67	0xbda8ef20	-0.082487345
68	0xbcd71bba	-0.026258338
69	0xbd6f0e6c	-0.058363363
70	0x3f0c678a	0.5484549
71	0x3e7b61e4	0.24549061
72	0xbe4346f2	-0.19070032
73	0xbe26c543	-0.16286187
74	0x3cd80cb9	0.026373254
75	0x3ec5d597	0.3863952
76	0x3e17fff2	0.14843729
77	0xbe643ef6	-0.22289643
78	0x3ebd5d99	0.36985472
79	0xbeb29470	-0.34878874
80	0xbe4399a4	-0.19101578
81	0x3e6160be	0.2200956
82	0xbe7d25d3	-0.2472146
83	0x3f5a65aa	0.8531138
84	0xbe7e9267	-0.24860536
85	0xbe57fc9d	-0.21092458
86	0xbe95b304	-0.2923814
87	0x3cbc7fea	0.023010213
88	0x3d2dbe54	0.04241784
89	0xbec2a513	-0.38016567
90	0xbe557d5a	-0.20848599
91	0xbe18c647	-0.14919387
92	0xbe30fae5	-0.17283209
93	0xbef05ea7	-0.46947214
94	0xbee75702	-0.4518357
95	0xbd5ad5a4	-0.0534264
96	0xbf15a43e	-0.5845374
97	0xbecc0ab8	-0.39851928
98	0x3ed925b3	0.42411575
99	0x3d261779	0.04054973
100	0x3e8ef853	0.2792383
101	0x3e95b2ba	0.2923792
102	0xbee4d85e	-0.44696325
103	0xbd9d387c	-0.07676789
104	0x3e84ae34	0.25914156
105	0xbd6c17cc	-0.057639882
106	0x3e25be89	0.16185965
107	0x3ec3b108	0.38221002
108	0x3cd6ebd3	0.026235497
109	0x3e392715	0.18081315
110	0x3e6991f1	0.22809578
111	0x3f07b92c	0.53016925
112	0x3e70bf0d	0.2351038
113	0x3eb834bf	0.35977742
114	0xbe1da3cb	-0.15394513
115	0xbf2b003e	-0.66797245
116	0x3e4e471f	0.20144318
117	0x3e75a7c9	0.23989786
118	0xbe6790e7	-0.2261387
119	0xbe4cdf9d	-0.20007177
120	0xbf042907	-0.516251
121	0x3ed2744b	0.4110435
122	0xbd961a1c	-0.07329199
123	0x3f373d6c	0.715781
124	0xbe3d455d	-0.18483491
125	0xbddac9e3	-0.10683038
126	0x3e82ac47	0.25522062
127	0x3e58691d	0.21133848
128	0x3ef0e03f	0.47046086
129	0x3e0f74a3	0.14009337
130	0xbd947461	-0.0724876
131	0xbe7f8893	-0.24954443
132	0x3dc0229d	0.09381602
133	0xbe30e4e6	-0.17274818
134	0x3e102343	0.14075951
135	0x3e523487	0.2052785
136	0xbf17efad	-0.5935009
137	0xbea104e8	-0.31449056
138	0xbe1802db	-0.1484484
139	0xbf15d464	-0.5852721
140	0x3d5613f4	0.052265123
141	0xbdfd715e	-0.12375139
142	0xbf0eab64	-0.5573027
143	0x3e8a6be5	0.27035442
144	0xbda51785	-0.080611266
145	0x3aca3719	0.0015427797
146	0x3e7da940	0.24771595
147	0xbef0d7e9	-0.47039726
148	0xbef7c0b3	-0.48389205
149	0x3e87ecb9	0.26547793
150	0x3cc6bce5	0.024259994
151	0x3f7ac848	0.97961855
152	0xbeb89629	-0.36052063
153	0x3e5678b2	0.20944479
154	0xbe9f1ed4	-0.31078207
155	0xbde07b06	-0.10960965
156	0xbdc8efdc	-0.098113745
157	0xbdb0d8e7	-0.08635121
158	0xbd797b4c	-0.0609086
159	0x3df888f5	0.121354975
160	0x3eef188b	0.46698412
161	0x3e23ea4e	0.16007349
162	0xbe91106f	-0.2833285
163	0xbd911318	-0.0708372
164	0x3f1823a0	0.5942936
165	0x3ded38dd	0.115831114
166	0x3dd67bc4	0.10472825
167	0x3ed89908	0.42304254
168	0xbe26c1cb	-0.16284864
169	0x3e02b1a8	0.12763083
170	0xbe1a9efb	-0.15099709
171	0xbf0e1365	-0.55498344
172	0xbe99c81f	-0.30035493
173	0xbf0d43ae	-0.55181396
174	0xbd5c5359	-0.053790424
175	0x3ed6401c	0.41845787
176	0xbe74dc36	-0.23912129
177	0xbdfd81cc	-0.123782724
178	0xbf114e9d	-0.5676058
179	0x3c91be71	0.017791005
180	0xbe73a100	-0.23791885
181	0x3e2d58fe	0.16928479
182	0x3e9e236d	0.30886403
183	0xbea27480	-0.31729507
184	0xbe945549	-0.28971317
185	0xbe0bd8cd	-0.13656922
186	0xbebc2d5f	-0.36753365
187	0xbdf79391	-0.12088693
188	0xbdcf2c50	-0.10115874
189	0xbe9df4c0	-0.30850792
190	0x3f075e8e	0.52878654
191	0xbe61beaf	-0.22045396
192	0xbe19b1f9	-0.15009297
193	0xbee08dd6	-0.43858212
194	0x3d0f7adf	0.03502929
195	0x3e13ba37	0.14426504
196	0xbec98561	-0.39359573
197	0xbe5f2e8a	-0.21795097
198	0xbe3410e6	-0.17584571
199	0x3d36934a	0.04457406
200	0x3f2e2bc4	0.6803553
201	0x3ebf2ddf	0.37339684
202	0xbea20b33	-0.3164917
203	0x3eaf4439	0.34231737
204	0xbe1c6283	-0.15271954
205	0x3f1f4bfd	0.62225324
206	0xbe286cb6	-0.1644772
207	0x3e4a12a9	0.19733681
208	0x3ca899ce	0.020581152
209	0xbecf9a9f	-0.40547654
210	0xbd106d19	-0.035260294
211	0x3ea97dbe	0.33103746
212	0xbdcd80b1	-0.100343116
213	0xbde01fc3	-0.10943558
214	0x3e3bd94d	0.18344612
215	0x3e1a5323	0.15070777
216	0xbe66a224	-0.22522789
217	0xbf322528	-0.69587946
218	0xbde58b32	-0.1120819
219	0x3e0ca719	0.13735618
220	0x3f164aa1	0.58707625
221	0xbe32d3c2	-0.17463592
222	0xbe0ec1ba	-0.13941088
223	0xbece033e	-0.4023685
224	0x3b2106b9	0.0024570657
225	0x3d432b16	0.04764851
226	0xbe06050f	-0.13087867
227	0x3d917e8b	0.07104214
228	0x3d4212e9	0.047381315
229	0xbee1653b	-0.44022545
230	0xbf125db9	-0.5717426
231	0xbe25cde1	-0.16191818
232	0x3d9ab38c	0.07553777
233	0x3e871282	0.26381308
234	0xbedeb3d5	-0.43496576
235	0xbea60f46	-0.32433528
236	0xbd9f813b	-0.07788321
237	0x3ec07a96	0.37593526
238	0xbf24a9fa	-0.64321864
239	0xbe90ec93	-0.28305492
240	0x3eeb73a5	0.45986667
241	0xbe4b9af3	-0.19883327
242	0xbec671dd	-0.38758746
243	0x3eec5eb6	0.4616601
244	0xbe156c30	-0.14592052
245	0x3e4a058d	0.1972868
246	0x3e923aba	0.2856043
247	0xbdee93c9	-0.116492815
248	0xbd142071	-0.03616375
249	0x3eb2b115	0.34900728
250	0x3edeac62	0.43490893
251	0xbe363a3e	-0.17795655
252	0x3e438629	0.19094147
253	0x3e4df09c	0.20111316
254	0xbf26dd46	-0.65181386
255	0x3df2ca28	0.118549645

arr_3 f4 [108]
0	0x3dcc813a	0.099855855
1	0xbd9c2150	-0.07623541
2	0xbc0e2142	-0.0086749215
3	0x3e083c29	0.133042
4	0xbc64ece8	-0.0139724985
5	0xbcbe3f2c	-0.023223482
6	0x3e0f78cd	0.14010926
7	0x3d7981bf	0.06091475
8	0xbd4b8e7c	-0.04969643
9	0x3e01cb2f	0.12675165
10	0x3e1610fe	0.1465492
11	0xbda9a5ab	-0.08283552
12	0x3dc1a47f	0.09455203
13	0x3e086e93	0.1332343
14	0xbdb58bd1	-0.088645585
15	0xbc60c2a4	-0.013718281
16	0x3d80221e	0.06256507
17	0xbdba670e	-0.09101687
18	0xbb4bff27	-0.0031127424
19	0xbd233844	-0.03984858
20	0xbcd83a69	-0.02639504
21	0x3d66e6b9	0.056372378
22	0x3ab1c599	0.0013562917
23	0xbc84f706	-0.016231071
24	0x3e0fbb6f	0.14036344
25	0x3d5f88d0	0.054573834
26	0xbd5b59b2	-0.053552337
27	0x3e1aa919	0.15103568
28	0x3dde1e9b	0.10845681
29	0xbdb97f21	-0.09057451
30	0x3d790a6d	0.06080096
31	0x3db9bd48	0.09069306
32	0xbd6f8ea6	-0.05848565
33	0xbd690bef	-0.056896146
34	0x3dab0dd1	0.08352245
35	0xbd527a87	-0.051386382
36	0xbe1fdebb	-0.15612309
37	0xbd3d94d9	-0.04628453
38	0x3d575e06	0.052579902
39	0xbdafcc2b	-0.08583864
40	0xbbe56868	-0.0070009716
41	0x3d782f0a	0.060591735
42	0x3c26483e	0.01014906
43	0x3d91e08e	0.071229085
44	0x3d384a63	0.044992816
45	0x3d8b71aa	0.06808789
46	0x3de924a8	0.11383945
47	0x3cc803c5	0.02441586
48	0x3d61691d	0.055031884
49	0x3df20559	0.11817426
50	0x3cd5e689	0.026110904
51	0x3bb7f453	0.0056138425
52	0x3e1f5c31	0.15562512
53	0x39ecba9c	0.00045152463
54	0xbe31a050	-0.1734631
55	0x3dcfbd5a	0.10143538
56	0xbd32d88d	-0.04366355
57	0xbe043f63	-0.12914805
58	0x3de2a992	0.11067499
59	0xbd111584	-0.03542091
60	0xbd7f8e1f	-0.062391397
61	0x3dee611a	0.116396144
62	0xbc9fd5ab	-0.019511065
63	0xbb364f74	-0.0027818354
64	0x3e033dac	0.12816495
65	0x3ac627ed	0.00151181
66	0x3d169dcb	0.036771577
67	0x3dec6978	0.11543554
68	0xba9b8592	-0.0011865369
69	0x3d8df5f1	0.06931675
70	0x3de55d20	0.11199403
71	0x3b79a880	0.0038094819
72	0xbc88a7d2	-0.016681585
73	0x3cd2a636	0.025714021
74	0xbe8807c8	-0.26568437
75	0x3d4d7c17	0.05016717
76	0x3cd39911	0.025829824
77	0xbe71a492	-0.23597935
78	0x3dcef442	0.10105182
79	0xbd1a786a	-0.037712492
80	0xbe44af52	-0.19207504
81	0x3e07e4af	0.1327083
82	0xbdab8af5	-0.08376113
83	0xbe157c11	-0.14598109
84	0x3de1c356	0.110235855
85	0xbdcd7e4a	-0.10033853
86	0xbdf21827	-0.11821013
87	0x3d2d0e9b	0.042250257
88	0xbe07cc92	-0.13261631
89	0xbdc1e13a	-0.09466787
90	0xbd2e8c2c	-0.042614147
91	0xbe5800fc	-0.21094126
92	0xbb0e94b9	-0.0021756126
93	0xbc49c1a0	-0.01231423
94	0xbe5fb890	-0.21847749
95	0x3d20967c	0.039206013
96	0xb7974b80	-1.803576e-05
97	0x379964b6	1.8285918e-05
98	0x38070807	3.2193984e-05
99	0xbcdfa8ba	-0.027302135
100	0xbbfc5fb6	-0.0077018393
101	0xbe31a621	-0.1734853
102	0xbd031f2f	-0.03201216
103	0xbe0b8aa9	-0.13627113
104	0x3d3f70fe	0.046738617
105	0xbcf879b4	-0.03033147
106	0xbe6a238b	-0.22865121
107	0x3d0ac15d	0.03387581

arr_2 f4 [40, 108]
0	0x3e41c718	0.18923604
1	0xbf2b9d53	-0.6703693
2	0x3e4b53f9	0.19856252
3	0x3e1c2c52	0.15251282
4	0xbf062df1	-0.5241385
5	0x3e06cff0	0.1316526
6	0x3e03d0b6	0.12872586
7	0xbeb3ab3b	-0.35091576
8	0xb9778d9d	-0.0002360851
9	0x3debbfaa	0.115111664
10	0xbe74f0ca	-0.23919979
11	0xbd9e2a45	-0.07722906
12	0x3db4cfc2	0.08828689
13	0xbe29123f	-0.16510867
14	0xbded98de	-0.11601423
15	0x3be7be88	0.0070722736
16	0xbcd9ddb9	-0.026594983
17	0xbe1f4e34	-0.15557176
18	0x3e7bc3be	0.24586388
19	0xbf3e6e62	-0.7438718
20	0x3ec41be6	0.38302535
21	0x3e480e92	0.19536808
22	0xbf20f034	-0.6286652
23	0x3e3cdb30	0.18442988
24	0x3e1dbae4	0.15403324
25	0xbf02de96	-0.5112089
26	0x3c031658	0.008000933
27	0x3e072ec4	0.13201433
28	0xbedd884d	-0.43268052
29	0xbd41c074	-0.04730268
30	0x3e1069e1	0.1410289
31	0xbea9bdae	-0.33152527
32	0xbd8ad630	-0.06779134
33	0x3dbf8166	0.09350853
34	0xbe47d0c1	-0.19513227
35	0xbda04f66	-0.07827644
36	0x3e57ab83	0.2106152
37	0xbf64f33c	-0.89433646
38	0x3debb1df	0.115085356
39	0x3e26c55b	0.16286223
40	0xbf4e61b6	-0.80617845
41	0x3cad6f13	0.021171128
42	0x3e2f4774	0.17117101
43	0xbf403de6	-0.7509445
44	0xbce90b1a	-0.028447676
45	0x3e2ae3f4	0.1668852
46	0xbf356056	-0.7085012
47	0xbd628394	-0.055301264
48	0x3e144392	0.14478901
49	0xbf04283c	-0.5162389
50	0xbd3f89ba	-0.046762206
51	0x3da8ce32	0.08242454
52	0xbeb0f838	-0.34564376
53	0xbbc13562	-0.0058962563
54	0x3e8d7457	0.27627823
55	0xbf728394	-0.9473202
56	0x3e479610	0.19490838
57	0x3e4e71a6	0.20160541
58	0xbf61febc	-0.8827932
59	0x3e2187f0	0.15774512
60	0x3de28754	0.11060968
61	0xbf4eb8de	-0.80750835
62	0x3de642b7	0.112431936
63	0x3d818fe2	0.063262716
64	0xbf413a09	-0.7547918
65	0x3dcaf2a4	0.09909561
66	0x3d83d35b	0.06436797
67	0xbf0fb4a6	-0.5613502
68	0x3dc42a1a	0.09578343
69	0x3d55ff77	0.052245583
70	0xbe9eb794	-0.30999434
71	0x3de74a40	0.11293459
72	0xbb32aea6	-0.0027264743
73	0xbf006d04	-0.50166345
74	0x3e9392bd	0.2882289
75	0xbd9be0f5	-0.076112665
76	0xbeb16ff0	-0.34655714
77	0x3e878552	0.26468903
78	0xbe1f915c	-0.15582794
79	0xbe15617d	-0.1458797
80	0x3e729bfc	0.23692316
81	0xbe703cee	-0.23460743
82	0xbca5a5fb	-0.020220747
83	0x3e60f902	0.21969989
84	0xbebad6ad	-0.3649191
85	0x3e661fdc	0.22473091
86	0x3e3a4b75	0.18192847
87	0xbeeabc9a	-0.45847017
88	0x3ee3fa12	0.44526726
89	0x3dbfcbb0	0.09365022
90	0xbec12190	-0.3772092
91	0x3f63eecb	0.89036244
92	0xbdac5e03	-0.08416369
93	0xbebaf7dc	-0.36517227
94	0x3f43986b	0.76404446
95	0x3c6cb152	0.014446573
96	0xb64aa49c	-3.019616e-06
97	0xb3dc68d0	-1.02636136e-07
98	0xb498a320	-2.8430895e-07
99	0xbe2301da	-0.15918675
100	0x3e10282c	0.14077824
101	0xbd052b55	-0.032512028
102	0xbdf2fdbc	-0.11864802
103	0x3e95b384	0.29238522
104	0xbc8ba6ab	-0.017047247
105	0xbebabfe4	-0.36474526
106	0x3f669285	0.9006732
107	0xbd54eafa	-0.051981904
108	0x3f1ae48e	0.60504997
109	0xbe07626f	-0.13221143
110	0x3f235f50	0.6381731
111	0x3f0a8367	0.54106754
112	0xbd716b42	-0.05894018
113	0x3f266e61	0.65012175
114	0x3ef3f711	0.47649434
115	0x3bc05903	0.005869986
116	0x3f1a3650	0.60239124
117	0x3ed8a922	0.42316538
118	0x3d071bf3	0.03298564
119	0x3f0d6af1	0.55241305
120	0x3ec80277	0.3906438
121	0xbcdfbe1f	-0.027312336
122	0x3ef14d56	0.47129315
123	0x3ebdd192	0.37073952
124	0xbe69114c	-0.22760504
125	0x3ea05a8d	0.31319085
126	0x3f2650b3	0.6496689
127	0x3e928db2	0.2862373
128	0x3f2ad7ba	0.6673542
129	0x3f14e93d	0.58168393
130	0x3e95a4ea	0.29227382
131	0x3f2436fc	0.641464
132	0x3ef5bcf1	0.47995713
133	0x3ea34f7c	0.3189658
134	0x3f0deb46	0.55437124
135	0x3ed61e9c	0.41820228
136	0x3e946225	0.28981128
137	0x3ef3efa6	0.47643775
138	0x3eb57d3a	0.35447103
139	0x3e5972df	0.21235226
140	0x3e83c2fa	0.25734693
141	0x3e8f076a	0.27935344
142	0x3d42e433	0.04758091
143	0x3dad74c2	0.084695354
144	0x3f0bf8ab	0.5467631
145	0x3ed0c39d	0.4077424
146	0x3f80030c	1.000093
147	0x3ee48caf	0.44638583
148	0x3ebb98fd	0.36640158
149	0x3f547d24	0.8300345
150	0x3eba9a59	0.36445883
151	0x3ed93185	0.42420593
152	0x3f141d94	0.5785763
153	0x3ea02716	0.3127982
154	0x3ee5f173	0.44910774
155	0x3ed32888	0.4124186
156	0x3e46b320	0.19404268
157	0x3ebf76ba	0.3739527
158	0x3e1910f1	0.14947869
159	0x3d782537	0.060582366
160	0x3e89d65b	0.26921353
161	0xbd579e38	-0.052641124
162	0x3e66cdb2	0.22539404
163	0x3ecf181b	0.4044808
164	0x3f56cf94	0.8391049
165	0x3e233320	0.15937471
166	0x3ec2a81c	0.38018882
167	0x3f2a1d63	0.6645109
168	0x3d9b5d07	0.07586103
169	0x3ebf4d1e	0.37363523
170	0x3ed2ed1e	0.4119653
171	0x3d3bfe3f	0.045896765
172	0x3ed342b2	0.41261822
173	0x3e40c861	0.18826438
174	0xbd8918c9	-0.066941805
175	0x3ec705a4	0.3887149
176	0x3c913f0b	0.017730257
177	0xbe6fe905	-0.23428734
178	0x3eb3b2ea	0.35097438
179	0xbe12dc43	-0.14341836
180	0xbf7b3925	-0.9813407
181	0x3ee36561	0.44413283
182	0x3f30facb	0.6913268
183	0xbf633ea9	-0.88767487
184	0x3eb29b2d	0.34884015
185	0x3efe1ae9	0.49629906
186	0xbf4f6be2	-0.8102399
187	0x3e6d9dfa	0.23204795
188	0x3e8e2f0c	0.2777027
189	0xbf388bbb	-0.7208821
190	0x3e136151	0.14392592
191	0x3e018a54	0.12650424
192	0xbf0eecfa	-0.5583035
193	0xbd47171c	-0.048606023
194	0x3e133aa4	0.14377838
195	0xbe91c47f	-0.28470227
196	0xbe90ac07	-0.28256246
197	0x3e3c5da3	0.18395095
198	0x3bf53617	0.0074832547
199	0xbf1aed12	-0.6051799
200	0x3e0ceade	0.1376147
201	0xbea6dd71	-0.3259082
202	0xbe9b7558	-0.30362964
203	0xbc2338c1	-0.009962262
204	0x364a9aa9	3.019037e-06
205	0xb5fb9cbe	-1.8746575e-06
206	0xb6b57268	-5.407539e-06
207	0x3e2fb0ff	0.17157362
208	0xbeac4176	-0.33643693
209	0x3e593d1a	0.21214715
210	0xbd28c4c6	-0.041203283
211	0xbe104469	-0.14088596
212	0xb92a66d8	-0.00016250776
213	0xbe29b734	-0.16573793
214	0xbef528f2	-0.478828
215	0x3d0d036d	0.034427095
216	0x3e5dd1d0	0.21662068
217	0xbf13a6be	-0.57676303
218	0xbe8591e0	-0.26087856
219	0x3ded85de	0.11597799
220	0xbf0e4605	-0.5557559
221	0xbe42ccb7	-0.19023405
222	0x3bdace00	0.006677389
223	0xbf0bbb44	-0.5458262
224	0xbdda96fd	-0.1067333
225	0xbd796262	-0.06088484
226	0xbf0e91d5	-0.5569127
227	0xbd51be8b	-0.051207107
228	0xbd9ea3b6	-0.07746069
229	0xbef70178	-0.48243308
230	0xbc5e8049	-0.01358039
231	0xbd8475b5	-0.06467763
232	0xbeb8637a	-0.36013395
233	0x3d8b2ad1	0.06795276
234	0x3d1c97c6	0.03823068
235	0xbef4468a	-0.47710067
236	0xbdf0a69d	-0.11750529
237	0xbdbad990	-0.09123528
238	0xbefb8a08	-0.49128747
239	0xbde600e1	-0.112306364
240	0xbe5b0a08	-0.21390545
241	0xbf03827c	-0.5137098
242	0xbdec38bc	-0.11534259
243	0xbe8153e3	-0.25259313
244	0xbf0326ca	-0.5123106
245	0xbdf99268	-0.12186128
246	0xbe6540ca	-0.22387996
247	0xbed80bc0	-0.42196465
248	0xbdf71f93	-0.12066569
249	0xbe1ee57e	-0.15517232
250	0xbe9b2472	-0.30301243
251	0xbd78f9fb	-0.060785275
252	0xbe5d5c27	-0.21617185
253	0xbe1d3e58	-0.15355814
254	0xbe872119	-0.2639244
255	0xbea42f8e	-0.3206753
