pretrained_model/NYU_pretrained/params/-1_en_params.npz (npz, 25066 bytes, 6 tensors)

arr_1 f4 [40]
0	0xbd027a32	-0.031854816
1	0x3e57687e	0.21035954
2	0x3e84a572	0.25907475
3	0x3d9f3ee8	0.0777567
4	0x3e5f20ce	0.21789858
5	0x3ef9e4af	0.48807284
6	0x3effc773	0.49956855
7	0x3f3f6250	0.7475939
8	0xbc2e2559	-0.010629022
9	0x3f04eef7	0.5192713
10	0x3e73856a	0.23781362
11	0x3f2ef615	0.6834424
12	0x3ee763a4	0.45193207
13	0x3cd42e15	0.02590088
14	0xbe40c1f5	-0.18823989
15	0x3e951352	0.29116303
16	0x3e1e6fe9	0.15472378
17	0xbe8370c1	-0.25671962
18	0x3e6fb42e	0.23408577
19	0xbdfd3443	-0.12363484
20	0x3e4aeeea	0.19817701
21	0x3ec56bcc	0.38558805
22	0x3eb3572c	0.35027444
23	0xbce556e8	-0.027995542
24	0x3e6180d3	0.22021799
25	0xbe23b1e0	-0.15985823
26	0x3ec13496	0.37735432
27	0x3e93560d	0.2877659
28	0xbde783b0	-0.11304414
29	0xbe5af582	-0.21382716
30	0xbe15bad9	-0.14622058
31	0xbea197df	-0.3156118
32	0xbd82e0de	-0.06390546
33	0x3e7f482d	0.24929877
34	0xbe31bbe4	-0.17356831
35	0xbea0b0c4	-0.3138486
36	0xbd25166d	-0.04030459
37	0x3e493f79	0.19653119
38	0xbd8c7247	-0.06857734
39	0xbe099d54	-0.13438922

arr_0 f4 [108, 40]
0	0x3e138cae	0.14409134
1	0x3e692af5	0.22770293
2	0x3d124f8f	0.035720404
3	0x3e0cf233	0.13764267
4	0xbd694d41	-0.05695844
5	0xbda46f7b	-0.08029076
6	0x3d5fc135	0.054627616
7	0xbdff696d	-0.1247128
8	0x3d1656ac	0.03670375
9	0xbe80084b	-0.25006327
10	0x3e12b909	0.14328398
11	0x3df331a3	0.11874702
12	0x3db186c8	0.086682856
13	0x3d75aa02	0.059976585
14	0x3e2490ec	0.16070908
15	0xbdd00453	-0.10157075
16	0x3e052c56	0.13005194
17	0xbe664bd1	-0.22489859
18	0xbdc4745c	-0.09592506
19	0x3e0083ab	0.12550227
20	0x3d1e25f3	0.03861041
21	0x3c599a64	0.0132814385
22	0xbddab1aa	-0.10678418
23	0x3c7e62ca	0.015526483
24	0xbda7fbe1	-0.08202339
25	0xbded8aec	-0.11598763
26	0xbdcec5b7	-0.10096305
27	0x3e1f66ee	0.15566608
28	0xbdccb97a	-0.09996314
29	0xbda1311a	-0.078706935
30	0xbde1ca56	-0.11024921
31	0x3cee77b8	0.02910982
32	0xbce5281c	-0.027973227
33	0xbdf20ae9	-0.11818487
34	0x3d84295a	0.064532
35	0x3d8ef897	0.069810085
36	0x3e395c35	0.1810158
37	0x3c401824	0.011724506
38	0xbd818bdc	-0.06325504
39	0xbdf02734	-0.117262274
40	0xbddf65ee	-0.109081134
41	0x3d361e9b	0.04446278
42	0x3d45f0c3	0.04832531
43	0x3e33acf5	0.17546447
44	0x3d27e021	0.04098523
45	0x3e335904	0.17514426
46	0x3cbba29c	0.022904687
47	0xbe37d9d2	-0.17954186
48	0x3c3cfd52	0.011535006
49	0x3d563186	0.052293323
50	0xbe23340d	-0.15937825
51	0x3e346607	0.17617045
52	0xbda87d22	-0.08226992
53	0xbda06b39	-0.07832951
54	0x3da18b9d	0.07887957
55	0x3d254819	0.04035196
56	0xbebaf258	-0.3651302
57	0xbd8b35ec	-0.06797394
58	0xbdd70161	-0.1049831
59	0xbd18ec00	-0.037334442
60	0x3e81f2f1	0.25380662
61	0x3c8feded	0.017569507
62	0xbe3ee63e	-0.18642518
63	0xbd433eda	-0.04766736
64	0x3e21963a	0.15779963
65	0x3e3a8bce	0.18217394
66	0x3d90edf4	0.07076636
67	0x3dcfbe66	0.101437375
68	0xbd56c3ad	-0.052432705
69	0xbdcce9fb	-0.10005566
70	0x3c8d4843	0.017246371
71	0xbd086cd3	-0.033306908
72	0x3c9e7c72	0.01934645
73	0xbd8f3d00	-0.06994057
74	0xbdd02f47	-0.101652674
75	0xbd5f45c7	-0.054509904
76	0x3dd25ba8	0.10271388
77	0xbe587fde	-0.21142527
78	0xbe3fc63a	-0.18727961
79	0xbdbd403d	-0.09240768
80	0x3d29f2aa	0.041491188
81	0x3d55f6d6	0.052237354
82	0xbe6adf7a	-0.22936812
83	0xbdad0443	-0.084480785
84	0x3e168dca	0.14702526
85	0x3d378dc1	0.04481292
86	0xbe0b3607	-0.13594829
87	0x3cf54a73	0.029942727
88	0x3e95539b	0.29165348
89	0xbe67d33c	-0.22639173
90	0x3e273e30	0.16332316
91	0x3db92606	0.090404555
92	0xbcd3768b	-0.025813362
93	0xbdb13ecf	-0.08654558
94	0xbe58d3c1	-0.21174528
95	0xbde6e4a0	-0.112740755
96	0xbdef34f3	-0.11680021
97	0xbd7ce189	-0.061738525
98	0x3e4c4c24	0.1995092
99	0xbe08668d	-0.1332037
100	0x3e242a7f	0.16031836
101	0xbd987207	-0.07443624
102	0xbe06c888	-0.13162434
103	0xbe48345f	-0.19551228
104	0xbe78d7a7	-0.24301015
105	0xbe20f053	-0.15716676
106	0x3e83c223	0.25734052
107	0x3ece5ebb	0.4030665
108	0x3c7cdbfd	0.015433309
109	0x3e7412d5	0.23835309
110	0x3d171738	0.036887378
111	0x3ce32729	0.027728634
112	0x3e4d7a05	0.20066078
113	0x3e5eaea1	0.21746303
114	0x3d82dcdb	0.06389781
115	0x3cf3b4db	0.029749325
116	0xbe1e7eed	-0.15478106
117	0xbdb20176	-0.08691685
118	0x3d8eecae	0.06978737
119	0x3d84e19f	0.06488346
120	0x3d9868ce	0.07441865
121	0x3e3a0f9e	0.1817002
122	0x3d3bcc62	0.04584921
123	0x3dfd06c9	0.1235481
124	0xbdce8a69	-0.100849934
125	0xbd89c232	-0.06726493
126	0x3daed744	0.085371524
127	0xbd8f9047	-0.070099406
128	0x3d244539	0.04010508
129	0xbe53a35d	-0.20667787
130	0x3e1f3285	0.15546615
131	0x3dc88094	0.09790149
132	0x3dd474fe	0.10373877
133	0x3db3f203	0.087863944
134	0x3dcd38d5	0.100206055
135	0xbdd87afe	-0.10570334
136	0x3d5c36eb	0.05376331
137	0xbe356a87	-0.17716418
138	0xbde14690	-0.10999787
139	0x3e1f4264	0.1555267
140	0xbc191ff9	-0.009346002
141	0xbcccc79c	-0.024997525
142	0xbdadab47	-0.08479934
143	0xbcdfb12c	-0.027306162
144	0x3c6b6b82	0.014368894
145	0xbe0ca257	-0.13733803
146	0xbd3bdd00	-0.04586506
147	0x3e0637de	0.13107249
148	0xbdb74183	-0.08948042
149	0xbd36f42b	-0.04466645
150	0xbd9490fc	-0.07254216
151	0x3da96448	0.0827108
152	0xbdafa09c	-0.08575556
153	0x3c5f3857	0.013624272
154	0xbcc6d5aa	-0.024271805
155	0x3e08ec35	0.13371356
156	0x3d95d9f5	0.07316963
157	0x3d9afe1d	0.075679995
158	0xbdd520c4	-0.1040664
159	0xbd87ab17	-0.0662443
160	0xbd98196c	-0.07426724
161	0x3cf9500e	0.03043368
162	0x3d748a44	0.059702173
163	0x3e2f742b	0.17134158
164	0x3d9e61c3	0.0773349
165	0x3e027c1c	0.12742656
166	0x3c744abb	0.014910395
167	0xbe3de605	-0.18544777
168	0x3cedf227	0.029046131
169	0x3d1e2764	0.038611785
170	0xbe0a46a7	-0.13503514
171	0x3dcd5138	0.10025257
172	0xbd1c2169	-0.0381178
173	0xbd92b0b8	-0.07162613
174	0x3dabb23d	0.08383606
175	0x3d8cbf1b	0.06872388
176	0xbe1fd57e	-0.15608785
177	0xbcd3ca58	-0.025853321
178	0xbdc00404	-0.09375766
179	0xbdef3bc5	-0.11681322
180	0x3e441695	0.1914924
181	0xbccf0472	-0.025270674
182	0xbe2c712b	-0.16840045
183	0xbc89c01e	-0.016815241
184	0x3d9abeee	0.07555948
185	0x3dd1b53f	0.10239648
186	0x3d8f68b1	0.0700239
187	0x3d9966b5	0.07490293
188	0xbd9733d9	-0.07382936
189	0xbdc8ba86	-0.098012015
190	0x3d952872	0.07283105
191	0xbcabd9a3	-0.0209778
192	0xbd299d57	-0.041409817
193	0xbde9416b	-0.113894306
194	0xbd5324d0	-0.05154878
195	0x3ab08db3	0.0013469964
196	0xbd20ce60	-0.039259315
197	0xbdb22d52	-0.087000504
198	0xbdf502e8	-0.11963445
199	0xbd1498f0	-0.036278665
200	0x3d2444e9	0.04010478
201	0x3d3217d4	0.043479756
202	0xbe5e8c92	-0.21733311
203	0xbd8d4fba	-0.06899972
204	0x3e0cc6bc	0.13747686
205	0x3d5b9bed	0.0536155
206	0xbe274f4f	-0.16338848
207	0xbd094fd6	-0.033523403
208	0x3e4ef569	0.20210804
209	0xbe5084e7	-0.20363198
210	0x3e11989d	0.14218374
211	0x3c90f16e	0.017693248
212	0xbc789535	-0.0151722925
213	0xbd42730e	-0.047473006
214	0xbdf94797	-0.12171858
215	0xbda452d4	-0.08023611
216	0x3d0b0698	0.033941835
217	0xbcb1577a	-0.021648157
218	0x3dd59044	0.10427907
219	0xbe021b7c	-0.12705797
220	0x3d73e956	0.0595487
221	0xbda2bf14	-0.079466015
222	0xbe10ce81	-0.14141275
223	0xbe0a2935	-0.13492282
224	0xbe23c255	-0.159921
225	0xbe04b610	-0.12960076
226	0x3dc61436	0.09671824
227	0x3e5bc610	0.21462274
228	0xbc9b052c	-0.018923365
229	0x3e58fdce	0.21190569
230	0x3bb04b94	0.0053801034
231	0x3d6f1d90	0.058377802
232	0x3cb75258	0.022378132
233	0x3daf22a9	0.08551533
234	0xbc740426	-0.014893567
235	0xbdc2f4bb	-0.09519335
236	0xbda6d442	-0.08145954
237	0xbcfeb99a	-0.031094361
238	0x3d97aa10	0.07405484
239	0x3d62094a	0.05518464
240	0x3ccc2caf	0.02492365
241	0x3dc341fb	0.09534069
242	0x3c9bb0ab	0.01900514
243	0x3dc6ef3f	0.09713601
244	0xbdf22148	-0.11822754
245	0xbd15ae24	-0.036543027
246	0x3d79a1c4	0.060945287
247	0xbb5b9ef8	-0.00335115
248	0x3cd70920	0.026249468
249	0xbe13c640	-0.14431095
250	0x3e2cafca	0.16863933
251	0x3d5e5e8e	0.054289393
252	0x3dd72d62	0.10506703
253	0x3de33bbf	0.1109538
254	0x3ccb67a6	0.024829697
255	0xbdb3fa32	-0.08787955

arr_3 f4 [20]
0	0xbe8d1977	-0.2755849
1	0xbcb91c7a	-0.022596586
2	0x3de90bf6	0.113792345
3	0x3da0ebf3	0.07857504
4	0x3e307f10	0.1723597
5	0xbd1dfa08	-0.038568527
6	0x3d3b5689	0.045736823
7	0xbe2cb346	-0.16865262
8	0x3db5bd1c	0.088739604
9	0x3db24286	0.087040946
10	0x3da6e28e	0.081486806
11	0x3dc0dc85	0.09417061
12	0xbd30c9c0	-0.043161154
13	0x3ea5740e	0.32315105
14	0xbdac89f5	-0.08424751
15	0x3ea9ca9b	0.33162388
16	0x3d8d41e1	0.06897331
17	0xbe810b40	-0.25203896
18	0x3c8ab534	0.016932108
19	0xbeabe397	-0.33572075

arr_2 f4 [40, 20]
0	0xbcc07ab1	-0.023496004
1	0x3cca632f	0.024705498
2	0xbd1aa120	-0.037751317
3	0xbd16a549	-0.036778722
4	0x3cb60c2d	0.022222603
5	0x3cb4780b	0.022029897
6	0x3c9efb6f	0.019407002
7	0xbcb4e19f	-0.02208024
8	0x3c206687	0.009790069
9	0x3d3900ec	0.045166895
10	0x3d50ef59	0.05100951
11	0xbd326c65	-0.043560404
12	0xbd33b8fe	-0.043877594
13	0x3cab2fe8	0.020896867
14	0x3c145f2e	0.009055896
15	0x3cbc70b3	0.023002958
16	0xbc74be22	-0.014937909
17	0x3bc27b67	0.005935121
18	0xbd0a948d	-0.033833075
19	0x3c9179de	0.017758306
20	0x3cb9a534	0.022661783
21	0xbd41c9d7	-0.04731163
22	0x3c8b4f8a	0.0170057
23	0x3d825e7f	0.0636568
24	0xbd3354c2	-0.043782003
25	0x3d8a5bfb	0.06755825
26	0xbd3f6693	-0.04672868
27	0xbd8437a0	-0.06455922
28	0x3d4eb5fc	0.050466523
29	0x3d06e03f	0.0329287
30	0x3b5266ea	0.0032104799
31	0x3d5b48df	0.053536292
32	0xbd315f2a	-0.043303646
33	0x3d3f65b5	0.046727855
34	0xbd77da43	-0.060510885
35	0xbd209df9	-0.039213154
36	0x3d89dfbb	0.06732126
37	0x3c94b0d8	0.018150732
38	0xbc5080c6	-0.0127260145
39	0x3cb8c79c	0.022556119
40	0x3d1d0429	0.038334046
41	0x3d4ae5be	0.049535505
42	0x3c179deb	0.009253959
43	0x3a316375	0.00067668344
44	0xbc7403e2	-0.014893504
45	0x3d5492a4	0.05189766
46	0xbd552509	-0.052037273
47	0xbda66593	-0.081248425
48	0x3ccbf661	0.024897756
49	0xbd7bc041	-0.061462644
50	0x3d0e8259	0.034792278
51	0xbd3fd4f6	-0.046833955
52	0x3d0383dd	0.032108176
53	0xbd28fee2	-0.0412587
54	0x3c617d24	0.013762746
55	0x3d3c93ae	0.046039276
56	0x3d0dc890	0.0346151
57	0xbd4cc8ff	-0.049996372
58	0x3d37158d	0.044698287
59	0xbc9ea606	-0.019366276
60	0x3c9f157d	0.019419426
61	0x3c817576	0.01580308
62	0x3cd19712	0.025584731
63	0x3d9e50de	0.07730268
64	0xbc90dc62	-0.017683212
65	0x3d19adb3	0.037519168
66	0x3d908d2f	0.07058179
67	0x3c7bcc1a	0.015368486
68	0xbd230a49	-0.03980473
69	0x3d5699ac	0.052392647
70	0xbc8e4460	-0.017366588
71	0xbcd930da	-0.026512552
72	0x3ca8ed50	0.020620972
73	0xbcfc2b2e	-0.030782308
74	0xbce39321	-0.027780117
75	0xbbc7b561	-0.00609462
76	0xbd0db8cd	-0.034600068
77	0x3ca2b255	0.019860426
78	0x3d311390	0.043231547
79	0x3d21e49a	0.039524652
80	0x3ca9153c	0.020640008
81	0xbd01084b	-0.03150205
82	0xbc6ca05e	-0.014442531
83	0x3c6047f4	0.01368903
84	0x3d46f530	0.048573673
85	0x3d5a9855	0.05336793
86	0xbb05958f	-0.0020383333
87	0x3d0543c7	0.03253534
88	0xbd6b78c1	-0.057488207
89	0xbcf27297	-0.029595656
90	0xbcae196f	-0.021252362
91	0x3c35cd92	0.011096375
92	0xbc9c0548	-0.019045487
93	0x3d621671	0.055197183
94	0xbdb27835	-0.08714334
95	0x3cb59b90	0.022168905
96	0x3b581d1a	0.003297633
97	0xbdc08725	-0.09400777
98	0xbc51bfb5	-0.012802054
99	0x3c33ebd9	0.010981523
100	0x3d7d6351	0.061862294
101	0xbc0f8bd1	-0.008761362
102	0x3ba9111b	0.00515951
103	0xbd65b0f0	-0.056076944
104	0xbcd11554	-0.025522865
105	0x3da4eae1	0.08052612
106	0x3d954934	0.07289353
107	0x3d1928f2	0.037392564
108	0xbd0e890f	-0.034798678
109	0xbd07f3fe	-0.033191673
110	0x3b8308d0	0.0039988533
111	0x3d1907d3	0.037360977
112	0x3d7b4e14	0.061353758
113	0x3b6c5741	0.003606275
114	0x3c2e6dba	0.010646278
115	0x3cc1e60b	0.023669263
116	0x3d30e1ea	0.0431842
117	0xbd0d3a15	-0.03447922
118	0xbd59c408	-0.053165466
119	0xbca38ba4	-0.019964047
120	0x3c1cd789	0.009572872
121	0x3ce30db6	0.027716499
122	0x3c4d2f7d	0.012523529
123	0x3cd2d09e	0.025734242
124	0x3ca4461c	0.020052962
125	0x3c96ab00	0.018392086
126	0xbd1f472d	-0.038886238
127	0x3de5bfad	0.112182
128	0x3c1d636b	0.009606223
129	0x3d0178a8	0.031609207
130	0xbd29f916	-0.041497312
131	0xbc0cd74d	-0.008596254
132	0xbdb43dfd	-0.08800886
133	0x3d469515	0.04848202
134	0x3e0dc560	0.13844824
135	0x3db90d04	0.09035686
136	0x3d352cb0	0.04423207
137	0xbc5a1822	-0.013311418
138	0x3d987af5	0.07445327
139	0x3d4b8c7e	0.04969453
140	0xbdcc8a7b	-0.099873506
141	0x3cdfac1c	0.027303748
142	0x3c2910f6	0.010318985
143	0x3d355fc6	0.04428079
144	0x3dfdab7e	0.12386225
145	0x3cf5b89d	0.029995257
146	0xbce92c5f	-0.02846354
147	0xbd507d79	-0.05090091
148	0xbd35a5de	-0.044347636
149	0xbc22c5e9	-0.009934881
150	0xbbe9cb59	-0.0071348366
151	0x3d4a28b4	0.049355224
152	0x3b39b7d3	0.0028338328
153	0xbd9a3449	-0.07529504
154	0x3bac6349	0.005260859
155	0xbd1522ff	-0.036410328
156	0x3d70ff84	0.05883743
157	0x3cba2a94	0.022725381
158	0xbd9c3582	-0.07627393
159	0x3d91a322	0.07111193
160	0x3d59ac9d	0.053143132
161	0x3c95cca5	0.018286059
162	0x3b62ec8f	0.0034625863
163	0x3d8a1b83	0.06743529
164	0x3c75eefc	0.015010592
165	0xbd51625a	-0.051119186
166	0xbca530b8	-0.020164832
167	0x3ca84ced	0.020544494
168	0xbd0abab5	-0.033869464
169	0xbd42f2c0	-0.047594786
170	0x3c801192	0.015633378
171	0xbd92ba31	-0.071644194
172	0xbbe359d1	-0.006938197
173	0x3d2b511d	0.041825403
174	0xbcee1e70	-0.029067248
175	0xbd56f912	-0.052483626
176	0xbc074e88	-0.008258469
177	0x390a0fad	0.00013166545
178	0xbdb5fc2c	-0.088859886
179	0xbcb3d165	-0.021950433
180	0x3d667b42	0.05626989
181	0xbd36a955	-0.04459508
182	0xbd437dac	-0.047727272
183	0x3d1877ad	0.037223507
184	0x3cc5eb18	0.024159953
185	0xbd8502ce	-0.064946756
186	0x3d828ff6	0.063751146
187	0xbc5223b3	-0.012825894
188	0x3ddedf15	0.10882393
189	0xbc4fa656	-0.012673935
190	0xbc8a79a8	-0.016903713
191	0x3cbd9938	0.02314435
192	0xbb8dd5db	-0.004328472
193	0xbd82f75d	-0.06394837
194	0xbb645c82	-0.0034845178
195	0x3d0e7916	0.034783445
196	0xbdb9d462	-0.09073712
197	0xbc707f94	-0.0146788545
198	0x3b812f69	0.0039424193
199	0x3d901c16	0.07036607
200	0xbbf2a154	-0.0074044857
201	0xba973a5f	-0.0011537782
202	0x3d5fbc8c	0.05462317
203	0x3cbd8b4b	0.02313771
204	0x3d6cf072	0.057846494
205	0x3d34ddf4	0.044156983
206	0x3d8f128e	0.06985961
207	0x3c8dfb59	0.017331766
208	0xbc986552	-0.018603
209	0xbd1fa88e	-0.038979106
210	0xbcc73e76	-0.024321776
211	0x3d900011	0.07031263
212	0xbd61522c	-0.055010006
213	0x3c3b9c58	0.0114508495
214	0x3daa72ee	0.08322702
215	0xbd658159	-0.05603156
216	0xbd8c523d	-0.06851623
217	0x3a503cd9	0.00079436373
218	0xbc4e1b29	-0.012579718
219	0xbdb4c85e	-0.088272795
220	0xbd57cae5	-0.05268373
221	0xbdd847c5	-0.10560564
222	0x3db3c627	0.08778029
223	0xbd49ff5e	-0.049315803
224	0xbd43a550	-0.047765076
225	0x3d0dce73	0.034620713
226	0xbd9bc54b	-0.0760599
227	0x3d3ff8c1	0.04686809
228	0xbd35bd9c	-0.04437028
229	0x3b9d3452	0.004797497
230	0xbce291fe	-0.027657505
231	0xbd9b2c76	-0.075768396
232	0xbcae92b6	-0.021310192
233	0xbd89b632	-0.06724204
234	0x3c73b555	0.014874776
235	0x3da394e9	0.07987387
236	0xbda7fa9b	-0.08202096
237	0x3d16ba0a	0.036798514
238	0xbd381a0f	-0.044946726
239	0xbd04380c	-0.032280013
240	0x3b1940ee	0.0023384648
241	0x3cb7cbdd	0.022436077
242	0xbd66a1bc	-0.056306586
243	0xbd092428	-0.033481747
244	0xbd342aee	-0.043986253
245	0xbb06a9a1	-0.0020547884
246	0x3d7a2173	0.061067056
247	0xba7c6c41	-0.0009629168
248	0xbc2fcc5b	-0.0107298745
249	0x3d08e479	0.033421014
250	0xbda0ac08	-0.07845312
251	0xbd1b5281	-0.03792048
252	0xbdb4594c	-0.088060945
253	0xbdfb6877	-0.122757845
254	0xbd898314	-0.06714454
255	0xbd28a148	-0.041169435

arr_5 f4 [20]
0	0xbd5c732a	-0.053820767
1	0xbd5ea98b	-0.054360908
2	0xbd801758	-0.062544525
3	0xbd48bd65	-0.049008746
4	0xbd4c3d9c	-0.049863443
5	0xbd6b1563	-0.057393443
6	0xbd4a914c	-0.049454972
7	0xbd3cbbe6	-0.04607763
8	0xbd5dd9f6	-0.054162942
9	0xbd9d7069	-0.07687456
10	0xbcb3ad91	-0.021933349
11	0xbd90b5b7	-0.07065909
12	0xbd812115	-0.06305138
13	0xbd5d55ca	-0.054036893
14	0xbd62895e	-0.055306785
15	0xbd2acfa3	-0.041701924
16	0xbd34d253	-0.044145893
17	0xbd1d1e95	-0.038359243
18	0xbd63444f	-0.055485066
19	0xbd494f44	-0.04914786

arr_4 f4 [40, 20]
0	0xbb43f63e	-0.002990141
1	0xbaa8f8fc	-0.0012891586
2	0xbbab6b5f	-0.0052313055
3	0xbbe841fe	-0.007087945
4	0xbb27e890	-0.0025620796
5	0xbacb9cf9	-0.0015534452
6	0xbb15f953	-0.0022884205
7	0xbb88f653	-0.0041797548
8	0xbb5094b7	-0.0031826922
9	0x3a6db37f	0.00090675795
10	0xb9b41e2c	-0.00034354755
11	0x3ae4278c	0.0017406805
12	0xbb0a5487	-0.002110751
13	0xbad43619	-0.0016190439
14	0xb98518e2	-0.00025386276
15	0xbb9dc0d2	-0.0048142457
16	0xbafb7690	-0.0019185115
17	0xbb0f036f	-0.0021822115
18	0xbac7d205	-0.0015245086
19	0xbb3082af	-0.0026933362
20	0xba88f1e0	-0.0010448061
21	0xb9ba127d	-0.0003549046
22	0xbba0ba8a	-0.0049050497
23	0xbb0db305	-0.0021621597
24	0xb9d1a96e	-0.0003998982
25	0x398621f8	0.0002558378
26	0xbafd67dc	-0.0019333321
27	0xbb01a8aa	-0.001978437
28	0xb92bda76	-0.00016389214
29	0xba0b3bdb	-0.00053113484
30	0xb9b1e4e8	-0.0003393062
31	0xbade56f1	-0.0016963166
32	0xbaaef6eb	-0.0013348734
33	0x39a48c2f	0.00031384962
34	0x393442c4	0.0001719101
35	0xba00bd00	-0.00049109757
36	0xba7dd92e	-0.00096835464
37	0xba34e599	-0.0006900668
38	0xba8a1a5b	-0.0010536419
39	0x3a47f139	0.00076271925
40	0xbb0c2a27	-0.002138743
41	0xba8d94e0	-0.0010801814
42	0xbb9c9161	-0.0047780727
43	0xbb82339a	-0.0039734365
44	0xbafa0c87	-0.001907722
45	0xbb4cea47	-0.003126757
46	0xbaab8ae8	-0.0013087662
47	0xbb1e2d5e	-0.0024135928
48	0xbaf71534	-0.0018850924
49	0xbaa820d6	-0.0012827169
50	0xb92a8faf	-0.0001626599
51	0xba9c9334	-0.0011945725
52	0xba9bd257	-0.0011888248
53	0xbaa38d8d	-0.0012478099
54	0x37b92b64	2.2073924e-05
55	0xbaf81fa7	-0.0018930332
56	0xbafb8d7e	-0.0019191948
57	0xbaafd9b6	-0.0013416323
58	0xbafb8bbe	-0.0019191427
59	0xbafd2a1f	-0.0019314921
60	0x3b05bcc1	0.0020406696
61	0x3a0c23fa	0.0005345937
62	0x3bac0c0a	0.0052504586
63	0x3bba7736	0.0056904806
64	0x3ad9ec55	0.0016626219
65	0xba0f9b0d	-0.00054781215
66	0xbaec7988	-0.001804159
67	0x3a9d50f8	0.001200228
68	0x3aaa8683	0.0013010058
69	0xbb0930b2	-0.0020933566
70	0x39d76197	0.00041080706
71	0x39fdd5c4	0.00048415188
72	0x3a9ddb03	0.001204342
73	0x3aa44c85	0.0012535012
74	0x39901d52	0.00027487666
75	0x3ad01da7	0.0015877978
76	0x3af1c4ee	0.001844553
77	0x3a40db5b	0.0007356905
78	0x3ac86462	0.0015288705
79	0x3a9ed302	0.0012117329
80	0xba172578	-0.0005765776
81	0xb92899b3	-0.00016078986
82	0x37448fb5	1.171597e-05
83	0x392614c4	0.0001583873
84	0x3a5a4cfa	0.00083275104
85	0x3b5be99d	0.0033555992
86	0x3b825466	0.0039773462
87	0x3a8be6d4	0.001067365
88	0xbade362c	-0.00169534
89	0x3b684f15	0.0035447527
90	0x3a925a4e	0.0011165829
91	0xb857c2ff	-5.14416e-05
92	0xba5d1ce5	-0.00084347866
93	0x3a1f8e73	0.0006086595
94	0xbb3b63bc	-0.0028593382
95	0x3a886ba3	0.0010408055
96	0x3926d7b5	0.00015911351
97	0x3aa61a74	0.0012672679
98	0xbafb38de	-0.0019166728
99	0xbacc7aeb	-0.0015600597
100	0xba1f16aa	-0.0006068746
101	0xb6ebd538	-7.0283677e-06
102	0xbaa96021	-0.0012922325
103	0xbb581664	-0.003297233
104	0xba8899d1	-0.0010421817
105	0xbb65d8ad	-0.0035071776
106	0xba6df4e5	-0.00090773246
107	0xbb2c92ad	-0.0026332543
108	0xbaa1e733	-0.0012352228
109	0x37be9380	2.271845e-05
110	0xba2088ca	-0.0006123899
111	0x3a113ef7	0.00055406935
112	0xba12b1ce	-0.0005595953
113	0xba1b1d92	-0.0005917187
114	0xb9976632	-0.00028877106
115	0xbae39bba	-0.0017365136
116	0xba3b6af6	-0.00071494223
117	0xbad4ead1	-0.0016244297
118	0x3971fc9c	0.00023077655
119	0xbab51d47	-0.001381793
120	0xbaf4d67a	-0.0018679642
121	0x39661fd0	0.0002194636
122	0x379d9606	1.8785719e-05
123	0x3a4cfb3d	0.000781942
124	0xbb44ed3c	-0.003004863
125	0xba97e27c	-0.0011587883
126	0xbb6368de	-0.0034699957
127	0xba1dc9b0	-0.00060191285
128	0x3a66dc4a	0.00088066293
129	0xbb0145fa	-0.0019725547
130	0xb9b2f030	-0.0003412976
131	0xba100dd6	-0.0005495226
132	0xbb02e60c	-0.0019973544
133	0xb89300fc	-7.0096896e-05
134	0x3a09f7c1	0.00052630535
135	0xba898a14	-0.0010493421
136	0xba78e2e7	-0.00094942603
137	0xb9cfbd86	-0.00039623323
138	0x3a3801e0	0.00070193224
139	0x39f28d7b	0.00046263248
140	0x392b91b6	0.00016362112
141	0xbaae2129	-0.0013285029
142	0xb9faab95	-0.00047811554
143	0xb9c4bc5b	-0.0003752437
144	0xbaca31f2	-0.0015426262
145	0xbac3388e	-0.0014894174
146	0xb9e85a75	-0.00044317884
147	0xb9d834ea	-0.00041238155
148	0xb80d8ed6	-3.3750046e-05
149	0xba11b293	-0.00055579207
150	0x39288b7f	0.00016073695
151	0x3a569f11	0.0008187155
152	0xb9c5d4e2	-0.00037733378
153	0xba89b8c3	-0.0010507334
154	0x3a3a6e37	0.000711176
155	0xba36f2ab	-0.00069789094
156	0xba16d0da	-0.0005753167
157	0xba528090	-0.00080300216
158	0xb8c7fb2c	-9.535844e-05
159	0xb9cee04e	-0.00039458502
160	0xb999d8bd	-0.00029343917
161	0xb9c43ca3	-0.0003742921
162	0xbb19799e	-0.0023418437
163	0xbaf82054	-0.0018930533
164	0xb9e929ee	-0.00044472463
165	0x3a165b91	0.00057356904
166	0x3ab050b4	0.0013451786
167	0xba0fdfab	-0.0005488346
168	0x39bdef8e	0.0003622737
169	0x3a53e007	0.0008082394
170	0xb9cb18c4	-0.0003873763
171	0xba0f18b4	-0.0005458698
172	0xb9e23f5e	-0.0004315329
173	0x3888484c	6.498452e-05
174	0x3a1a6bd6	0.00058907026
175	0x39964d84	0.00028667983
176	0xb785b16f	-1.593746e-05
177	0x39912d66	0.0002769038
178	0xbaae92f0	-0.0013318937
179	0xb9dce45b	-0.00042131808
180	0x3ab15e51	0.0013532137
181	0x3a1ea572	0.0006051875
182	0x3b334a86	0.0027357652
183	0x3ad043d8	0.001588936
184	0x3ad79f34	0.0016450644
185	0x3ad2175c	0.001602869
186	0x3b1dbe7f	0.0024069843
187	0x3ac01ead	0.001465758
188	0x39dcf39f	0.00042143182
189	0x3abc5251	0.0014367794
190	0x39815373	0.00024666972
191	0x3accc8f9	0.0015623859
192	0x3ad66a2f	0.001635855
193	0x39b361f8	0.00034214533
194	0x3934a557	0.00017227732
195	0x3a40b525	0.00073512114
196	0x3a71c92e	0.00092233985
197	0x3a766f1c	0.0009400712
198	0x3a2fea30	0.0006710617
199	0x398f665e	0.00027351355
200	0xb7d4a91c	-2.5351117e-05
201	0xba724490	-0.0009241784
202	0x3a036dba	0.0005013604
203	0x3ab4b37e	0.0013786403
204	0xba2a7af2	-0.00065033056
205	0x3b10d0a1	0.0022097009
206	0x3aa3e4d9	0.0012504115
207	0x3b2a7abf	0.0026013104
208	0x3ace8c6a	0.0015758399
209	0xba1ef80e	-0.00060641847
210	0x38e214f8	0.000107804255
211	0x3a5854e0	0.00082523935
212	0x38b6c6b6	8.715449e-05
213	0xb99914a5	-0.00029197815
214	0x3b2b70fa	0.0026159869
215	0xb8c9e6c5	-9.627411e-05
216	0xb8fb8a69	-0.000119943936
217	0x3a79ccfb	0.00095291407
218	0x39020e50	0.00012403098
219	0x3b279387	0.002557011
220	0x39b82962	0.00035126047
221	0xb9e60527	-0.00043872857
222	0xbad2ca77	-0.0016082068
223	0xbb10f074	-0.0022115977
224	0x39f4a9b2	0.0004666574
225	0xb8b4b0d2	-8.616004e-05
226	0x378d50db	1.6846161e-05
227	0xba46b03b	-0.0007579361
228	0xba15b887	-0.00057113956
229	0x39fe7fda	0.00048541912
230	0x39959a40	0.0002853442
231	0x3a9dac14	0.0012029433
232	0xba36fec8	-0.00069807144
233	0x39dbcdc8	0.00041924254
234	0x3a256f12	0.0006310801
235	0xba5e3db2	-0.0008477821
236	0xba8cd55d	-0.001074474
237	0x3891c726	6.951233e-05
238	0xb9b52786	-0.00034552458
239	0x3a998ccc	0.0011714934
240	0x39d6603b	0.00040888958
241	0xba13935f	-0.0005629565
242	0x3a84b4b6	0.0010124657
243	0x3aa4cae7	0.0012572677
244	0xb9d04c27	-0.0003972959
245	0x3b12da23	0.0022407852
246	0x3a4d2157	0.00078250974
247	0x3acf65d8	0.0015823198
248	0x3a744040	0.00093174353
249	0xb9f2d126	-0.00046313665
250	0xb913d6e8	-0.00014099071
251	0x3a45985e	0.0007537658
252	0xb883a461	-6.277185e-05
253	0xba1149f6	-0.0005542332
254	0x3aa5149b	0.0012594642
255	0x398f95fd	0.00027386835
