pretrained_model/NYU_pretrained/params/-1_gen_params.npz (npz, 656534 bytes, 26 tensors)

arr_24 f4 [32]
0.6812765 0.9652352 0.5886055 0.9646268 0.6699614 0.93278664 0.7963381 0.6902644
0.74221885 0.4573529 0.687591 0.7011461 0.6556421 1.246453 1.2453406 0.6397211
0.78461236 1.2086772 0.6718608 0.57937175 0.7457888 0.6168076 0.9115105 0.89452153
0.44254583 1.0556382 0.5902368 0.75980556 0.59850246 0.6596775 0.59789366 0.79793733
00000000: 2368 2e3f a719 773f daae 163f c8f1 763f
00000010: 9782 2b3f 1bcb 6e3f d0dc 4b3f 2bb5 303f
00000020: 0e02 3e3f 292a ea3e f705 303f 507e 333f
00000030: 29d8 273f c68b 9f3f 5267 9f3f c3c4 233f
00000040: 5bdc 483f efb5 9a3f 12ff 2b3f b551 143f
00000050: 04ec 3e3f 1ae7 1d3f c158 693f 5dff 643f
00000060: 5e95 e23e 271f 873f c219 173f 9e82 423f
00000070: 7537 193f a0e0 283f 8f0f 193f 9f45 4c3f

arr_25 f4 [32, 1, 6, 6]
-0.008934542 -0.018830987 -0.021192083 -0.04273414 -0.009249014 -0.0035528287 0.0020897877 -0.007833489
-0.027434632 0.1358846 -0.002395935 0.0031863735 -0.008499577 -0.020172713 0.024524884 8.011129
9.782513 0.051759448 0.00805224 0.009920287 -0.035709575 10.213835 13.334086 0.0025950125
0.015908947 -0.0003796795 0.0018411963 3.3334544 7.6721487 0.006119581 0.014877907 0.0261725
-0.00057572755 -0.02358619 -0.008475041 -0.015813297 -0.23373722 -0.08453288 -1.2776122 -0.5364708
0.07824352 0.014836802 -0.107072726 -2.3477225 -3.8981252 -3.3283374 -0.3646376 0.03226715
-0.61743027 -4.7916656 -6.1548934 -5.9955745 -2.6968184 -0.12829815 -0.29235697 -0.54552823
-4.302707 -0.91974515 -0.16919883 0.13828725 0.12096379 0.045159157 -0.15082516 -0.4476053
-0.11730276 -0.0798804 0.03591876 -0.2580354 -0.07137859 -0.059882082 0.007991411 -0.00023204589
0.04079324 0.10776658 10.472584 9.518647 0.0041043875 0.00015259694 0.02301484 0.044900354
8.768759 10.203679 6.7826085 0.007552229 -0.011507157 0.22431445 5.483557 8.782045
7.3209667 0.013515866 0.02021794 0.035115153 3.5579066 7.12663 5.153883 0.03716079
-0.008054278 -0.038272444 0.00040004036 -0.14283583 0.017142668 0.008315769 -0.0018619559 -0.03946662
-0.024166806 0.007823973 0.0108730635 -0.014070501 -0.055437233 -0.10056914 -0.06579638 0.015611566
-0.15825766 -0.033028357 -0.08779412 -0.13549234 -0.116074435 0.027624818 -0.07467179 0.04092409
-0.14411333 -0.12233585 -0.22991839 -0.115485676 -0.19933206 -0.12941505 -0.16942886 -0.15828653
-0.19017074 -0.030236041 -0.18396217 -0.03279321 -0.110274866 -0.077995084 -0.12304075 -0.047602788
-0.22674233 -0.092406124 -0.074840896 -0.059658013 -0.11131577 0.08044587 -0.09227077 0.009587294
-0.08633892 0.26601374 0.23045783 0.4600374 0.4698699 0.27579254 0.21133108 0.4190804
0.63627183 0.9123598 0.87822115 0.62716705 0.1377513 0.70686567 0.877295 1.5094084
1.113899 0.7005402 0.40740365 0.50985986 0.82596385 0.78544295 0.7501356 0.33502227
0.20843922 0.39897552 0.72180396 0.7900574 0.5308974 0.18995161 0.116858706 0.38628322
0.5864106 0.34301177 0.2813924 0.08038043 0.011121486 0.006084186 -0.019356975 -0.10367505
0.0073046633 -0.016346999 0.0048476555 -0.06091567 -0.004717922 -0.030386895 0.09883445 0.015681732
-0.045872495 -0.024652187 0.076059215 10.837288 11.211991 0.18035285 0.0023509061 -0.2038098
6.4998665 7.381354 3.9433162 -0.047028884 0.012179863 0.03456658 0.0245328 0.015567334
-0.11874115 0.004243133 0.025039906 0.041380834 -0.10408575 0.027299136 -0.01735276 0.04758826
-0.065699264 -0.06224416 -0.09394988 -0.060135018 -0.037719596 -0.0061849486 -0.10227452 -0.15537572
-0.15595978 -0.17587599 -0.07450775 -0.04511465 -0.107336275 -0.117437035 -0.19228971 -0.17171198
-0.127984 -0.08966247 -0.10777663 -0.119484015 -0.21515147 -0.19098562 -0.13088615 -0.09024247
-0.080401435 -0.097519904 -0.16380468 -0.18163756 -0.1334701 -0.1095606 -0.03826064 -0.03984312
-0.10496761 -0.06888288 -0.089567885 -0.0154981045 0.014688265 -0.044223685 0.009452367 -0.069735266
00000000: 2f62 12bc 7143 9abc 059b adbc fe09 2fbd
00000010: 2d89 17bc 93d6 68bb d2f4 083b 0958 00bc
00000020: 98be e0bc 5525 0b3e 1e05 1dbb 7ad2 503b
00000030: cf41 0bbc 3f41 a5bc 69e8 c83c 962d 0041
00000040: 2c85 1c41 b701 543d 8bed 033c b388 223c
00000050: 3444 12bd de6b 2341 6b58 5541 1611 2a3b
00000060: 7b53 823c b80f c7b9 4c54 f13a 5157 5540
00000070: 3e82 f540 c486 c83b 77c2 733c b667 d63c
00000080: 6cec 16ba d337 c1bc e6da 0abc e38a 81bc
00000090: cf58 6fbe 931f adbd cc88 a3bf 2656 09bf
000000a0: 233e a03d 0f16 733c f248 dbbd 1641 16c0
000000b0: e27a 79c0 7b03 55c0 c8b1 babe 8f2a 043d
000000c0: e90f 1ebf 5355 99c0 e3f4 c4c0 bfdb bfc0
000000d0: ac98 2cc0 9760 03be d0af 95be bda7 0bbf
000000e0: c7af 89c0 6b74 6bbf 7542 2dbe 2c9b 0d3e
000000f0: ddbb f73d cff8 383d e971 1abe 862c e5be
00000100: 6e3c f0bd 5698 a3bd 8d1f 133d 371d 84be
00000110: f02e 92bd ea46 75bd 68ee 023c 5851 73b9
00000120: d016 273d bab4 dc3d b48f 2741 614c 1841
00000130: 197e 863b 6e02 2039 9e89 bc3c 6fe9 373d
00000140: d64c 0c41 4542 2341 210b d940 b078 f73b
00000150: 8488 3cbc b0b2 653e 4d79 af40 4283 0c41
00000160: 5c45 ea40 a771 5d3c 18a0 a53c e8d4 0f3d
00000170: beb4 6340 5a0d e440 9cec a440 ea35 183d
00000180: 17f6 03bc 91c3 1cbd 82bc d139 8e43 12be
00000190: c86e 8c3c dd3e 083c df0c f4ba c0a7 21bd
000001a0: 77f9 c5bc 1f30 003c ef24 323c f587 66bc
000001b0: 2712 63bd 31f7 cdbd 41c0 86bd a7c7 7f3c
000001c0: 4c0e 22be be48 07bd 67cd b3bd 81be 0abe
000001d0: 6fb8 edbd 714d e23c 86ed 98bd 05a0 273d
000001e0: 7292 13be 388b fabd ba6f 6bbe c183 ecbd
000001f0: b41d 4cbe 6185 04be c27e 2dbe dd15 22be
00000200: 1ebc 42be 93b1 f7bc 9460 3cbe 2c52 06bd
00000210: cad7 e1bd e3bb 9fbd cafc fbbd 24fb 42bd
00000220: 242f 68be 6c3f bdbd 2f46 99bd f65b 74bd
00000230: 86f9 e3bd cec0 a43d 75f8 bcbd 0714 1d3c
00000240: 76d2 b0bd f432 883e 23fd 6b3e 068a eb3e
00000250: ca92 f03e ae34 8d3e 2d67 583e b591 d63e
00000260: b6e2 223f 6990 693f 1ad3 603f 058e 203f
00000270: ad0e 0d3e 26f5 343f 6896 603f 4b34 c13f
00000280: 3e94 8e3f 9a56 333f 3697 d03e 2d86 023f
00000290: 5e72 533f ca12 493f e308 403f 0a88 ab3e
000002a0: 1771 553e 8546 cc3e 25c8 383f 3441 4a3f
000002b0: e4e8 073f ad82 423e 9e53 ef3d eac6 c53e
000002c0: 011f 163f 3d9f af3e aa12 903e 7f9e a43d
000002d0: e536 363c da5d c73b 8592 9ebc 9653 d4bd
000002e0: f55b ef3b 24ea 85bc 15d9 9e3b b682 79bd
000002f0: cc98 9abb f0ed f8bc b769 ca3d fa76 803c
00000300: cce4 3bbd 62f3 c9bc efc4 9b3d 8865 2d41
00000310: 5164 3341 6bae 383e a911 1a3b 84b3 50be
00000320: e8fe cf40 0d34 ec40 4b5f 7c40 5ca1 40bd
00000330: 0c8e 473c b095 0d3d 03f9 c83c 220e 7f3c
00000340: 8f2e f3bd fb09 8b3b 7d20 cd3c f37e 293d
00000350: e92a d5bd 70a2 df3c 6027 8ebc e8eb 423d
00000360: 568d 86bd bbf3 7ebd cb68 c0bd 2350 76bd
00000370: dd7f 1abd 1cab cabb 4e75 d1bd d01a 1fbe
00000380: ecb3 1fbe d618 34be 8597 98bd 24ca 38bd
00000390: 1fd3 dbbd d482 f0bd 98e7 44be 44d5 2fbe
000003a0: 3d0e 03be f5a0 b7bd feb9 dcbd 09b4 f4bd
000003b0: ab50 5cbe bc91 43be 0507 06be 0bd1 b8bd
000003c0: 82a9 a4bd 84b8 c7bd 6abc 27be 32ff 39be
000003d0: 63ac 08be 4f61 e0bd 30b7 1cbd 8a32 23bd
000003e0: 42f9 d6bd 7812 8dbd 5e6f b7bd c3eb 7dbc
000003f0: 0ca7 703c e523 35bd 1ade 1a3c 5dd1 8ebd

arr_20 f4 [32, 32, 6, 6]
0.127011 0.44788942 0.25239733 0.17655857 0.03213845 -0.046194296 0.09054002 0.490538
0.41768697 0.47917587 0.00088716694 -0.018094622 0.21048994 0.6133681 0.8294281 0.48089722
0.287952 0.08897983 -0.1279293 0.033872176 0.42025536 0.3373429 0.25017104 0.049857013
0.054227807 0.33519843 0.3198654 0.52146375 0.32879323 0.23128226 0.1310761 -0.08937991
0.118222184 0.16417788 0.16964947 0.3602219 -0.067251146 -0.15526772 -0.3195528 -0.41387367
-0.13201046 -0.26696876 -0.16656126 0.24628337 0.09441443 0.29507723 0.48196182 0.015999025
-0.17682683 0.20291896 0.07037561 0.010707295 0.3858467 -0.18760583 -0.35304278 0.3148613
-0.044733576 0.028630476 0.53270686 -0.2899384 -0.08110105 0.4724251 0.28744495 0.38377848
0.42960304 0.1513578 -0.11587691 -0.03866599 -0.1351321 -0.16154814 0.35927176 -0.026653957
0.2957791 0.31814364 0.1827873 0.10918994 0.3182391 0.20410721 0.1900716 0.47768906
0.38526753 0.3984945 0.26962906 0.061458837 0.026494512 0.32821265 0.4103811 0.33275592
0.24933915 -0.111022785 0.24666455 0.41729888 0.6767635 0.45395443 0.47601205 0.02349178
-0.08212603 0.27836248 0.4771128 0.3562533 0.535235 0.06217394 -0.042489633 0.19448231
0.21835496 0.29319218 0.24664538 0.23274311 -0.13373217 0.012275072 -0.15454082 -0.1117723
-0.34072277 -0.28561723 0.54883784 -0.5946285 -0.039823323 -0.037189793 0.0050767674 -0.2761944
0.16077055 0.010815168 0.05742695 0.11579468 -0.09393804 -0.34047914 0.021606078 -0.28497416
-0.19667636 -0.586238 -0.2562366 -0.1552158 -0.08985895 0.2559338 0.10435332 0.23013933
0.379983 0.004987002 -0.16098052 -0.73296976 -0.16374305 -0.39508203 -0.37854618 -0.7476222
0.06731817 -0.39509422 0.23570238 -0.014700811 0.17449823 -0.41680098 -0.44730252 0.010152667
-0.55928487 0.31921932 -0.6082583 0.23128729 0.15308024 0.3784548 0.5869436 0.44581395
0.24643032 0.25428292 -0.10201728 -0.12940773 -0.17546144 -0.030784175 -0.058566827 0.40599847
0.27301255 -0.27575678 0.42538887 -0.029530775 0.37800172 -0.35167485 -0.061161842 -0.10191928
0.04989733 0.5136247 -0.3042111 -0.3063959 -0.05923965 -0.19016339 -0.066543244 -0.052265387
0.03043868 0.0669387 -0.09784776 0.29816625 0.3842664 0.22757 0.02584569 0.072876506
0.2409285 0.25645196 0.42122498 0.14524195 0.29408973 0.24714722 0.040018145 0.05629017
0.45159364 0.47391775 0.4832614 0.29869223 -0.079155356 -0.08344889 0.053520918 0.045204964
-0.15391132 -0.19153869 -0.52666485 -0.29114217 -0.24916433 -0.48011962 -0.16903783 -0.2209149
-0.046056844 -0.01444147 0.0040619695 -0.15475005 -0.09950615 -0.21179636 0.025315933 -0.0056951013
-0.26609084 -0.18533476 -0.52305454 -0.1997137 -0.07526342 0.00030730336 -0.049318057 -0.13381077
-0.02113329 -0.04166585 -0.17214182 -0.020396028 0.056218468 -0.33488816 -0.13422637 -0.081967175
-0.11402678 -0.11994008 -0.118602745 -0.15551053 0.025214162 -0.08411532 -0.083032474 -0.023805039
-0.18034002 -0.07333087 -0.09871846 -0.082260124 0.10702701 0.42819378 0.3246723 0.30599028
00000000: 2c0f 023e c351 e53e 393a 813e c5cb 343e
00000010: 9ba3 033d 3b36 3dbd 0c6d b93d cc27 fb3e
00000020: 11db d53e 8a56 f53e c490 683a 2c3b 94bc
00000030: ad8a 573e b105 1d3f 6655 543f 2938 f63e
00000040: 726e 933e 0f3b b63d e6ff 02be 8dbd 0a3d
00000050: b62b d73e 35b8 ac3e 6b16 803e de36 4c3d
00000060: fa1d 5e3d 219f ab3e 66c5 a33e a67e 053f
00000070: 9657 a83e 42d5 6c3e d038 063e d00c b7bd
00000080: 791e f23d 3f1e 283e 97b8 2d3e 016f b83e
00000090: f8ba 89bd 80fe 1ebe 6d9c a3be 40e7 d3be
000000a0: c02d 07be 21b0 88be 098f 2abe b531 7c3e
000000b0: 5a5c c13d 5d14 973e b3c3 f63e 6310 833c
000000c0: 1812 35be fdc9 4f3e 1621 903d a66d 2f3c
000000d0: b38d c53e be1b 40be 06c2 b4be 8035 a13e
000000e0: 8e3a 37bd 768a ea3c 7a5f 083f ce72 94be
000000f0: 4f18 a6bd b4e1 f13e fc2b 933e 9d7e c43e
00000100: eef4 db3e 8afd 1a3e e050 edbd 3b60 1ebd
00000110: 1260 0abe e06c 25be 78f2 b73e 6659 dabc
00000120: 5c70 973e b9e3 a23e 982c 3b3e fa9e df3d
00000130: 3cf0 a23e 7b01 513e 21a2 423e a993 f43e
00000140: c941 c53e 7907 cc3e d20c 8a3e 43bc 7b3d
00000150: 050b d93c 7d0b a83e 791d d23e fc5e aa3e
00000160: c352 7f3e ea5f e3bd a295 7c3e 33a8 d53e
00000170: 5f40 2d3f b76c e83e dab7 f33e d571 c03c
00000180: b131 a8bd 8785 8e3e 2148 f43e d566 b63e
00000190: 2905 093f 1aaa 7e3d 9c09 2ebd 5f26 473e
000001a0: 7198 5f3e 491d 963e 9b90 7c3e 3654 6e3e
000001b0: 16f1 08be 621d 493c f33f 1ebe e0e8 e4bd
000001c0: 3773 aebe 6c3c 92be a380 0c3f 9339 18bf
000001d0: c81d 23bd 5354 18bd 035b a63b 5a69 8dbe
000001e0: 09a1 243e 1a32 313c 8638 6b3d c325 ed3d
000001f0: 9662 c0bd 4853 aebe 3bff b03c 22e8 91be
00000200: 8765 49be b213 16bf 7231 83be e4f0 1ebe
00000210: f807 b8bd c109 833e 32b7 d53d a5a9 6b3e
00000220: 228d c23e 016a a33b 14d8 24be e8a3 3bbf
00000230: 42ac 27be 3148 cabe ced0 c1be 2b64 3fbf
00000240: 1cde 893d ca49 cabe f75b 713e acdb 70bc
00000250: aaaf 323e f066 d5be d604 e5be 5f57 263c
00000260: 4b2d 0fbf b770 a33e d1b6 1bbf 93d6 6c3e
00000270: 11c1 1c3e d4c4 c13e f041 163f ba41 e43e
00000280: 3b58 7c3e 5f31 823e 70ee d0bd 7683 04be
00000290: 2aac 33be 182f fcbc c5e3 6fbd 08df cf3e
000002a0: 4dc8 8b3e fe2f 8dbe 92cc d93e 86ea f1bc
000002b0: 7189 c13e ba0e b4be d784 7abd 0ebb d0bd
000002c0: 2561 4c3d e97c 033f 8fc1 9bbe ecdf 9cbe
000002d0: 46a5 72bd 31ba 42be d347 88bd 3b14 56bd
000002e0: 8a5a f93c 2817 893d 6864 c8bd 3fa9 983e
000002f0: 91be c43e 1c08 693e 57ba d33c 4740 953d
00000300: f6b5 763e ac4d 833e cdaa d73e 4eba 143e
00000310: ee92 963e 2914 7d3e 11ea 233d 8590 663d
00000320: 4837 e73e 59a5 f23e 0a6e f73e 30ee 983e
00000330: 341c a2bd 40e7 aabd c038 5b3d d728 393d
00000340: ee9a 1dbe b822 44be 82d3 06bf 9610 95be
00000350: ef24 7fbe 3dd2 f5be 4118 2dbe 8437 62be
00000360: 1aa6 3cbd ea9b 6cbc 451a 853b cc76 1ebe
00000370: e1c9 cbbd 25e1 58be 5c63 cf3c f99d babb
00000380: 0f3d 88be 65c8 3dbe e7e6 05bf c081 4cbe
00000390: b523 9abd 8f1d a139 bb01 4abd b105 09be
000003a0: b91f adbc cfa9 2abd f245 30be 9215 a7bc
000003b0: 5645 663d 7676 abbe a372 09be 68de a7bd
000003c0: df86 e9bd 25a3 f5bd ffe5 f2bd 273e 1fbe
000003d0: ee8d ce3c a744 acbd ee0c aabd c902 c3bc
000003e0: 0eab 38be 7f2e 96bd e72c cabd ff77 a8bd
000003f0: fa30 db3d 373c db3e 733b a63e c2aa 9c3e

arr_21 f4 [32]
-0.9329929 -2.0236053 -1.144248 -0.24691403 -0.7029781 -1.9130235 -0.42065755 -0.105069764
-1.5617608 1.7783663 -0.5720218 -1.5033678 -0.32304102 -2.1461785 -0.13469826 -0.15077126
-1.1981449 0.015543769 -0.17279254 -0.50842273 -1.6622924 -0.4079221 -1.6137832 -0.27915886
0.9268898 -0.19594093 0.4765541 -1.4268728 -1.1323819 -0.8371731 -0.3511751 -0.12663989
00000000: 9fd8 6ebf c082 01c0 b876 92bf 08d7 7cbe
00000010: 5ff6 33bf f4dd f4bf 6d60 d7be d12e d7bd
00000020: c7e7 c7bf 82a1 e33f 0570 12bf 5b6e c0bf
00000030: a265 a5be fd5a 09c0 57ee 09be c863 1abe
00000040: d05c 99bf 4bab 7e3c 87f0 30be fe27 02bf
00000050: ffc5 d4bf 2adb d0be 7390 cebf e9ed 8ebe
00000060: a648 6d3f bda4 48be e6fe f33e c5a3 b6bf
00000070: e4f1 90bf fa50 56bf 39cd b3be e3ad 01be

arr_22 f4 [32]
8.098573 3.340847 12.799389 0.44151318 1.2448417 4.4493537 1.0086865 10.69715
5.596448 12.734417 11.220079 6.1763964 12.587118 1.8150115 0.6554238 0.9334301
4.734089 0.7283429 7.1043544 8.292995 2.9186301 9.477228 2.5783403 0.83028805
11.240938 0.5016889 11.856166 2.0456784 11.789962 2.6359184 10.293537 1.0904762
00000000: c193 0141 70d0 5540 4cca 4c41 040e e23e
00000010: f956 9f3f 1b61 8e40 a41c 813f 8727 2b41
00000020: 1a16 b340 2cc0 4b41 7285 3341 0aa5 c540
00000030: d664 4941 4c52 e83f dbc9 273f 46f5 6e3f
00000040: a87d 9740 ae74 3a3f df56 e340 1cb0 0441
00000050: d6ca 3a40 baa2 1741 8703 2540 c28d 543f
00000060: e2da 3341 af6e 003f dbb2 3d41 65ec 0240
00000070: afa3 3c41 e3b2 2840 54b2 2441 b994 8b3f

arr_23 f4 [32]
0.28409868 -0.2529698 0.6534608 -0.5380118 -0.5730782 -0.11594574 -0.8182515 0.06984822
0.1392398 0.44026202 0.13930182 0.13178967 0.13896959 -0.6716855 -0.20671056 -0.3473831
-0.118278086 0.073341936 0.32104897 0.19889466 0.098839544 0.30815536 -0.11741686 -0.6784928
0.3926359 -0.42209354 0.24718349 0.08903285 0.5462022 -0.24924435 0.42616254 -0.56186694
00000000: 6275 913e 4285 81be 3549 273f 24bb 09bf
00000010: 41b5 12bf f674 edbd ee78 51bf 950c 8f3d
00000020: e194 0e3e 066a e13e 23a5 0e3e dff3 063e
00000030: 0b4e 0e3e 95f3 2bbf efab 53be 33dc b1be
00000040: c83b f2bd 4c34 963d 8860 a43e 0bab 4b3e
00000050: 636c ca3d 8ac6 9d3e 4078 f0bd b4b1 2dbf
00000060: 9307 c93e a51c d8be ab1d 7d3e db56 b63d
00000070: e8d3 0b3f e939 7fbe fa31 da3e 83d6 0fbf

arr_19 f4 [32]
0.6070239 0.406091 0.7107055 0.7302773 0.7485576 0.2925797 0.7278193 0.58986276
0.59522593 0.5002971 0.683473 0.20991375 0.74702877 0.69475573 0.43819305 0.50381875
0.69600075 0.66868013 0.53162503 0.6564098 0.27122954 0.652919 0.8946104 0.23322828
0.21890807 0.8008552 0.8302087 0.81242496 0.7859675 0.43230155 0.6459778 0.6105731
00000000: eb65 1b3f 29eb cf3e ccf0 353f 74f3 3a3f
00000010: 79a1 3f3f 02cd 953e 5e52 3a3f 3f01 173f
00000020: ba60 183f 7913 003f 16f8 2e3f a1f3 563e
00000030: 473d 3f3f 83db 313f d75a e03e 44fa 003f
00000040: 1b2d 323f 9f2e 2b3f 9418 083f 790a 283f
00000050: 99de 8a3e b325 273f 3005 653f 65d3 6e3e
00000060: 7029 603e d904 4d3f 8f88 543f 15fb 4f3f
00000070: 2b35 493f a156 dd3e cd5e 253f 854e 1c3f

arr_18 f4 [32]
-1.5612295 -1.2452359 -1.4281003 -1.1852334 -1.7610695 -2.2317822 -1.4314675 -1.6861303
-1.3345577 -1.7828188 -1.1320459 -1.9213233 -1.5050821 -1.0977393 -1.3160942 -1.6430452
-1.125634 -1.226467 -1.831206 -1.0130949 -1.5895901 -1.5025342 -0.81691366 -2.0598547
-2.5799823 -0.99081975 -1.215782 -0.6059947 -1.1972084 -1.2635251 -1.2317554 -1.5170283
00000000: 5ed6 c7bf e463 9fbf fecb b6bf bab5 97bf
00000010: ba6a e1bf 85d5 0ec0 543a b7bf 1ed3 d7bf
00000020: c9d2 aabf 6833 e4bf e1e6 90bf eced f5bf
00000030: 88a6 c0bf b982 8cbf c675 a8bf 4e4f d2bf
00000040: c614 90bf dffc 9cbf f564 eabf 18ad 81bf
00000050: b077 cbbf 0a53 c0bf 4121 51bf a9d4 03c0
00000060: 6e1e 25c0 5da6 7dbf bf9e 9bbf 7822 1bbf
00000070: 203e 99bf 31bb a1bf 29aa 9dbf fc2d c2bf

arr_11 f4 [32]
-0.29754913 -0.9495047 -0.5102715 -0.62670124 -0.31304336 -1.2455896 -0.8407909 -0.57208693
-0.3123036 -0.4337401 -0.50820136 -0.31596926 -0.69457304 -0.4217987 -0.40828443 -0.60408026
-0.67888415 -0.50642514 -0.45867944 -0.57567984 -1.095623 -0.7429437 -0.9138198 -0.5369609
-0.6954068 -0.9717279 -0.6459423 -0.7871703 -0.69984937 -0.8632882 -0.5404753 -0.6093134
00000000: 5c58 98be bd12 73bf 27a1 02bf 7e6f 20bf
00000010: 3847 a0be 7b6f 9fbf 133e 57bf 4a74 12bf
00000020: 42e6 9fbe 2f13 debe 7c19 02bf b9c6 a1be
00000030: 8acf 31bf 00f6 d7be a80a d1be 01a5 1abf
00000040: 5acb 2dbf 14a5 01bf 08d8 eabe c15f 13bf
00000050: 603d 8cbf 8f31 3ebf 18f0 69bf 4576 09bf
00000060: 2e06 32bf 29c3 78bf 795c 25bf fe83 49bf
00000070: 5429 33bf 7500 5dbf 975c 0abf f7fb 1bbf

arr_10 f4 [32, 32, 6, 6]
-0.0034469566 0.046489205 0.032622308 -0.77448696 -0.023959003 0.1881433 0.020270534 -0.3109161
-0.4297432 -0.041663896 -0.57616013 0.08589272 -0.09329563 -0.3505324 0.14092499 -0.7821898
-0.14618841 -0.2245185 -0.23342586 -0.040174305 -0.35548973 -0.31731966 -0.48652375 -0.060112666
-0.058945637 -0.44189402 -0.24689715 -0.46936363 -0.03320977 -0.18036547 0.31612077 -0.126224
-0.03778054 -0.1692132 -0.4641097 0.07820528 -0.13725875 0.1389994 0.07023456 -0.081558324
-0.18534066 0.080567814 0.23744966 -0.2669371 0.14998959 0.25857663 0.012220352 0.10067051
-0.08436947 0.07623997 0.2812393 -0.28620386 0.15040593 0.24124786 -0.37886518 -0.22212306
0.45752785 0.16390046 -0.29207626 0.15257913 -0.11700346 0.021361576 -0.18466789 0.21517476
-0.13457608 0.08405355 -0.14675367 0.16229676 -0.06304638 -0.35546777 -0.02706291 -0.104384504
0.24785589 -0.04917284 -0.1101978 -0.18233827 0.19754386 -0.7341182 -0.30497476 -0.04544576
0.15337297 0.07931316 0.18173952 -0.020259056 -0.12257439 -0.4527711 0.37207222 -0.6226619
0.19900157 -0.49481937 0.029621985 0.111652 0.20960084 0.24942303 -0.22188792 0.18752988
-0.032112397 0.028141169 0.19766465 -0.04553152 0.198658 -0.42932197 0.091120094 0.14929801
0.13658339 -0.13972846 0.29738685 -0.051636603 -0.12505431 0.054550994 -0.54820526 -0.03000796
0.055193383 0.0062263943 0.07341421 0.031075975 0.01257113 -0.376173 -0.12686 -0.09109778
-0.34013057 0.13377164 -0.10946145 0.31012893 -0.40694118 -0.0124945445 -0.039164893 -0.30194128
-0.024138305 -0.19758049 -0.065060146 0.28172877 0.07801647 -0.2102766 0.20175883 -0.09463403
0.2809383 0.018186264 0.09644478 -0.23416084 0.25164926 0.07133877 0.15580645 -0.2495831
0.031057315 0.16909909 0.16504194 0.11637675 -0.40746292 0.03677036 0.33047593 0.3450828
0.040001687 -0.22665969 -0.2705843 -0.30428264 -0.09475182 0.23401302 0.1820392 -0.035845917
-0.04305575 0.24352105 -0.22316846 -0.16590597 -0.100731134 -0.16965334 0.21477622 0.0666496
-0.19597459 -0.14346461 -0.17859633 0.1845667 -0.10565196 0.10598654 0.22378318 -0.04286995
0.101819 -0.20167845 -0.2877219 0.030356793 0.07473437 0.18371852 -0.10157645 0.075651996
-0.03574854 -0.15373842 -0.110708416 0.12539357 -0.09061181 0.17254758 0.21420611 -0.19105048
-0.035907503 -0.086903214 -0.6038658 -0.037757844 0.30164894 -0.39683664 -0.06428365 0.28141108
-0.2111222 -0.81243837 0.42975685 -0.160212 -0.034398384 0.19051662 -0.057188485 -0.85838187
0.40487298 0.12248347 -0.28564116 -0.4407889 -0.0045986376 -0.3560772 0.25126836 -0.003989467
-0.10102596 -0.397409 -0.23871137 -0.097673304 0.15056735 -0.38907653 -0.040881995 -0.022814548
0.07408875 -0.8217847 -0.33826557 -0.25725168 -0.47909844 -0.18350413 -0.5975239 -0.34113324
-0.1841511 -0.12631062 -0.26908973 -0.25415123 -0.25251094 0.2650318 0.077062085 -0.22371858
-0.11137188 -0.40156478 0.3338196 0.024023551 -0.20274068 0.17079142 -0.479833 0.016708188
-0.53208953 -0.27148598 -0.07163748 0.16686413 -0.045902114 -0.2558961 0.1108818 0.02245342
00000000: 56e6 61bb 776b 3e3d f89e 053d c744 46bf
00000010: ac45 c4bc a3a8 403e 640e a63c 6530 9fbe
00000020: 4d07 dcbe c3a7 2abd 3b7f 13bf 86e8 af3d
00000030: c711 bfbd fc78 b3be a44e 103e 973d 48bf
00000040: 6ab2 15be 2de8 65be 3007 6fbe d08d 24bd
00000050: c002 b6be b977 a2be a419 f9be b338 76bd
00000060: fb70 71bd ef3f e2be 9bd2 7cbe 6e50 f0be
00000070: f806 08bd bab1 38be 95da a13e dd40 01be
00000080: c4bf 1abd 3a46 2dbe c99f edbe 172a a03d
00000090: 8f8d 0cbe dc55 0e3e 23d7 8f3d 0d08 a7bd
000000a0: f1c9 3dbe bd00 a53d 0126 733e fbab 88be
000000b0: df96 193e 2864 843e df37 483c 572c ce3d
000000c0: e7c9 acbd b423 9c3d 99fe 8f3e 5089 92be
000000d0: 0304 1a3e ae09 773e 9efa c1be 3a74 63be
000000e0: 1741 ea3e 86d5 273e 058b 95be b43d 1c3e
000000f0: 839f efbd 79fe ae3c 9419 3dbe c656 5c3e
00000100: 50ce 09be 4524 ac3d 9846 16be 1f31 263e
00000110: 761e 81bd dfff b5be 09b3 ddbc 8bc7 d5bd
00000120: efcd 7d3e 7669 49bd 62af e1bd e2b6 3abe
00000130: f048 4a3e 2cef 3bbf a725 9cbe 5525 3abd
00000140: ce0d 1d3e f06e a23d ed19 3a3e 52f6 a5bc
00000150: 4808 fbbd 9dd1 e7be 4080 be3e c566 1fbf
00000160: 11c7 4b3e f758 fdbe cea9 f23c cea9 e43d
00000170: 9aa1 563e c068 7f3e 9636 63be d507 403e
00000180: 4a88 03bd 4f88 e63c 9a68 4a3e 427f 3abd
00000190: 016d 4b3e 17d0 dbbe 2c9d ba3d 94e1 183e
000001a0: 84dc 0b3e fa14 0fbe 1743 983e e780 53bd
000001b0: 3d0e 00be dd70 5f3d 2e57 0cbf 41d3 f5bc
000001c0: 7512 623d c806 cc3b 305a 963d 0b93 fe3c
000001d0: 24f7 4d3c bf99 c0be 96e7 01be 7991 babd
000001e0: 9825 aebe 6ffb 083e 532d e0bd 38c9 9e3e
000001f0: 985a d0be ebb5 4cbc 5e6b 20bd 0c98 9abe
00000200: b2bd c5bc 8a52 4abe 413e 85bd c13e 903e
00000210: 19c7 9f3d c052 57be de99 4e3e 7ccf c1bd
00000220: 25d7 8f3e 5cfb 943c d784 c53d dcc7 6fbe
00000230: 2cd8 803e 101a 923d ba8b 1f3e b692 7fbe
00000240: e96b fe3c 5028 2d3e c100 293e ef56 ee3d
00000250: fb9e d0be 849c 163d 2434 a93e b1ae b03e
00000260: cfd8 233d 7a19 68be 068a 8abe efca 9bbe
00000270: 3e0d c2bd 1ca1 6f3e 7c68 3a3e 2bd3 12bd
00000280: 3a5b 30bd 955d 793e 4686 64be 41e3 29be
00000290: 204c cebd 9bb9 2dbe 4cee 5b3e 967f 883d
000002a0: 90ad 48be 63e8 12be f5e1 36be 0eff 3c3e
000002b0: 0e60 d8bd 790f d93d 6b27 653e 6798 2fbd
000002c0: 7b86 d03d cc84 4ebe 4950 93be cfae f83c
000002d0: 550e 993d b520 3c3e 5007 d0bd 6fef 9a3d
000002e0: 106d 12bd 9b6d 1dbe 18bb e2bd 2c67 003e
000002f0: af92 b9bd 50b0 303e d958 5b3e bda2 43be
00000300: bf13 13bd 50fa b1bd f396 1abf f8a7 1abd
00000310: bb71 9a3e 2c2e cbbe 25a7 83bd 1d15 903e
00000320: 6b30 58be f6fb 4fbf 1709 dc3e 9d0e 24be
00000330: 52e5 0cbd ca16 433e 793e 6abd eabe 5bbf
00000340: 834b cf3e 9dd8 fa3d 8f3f 92be 15af e1be
00000350: 2bb0 96bb c04f b6be 3fa6 803e 13ba 82bb
00000360: b3e6 cebd 3179 cbbe c170 74be f108 c8bd
00000370: 542e 1a3e 0a35 c7be e173 27bd 93e5 babc
00000380: d8bb 973d 7b60 52bf 2531 adbe 7eb6 83be
00000390: 644c f5be 82e8 3bbe 54f7 18bf 04a9 aebe
000003a0: 1b92 3cbe 9257 01be 21c6 89be 1c20 82be
000003b0: 1d49 81be 40b2 873e bad2 9d3d 7c16 65be
000003c0: f116 e4bd e699 cdbe 67ea aa3e 0acd c43c
000003d0: 419b 4fbe f2e3 2e3e acac f5be 9cdf 883c
000003e0: 0537 08bf 3600 8bbe acb6 92bd 6ede 2a3e
000003f0: db03 3cbd d004 83be ff15 e33d 3cf0 b73c

arr_13 f4 [32]
-0.5783139 -1.2219163 -0.679976 -0.49611932 -0.47753346 -1.438372 -0.9007158 -0.44468805
-0.5416018 -0.08610199 -0.8170392 -1.0838711 -1.1189468 -0.54867566 -0.6576094 -0.94590026
-0.96927243 -0.7908101 -0.6370138 -0.79310125 -1.1357524 -1.0799706 -1.168256 -0.9886002
-0.6057613 -1.1366284 -0.6065967 -0.90013725 -0.919719 -0.9893684 -0.2982174 -0.934874
00000000: 610c 14bf c167 9cbf e812 2ebf 5a03 febe
00000010: 447f f4be 931c b8bf 5095 66bf 27ae e3be
00000020: 6aa6 0abf 3d56 b0bd 7b29 51bf 4abc 8abf
00000030: a639 8fbf 0276 0cbf 1759 28bf 8526 72bf
00000040: 3d22 78bf 8872 4abf 5613 23bf af08 4bbf
00000050: 5660 91bf 7a3c 8abf 6a89 95bf e714 7dbf
00000060: 2c13 1bbf 0a7d 91bf ec49 1bbf 656f 66bf
00000070: b472 6bbf 3f47 7dbf f3af 98be e753 6fbf

arr_12 f4 [32]
0.96538746 0.8514286 0.8700257 0.71658677 0.6630221 1.0359428 0.83928764 0.8563769
0.5580842 0.68118435 0.69483125 0.6314087 0.816301 0.6482378 1.108633 0.75625765
0.9061411 0.62551206 0.677046 0.8489849 0.893268 0.77030367 0.9454142 0.63281465
0.7593301 0.9498211 0.7048292 0.84479445 1.1443441 0.9934925 0.6797192 0.66944224
00000000: a223 773f 3af7 593f 01ba 5e3f 3b72 373f
00000010: d1bb 293f c699 843f 8edb 563f 843b 5b3f
00000020: 9bde 0e3f 1962 2e3f 76e0 313f 00a4 213f
00000030: 1af9 503f eaf2 253f b0e7 8d3f 1a9a 413f
00000040: ddf8 673f 8f21 203f e352 2d3f 1357 593f
00000050: 36ad 643f 9f32 453f aa06 723f 2400 223f
00000060: 7563 423f 7a27 733f b06f 343f 7344 583f
00000070: de79 923f 8655 7e3f 1402 2e3f 9160 2b3f

arr_15 f4 [32, 32, 6, 6]
-0.17446035 0.10632498 -0.0965095 0.11780786 0.19968295 -0.22869815 -0.17982212 0.035771225
-0.15044016 -0.07115742 0.25068977 -0.13015522 -0.11188023 -0.0882209 -0.12122311 -0.23628975
0.13046177 0.07098216 -0.11392289 0.15124075 -0.27488694 -0.14304101 -0.092329964 0.040423524
-0.11314441 -0.04189776 0.0437565 0.056895703 0.20448303 0.10226362 -0.15942319 -0.05324398
-0.37358505 -0.0250134 -0.12664793 0.006217732 -0.025258524 -0.09510064 0.051300943 -0.022915108
0.22073987 0.2962633 -0.16122054 0.0068878746 -0.118485056 0.08489291 0.27341688 0.190802
-0.05448693 -0.024700481 -0.014042189 -0.3007748 0.23670466 0.07836627 -0.12009118 0.14233692
-0.2320258 0.017634269 -0.095096275 0.05389317 -0.084534526 0.029087007 0.10565774 -0.08895468
0.1813501 0.06075677 -0.09159873 -0.08116175 0.10624308 -0.07321734 0.27531096 0.06573808
0.09144032 0.12423502 0.28812408 0.098440416 -0.27780795 0.07411938 -0.1977792 -0.17639752
0.018892037 0.02334319 0.05675287 -0.22449575 -0.32581118 -0.086678036 0.12770405 -0.02557743
-0.3109429 -0.73204136 -0.439836 -0.5803289 -0.37802345 0.03489527 -0.07940642 -0.16043931
-0.27283522 -0.4585187 -0.06846389 0.12971807 0.027140599 -0.4354618 -0.1434867 -0.2743834
-0.24080543 -0.2636919 -0.009417345 0.09116073 -0.22484598 -0.060585737 0.11945411 0.27579108
0.25840452 0.18759586 -0.29903343 -0.3295988 -0.21462318 -0.03808396 -0.25311598 0.051189516
-0.6806718 -0.03165479 -0.18822391 -0.48588982 0.0314657 -0.06596735 0.15053841 -0.37152225
-0.3219058 -0.03817571 -0.549946 -0.058872417 0.03899367 0.3499257 0.012269996 -0.20220932
0.023677908 -0.3499178 0.16599014 0.010795972 0.1018154 0.0993787 0.36767858 -0.18997142
0.24110386 0.14269197 -0.29649195 -0.31916916 -0.20559235 -0.6461536 0.2744979 0.21232128
0.11293688 0.02075115 -0.25485122 -0.61845213 -0.026881937 0.028197229 0.47835013 0.43836328
0.49587417 0.06708545 -0.027066018 -0.2742279 -0.06603959 0.27702895 0.27586198 0.6974561
-0.22862265 -0.24504133 -0.47691423 -0.6011217 -0.20828779 0.11080489 0.0070814462 -0.04029756
-0.22502367 -0.38196763 -0.10099453 -0.22835857 -0.014424306 -0.43935588 -0.06344688 -0.48357132
-0.010433545 -0.48096 -0.0083653005 -0.27326354 0.07645694 0.18810354 0.17550963 -0.013084767
-0.1450319 -0.43345833 -0.16186352 -0.5254579 0.17297815 -0.4765181 0.106902 -0.22197196
-0.028543064 -0.07188703 -0.03939961 -0.1570652 -0.07435169 -0.41923955 0.011202408 -0.3878448
-0.17027144 -0.403231 0.19104974 -0.18308412 0.22761299 -0.021518968 0.1167575 0.38560432
-0.47178054 -0.8089264 -0.5197222 -0.3989941 0.2071156 -0.036104985 -0.13979705 -0.32333374
-0.46569443 -0.67771864 -0.16638671 -0.2149739 0.17584603 -0.03504524 -0.20917688 -0.44494593
-0.3648566 -0.31867898 -0.034312725 0.418061 -0.070636205 -0.081622794 -0.029501935 -0.20958804
0.25500718 0.032943346 0.2705554 0.4597483 0.066568255 0.24760145 -0.032934096 -0.0028146051
-0.3561079 0.14522086 -0.53893816 0.09633317 -0.112776875 0.035382908 -0.4933007 -0.32556605
00000000: bca5 32be e9c0 d93d c6a6 c5bd 3f45 f13d
00000010: b079 4c3e d92f 6abe 4a23 38be d984 123d
00000020: fc0c 1abe fbba 91bd 695a 803e 6947 05be
00000030: 7621 e5bd 29ad b4bd d243 f8bd f1f5 71be
00000040: c597 053e 185f 913d 6750 e9bd dbde 1a3e
00000050: fbbd 8cbe 5879 12be 7e17 bdbd 2393 253d
00000060: 42b8 e7bd fc9c 2bbd 043a 333d 780b 693d
00000070: 0064 513e 976f d13d d53f 23be 5c16 5abd
00000080: 8a46 bfbe e7e8 ccbc ffaf 01be 1ebe cb3b
00000090: f7ea cebc 20c4 c2bd f020 523d 77b8 bbbc
000000a0: a209 623e d3af 973e ff16 25be aeb3 e13b
000000b0: 4ba8 f2bd 56dc ad3d 4cfd 8b3e 9961 433e
000000c0: b02d 5fbd aa58 cabc 3611 66bc 28ff 99be
000000d0: b562 723e 7f7e a03d 5df2 f5bd c5c0 113e
000000e0: 2c98 6dbe be75 903c d6c1 c2bd 16bf 5c3d
000000f0: 7020 adbd e047 ee3c 1663 d83d df2d b6bd
00000100: d7b3 393e 17dc 783d 1d98 bbbd 2238 a6bd
00000110: f995 d93d f9f2 95bd 8ff5 8c3e b0a1 863d
00000120: 1045 bb3d ee6e fe3d 0085 933e 219b c93d
00000130: d83c 8ebe e7cb 973d a186 4abe 8da1 34be
00000140: 79c3 9a3c 383a bf3c b375 683d 37e2 65be
00000150: b9d0 a6be 4184 b1bd dac4 023e c287 d1bc
00000160: e833 9fbe 1067 3bbf 2f32 e1be 6f90 14bf
00000170: 4a8c c1be 58ee 0e3d d59f a2bd 344a 24be
00000180: 0fb1 8bbe f7c2 eabe cc36 8cbd d0d4 043e
00000190: f655 de3c d9f4 debe 2dee 12be fb7b 8cbe
000001a0: b395 76be a002 87be 354b 1abc 7ab2 ba3d
000001b0: 063e 66be c028 78bd 5ba4 f43d 7d34 8d3e
000001c0: 994d 843e 2119 403e e91a 99be 2dc1 a8be
000001d0: 2ec6 5bbe edfd 1bbd 6b98 81be 19ac 513d
000001e0: 8240 2ebf 74a8 01bd c5bd 40be 8dc6 f8be
000001f0: 2ee2 003d e419 87bd be26 1a3e 2a38 bebe
00000200: d6d0 a4be 225e 1cbd 43c9 0cbf 3424 71bd
00000210: d4b7 1f3d 7629 b33e 1808 493c f60f 4fbe
00000220: 2cf8 c13c 6d28 b3be 52f9 293e 97e1 303c
00000230: 9884 d03d 0f87 cb3d 5e40 bc3e de87 42be
00000240: eee3 763e d81d 123e cbcd 97be 246a a3be
00000250: cd86 52be 536a 25bf fd8a 8c3e c06a 593e
00000260: 734b e73d 51fe a93c dc7b 82be e152 1ebf
00000270: 8237 dcbc e0fd e63c 4fea f43e 2771 e03e
00000280: 38e3 fd3e 1964 893d 8eb9 ddbc 9967 8cbe
00000290: c43f 87bd bdd6 8d3e c83d 8d3e 7c8c 323f
000002a0: 0e1c 6abe 1dec 7abe 1a2e f4be 1de3 19bf
000002b0: 6549 55be aded e23d 7a0b e83b 0e0f 25bd
000002c0: 9b6c 66be 4391 c3be 38d6 cebd d4d6 69be
000002d0: ed53 6cbc 41f3 e0be 70f0 81bd a996 f7be
000002e0: 76f1 2abc 6440 f6be 9d0e 09bc 33e9 8bbe
000002f0: 7595 9c3d 379e 403e ccb8 333e 7e61 56bc
00000300: 3e83 14be 40ee ddbe 8dbf 25be 6984 06bf
00000310: 2f21 313e 2efa f3be 70ef da3d 9e4c 63be
00000320: 25d3 e9bc 8239 93bd 7c61 21bd b3d5 20be
00000330: b345 98bd 91a6 d6be 4e8a 373c 9893 c6be
00000340: a35b 2ebe 4b74 cebe 8ba2 433e 677a 3bbe
00000350: 6113 693e 8c48 b0bc 8e1e ef3d ee6d c53e
00000360: 388d f1be cd15 4fbf 840c 05bf f448 ccbe
00000370: 1d16 543e d2e2 13bd f526 0fbe 008c a5be
00000380: 806f eebe f87e 2dbf 4761 2abe 1e22 5cbe
00000390: fb10 343e 998b 0fbd 7732 56be f4cf e3be
000003a0: 7cce babe e429 a3be 808b 0cbd 170c d63e
000003b0: b7a9 90bd da29 a7bd 0bae f1bc 3f9e 56be
000003c0: 4d90 823e 9aef 063d 3d86 8a3e 2164 eb3e
000003d0: f054 883d 3c8b 7d3e e7e5 06bd 3d75 38bb
000003e0: c653 b6be c7b4 143e daf7 09bf 534a c53d
000003f0: 90f7 e6bd abed 103d e991 fcbe 98b0 a6be

arr_14 f4 [32]
0.60834247 0.82584006 0.73166513 0.8731526 0.7795294 0.849611 0.859408 0.82355833
0.8612996 0.8541426 0.80782115 0.7786324 0.80024815 0.7437031 0.62907517 0.6924631
0.71160805 0.8396385 0.8646596 0.70587385 0.8963831 0.8807543 0.83624214 0.79205656
0.73636776 0.837702 0.8642024 0.8138219 0.7539586 0.82856876 0.87036693 0.8504749
00000000: 55bc 1b3f 416a 533f 684e 3b3f ee86 5f3f
00000010: 3d8f 473f 1b80 593f 2a02 5c3f b8d4 523f
00000020: 217e 5c3f 17a9 5a3f 5ecd 4e3f 7454 473f
00000030: 10dd 4c3f 5463 3e3f 120b 213f 4345 313f
00000040: f22b 363f 8cf2 563f 555a 5d3f 26b4 343f
00000050: 5d79 653f 1d79 613f f713 563f 38c4 4a3f
00000060: 9982 3c3f a373 563f 5e3c 5d3f a256 503f
00000070: 6e03 413f 151d 543f 5ed0 5e3f b9b8 593f

arr_17 f4 [32]
1.0359956 1.2960516 0.68525994 0.8856566 0.747021 0.6428309 0.5651883 0.9764628
0.87342155 1.0797845 0.5146673 0.63678265 0.56809187 0.54495096 0.5492588 0.6162419
0.61932737 0.64490634 1.1548278 0.5177196 0.57461053 0.7425931 0.8005228 0.53247607
0.5557407 0.52508557 0.7888265 0.85277915 0.8653259 0.39884916 0.8584088 0.6994117
00000000: 819b 843f 05e5 a53f 326d 2f3f 64ba 623f
00000010: c53c 3f3f 9190 243f 2eb0 103f 77f9 793f
00000020: 8e98 5f3f 6136 8a3f 3cc1 033f 3004 233f
00000030: 786e 113f e881 0b3f 3a9c 0c3f 07c2 1d3f
00000040: 3d8c 1e3f 9518 253f 66d1 933f 4689 043f
00000050: ad19 133f 951a 3e3f 10ef 4c3f 5a50 083f
00000060: 0645 0e3f 026c 063f 89f0 493f bc4f 5a3f
00000070: 0086 5d3f f535 cc3e aec0 5b3f a50c 333f

arr_16 f4 [32]
-0.8018914 -0.26802632 -0.76019835 -0.70441055 -0.902368 -0.32232243 -0.5881158 -0.87132525
-0.3563629 -0.7629113 -0.55253834 -0.32756615 -0.5439473 -0.43752798 -0.35714194 -0.3232217
-0.510924 -0.5470912 -0.90661764 -0.44641042 -0.25895742 -0.71952707 -0.663511 -0.16102934
-0.24358483 -0.5218504 -0.85372895 -0.8358856 -0.60749114 -0.16617788 -0.6851139 -0.61325234
00000000: c148 4dbf bf3a 89be 5c9c 42bf 4054 34bf
00000010: 9701 67bf 7207 a5be c28e 16bf 2c0f 5fbf
00000020: 3375 b6be 284e 43bf 2773 0dbf c0b6 a7be
00000030: 2140 0bbf ab03 e0be 4fdb b6be 517d a5be
00000040: eacb 02bf 2b0e 0cbf 1818 68bf e88f e4be
00000050: 1196 84be ed32 38bf dbdb 29bf e0e4 24be
00000060: 4d6e 79be fd97 05bf fb8d 5abf 99fc 55bf
00000070: 8a84 1bbf 892a 2abe a063 2fbf 1bfe 1cbf

arr_1 f4 [512]
0.111640304 -0.46921048 -0.38235453 0.39994833 -0.36831504 -0.32659963 -0.7021255 0.16672006
0.13627839 -0.28008255 0.27128074 0.4000255 0.21847355 0.17914505 0.19186765 -0.4345836
-0.19693735 -0.4121089 0.23281349 -0.062173396 -0.09824533 -0.03474135 -0.10565643 -0.27938098
0.09455289 -0.3745528 -0.24526791 -0.077538386 -0.24741648 -0.623879 -0.4570619 -0.12330487
0.5265091 -0.1786759 -0.19038427 0.19510534 0.018865146 -0.049890682 0.07743169 -0.056357134
-0.5096892 -0.038493812 0.29526433 0.07104252 -0.4697477 0.3546448 0.30542263 0.25782672
0.4767195 -0.27281517 -0.6887081 0.40790102 -0.003561282 0.21364512 -0.26565623 -0.14811558
0.1752394 -0.28592607 0.29991138 -0.0057407706 0.057794653 -0.30559668 0.03435226 0.1391347
-0.18532163 0.28526008 0.08075045 -0.04043572 -0.0033160776 0.08494548 0.14992629 -0.19251414
0.5735852 -0.029087488 -0.45237723 0.0506378 -0.33702517 0.19288903 -0.21078485 -0.22800195
0.71331716 0.04856962 0.0059978813 -0.079321586 0.1486964 -0.12929039 -0.14242724 -0.03389353
0.0142267095 -0.4406085 0.3076286 0.26021332 -0.38884193 -0.6592553 -0.4605716 0.45829853
0.40926653 0.2984758 -0.2488919 -0.12537676 -0.49945468 -0.60637444 0.1843634 -0.21539976
-0.23933005 -0.41977522 -0.49632135 -0.2530423 0.4382485 -0.15540947 -0.010267181 0.27215144
0.41346332 0.07586854 -0.2459335 0.22987066 0.43977207 -0.2925886 0.17046402 0.056607
-0.21751066 -0.19583946 -0.2859412 0.32538506 -0.42096376 0.38583055 -0.3836254 -0.006361476
0.5609147 -0.011333606 -0.18657538 -0.20322834 0.32189393 -0.18020545 -0.39670157 0.16240193
0.3232958 -0.27903876 0.012169833 0.030621681 0.045669496 0.0036756555 0.14895846 0.005425241
0.25554317 0.31864765 -0.20628542 0.3807359 0.31246924 -0.16647713 -0.09670024 -0.25051317
0.673161 -0.1410238 -0.026155809 0.28578177 0.84220517 -0.45523572 -0.26804194 0.2731335
0.40866023 0.43822455 -0.035305057 -0.017189946 0.18715794 0.009094451 -0.13377455 -0.140843
-0.15247026 0.03603965 0.29851872 -0.4752388 -0.19723387 0.12357902 -0.6490374 -0.04692339
0.18636763 0.22306111 0.1046755 0.20259678 0.2212062 -0.6438494 -0.0853279 0.009583506
-0.16117127 -0.50485003 -0.5213011 -0.032131553 0.15488069 -0.09263788 -0.5125177 -0.15706532
0.21464041 0.28254703 -0.005943709 0.14785025 -0.011839225 0.30132896 -0.18025616 -0.009666279
-0.05750223 -0.6282568 0.347853 0.048766594 -0.5142193 -0.14284101 -0.42562622 0.16515508
0.50974274 -0.0071907947 0.11456787 -0.1088302 0.21341036 -0.5213149 -0.41626033 0.17592917
0.39738068 -0.35474792 0.054711662 -0.20861188 -0.18467839 -0.3018839 -0.268284 -0.01950305
-0.10172831 0.14223737 -0.022342984 0.08044054 -0.34017867 -0.07818426 -0.1970771 -0.25450525
0.6838965 0.19642659 -0.42955378 0.059328962 0.20976312 0.38089907 0.035664663 0.21848376
-0.072098404 -0.5617873 -0.043295823 0.091359615 -0.15421647 -0.5156978 0.17124678 -0.079543956
0.6263456 0.06938751 0.006860715 -0.15180044 -0.004097698 -0.42460957 0.6632453 -0.561011
00000000: aca3 e43d 5b3c f0be f9c3 c3be 07c6 cc3e
00000010: ca93 bcbe 1138 a7be 7fbe 33bf aab8 2a3e
00000020: 908c 0b3e fb66 8fbe 4fe5 8a3e 24d0 cc3e
00000030: 88b7 5f3e cd71 373e f478 443e be81 debe
00000040: f2a9 49be f0ff d2be a966 6e3e 88a9 7ebd
00000050: d934 c9bd f24c 0ebd 6662 d8bd 060b 8fbe
00000060: f2a4 c13d 62c5 bfbe 8327 7bbe 72cc 9ebd
00000070: bf5a 7dbe 89b6 1fbf 0404 eabe 4487 fcbd
00000080: 4dc9 063f d1f6 36be 18f4 42be b2c9 473e
00000090: 148b 9a3c 2c5a 4cbd 8294 9e3d bdd6 66bd
000000a0: fe7a 02bf b0ab 1dbd e32c 973e be7e 913d
000000b0: c582 f0be 0194 b53e 5b60 9c3e dd01 843e
000000c0: 9414 f43e 6eae 8bbe 2d4f 30bf 67d8 d03e
000000d0: 6664 69bb c9c5 5a3e 1804 88be 9cab 17be
000000e0: f571 333e e764 92be fc8d 993e 131d bcbb
000000f0: 16ba 6c3d 2b77 9cbe f5b4 0c3d 5479 0e3e
00000100: f4c4 3dbe 9c0d 923e 7e60 a53d ed9f 25bd
00000110: 8d52 59bb e5f7 ad3d 4786 193e 6d22 45be
00000120: 7bd6 123f e248 eebc fd9d e7be 9569 4f3d
00000130: 908e acbe b484 453e fcd7 57be 5879 69be
00000140: f49b 363f f0f0 463d e089 c43b 5b73 a2bd
00000150: de43 183e b364 04be 72d8 11be f1d3 0abd
00000160: 2517 693c 7097 e1be 7f81 9d3e ae3a 853e
00000170: 4a16 c7be f5c4 28bf 0ad0 ebbe 1ba6 ea3e
00000180: 628b d13e d2d1 983e 85dd 7ebe c462 00be
00000190: 86b8 ffbe 5b3b 1bbf c2c9 3c3e c191 5cbe
000001a0: f012 75be c7ec d6be d51d febe c38e 81be
000001b0: 1b62 e03e a923 1fbe ae37 28bc 6f57 8b3e
000001c0: 77b1 d33e f760 9b3d fed5 7bbe 3763 6b3e
000001d0: ce29 e13e 2cce 95be 1f8e 2e3e bedc 673d
000001e0: 1dbb 5ebe 248a 48be e366 92be df98 a63e
000001f0: 9088 d7be 958b c53e 8c6a c4be ee73 d0bb
00000200: 1b98 0f3f 97b0 39bc 9e0d 3fbe 171b 50be
00000210: 48cf a43e c787 38be 781c cbbe b14c 263e
00000220: 0787 a53e 2bde 8ebe fb63 473c 52da fa3c
00000230: f00f 3b3d 44e3 703b 9188 183e 38c6 b13b
00000240: 8ed6 823e c925 a33e 7c3c 53be d1ef c23e
00000250: f8fb 9f3e fb78 2abe c70a c6bd 4343 80be
00000260: 4754 2c3f 8b68 10be b544 d6bc fd51 923e
00000270: c29a 573f a814 e9be cb3c 89be 27d8 8b3e
00000280: ea3b d13e f85e e03e 099c 10bd eed1 8cbc
00000290: 55a6 3f3e e400 153c 32fc 08be 2639 10be
000002a0: 2a21 1cbe 509e 133d 72d7 983e 8052 f3be
000002b0: adf7 49be ff16 fd3d 5127 26bf be32 40bd
000002c0: 28d7 3e3e 226a 643e 1c60 d63d 8875 4f3e
000002d0: e183 623e 50d3 24bf 65c0 aebd 2304 1d3c
000002e0: 150a 25be da3d 01bf fd73 05bf 609c 03bd
000002f0: 0b99 1e3e eeb8 bdbd 5c34 03bf bbd5 20be
00000300: b2ca 5b3e 01aa 903e 72c3 c2bb 0e66 173e
00000310: 4ff9 41bc ca47 9a3e 1295 38be 505f 1ebc
00000320: 7587 6bbd 70d5 20bf ca19 b23e 7bbf 473d
00000330: e0a3 03bf ea44 12be aeeb d9be 6a1e 293e
00000340: 807e 023f c2a0 ebbb 8fa2 ea3d 5ee2 debd
00000350: 3f88 5a3e e574 05bf 1320 d5be c726 343e
00000360: 7b75 cb3e 85a1 b5be 5619 603d 5a9e 55be
00000370: 551c 3dbe 8790 9abe 855c 89be dcc4 9fbc
00000380: ef56 d0bd aca6 113e a208 b7bc 03be a43d
00000390: e62b aebe 121f a0bd 94ce 49be 834e 82be
000003a0: d713 2f3f 0d24 493e 79ee dbbe ed02 733d
000003b0: 25cc 563e 3405 c33e 1c15 123d 35ba 5f3e
000003c0: 54a8 93bd 4bd1 0fbf f656 31bd c01a bb3d
000003d0: ecea 1dbe c504 04bf 515b 2f3e f1e7 a2bd
000003e0: 2f58 203f 0a1b 8e3d d9cf e03b 9371 1bbe
000003f0: fb45 86bb 6d66 d9be 72ca 293f 6b9e 0fbf

arr_0 f4 [23, 512]
0.13048491 -0.04903034 0.35692024 -0.20525214 -0.1768576 -0.042548914 -0.06699207 -0.05419971
-0.056711957 -0.049188983 -0.0499511 -0.14530131 0.10360934 0.06590102 0.14800574 -0.18264839
-0.019770484 0.15912355 -0.16282102 0.17973691 -0.011815948 -0.30790275 0.0128942 0.043799307
0.37043402 -0.12964895 -0.081249416 0.0270225 -0.268475 -0.12842718 -0.0025373958 -0.27729732
0.020617059 0.29399014 0.13484958 0.12256059 -0.030706903 -0.0966512 -0.2271476 0.31673747
-0.026898667 0.0062575224 -0.08450637 -0.20425902 -0.21917836 0.005690057 0.18879458 -0.11465507
0.012003711 -0.03747043 -0.015920073 -0.0042682565 -0.10046732 0.27339548 -0.02764391 -0.003769633
0.08697864 -0.1561839 0.14855681 0.16940436 -0.08168578 0.34203646 0.26703578 0.03931333
-0.33091998 0.041654833 -0.2894129 -0.03419419 0.04855861 0.045613702 0.047033772 0.18555148
0.11331109 0.11478195 -0.15154102 0.21437238 -0.15391469 0.36127567 0.025898479 -0.10132651
0.10162151 0.2323744 -0.14824183 0.084982276 0.0473204 -0.19302028 0.0051768594 -0.10496942
0.16360909 0.09431622 0.121830426 0.14517514 -0.20606631 -0.07640149 0.06311521 -0.08103431
0.23560785 0.18733984 -0.00063745026 -0.053211104 -0.02323027 -0.13732773 0.16327633 0.14705467
-0.030427124 -0.13678129 -0.1817549 0.009840108 -0.08150661 0.089542955 0.23809388 -0.057575427
-0.062033705 -0.2080941 0.07271966 -0.13720968 0.08877896 0.12761164 -0.18787017 0.032983597
-0.18063994 0.026527563 0.023840915 -0.023158837 -0.0645656 0.05159813 0.09668458 0.13837497
-0.08411892 -0.12875526 -0.07441216 0.21242987 -0.0015661876 -0.22840142 -0.21109009 -0.06838744
0.024062198 -0.25335982 0.2044547 0.14373343 0.094897546 0.11423451 -0.30402887 -0.012018088
0.086496264 0.2319539 0.24793407 -0.15815996 0.1681905 0.13711773 -0.32365134 -0.12280477
0.0027330387 0.07990266 -0.15033515 -0.11384502 -0.24833266 -0.23435624 -0.15444791 -0.16731066
-0.21641494 -0.24005136 -0.03587272 -0.22766931 -0.08766275 0.002838358 -0.059146468 -0.07399645
-0.3413013 -0.03111196 0.15382999 -0.034280255 0.0019198185 -0.034583382 -0.11414347 -0.14555822
0.13082132 0.2713306 -0.041137256 0.059265666 -0.12772587 -0.15031326 0.1820462 0.04187658
0.019097527 -0.00633301 -0.14000288 0.068288535 0.10146183 -0.019980218 -0.10208113 0.122195795
0.0072521004 0.020393647 0.05604046 0.05543626 0.04987874 0.3174838 -0.18118283 0.043645903
0.21659729 -0.17721015 0.06775606 -0.15722129 -0.057158474 -0.056403603 -0.07182704 -0.36808118
-0.059936725 0.024232596 -0.0808065 0.016439954 -0.04467988 0.12467246 -0.20061976 -0.061311383
-0.31886458 0.058609545 0.13536246 0.2712998 -0.0734236 0.15019545 -0.29266083 0.2026699
-0.03102016 -0.17106079 -0.10091828 0.106573306 -0.026571225 0.030639049 0.21783563 0.029814884
0.08605269 0.16610041 0.104869895 -0.07843812 -0.15337594 -0.033722036 0.50222236 0.030138746
0.06162634 -0.4592677 0.07973798 -0.09323678 0.07162596 -0.19256501 -0.012592666 0.15439433
0.009454229 0.102671504 -0.028406635 -0.064619735 0.28494388 0.29732913 -0.0025056198 -0.00771514
00000000: d69d 053e 0ad4 48bd 40be b63e 9e2d 52be
00000010: 291a 35be c547 2ebd 2333 89bd 8400 5ebd
00000020: cc4a 68bd 637a 49bd 8699 4cbd dec9 14be
00000030: 2231 d43d 1df7 863d d18e 173e 2e08 3bbe
00000040: b6f5 a1bc 49f1 223e 8eba 26be f40c 383e
00000050: ae97 41bc 6ea5 9dbe 3242 533c e766 333d
00000060: 87a9 bd3e b2c2 04be 1866 a6bd 4a5e dd3c
00000070: 8e75 89be 6a82 03be 704a 26bb eaf9 8dbe
00000080: 1be5 a83c e085 963e 0216 0a3e 0c01 fb3d
00000090: 0b8d fbbc 10f1 c5bd 6199 68be 6a2b a23e
000000a0: 985a dcbc e70b cd3b ad11 adbd 4729 51be
000000b0: 4b70 60be a873 ba3b 5e53 413e 47d0 eabd
000000c0: 37ab 443c 987a 19bd d06a 82bc bbdc 8bbb
000000d0: cfc1 cdbd 7efa 8b3e 7b75 e2bc f20b 77bb
000000e0: db21 b23d acee 1fbe 471f 183e 5678 2d3e
000000f0: e04a a7bd 671f af3e eab8 883e 0407 213d
00000100: 586e a9be 429e 2a3d ed2d 94be 350f 0cbd
00000110: 65e5 463d 6fd5 3a3d 7ca6 403d 3501 3e3e
00000120: a50f e83d cd12 eb3d 922d 1bbe 6f84 5b3e
00000130: d09b 1dbe 20f9 b83e 0c29 d43c 4684 cfbd
00000140: f01e d03d 8ef3 6d3e b5cc 17be 300b ae3d
00000150: 09d3 413d 1ca7 45be a5a2 a93b 35fa d6bd
00000160: 2489 273e dd28 c13d 3b82 f93d cba8 143e
00000170: 0c03 53be 6278 9cbd 8c42 813d 51f5 a5bd
00000180: 2f43 713e 04d6 3f3e 901a 27ba e3f3 59bd
00000190: 684d bebc a49f 0cbe e931 273e 8095 163e
000001a0: 4e42 f9bc 6510 0cbe f51d 3abe 6838 213c
000001b0: f0ec a6bd 4c62 b73d e2ce 733e 36d4 6bbd
000001c0: 0e17 7ebd 9f16 55be 0cee 943d b280 0cbe
000001d0: bed1 b53d a0ac 023e 0a61 40be cf19 073d
000001e0: adf9 38be 5550 d93c 064e c33c 9ab7 bdbc
000001f0: f83a 84bd 9058 533d 9102 c63d 2bb2 0d3e
00000200: 8a46 acbd 6bd8 03be 6765 98bd 3787 593e
00000210: 8948 cdba 10e2 69be 0028 58be b70e 8cbd
00000220: 161e c53c 61b8 81be 935c 513e db2e 133e
00000230: a559 c23d c8f3 e93d aca9 9bbe 84e7 44bc
00000240: f424 b13d 5385 6d3e 6ee2 7d3e aff4 21be
00000250: 213a 2c3e 9768 0c3e a1b5 a5be 1181 fbbd
00000260: c81c 333b 01a4 a33d 75f1 19be 9427 e9bd
00000270: eb4a 7ebe 15fb 6fbe 9827 1ebe 7c53 2bbe
00000280: e19b 5dbe 06d0 75be 46ef 12bd 2522 69be
00000290: 8788 b3bd bf03 3a3b 9143 72bd 738b 97bd
000002a0: 0bbf aebe 82de febc 9c85 1d3e 7469 0cbd
000002b0: 6ba2 fb3a 4ea7 0dbd 0dc4 e9bd 370d 15be
000002c0: 06f6 053e d8eb 8a3e 8a7f 28bd 8ec0 723d
000002d0: 92ca 02be b8eb 19be 526a 3a3e c786 2b3d
000002e0: 6b72 9c3c 2385 cfbb ea5c 0fbe dcda 8b3d
000002f0: 38cb cf3d 8ead a3bc e90f d1bd ca41 fa3d
00000300: 07a3 ed3b 9410 a73c ae8a 653d 2211 633d
00000310: a64d 4c3d 3d8d a23e fe87 39be 0cc6 323d
00000320: aecb 5d3e 9476 35be b0c3 8a3d 9efe 20be
00000330: 011f 6abd 7707 67bd 0e1a 93bd 2375 bcbe
00000340: 3680 75bd 7083 c63c e17d a5bd 15ad 863c
00000350: 4002 37bd 4654 ff3d 446f 4dbe a521 7bbd
00000360: 3842 a3be 9010 703d 759c 0a3e cfe7 8a3e
00000370: 1d5f 96bd d6cc 193e a4d7 95be b388 4f3e
00000380: fe1d febc 8f2a 2fbe 3eae cebd 1b43 da3d
00000390: e6ab d9bc befe fa3c 4e10 5f3e 583e f43c
000003a0: 653c b03d 3a16 2a3e 07c6 d63d 2aa4 a0bd
000003b0: 950e 1dbe 1e20 0abd a591 003f 88e5 f63c
000003c0: e76b 7c3d 2325 ebbe ab4d a33d edf2 bebd
000003d0: a2b0 923d c32f 45be 7851 4ebc 8c19 1e3e
000003e0: e9e5 1a3c 7045 d23d 08b5 e8bc 5a57 84bd
000003f0: 2ae4 913e 863b 983e 5335 24bb 49cf fcbb
