pretrained_model/NYU_pretrained/params/-1_reco_params.npz (npz, 497458 bytes, 22 tensors)

arr_20 f4 [23, 23]
0.0074499496 0.47326288 -0.08437897 0.0782551 0.3288644 0.120031826 -0.29527885 0.5364589
0.32280576 -0.020363899 0.2762257 -0.3419188 -0.34420243 0.3736722 -0.015378386 0.043756213
0.6107984 -0.41715264 -0.265391 0.27059373 -0.06581202 0.042184975 -0.060332935 -0.5297631
-0.18292741 -0.18022354 -0.28827658 0.28138474 0.1047617 -0.0774207 -0.019923577 0.10844119
-0.11220795 -0.14159925 -0.15294193 -0.18425252 0.11935761 -0.1736801 0.31689036 -0.030176144
-0.061147753 -0.10856631 -0.12093884 0.2336544 -0.035638113 -0.016922098 0.20810317 0.1183206
0.09970978 0.0786371 -0.59280854 -0.502403 -0.24535735 0.37698218 0.4579753 0.51714677
0.22735645 -0.120710395 0.38520595 0.14233111 0.22836849 0.031536333 -0.45159116 -0.046107914
0.2259461 0.030259905 0.08497798 0.118769765 0.038319208 0.109993525 0.29679364 0.07890998
-0.5816276 0.37055317 0.22896382 0.31586662 -0.15127765 -0.24453734 0.27376437 -0.15178412
-0.31755903 0.50861675 -0.19578719 0.4212887 0.4231878 -0.1103851 -0.7863744 0.05346183
-0.0931798 -0.0048385174 -0.03375082 -0.032920595 -0.90257996 -0.3508283 0.48451695 0.30560523
0.3484193 -0.58033097 0.41755646 0.065533295 0.11343515 0.17108116 -0.150088 -0.1045768
-0.004344857 -0.1777429 0.24225149 -0.24267569 0.37546334 0.2600454 0.34824583 0.17819968
0.0554541 0.22681956 -0.030569341 0.12420264 0.17927614 0.1421284 0.15683329 0.13648742
0.28662407 0.52690935 -0.09666891 -0.039289653 0.33954495 0.25020948 0.7581165 0.029999318
0.5706373 0.21823718 0.016078282 0.27263758 0.019848643 -0.36593276 0.045422234 0.14175737
0.04156558 0.0008131451 -0.01247648 -0.5539071 -0.04716529 0.061918683 -0.10563599 0.2681655
-0.39815637 0.10885371 -0.03152671 -0.078352086 -0.39037997 0.6971715 -0.26682624 0.19978788
0.3212204 0.18248796 0.29314762 -0.58653736 0.30959642 0.19039668 -0.035019863 0.15522635
-0.10199659 0.06601224 0.338559 0.74635035 0.01802507 -0.44441208 0.55753845 0.116777465
0.045199245 0.23749273 -0.33265203 -0.12914062 0.012396616 -0.24346845 -0.54169345 0.24474187
0.24323192 -0.035547838 -0.02619151 0.22365692 -0.045064308 0.052930877 -0.021006357 0.0009737606
0.28772992 0.28883183 -0.42891365 0.029301995 0.027244303 -0.0738784 0.23767217 -0.37813172
0.51438135 0.21127869 0.09631076 -0.121518075 -0.40136278 -0.00639231 -0.018988539 -0.0008295382
-0.41167387 0.17653161 -0.1765152 0.10948379 -0.1326742 0.2924144 -0.11040493 -0.06612695
-0.37503856 0.44838476 0.05324938 -0.19810277 -0.061488148 -0.32691443 -0.3800508 0.15496399
0.10666549 0.13573699 -0.32486734 -0.19970332 0.1345003 -0.025704768 -0.013352946 0.037179258
0.007976471 -0.548454 -0.39736938 -0.026156988 -0.13482508 0.0002391705 0.18354003 0.41919562
0.27093068 0.6680942 0.6819875 -0.014861427 -0.33693045 -0.51239794 -0.41705 0.14691201
0.053013258 -0.20822087 0.031328294 0.096724235 -0.3372569 -0.2790253 -0.31529266 -0.2745612
0.52550894 0.015927166 0.1250065 -0.009157648 -0.010016533 -0.065615766 -0.48427776 -0.19221683
00000000: b51e f43b 834f f23e e2ce acbd 3644 a03d
00000010: ea60 a83e 3fd3 f53d ca2e 97be 5f55 093f
00000020: cc46 a53e 31d2 a6bc 746d 8d3e fb0f afbe
00000030: 4d3b b0be f651 bf3e a0f5 7bbc b739 333d
00000040: 495d 1c3f 0895 d5be 54e1 87be 438b 8a3e
00000050: 74c8 86bd 27ca 2c3d ab1f 77bd 8e9e 07bf
00000060: 5351 3bbe 858c 38be fd98 93be a911 903e
00000070: 4d8d d63d be8e 9ebd c536 a3bc 6a16 de3d
00000080: 48cd e5bd 65ff 10be cf9c 1cbe b1ac 3cbe
00000090: c371 f43d 32d9 31be 743f a23e f633 f7bc
000000a0: 1176 7abd 0358 debd c8ae f7bd 1943 6f3e
000000b0: 45f9 11bd 36a0 8abc ff18 553e 1252 f23d
000000c0: a434 cc3d 7d0c a13d 4dc2 17bf 7c9d 00bf
000000d0: f53e 7bbe cf03 c13e bd7b ea3e bb63 043f
000000e0: 21d0 683e 0337 f7bd b739 c53e 3fbf 113e
000000f0: 6ed9 693e 3e2c 013d f536 e7be a7db 3cbd
00000100: 6a5e 673e 9fe3 f73c ef08 ae3d 903d f33d
00000110: 9af4 1c3d 4944 e13d 56f5 973e 8e9b a13d
00000120: 8ce5 14bf 25b9 bd3e 7e75 6a3e 45b9 a13e
00000130: 87e8 1abe ff67 7abe d82a 8c3e 4c6d 1bbe
00000140: 1997 a2be b534 023f 707c 48be 27b3 d73e
00000150: 12ac d83e 9511 e2bd d54f 49bf cbfa 5a3d
00000160: 0dd5 bebd 6d8c 9ebb 4d3e 0abd bfd7 06bd
00000170: 7b0f 67bf c49f b3be 9b12 f83e 4a78 9c3e
00000180: 0464 b23e 9290 14bf f6c9 d53e 5236 863d
00000190: b050 e83d e62f 2f3e abb0 19be 5c2c d6bd
000001a0: 4d5f 8ebb 3c02 36be c610 783e fa7f 78be
000001b0: bb3c c03e ac24 853e 474d b23e fa79 363e
000001c0: d723 633d 6343 683e 8e6c fabc f45d fe3d
000001d0: 2a94 373e 1b8a 113e e898 203e 5cc3 0b3e
000001e0: 64c0 923e 88e3 063f 59fa c5bd 30ee 20bd
000001f0: d6d8 ad3e 751b 803e ec13 423f 21c1 f53c
00000200: 4915 123f 9179 5f3e 9ab6 833c 2797 8b3e
00000210: 9f99 a23c 8a5b bbbe aa0c 3a3d d828 113e
00000220: ab40 2a3d 3e29 553a 266a 4cbc dbcc 0dbf
00000230: 6430 41bd 729e 7d3d af57 d8bd fd4c 893e
00000240: 27db cbbe b2ee de3d 2722 01bd 0f77 a0bd
00000250: e2df c7be d579 323f 739d 88be 3295 4c3e
00000260: 0077 a43e 20de 3a3e 7217 963e 5027 16bf
00000270: 6c83 9e3e 59f7 423e fd70 0fbd a8f3 1e3e
00000280: 97e3 d0bd 6d31 873d 9b57 ad3e d110 3f3f
00000290: 50a9 933c fb89 e3be d7ba 0e3f 0629 ef3d
000002a0: d822 393d 4b31 733e 5e51 aabe 703d 04be
000002b0: 2d1b 4b3c cb4f 79be 6cac 0abf 9d9d 7a3e
000002c0: ca11 793e 9c9a 11bd 948f d6bc 5206 653e
000002d0: 5a95 38bd 0cce 583d 8615 acbc f843 7f3a
000002e0: 5651 933e c4e1 933e 929a dbbe bd0a f03c
000002f0: 722f df3c 8f4d 97bd 5560 733e 7b9a c1be
00000300: 7fae 033f 7159 583e 933e c53d 78de f8bd
00000310: 6c7f cdbe 9576 d1bb da8d 9bbc 5e75 59ba
00000320: ebc6 d2be b4c4 343e 67c0 34be 0a39 e03d
00000330: bfdb 07be 57b7 953e fb1b e2bd 916d 87bd
00000340: 0e05 c0be b092 e53e 061c 5a3d 74db 4abe
00000350: ffda 7bbd 5461 a7be 0596 c2be e1ae 1e3e
00000360: 7073 da3d a3fe 0a3e 0355 a6be 077f 4cbe
00000370: 72ba 093e ce92 d2bc 51c6 5abc 4749 183d
00000380: bfaf 023c 7b67 0cbf 0074 cbbe 2e47 d6bc
00000390: 960f 0abe d8c9 7a39 ebf1 3b3e cfa0 d63e
000003a0: 6db7 8a3e 3908 2b3f bc96 2e3f 587d 73bc
000003b0: 2682 acbe 832c 03bf 9487 d5be 1a70 163e
000003c0: 6e24 593d da37 55be 1952 003d 5b17 c63d
000003d0: f0ac acbe 67dc 8ebe 0a6e a1be 4993 8cbe
000003e0: c187 063f b079 823c b401 003e f609 16bc
000003f0: 621c 24bc 8f61 86bd 41f3 f7be 7dd4 44be

arr_21 f4 [23]
0.034785133 -0.038918808 -0.24324019 -0.08396513 -0.08768381 -0.030736096 -0.03418827 0.093186185
0.12095964 -0.11967391 -0.060207933 0.07716198 -0.050982837 -0.27872768 -0.16816911 -0.09649205
-0.17870523 0.14526331 -0.14783126 0.11081786 0.04127553 -0.081415795 0.06713966
00000000: db7a 0e3d 5469 1fbd f513 79be e9f5 abbd
00000010: 9293 b3bd 44ca fbbc 0009 0cbd 66d8 be3d
00000020: b0b9 f73d 9817 f5bd 989c 76bd 1a07 9e3d
00000030: 61d3 50bd 65b5 8ebe 8634 2cbe a09d c5bd
00000040: 81fe 36be e8bf 143e 1461 17be 79f4 e23d
00000050: 8810 293d 53bd a6bd 8580 893d

arr_19 f4 [23]
0.110672675 0.07578176 0.10780741 0.08222548 0.10637354 0.107213326 0.09503036 0.107481316
0.06459586 0.07468907 0.093876354 0.1399733 0.15368102 0.12419837 0.14737259 0.10099531
0.15097064 0.13780409 0.13335216 0.07407648 0.13642141 0.058688108 0.11291282
00000000: 5ba8 e23d 7833 9b3d 22ca dc3d d565 a83d
00000010: 5fda d93d a992 db3d 479f c23d 2a1f dc3d
00000020: d64a 843d 95f6 983d 3f42 c03d 2955 0f3e
00000030: 8f5e 1d3e b75b fe3d d7e8 163e a1d6 ce3d
00000040: 0c98 1a3e 841c 0d3e 788d 083e 69b5 973d
00000050: 0eb2 0b3e f162 703d d63e e73d

arr_18 f4 [23]
1.4678738 -6.0182457 -0.6640528 -5.3997555 0.6723155 -6.2009883 -2.4178088 -3.9278314
-8.436005 -2.015391 -1.1263047 -3.7387462 -0.79449016 2.572952 -0.5964839 -4.063098
-0.3999826 -1.3888261 -3.9197032 -2.2728417 -0.089184746 -7.6635737 -0.69764024
00000000: 4ae3 bb3f 7895 c0c0 5dff 29bf ccca acc0
00000010: de1c 2c3f 7f6e c6c0 61bd 1ac0 9761 7bc0
00000020: e0f9 06c1 2bfc 00c0 c12a 90bf 9e47 6fc0
00000030: b563 4bbf 3fab 2440 2bb3 18bf e604 82c0
00000040: 85ca ccbe 0ec5 b1bf 6bdc 7ac0 3d76 11c0
00000050: 7ea6 b6bd ff3b f5c0 8d98 32bf

arr_11 f4 [32]
-1.0436834 -0.54771703 -0.67552936 -0.6570131 -0.81970173 -0.8583267 -0.864914 -0.7391499
-0.94861865 -0.82981384 -0.5953915 -0.9287113 -0.8136187 -0.7588275 -0.75947785 -0.75303084
-0.68249595 -0.7991299 -0.8977246 -0.9858392 -0.6323756 -0.8700918 -0.7755401 -0.87135565
-0.738047 -0.9260176 -0.75689703 -0.5740969 -0.8217198 -0.70300776 -0.75613284 -0.8391529
00000000: 6b97 85bf 2f37 0cbf 7eef 2cbf 0332 28bf
00000010: f9d7 51bf 4cbb 5bbf 016b 5dbf ee38 3dbf
00000020: acd8 72bf ae6e 54bf 946b 18bf 06c0 6dbf
00000030: 5149 50bf 8542 42bf 246d 42bf a1c6 40bf
00000040: 0eb8 2ebf c793 4cbf 48d1 65bf f55f 7cbf
00000050: 5ee3 21bf 56be 5ebf cc89 46bf 2a11 5fbf
00000060: a6f0 3cbf 7d0f 6dbf 01c4 41bf 04f8 12bf
00000070: 3b5c 52bf 51f8 33bf ec91 41bf b9d2 56bf

arr_10 f4 [32, 32, 6, 6]
-0.22957796 1.2364926 -1.0801916 -0.96441513 -0.58710265 -0.56417584 -0.38225162 -1.4823939
0.48328876 0.027878448 -0.1766873 0.07226373 -0.7356345 -0.19720644 -0.7495188 0.36097667
-0.4319584 -1.2346606 -0.5465159 -0.5596925 -0.70575255 -0.12625732 -0.41246527 0.04819387
1.7542232 0.39749554 -0.12461022 0.15479435 -0.08410897 0.6154037 -0.6260167 -0.35129878
-0.19496045 0.31272557 0.030134963 0.110179655 -0.38145092 0.76356596 -0.15437093 -0.07561599
-0.44828 -0.43403178 0.2576574 0.442785 -0.29159796 -0.638556 -0.26644328 0.445979
-0.17341453 -0.23559047 -0.20413902 0.6949548 -0.45371398 0.047624663 -0.011673708 0.13409069
0.38527822 0.5521954 -0.8111996 -0.7208832 0.01006754 0.23550832 1.0224825 0.4707978
0.20343006 -0.018859887 -0.7871475 -0.15346676 0.8723763 -0.06489617 -1.3403074 -0.78047264
-0.6678022 -0.75133246 1.4721379 0.8570743 -0.4225149 -1.0478724 0.08052601 -0.55116373
0.18246801 -0.89645016 -0.3123296 1.2209835 0.16431558 0.12851435 1.0988905 0.11499661
0.38249668 0.12851115 0.2398967 -0.061560493 0.71394587 -0.07609178 -0.71742374 -0.96849287
-0.044388868 0.21737498 -0.48781314 0.5356692 0.46435556 -0.5238907 0.07386834 -0.01870895
-1.1354907 -0.039368022 0.7309723 -0.4984336 -0.3265757 0.34914982 -0.16186996 -0.5700567
-1.0585757 0.0023230552 -0.82295513 -0.47903088 -0.086668156 0.49243373 -0.07746031 -0.38434073
0.48261663 1.0405705 -0.2315358 0.12980093 0.27347362 0.30214944 -0.2706107 0.14514045
1.4354265 -1.032857 -0.7763894 0.60872567 -0.0908056 0.10319337 -0.69816804 -0.96191597
0.98324895 0.27332115 0.5563042 0.5555117 1.0747378 0.15053439 -0.2670469 0.16398814
-1.9342645 0.46445826 -0.48933232 0.49265805 0.87217224 -1.0195185 0.6298701 0.2288328
0.6057913 0.6770875 0.08044244 0.38333198 0.2500232 -0.64740247 -0.5250131 -0.5196076
-1.2295073 -0.891034 -0.61408925 0.060220484 -1.1604065 0.7439831 -0.13971093 0.5298197
-0.56419593 1.2755592 -0.23992656 -0.48389387 0.4488144 0.8316695 -0.2608778 -0.08867035
0.78879654 -0.19359985 0.6053914 -0.2577284 0.22136492 0.40485308 -0.2515695 0.9190003
1.184019 -0.8156178 0.0131609915 0.59636956 0.79060555 -0.57118744 -0.30493546 -0.6530247
0.18776758 0.53100896 1.0841434 0.35749868 0.74234635 0.6105528 -0.45906246 -0.1883197
-0.3502054 -0.5692486 -0.059296533 0.8157486 0.08206847 0.113252 -0.687904 -0.25802192
0.0050651315 -0.6046224 1.8301226 -0.365725 0.72022593 0.017179163 0.16854551 0.15438724
0.7024693 0.89368415 -0.76262915 -0.38293487 -2.0332367 -1.2161081 -1.6195517 -0.2916548
0.07475813 0.30490917 -0.014695996 0.4668853 -0.24298674 -0.6602741 0.5596704 0.23010203
0.106077895 0.22332823 -0.049740516 0.36281946 0.37994486 0.2739742 -0.2617095 -0.020540811
-0.19299705 -0.37713993 0.6910574 0.66507673 0.08982628 0.65332025 -0.2783202 -0.09039986
-1.1037766 -0.9208677 -0.007311795 1.7190946 -1.2835324 0.6756238 -0.9759777 -0.41731605
00000000: 7c16 6bbe 6445 9e3f b843 8abf e9e3 76bf
00000010: 5c4c 16bf d46d 10bf 7cb6 c3be 15bf bdbf
00000020: a071 f73e 5861 e43c 84ed 34be 02ff 933d
00000030: 8b52 3cbf 7cf0 49be 77e0 3fbf efd1 b83e
00000040: a729 ddbe 5c09 9ebf 77e8 0bbf 0248 0fbf
00000050: 33ac 34bf 9949 01be a62e d3be ef66 453d
00000060: 638a e03f 8984 cb3e a533 ffbd 6982 1e3e
00000070: 5341 acbd 198b 1d3f a142 20bf 6fdd b3be
00000080: b6a3 47be 911d a03e 99dd f63c dfa5 e13d
00000090: 894d c3be 0f79 433f 6a13 1ebe 8edc 9abd
000000a0: f584 e5be 6a39 debe aceb 833e b7b4 e23e
000000b0: 544c 95be 6878 23bf 416b 88be 5c57 e43e
000000c0: 9493 31be a13e 71be d209 51be 8fe8 313f
000000d0: 334d e8be 1412 433d 1543 3fbc 124f 093e
000000e0: 3043 c53e ae5c 0d3f c7aa 4fbf cd8b 38bf
000000f0: 53f2 243c 1829 713e b5e0 823f 690c f13e
00000100: f84f 503e 0d80 9abc 8082 49bf 6426 1dbe
00000110: 0e54 5f3f 48e8 84bd 318f abbf 0ecd 47bf
00000120: 16f5 2abf 5357 40bf 046f bc3f 3969 5b3f
00000130: df53 d8be af20 86bf d2ea a43d 1119 0dbf
00000140: e5d8 3a3e c27d 65bf aae9 9fbe 3049 9c3f
00000150: 5842 283e 4499 033e 72a8 8c3f 5883 eb3d
00000160: 9bd6 c33e 6d98 033e 7ba7 753e db26 7cbd
00000170: 28c5 363f 02d6 9bbd 15a9 37bf 26ef 77bf
00000180: 1ad1 35bd 8c97 5e3e a5c2 f9be 9e21 093f
00000190: 03c0 ed3e b31d 06bf 4948 973d 8343 99bc
000001a0: c257 91bf 5d40 21bd 0021 3b3f b032 ffbe
000001b0: ee34 a7be c4c3 b23e 3dc1 25be 3cef 11bf
000001c0: 697f 87bf 663e 183b 30ad 52bf 8943 f5be
000001d0: 137f b1bd 4620 fc3e 83a3 9ebd 4fc8 c4be
000001e0: 8719 f73e 6a31 853f b917 6dbe 89ea 043e
000001f0: bc04 8c3e 55b3 9a3e 7c8d 8abe b39f 143e
00000200: 0ebc b73f a834 84bf 75c1 46bf 72d5 1b3f
00000210: 49f8 b9bd 0c57 d33d 24bb 32bf 2040 76bf
00000220: 34b6 7b3f c0f0 8b3e f469 0e3f 0436 0e3f
00000230: 0291 893f b025 1a3e 5fba 88be 82ec 273e
00000240: fb95 f7bf 79cd ed3e c489 fabe ad3d fc3e
00000250: ae46 5f3f 957f 82bf 2b3f 213f 2553 6a3e
00000260: 2315 1b3f 9b55 2d3f 02bf a43d 1744 c43e
00000270: 0a03 803e 2bbc 25bf 4267 06bf 0105 05bf
00000280: 7f60 9dbf ce1a 64bf f434 1dbf c1a9 763d
00000290: 3388 94bf ad75 3e3f 6210 0fbe 44a2 073f
000002a0: 256f 10bf 8645 a33f 4faf 75be f0c0 f7be
000002b0: 00cb e53e 4be8 543f c691 85be cd98 b5bd
000002c0: 92ee 493f 0a3f 46be eefa 1a3f faf4 83be
000002d0: 7cad 623e e748 cf3e b8cd 80be 9b43 6b3f
000002e0: ef8d 973f 54cc 50bf 33a1 573c adab 183f
000002f0: 2065 4a3f 5739 12bf 8020 9cbe a02c 27bf
00000300: 2546 403e 34f0 073f 36c5 8a3f 110a b73e
00000310: 690a 3e3f 304d 1c3f 3c0a ebbe e1d6 40be
00000320: 1f4e b3be 47ba 11bf ece0 72bd e6d4 503f
00000330: 8413 a83d aaf0 e73d 7a1a 30bf 731b 84be
00000340: 67f9 a53b 89c8 1abf 7541 ea3f 4f40 bbbe
00000350: ba60 383f 51bb 8c3c 3297 2c3e b017 1e3e
00000360: 07d5 333f 7cc8 643f aa3b 43bf 0a10 c4be
00000370: 8d20 02c0 6ea9 9bbf 784d cfbf c753 95be
00000380: ca1a 993d 0e1d 9c3e 7ac7 70bc 970b ef3e
00000390: 84d1 78be b907 29bf 8f46 0f3f de9f 6b3e
000003a0: 5e3f d93d 28b0 643e b6bc 4bbd 79c3 b93e
000003b0: 2288 c23e 5946 8c3e cafe 85be 3445 a8bc
000003c0: 05a1 45be 7c18 c1be 23e9 303f 7842 2a3f
000003d0: d7f6 b73d ff3f 273f fc7f 8ebe 9023 b9bd
000003e0: 8d48 8dbf fcbd 6bbf c897 efbb 4b0b dc3f
000003f0: ca4a a4bf aef5 2c3f add9 79bf 73aa d5be

arr_13 f4 [32]
-4.718592 -6.2497935 -2.4925656 -3.6159956 -3.4203777 -2.9924667 -1.1805931 -3.4643106
-1.406664 -5.8697033 -1.1846999 -2.3986506 -1.307843 -4.071978 -5.803053 -5.1552334
-4.9706078 -4.8020205 0.71143836 -4.2108665 -3.904797 -4.0956073 -1.9353333 -5.6535726
-0.82248586 -2.6262004 -1.9714017 -4.196561 -2.4122672 -3.9884489 -5.6445284 -5.3087854
00000000: b5fe 96c0 4ffe c7c0 3286 1fc0 796c 67c0
00000010: 78e7 5ac0 9384 3fc0 ad1d 97bf 44b7 5dc0
00000020: 910d b4bf 9cd4 bbc0 3fa4 97bf 7e83 19c0
00000030: 6667 a7bf a54d 82c0 9cb2 b9c0 acf7 a4c0
00000040: 380f 9fc0 27aa 99c0 d320 363f 6bbf 86c0
00000050: 32e8 79c0 370f 83c0 00b9 f7bf 11ea b4c0
00000060: 6f8e 52bf ab13 28c0 e456 fcbf 3a4a 86c0
00000070: 9662 1ac0 bf42 7fc0 fa9f b4c0 92e1 a9c0

arr_12 f4 [32]
1.2567407 1.1468124 1.2067115 1.0709347 1.337979 1.178059 1.2395328 1.2665774
1.1244882 1.3341389 1.1549227 1.3560901 1.2662452 1.2118621 1.1614351 1.1773748
1.2929893 1.1700573 1.1949637 1.2778287 1.1374937 1.2988201 1.1890099 1.2254151
1.245045 1.2165881 1.3058461 1.203762 1.2800404 1.1699114 1.2851144 1.2020618
00000000: e1dc a03f c0ca 923f 8675 9a3f 6314 893f
00000010: e542 ab3f a3ca 963f 03a9 9e3f 351f a23f
00000020: 3bef 8f3f 10c5 aa3f 82d4 933f 5c94 ad3f
00000030: 5314 a23f 4c1e 9b3f e8a9 943f 38b4 963f
00000040: ac80 a53f 70c4 953f 92f4 983f e48f a33f
00000050: 6599 913f bd3f a63f 7a31 983f 67da 9c3f
00000060: a25d 9f3f 29b9 9b3f f725 a73f e014 9a3f
00000070: 5dd8 a33f a8bf 953f a17e a43f 29dd 993f

arr_15 f4 [512, 23]
0.97419363 0.8915717 2.0033932 0.597002 0.012353672 0.36288548 -0.08951193 -0.01647154
0.5787965 0.80808413 0.10933082 0.44459492 0.8786783 -0.8296224 0.5753214 0.654272
0.28373468 1.7800757 -0.60144186 -0.32564643 0.91103894 -0.05072121 0.20523843 -1.264669
-0.459146 -0.3500266 -0.6862414 0.285691 0.18803197 0.029647853 0.3318323 -0.33962786
-0.108505845 -0.7923776 1.1647474 0.8242644 0.24581684 1.1689382 -0.43062088 -0.09969773
0.43560398 1.0618092 0.54535824 1.6814605 0.50209445 0.5744124 0.7487448 0.8815535
0.43217173 0.34418404 -0.22300017 -0.70265335 1.22338 0.15705231 -0.1297657 0.48941806
0.21228406 0.22247952 0.76239926 0.61456543 0.005344241 0.07200693 -0.7598745 0.9214786
0.9786248 0.4953839 -0.11495569 0.031549145 0.3140701 -0.9756572 -0.7868797 -0.3721305
0.021357676 0.18688227 -1.0414368 -0.014107486 0.6799286 0.9960478 0.27043554 0.15557958
-0.36101735 -0.275122 -0.17931995 1.5672477 -0.13123597 1.3186351 1.4073756 1.1392417
0.62715214 -0.06710714 0.25488767 0.459726 -0.23956047 0.18202677 0.20294788 0.031348303
0.16816153 0.20262885 -0.33893389 0.3782726 -0.71765864 0.307945 0.14328524 0.89065367
0.7232406 -0.08443245 0.27874482 -0.052552037 0.007229876 0.30391195 -0.05561868 -0.1741375
-0.259246 -0.10394694 0.5216604 0.469384 -0.745085 -0.8285496 0.21625447 -0.51449525
1.3301432 0.14194304 0.086758316 -0.6155091 0.19945213 -0.75760967 0.21286005 0.13011841
0.4768947 -0.29369086 -0.17646189 0.6732059 -0.13111883 -0.56518847 -0.7026465 -0.32229167
-0.23009846 -0.18003252 0.4574506 0.7470486 -0.6533259 -0.839579 -0.111803524 0.2549959
0.20565915 -2.4251773 -0.43591714 1.139784 0.02970776 -0.32197425 0.062949255 -0.018183313
-0.08029173 0.5103795 0.10750032 0.59825957 0.3735431 -0.17727028 0.04786205 0.14631611
0.09875099 0.45127302 0.227646 0.24740928 -0.11771091 -0.04918026 0.54546374 0.22865221
0.8887332 -0.12056199 -0.35865605 0.61853725 0.08284304 -0.06941893 0.6675708 -0.68612576
-0.54929924 0.8020524 -0.21833578 -0.4979967 0.3727334 0.16227487 -0.114345215 -0.25854695
0.17957743 0.76438224 0.36449435 -0.57395923 0.0847369 -0.37931958 -0.009131959 -0.4335841
-0.2689517 0.10897965 -0.23255385 0.20390823 0.3604266 -0.3853159 0.48239526 -0.6099533
0.47468567 0.29956877 -0.10156963 0.10612932 -0.07205903 -0.3025918 0.6966994 -0.1610028
0.9408407 -0.8259497 -0.4896752 -0.3545435 -0.6623938 -0.18671489 0.14761344 0.3314821
-0.3669126 -0.28565106 -0.5688813 -0.08290806 0.6324088 0.46409532 0.93414646 0.13629216
-0.22295617 -0.9403542 0.0024371482 0.15353344 0.3102565 0.08368993 0.25730237 -1.5516247
-0.5043969 -1.0251596 0.73890215 0.14780119 0.28059813 1.7614056 0.25603625 0.005154797
0.21109709 0.6777163 -0.21864395 -1.3303385 -0.62619513 -1.6266866 -0.61545384 -0.19778955
0.019464439 0.6602943 0.22314827 -0.695152 -0.8402625 0.05948288 0.36670065 0.67436075
00000000: c164 793f 0b3e 643f 9837 0040 20d5 183f
00000010: 0e67 4a3c 20cc b93e 0852 b7bd 53ef 86bc
00000020: 022c 143f 9ade 4e3f d6e8 df3d f2a1 e33e
00000030: 10f1 603f 2262 54bf 4348 133f 5f7e 273f
00000040: ac45 913e 85d9 e33f 18f8 19bf 21bb a6be
00000050: d939 693f 0bc1 4fbd 062a 523e ace0 a1bf
00000060: 2f15 ebbe b036 b3be 84ad 2fbf 1746 923e
00000070: 748b 403e 0ee0 f23c ece5 a93e b4e3 adbe
00000080: 5038 debd 42d9 4abf 7116 953f fe02 533f
00000090: 69b7 7b3e c49f 953f 577a dcbe 532e ccbd
000000a0: 7c07 df3e 5de9 873f 999c 0b3f 193a d73f
000000b0: 4389 003f b10c 133f bdad 3f3f 7dad 613f
000000c0: 9d45 dd3e e438 b03e 285a 64be 17e1 33bf
000000d0: b797 9c3f 52d2 203e 4de1 04be 0195 fa3e
000000e0: fe60 593e acd1 633e 992c 433f 2954 1d3f
000000f0: be1e af3b 5f78 933d 2387 42bf 06e6 6b3f
00000100: 2887 7a3f f5a2 fd3e e46d ebbd ad39 013d
00000110: cccd a03e acc4 79bf f370 49bf e487 bebe
00000120: 4bf6 ae3c 115e 3f3e cd4d 85bf 1623 67bc
00000130: cd0f 2e3f fdfc 7e3f 8776 8a3e 4150 1f3e
00000140: 44d7 b8be cadc 8cbe a69f 37be 939b c83f
00000150: b962 06be 09c9 a83f e224 b43f acd2 913f
00000160: 0b8d 203f 786f 89bd a380 823e 3561 eb3e
00000170: 574f 75be 3a65 3a3e 92d1 4f3e 1467 003d
00000180: 8932 2c3e f07d 4f3e be88 adbe f2ac c13e
00000190: 7ab8 37bf f8aa 9d3e 5eb9 123e e101 643f
000001a0: 4c26 393f ecea acbd a4b7 8e3e ce40 57bd
000001b0: 98e8 ec3b 599a 9b3e 6ad0 63bd 1a51 32be
000001c0: e4bb 84be 22e2 d4bd 898b 053f 1a53 f03e
000001d0: e4bd 3ebf d41b 54bf d071 5d3e f6b5 03bf
000001e0: 2242 aa3f 8459 113e 58ae b13d 0192 1dbf
000001f0: 2e3d 4c3e b5f2 41bf fcf7 593e c33d 053e
00000200: 8b2b f43e a65e 96be 6db2 34be 3957 2c3f
00000210: 0444 06be 31b0 10bf a4e0 33bf 6a03 a5be
00000220: ee9e 6bbe 725a 38be f736 ea3e 943e 3f3f
00000230: 5e40 27bf a6ee 56bf 3ff9 e4bd d38e 823e
00000240: 5098 523e 1b36 1bc0 8830 dfbe 71e4 913f
00000250: b05d f33c cfd9 a4be 8aeb 803d 2cf5 94bc
00000260: fe6f a4bd 3ba8 023f 2129 dc3d 8a27 193f
00000270: 0b41 bf3e 5786 35be ff0a 443d e4d3 153e
00000280: f63d ca3d 420d e73e 081c 693e dc58 7d3e
00000290: 6b12 f1bd 3e71 49bd 83a3 0b3f ce23 6a3e
000002a0: 0584 633f 34e9 f6bd c4a1 b7be 7558 1e3f
000002b0: 9da9 a93d 832b 8ebd ece5 2a3f f0a5 2fbf
000002c0: e09e 0cbf 4e53 4d3f 6a93 5fbe 6cf9 febe
000002d0: ead6 be3e 622b 263e d32d eabd 4460 84be
000002e0: 25e3 373e 8eae 433f 019f ba3e feee 12bf
000002f0: 8a8a ad3d 2d36 c2be 369e 15bc bcfe ddbe
00000300: 0ab4 89be b930 df3d 9922 6ebe 52cd 503e
00000310: d689 b83e 2048 c5be 83fc f63e e625 1cbf
00000320: 000a f33e 1461 993e bd03 d0bd 545a d93d
00000330: af93 93bd 50ed 9abe e45a 323f ebdd 24be
00000340: f0da 703f 7171 53bf b5b6 fabe ba86 b5be
00000350: a492 29bf 3032 3fbe fa27 173e 06b8 a93e
00000360: f8db bbbe db40 92be 34a2 11bf b3cb a9bd
00000370: 8be5 213f e79d ed3e 3924 6f3f 2c90 0b3e
00000380: 9f4e 64be 0ebb 70bf 90b8 1f3b df37 1d3e
00000390: f1d9 9e3e a065 ab3d 23bd 833e a39b c6bf
000003a0: 2820 01bf 6e38 83bf b128 3d3f 3259 173e
000003b0: 8faa 8f3e bd75 e13f 2f17 833e 92e9 a83b
000003c0: d629 583e d17e 2d3f 33e4 5fbe 8848 aabf
000003d0: 534e 20bf 4437 d0bf 628e 1dbf 5889 4abe
000003e0: e373 9f3c 0c09 293f fb80 643e 7bf5 31bf
000003f0: 711b 57bf 52a4 733d 30c0 bb3e e8a2 2c3f

arr_14 f4 [32]
0.08227955 0.07351416 0.07097998 0.07504162 0.06992158 0.07284012 0.074257255 0.07033085
0.08013678 0.0710138 0.07244362 0.06742452 0.06857417 0.06921075 0.06913738 0.071897455
0.06776751 0.078985214 0.07529485 0.07361595 0.07378101 0.06838068 0.07522267 0.08021211
0.069026984 0.08476003 0.07166904 0.074332595 0.07129279 0.070253775 0.068386085 0.07794237
00000000: 2e82 a83d 988e 963d f45d 913d 6caf 993d
00000010: 0c33 8f3d 332d 953d 3014 983d 9f09 903d
00000020: c11e a43d af6f 913d 525d 943d de15 8a3d
00000030: 9d70 8c3d 5ebe 8d3d e697 8d3d f93e 933d
00000040: b1c9 8a3d 00c3 a13d 3034 9a3d f6c3 963d
00000050: 801a 973d 2c0b 8c3d 580e 9a3d 3f46 a43d
00000060: 055e 8d3d ab96 ad3d 38c7 923d b03b 983d
00000070: f401 923d 36e1 8f3d 010e 8c3d 40a0 9f3d

arr_17 f4 [23]
0.22015794 0.45398954 0.18007533 0.18227476 0.13508244 0.18481602 0.15807495 0.20339365
0.28694195 0.34504312 0.17874451 0.13479665 0.32642987 0.12271899 0.14111839 0.18805495
0.20881858 0.13460319 0.13054866 0.38777855 0.19019623 0.47893906 0.13233238
00000000: 1571 613e 5171 e83e ab65 383e 3ca6 3a3e
00000010: 0d53 0a3e 6940 3d3e 66de 213e 6d46 503e
00000020: 0eea 923e 7ea9 b03e cd08 373e 2208 0a3e
00000030: d121 a73e 1854 fb3d 5781 103e 7a91 403e
00000040: 8ad4 553e 6bd5 093e 8cae 053e e98a c63e
00000050: cdc2 423e 8037 f53e 2482 073e

arr_16 f4 [23]
0.078916624 -0.24574412 0.07428806 0.18089108 0.14491683 0.10767027 0.13817708 0.10367659
0.014869708 -0.014447915 0.13412376 0.120136164 -0.1598155 0.16983691 0.0852439 0.13238308
0.0050415043 0.08389154 0.13614868 -0.035875205 0.050606947 -0.11672324 0.16938074
00000000: 0a9f a13d 59a4 7bbe 5724 983d 833b 393e
00000010: 1465 143e 3b82 dc3d 4b7e 0d3e 6454 d43d
00000020: 13a0 733c f3b6 6cbc bd57 093e f309 f63d
00000030: ada6 23be bae9 2d3e 5b94 ae3d 6e8f 073e
00000040: 3433 a53b 54cf ab3d 8f6a 0b3e e1f1 12bd
00000050: 3b49 4f3d 980c efbd 2572 2d3e

arr_1 f4 [32]
-1.0187087 -0.56132615 -0.49061182 -0.5575562 -0.46626058 -0.516075 -0.65880495 -0.2772801
-0.31354973 -0.6856888 -0.734563 -0.580555 -0.08750921 -0.53336287 -0.48325992 -0.41836485
-0.48365667 -1.0135376 -0.66336834 -0.6695256 -0.57415134 -0.7266198 -0.023788681 -0.42371872
-1.0690405 0.14414221 -0.5357302 -0.7070769 -0.6083195 -0.19331399 -0.989639 -0.23471436
00000000: 0c65 82bf 12b3 0fbf 7931 fbbe 01bc 0ebf
00000010: b5b9 eebe 7e1d 04bf 71a7 28bf a8f7 8dbe
00000020: 9789 a0be 4d89 2fbf 520c 3cbf 419f 14bf
00000030: 0738 b3bd 788a 08bf d86d f7be eb33 d6be
00000040: d9a1 f7be 9abb 81bf 82d2 29bf 0866 2bbf
00000050: 95fb 12bf c103 3abf 7be0 c2bc a9f1 d8be
00000060: 52d6 88bf 049a 133e 9d25 09bf fe02 35bf
00000070: d4ba 1bbf 1af4 45be fb58 7dbf f658 70be

arr_0 f4 [32, 32, 6, 6]
0.679522 -1.0788984 -0.45428473 -0.9366273 -0.38615444 -0.08793304 -0.061854556 -0.5449788
-1.0123923 -0.63434386 -0.6483778 -0.06434616 0.09876296 -0.14844593 -0.16279985 -0.31567526
-0.73497885 -0.3703258 -0.38291016 -0.023042697 0.23328999 -0.5750692 -0.46897152 -0.45364773
-0.8031362 -0.7256853 -0.21004063 -0.31411445 -0.34184518 -0.07761725 -1.6726416 -1.0075325
-0.2330391 0.13232653 -0.31897548 -0.1759789 0.24710198 0.29219157 -0.9885742 0.33262518
-0.29108745 0.08334433 0.281021 0.66563374 0.357961 0.54961276 -0.24847858 -0.37344512
-0.033541195 -0.18076427 -0.5111303 0.5571895 0.13679375 -0.1877692 0.5255315 -0.1909937
-0.6649131 0.2394154 -0.16818836 -0.49370044 -0.26331413 0.06359914 0.72466886 0.34074217
0.08251554 -0.5666481 -0.894017 -0.75819373 0.49705854 -0.11084861 -0.051245894 -0.0055409367
0.47629827 -0.118850335 -0.30221835 -0.49245164 -0.84172755 0.2057655 -0.23110363 0.0958999
0.4590561 0.12733668 -0.014959146 -0.58359194 -0.2955705 -0.10138422 -0.28963077 -0.48141596
-0.72733253 -0.5348729 -0.7795478 -0.039721705 -0.40560234 -1.3506244 -1.6810033 -1.1220833
-0.40354097 -0.93722004 -0.8402389 -1.2981119 -1.8963194 -1.0564034 -0.20089118 -0.3583767
-0.804163 -1.1618296 -1.3282984 -0.29002398 -1.1867781 -1.1981146 -0.009923709 -1.5591723
-1.8686967 -0.98887885 -0.99241567 -1.3030912 -0.6608256 -1.3991311 -1.1631393 -1.0251354
0.175281 0.32800403 0.58854973 -0.12248167 -0.63568276 0.37032354 -0.8037993 0.04817997
-0.15134965 -1.3164282 -0.83998644 0.3668936 0.03580512 -0.07590853 -0.7152315 -0.7570543
0.050182257 0.5683013 -0.15263726 0.058947295 0.14908913 0.31958434 0.23208098 -0.48672843
0.03626993 -0.06356651 -0.17291944 0.17405626 0.36649996 0.2101755 0.34995872 -0.85873306
-0.17181459 -0.11609231 0.7085315 -0.32839963 0.26208565 0.01400127 0.08170405 0.95359915
0.5724352 -0.41992792 -0.48588318 0.3504682 -0.23354883 0.17117815 -0.26209643 -0.67527926
0.34599283 -0.13012831 0.3773447 0.7183767 0.099554144 -0.41589096 0.3074891 0.3510666
-0.009440095 0.71985567 0.23358773 -0.5198916 0.5598115 0.28944468 0.5018466 1.0514835
-0.03293938 0.63497585 -0.16880064 -0.34055993 0.20843293 0.16641173 0.11838455 0.8449979
0.2731417 -0.31945294 -0.62662005 0.28269577 0.77790654 0.3305604 0.11964245 -0.810796
-0.82117045 -0.19796926 -0.22448343 -0.18023416 0.025473446 -0.5676097 -0.8454909 -0.34993362
-0.038359046 0.47645634 -0.9679538 -0.8016148 -1.044266 -1.060671 0.10425413 0.52027875
0.8043438 -0.3810557 -0.5588616 -0.87107164 -0.69388217 -0.48373446 0.76011664 0.14442179
-0.26135567 -0.24654672 -0.5744511 0.4841935 -0.12466942 0.09768421 0.24596591 0.07373679
-1.1380076 -1.1308888 0.32560807 0.4043389 0.10110968 -0.5642944 -0.6688401 -0.80740684
0.25950903 0.26193023 0.3412538 -0.5975895 -0.20385247 -1.1673859 0.29611585 -0.15098974
0.09640791 -0.635468 -0.7474583 -1.4097419 -0.25088954 -0.49383673 -0.14338212 -0.51892984
00000000: 27f5 2d3f 5819 8abf 0298 e8be cfc6 6fbf
00000010: 09b6 c5be 3d16 b4bd 345b 7dbd bb83 0bbf
00000020: 1296 81bf 5c64 22bf 16fc 25bf ebc7 83bd
00000030: 3c44 ca3d 3602 18be 01b5 26be 30a0 a1be
00000040: 9327 3cbf 589b bdbe cd0c c4be 0ac4 bcbc
00000050: 92e3 6e3e bc37 13bf 091d f0be 8444 e8be
00000060: 569a 4dbf 83c6 39bf e414 57be 9cd3 a0be
00000070: 5506 afbe cbf5 9ebd 1f19 d6bf d3f6 80bf
00000080: cda1 6ebe 9b80 073e c150 a3be d033 34be
00000090: 4d08 7d3e 229a 953e 3313 7dbf d94d aa3e
000000a0: 6a09 95be 6fb0 aa3d fce1 8f3e f966 2a3f
000000b0: aa46 b73e 6cb3 0c3f 2b71 7ebe 3334 bfbe
000000c0: 7e62 09bd 451a 39be 6fd9 02bf f9a3 0e3f
000000d0: a913 0c3e 9246 40be 3b89 063f da93 43be
000000e0: bf37 2abf 5029 753e 9239 2cbe 4ec6 fcbe
000000f0: 1cd1 86be 4440 823d e683 393f c275 ae3e
00000100: e8fd a83d da0f 11bf 4cde 64bf fc18 42bf
00000110: 757e fe3e 9904 e3bd 37e7 51bd bf90 b5bb
00000120: 5edd f33e ce67 f3bd 5dbc 9abe 9f22 fcbe
00000130: 757b 57bf 31b4 523e 6ea6 6cbe 2b67 c43d
00000140: 6709 eb3e 8c64 023e 3517 75bc 4866 15bf
00000150: 0455 97be 88a2 cfbd 7c4a 94be 277c f6be
00000160: 7732 3abf 6eed 08bf 7290 47bf 3ab3 22bd
00000170: 1cab cfbe 43e1 acbf 1e2b d7bf 6da0 8fbf
00000180: ec9c cebe a7ed 6fbf e619 57bf 8828 a6bf
00000190: 98ba f2bf 3a38 87bf 6bb6 4dbe 277d b7be
000001a0: a0dd 4dbf d5b6 94bf af05 aabf 067e 94be
000001b0: 58e8 97bf d25b 99bf 0d97 22bc f592 c7bf
000001c0: 7431 efbf 2a27 7dbf f40e 7ebf b1cb a6bf
000001d0: de2b 29bf ba16 b3bf c0e1 94bf a337 83bf
000001e0: dd7c 333e 25f0 a73e 32ab 163f abd7 fabd
000001f0: 1bbc 22bf 0c9b bd3e cac5 4dbf 5c58 453d
00000200: 67fb 1abe b880 a8bf 5a09 57bf 7ad9 bb3e
00000210: 64a8 123d ee75 9bbd 6919 37bf 50ce 41bf
00000220: e98b 4d3d 327c 113f f14c 1cbe b872 713d
00000230: d2aa 183e 8fa0 a33e a3a6 6d3e 7834 f9be
00000240: c78f 143d 292f 82bd cb11 31be ce3b 323e
00000250: e2a5 bb3e 3f38 573e ca2d b33e eed5 5bbf
00000260: 2af0 2fbe cec1 edbd 5262 353f ff23 a8be
00000270: 1730 863e 9565 653c 7454 a73d 131f 743f
00000280: 1d8b 123f cb00 d7be aec5 f8be 9170 b33e
00000290: 6d27 6fbe 5349 2f3e 8131 86be 1adf 2cbf
000002a0: f925 b13e 5b40 05be 5333 c13e 89e7 373f
000002b0: 0be3 cb3d a9ef d4be 366f 9d3e 00bf b33e
000002c0: a1aa 1abc 7648 383f 9f31 6f3e 9e17 05bf
000002d0: ce4f 0f3f 1832 943e 0579 003f 0397 863f
000002e0: 71eb 06bd c78d 223f 13da 2cbe df5d aebe
000002f0: 716f 553e d667 2a3e 9973 f23d c851 583f
00000300: 3bd9 8b3e 568f a3be 2c6a 20bf 80bd 903e
00000310: e224 473f 363f a93e 1a07 f53d 5490 4fbf
00000320: 3a38 52bf 74b8 4abe fcde 65be 4e8f 38be
00000330: b0ad d03c df4e 11bf 1772 58bf 802a b3be
00000340: 601e 1dbd 16f2 f33e d2cb 77bf a136 4dbf
00000350: 82aa 85bf 11c4 87bf 3083 d53d fd30 053f
00000360: 7ae9 4d3f bc19 c3be 8e11 0fbf 8dfe 5ebf
00000370: 43a2 31bf 0bac f7be 0197 423f 4ee3 133e
00000380: 69d0 85be be76 7cbe 3a0f 13bf 36e8 f73e
00000390: ae52 ffbd a90e c83d 7dde 7b3e 5003 973d
000003a0: 3caa 91bf f7c0 90bf 1ab6 a63e 8205 cf3e
000003b0: 9812 cf3d 9975 10bf 1b39 2bbf 37b2 4ebf
000003c0: 5ede 843e b81b 863e d1b8 ae3e a0fb 18bf
000003d0: b4be 50be e76c 95bf 7f9c 973e 0e9d 1abe
000003e0: 8371 c53d 08ae 22bf 6d59 3fbf 6c72 b4bf
000003f0: 9874 80be 2bd8 fcbe c3d2 12be 96d8 04bf

arr_3 f4 [32]
-3.7538712 -3.3131733 -12.148838 -5.713181 -3.9321117 1.8715363 -5.431628 -0.85095173
-1.7820221 -5.4276843 -1.6330974 -0.059760835 -1.7836789 -4.5559955 1.6483115 1.1157513
1.8465053 -6.7225633 5.055602 -6.15439 5.545149 -5.02464 -6.192426 -5.7065854
-4.2500334 -1.9672166 -1.2533214 -0.12735426 -0.53204274 -8.745897 -0.3075025 -1.9228477
00000000: 6d3f 70c0 080b 54c0 a461 42c1 61d2 b6c0
00000010: b8a7 7bc0 808e ef3f e6cf adc0 f9d7 59bf
00000020: 4d19 e4bf 97af adc0 5609 d1bf c7c7 74bd
00000030: 974f e4bf b7ca 91c0 dffb d23f f0d0 8e3f
00000040: 495a ec3f 3d1f d7c0 7ec7 a140 c3f0 c4c0
00000050: dc71 b140 dac9 a0c0 5b28 c6c0 599c b6c0
00000060: 4600 88c0 c1cd fbbf d66c a0bf 2869 02be
00000070: f433 08bf 32ef 0bc1 f870 9dbe e01f f6bf

arr_2 f4 [32]
1.1987942 1.3558937 1.5572739 1.4800284 1.1022621 1.1554337 1.1226223 1.2983012
1.1741486 1.2333554 1.1887912 1.165628 1.2186513 1.1688635 1.1128317 1.238111
1.1499286 1.5904434 1.054011 1.264944 1.1419283 1.8435835 1.4707792 1.1160268
1.6495295 1.1722901 1.4009337 1.1993994 1.2969077 1.3655648 1.4754466 1.1006279
00000000: 1772 993f ed8d ad3f c054 c73f 9271 bd3f
00000010: ed16 8d3f 40e5 933f 16b2 8f3f bc2e a63f
00000020: 804a 963f 97de 9d3f 4f2a 983f 4c33 953f
00000030: c4fc 9b3f 529d 953f 4571 8e3f 6c7a 9e3f
00000040: dc30 933f a693 cb3f d5e9 863f afe9 a13f
00000050: b52a 923f 8bfa eb3f 7e42 bc3f f7d9 8e3f
00000060: c823 d33f 9a0d 963f cc51 b33f eb85 993f
00000070: 1201 a63f d4ca ae3f 6fdb bc3f 60e1 8c3f

arr_5 f4 [32, 32, 6, 6]
1.6170583 0.4866573 -0.1588765 1.4813052 0.4954671 1.524067 0.44365823 1.6595187
0.7408255 -0.29211134 0.6938755 1.6917987 0.71152455 0.87398666 0.21334603 -0.039559122
0.14991762 0.73392045 0.25511053 0.8021264 3.303663e-05 -0.9124742 -0.2806921 -0.20132042
-0.09020502 0.51223165 -0.10644195 0.009696554 -0.03765484 0.49457237 0.37561315 -0.42105794
0.16162233 0.114053644 -0.665038 -1.0181794 -0.7115898 -1.3217742 -0.1713102 -0.41160354
0.6350887 0.17272659 -0.72049826 -0.11817167 -0.19162355 -1.1598853 0.12921825 -0.561033
0.37101328 0.60129976 0.056833524 0.051466852 -0.6947572 -1.5494373 0.36151147 1.1689565
0.64253116 -0.10864606 -0.54728174 -0.5728661 0.24378778 0.6623687 0.5014029 -0.19274694
1.0075825 -0.10328519 -0.15212527 0.20575276 0.59248656 0.1419571 0.3692622 1.2238816
-1.4688857 -0.14133197 0.45364028 0.5044451 0.78456676 -0.7015299 -0.15520157 -0.5645864
-0.19663909 0.74999297 0.39388964 0.4802683 0.510758 -1.0488842 -0.36692995 0.257098
0.008181448 -0.41172624 -0.958647 -0.5591844 0.2795669 -0.56822044 -0.84220546 0.20564505
-0.51394117 -0.025571752 1.3584586 -1.0830142 -1.0695158 0.25214574 -1.5595798 0.17932294
0.601122 -0.25307384 -0.19102791 0.13478182 -0.28697422 -0.5080799 0.15319565 -0.24404629
1.2241195 1.1952416 0.07732612 1.2540661 0.8088418 1.2419559 -0.0035586986 -0.023168232
1.0640041 0.05657751 -0.20200671 0.66048247 0.94150436 0.2987543 -0.043265 -1.168035
0.088043354 0.23677658 -0.26117423 -0.23379508 0.32584912 -1.1032873 -0.2855258 -0.96508193
-0.6157412 0.7741999 0.06407248 -0.57061815 0.01232691 -0.5331051 -0.049859606 0.04534029
0.17369212 0.24786435 -1.2762768 -0.54326487 -1.1000818 -1.5354338 1.1690937 -0.28522635
-0.6777478 -0.64268893 0.34528616 -0.5166558 0.13866614 1.1292069 -0.3130353 -0.19179796
-0.11027081 -0.55935913 -0.13006462 -0.35338494 -0.5506243 0.03390903 0.4505781 -0.61652
-0.5881241 0.56455547 0.11191794 -0.7684246 -0.14909665 -0.74901813 -0.74436116 -0.11880757
-0.26939628 -0.35251117 -0.6976053 0.31268743 -0.011040179 1.0409262 0.21713443 -0.48842567
-1.4284973 -0.4245416 -0.57494664 -0.17715868 -0.37916264 -0.28737596 -0.20138831 0.083442576
-0.22957481 0.22921024 -0.3399818 -0.9872466 0.021788457 -0.7467912 -0.10846884 -0.19190641
0.33296272 -0.30083722 -0.5711753 -0.6854915 -0.07891864 0.45764986 1.009253 0.17690371
0.025559748 0.03967882 0.014502518 -0.23526463 -0.5787703 -0.1850424 0.37302917 -0.20036007
0.44131827 0.45667315 0.4373269 -0.39065865 0.91492313 -1.0167845 1.6668005 -0.4889191
0.08494071 0.07714637 0.57478404 -0.5933561 0.4303605 0.93330616 -0.3247043 -0.42318317
0.3354524 -0.8773154 0.642125 0.23856188 0.3860961 -0.917786 -0.13307093 -0.78427845
0.44521654 0.57218045 0.7377756 0.2998998 -0.4776347 -1.2122455 0.3389752 0.1603138
-0.20143382 -0.43612346 -0.14717355 -0.36613408 -0.43319422 -0.52074283 -0.35625955 -0.15120241
00000000: c4fb ce3f 252b f93e 85b0 22be 699b bd3f
00000010: ddad fd3e a114 c33f 2c27 e33e 1c6b d43f
00000020: bda6 3d3f 9e8f 95be d3a1 313f dc8c d83f
00000030: 7926 363f 97bd 5f3f 6277 5a3e bf08 22bd
00000040: 0184 193e 36e2 3b3f d99d 823e 2858 4d3f
00000050: d090 0a38 e997 69bf e0b6 8fbe f126 4ebe
00000060: 69bd b8bd 9d21 033f 3dfe d9bd 4cde 1e3c
00000070: f63b 1abd 9738 fd3e 5e50 c03e e894 d7be
00000080: 5380 253e f594 e93d ee3f 2abf b453 82bf
00000090: c02a 36bf e62f a9bf f16b 2fbe b3bd d2be
000000a0: 2c95 223f 3ddf 303e 9372 38bf fd03 f2bd
000000b0: f738 44be 1f77 94bf ca51 043e dc9f 0fbf
000000c0: 74f5 bd3e c8ee 193f 45ca 683d e8ce 523d
000000d0: 9cdb 31bf f653 c6bf 0818 b93e 5ea0 953f
000000e0: ec7c 243f d381 debd a81a 0cbf 5aa7 12bf
000000f0: 81a3 793e ff90 293f f15b 003f 745f 45be
00000100: 77f8 803f 3087 d3bd bac6 1bbe dab0 523e
00000110: 33ad 173f 345d 113e ef0f bd3e 27a8 9c3f
00000120: 7204 bcbf 54b9 10be 8a43 e83e 5023 013f
00000130: 5ed9 483f 7797 33bf 29ed 1ebe bc88 10bf
00000140: c25b 49be 8aff 3f3f e7ab c93e bae5 f53e
00000150: 09c1 023f d641 86bf 3ede bbbe 59a2 833e
00000160: 7b0b 063c c8cd d2be e469 75bf b526 0fbf
00000170: 6523 8f3e e576 11bf c79a 57bf 9e94 523e
00000180: a691 03bf da7b d1bc f9e1 ad3f 36a0 8abf
00000190: e5e5 88bf 3f19 813e 50a0 c7bf 6fa0 373e
000001a0: 22e3 193f e592 81be d29c 43be 3f04 0a3e
000001b0: 49ee 92be 8611 02bf 52df 1c3e 45e7 79be
000001c0: f3af 9c3f adfd 983f 285d 9e3d 3d85 a03f
000001d0: 4210 4f3f 69f8 9e3f 0e39 69bb 4ecb bdbc
000001e0: 4931 883f d2bd 673d d9da 4ebe 6115 293f
000001f0: 6e06 713f 53f6 983e a436 31bd 2c82 95bf
00000200: 1350 b43d 8f75 723e a1b8 85be fa67 6fbe
00000210: b2d5 a63e 8538 8dbf 7030 92be 9c0f 77bf
00000220: 37a1 1dbf f731 463f 6f38 833d 0814 12bf
00000230: cff6 493c 9379 08bf 9639 4cbd bdb6 393d
00000240: 59dc 313e 27d0 7d3e 0a5d a3bf 6813 0bbf
00000250: 7bcf 8cbf 1889 c4bf dda4 953f 3009 92be
00000260: e180 2dbf 4387 24bf 59c9 b03e 8e43 04bf
00000270: 7ffe 0d3e da89 903f 2a46 a0be af66 44be
00000280: aad5 e1bd 2932 0fbf a92f 05be dfee b4be
00000290: b7f5 0cbf 32e4 0a3d 2cb2 e63e 41d4 1dbf
000002a0: 4d8f 16bf b586 103f 3c35 e53d 79b7 44bf
000002b0: cbac 18be a7bf 3fbf 748e 3ebf 6251 f3bd
000002c0: 4fee 89be 587c b4be 4396 32bf 9118 a03e
000002d0: dee1 34bc 123d 853f 7d58 5e3e ee12 fabe
000002e0: 00d9 b6bf 845d d9be b42f 13bf 1669 35be
000002f0: 9b21 c2be f122 93be bd38 4ebe f1e3 aa3d
00000300: a915 6bbe 17b6 6a3e 1812 aebe 31bc 7cbf
00000310: b57d b23c b52d 3fbf e924 debd 1d83 44be
00000320: 177a aa3e 5607 9abe 8b38 12bf 5f7c 2fbf
00000330: 19a0 a1bd 1551 ea3e 342f 813f 3f26 353e
00000340: ad62 d13c 4286 223d f89b 6d3c 36e9 70be
00000350: 4a2a 14bf c17b 3dbe aefd be3e 312b 4dbe
00000360: 78f4 e13e 10d1 e93e 50e9 df3e 6904 c8be
00000370: 6738 6a3f ff25 82bf b859 d53f 9b53 fabe
00000380: 65f5 ad3d ebfe 9d3d 0c25 133f 2fe6 17bf
00000390: 3658 dc3e 27ed 6e3f a43f a6be 77ab d8be
000003a0: 6bc0 ab3e be97 60bf 4e62 243f 9149 743e
000003b0: 63ae c53e 06f4 6abf bf43 08be 79c6 48bf
000003c0: 6cf3 e33e 6b7a 123f ddde 3c3f 778c 993e
000003d0: 898c f4be dc2a 9bbf 288e ad3e 4d29 243e
000003e0: ab44 4ebe 934b dfbe aab4 16be ed75 bbbe
000003f0: a2cb ddbe 674f 05bf a767 b6be ced4 1abe

arr_4 f4 [32]
0.06897231 0.051032808 0.038053885 0.040753406 0.057796247 0.0485898 0.05808066 0.041272953
0.038044367 0.0506941 0.044574108 0.056666724 0.029146593 0.049615286 0.046395134 0.038160753
0.053682838 0.0470782 0.040827334 0.057775352 0.04580161 0.043675173 0.03738223 0.057412867
0.040275574 0.035880297 0.0421631 0.041309062 0.03924356 0.03901209 0.041525315 0.044233643
00000000: 5b41 8d3d c707 513d 64de 1b3d 0bed 263d
00000010: c2bb 6c3d 1906 473d fce5 6d3d d40d 293d
00000020: 69d4 1b3d 9ea4 4f3d 5793 363d 5e1b 683d
00000030: d6c4 ee3c 6639 4b3d d308 3e3d 734e 1c3d
00000040: 89e2 5b3d 12d5 403d 903a 273d d9a5 6c3d
00000050: 789a 3b3d bde4 323d 1c1e 193d c129 6b3d
00000060: 00f8 243d 38f7 123d 37b3 2c3d b133 293d
00000070: dbbd 203d 24cb 1f3d 7316 2a3d 562e 353d

arr_7 f4 [32]
1.2596726 1.2496631 1.2375041 1.252744 1.2980828 1.4219637 1.1878029 1.2545
1.2194288 1.3561522 1.2683696 1.1938995 1.2775228 1.2117578 1.1992897 1.1828022
1.2679572 1.2904953 1.3411317 1.4433045 1.3526764 1.3572206 1.2876582 1.2490058
1.5361774 1.3221745 1.1786689 1.2350312 1.1003418 1.1148806 1.1736196 1.2229729
00000000: f43c a13f f6f4 9f3f 8966 9e3f ea59 a03f
00000010: 9427 a63f e802 b63f ed09 983f 7593 a03f
00000020: 3e16 9c3f 6596 ad3f ef59 a23f b3d1 983f
00000030: de85 a33f e11a 9b3f 5382 993f 1066 973f
00000040: 6c4c a23f f32e a53f 34aa ab3f 34be b83f
00000050: 8024 ad3f 68b9 ad3f fcd1 a43f 6cdf 9f3f
00000060: 76a1 c43f 043d a93f 9fde 963f 8115 9e3f
00000070: 00d8 8c3f 68b4 8e3f 2b39 963f 608a 9c3f

arr_6 f4 [32]
-0.5679119 -0.85135627 -0.46309307 -0.6218264 -0.717291 -0.71436375 -0.7004163 -0.8423594
-0.48966485 -1.0893235 -0.65809685 -0.57936066 -0.6729957 -0.60011345 -0.5702755 -0.5504372
-0.38752514 -0.93483925 -0.6234475 -0.6334327 -0.8186742 -0.7683486 -0.94661283 -0.6755514
-0.4585974 -0.96726894 -0.69698405 -0.5636984 -0.5077343 -0.6948678 -0.7664668 -0.85149825
00000000: ad62 11bf 7cf2 59bf 891a edbe 0430 1fbf
00000010: 62a0 37bf 8be0 36bf 7c4e 33bf dea4 57bf
00000020: 5ab5 fabe f46e 8bbf 0979 28bf fb50 14bf
00000030: 7249 2cbf 09a1 19bf 93fd 11bf 74e9 0cbf
00000040: b269 c6be a051 6fbf 419a 1fbf a528 22bf
00000050: a294 51bf 7eb2 44bf 3855 72bf f0f0 2cbf
00000060: 47cd eabe f09e 77bf 8c6d 32bf 8a4e 10bf
00000070: e0fa 01bf dbe2 31bf 2b37 44bf cafb 59bf

arr_9 f4 [32]
0.05311259 0.052464485 0.050761696 0.05708186 0.06043081 0.052072905 0.059246086 0.05284635
0.04777866 0.051873032 0.054685123 0.055106357 0.053425264 0.0554479 0.05888286 0.050372824
0.050431423 0.05569028 0.05490397 0.047410537 0.050162908 0.054774653 0.056900326 0.051933512
0.0399825 0.04963133 0.053554006 0.05371245 0.05801844 0.063959055 0.06068512 0.061743163
00000000: 968c 593d 00e5 563d 7feb 4f3d abce 693d
00000010: 4c86 773d 664a 553d 06ac 723d 6a75 583d
00000020: 8eb3 433d d178 543d 82fd 5f3d 34b7 613d
00000030: 73d4 5a3d 561d 633d 272f 713d bc53 4e3d
00000040: 2e91 4e3d 7e1b 643d fce2 603d 8d31 423d
00000050: 9f77 4d3d 635b 603d 5110 693d 3cb8 543d
00000060: b1c4 233d 394a 4b3d 725b 5b3d 9601 5c3d
00000070: bea4 6d3d f7fc 823d f690 783d 66e6 7c3d

arr_8 f4 [32]
-12.315764 -5.4722695 -4.232997 -9.435051 -11.582767 -12.000825 1.9647529 -4.353419
-9.490148 -13.470822 -5.445847 -1.5575557 -14.973704 4.6753163 -11.068332 2.8708436
-4.16169 0.038686905 -13.926934 -10.728624 2.4613986 2.1823666 -4.039029 0.267656
6.70426 -7.0611687 -12.27847 -7.914463 -12.745952 -12.627045 -4.3270407 -11.1068735
00000000: 5f0d 45c1 d51c afc0 b674 87c0 f8f5 16c1
00000010: 0353 39c1 6103 40c1 067d fb3f 354f 8bc0
00000020: a5d7 17c1 7d88 57c1 6144 aec0 fc5d c7bf
00000030: 4b94 6fc1 319c 9540 e317 31c1 e7bb 3740
00000040: 912c 85c0 2976 1e3d b9d4 5ec1 72a8 2bc1
00000050: 8e87 1d40 e5ab 0b40 ba3f 81c0 350a 893e
00000060: 4c89 d640 18f5 e1c0 9d74 44c1 4843 fdc0
00000070: 6bef 4bc1 6008 4ac1 1e77 8ac0 c1b5 31c1
