pretrained_model/MSRA_pretrained/p0/params/-1_dis_params.npz (npz, 603798 bytes, 26 tensors)

arr_24 f4 [32]
0.3927955 0.38678044 0.37330294 0.39907172 0.4120864 0.3899708 0.4416862 0.35648477
0.3993292 0.44947562 0.4065166 0.38324177 0.4097259 0.38085973 0.3604223 0.3708948
0.40013674 0.4504774 0.38163877 0.3609048 0.42517862 0.4316305 0.35588953 0.3635775
0.3957037 0.43573558 0.37761223 0.45566794 0.3915642 0.37118703 0.35913044 0.45573583
00000000: 7e1c c93e 1608 c63e 9021 bf3e 2153 cc3e
00000010: fdfc d23e 41aa c73e b224 e23e 2c85 b63e
00000020: e074 cc3e ab21 e63e f222 d03e 4438 c43e
00000030: 98c7 d13e 0c00 c33e 4689 b83e ece5 bd3e
00000040: b9de cc3e f9a4 e63e 2866 c33e 84c8 b83e
00000050: 03b1 d93e acfe dc3e 2737 b63e d526 ba3e
00000060: ad99 ca3e bc18 df3e 6456 c13e 4f4d e93e
00000070: 1a7b c83e 3a0c be3e f2df b73e 3556 e93e

arr_25 f4 [512, 1]
-1.2460369 0.5627821 -0.15168704 0.07032501 -0.12540469 -0.12414328 -0.06573161 -0.06503527
0.5800919 -0.13138331 0.059295174 0.5515184 0.4670595 0.71228206 0.10339183 -0.100686654
0.10411438 0.03659139 0.60037345 -0.98183525 0.052436553 -0.14103673 -0.15493819 0.6208708
0.012236308 -0.11437431 -0.098767124 0.49932513 -0.7489682 0.4164626 0.14924297 0.7481594
0.8190608 -0.16892643 -0.10422924 0.5387221 -0.2867214 0.012718183 -0.14920206 0.3079067
-0.54747015 -0.040979646 0.53978246 -0.64973223 0.6359415 0.31422195 -0.9439649 0.5114601
0.83230287 -0.033000536 -0.18822289 0.5125907 -0.23173061 -0.033179555 -0.08418225 0.061938453
-0.049363498 0.32463488 -0.12717006 0.13090292 0.8331663 -0.5538579 0.30993587 -0.39706463
-0.24693403 -0.2507621 -0.1078756 -0.64116997 0.050007254 0.12903512 0.09456543 -0.2964246
0.26334402 0.12869436 -0.0878264 0.37678432 -0.78314537 -0.41549167 -0.069381356 0.60807395
0.102603614 -0.011061521 -0.079841055 0.0056500183 -0.71540886 0.12514633 0.110609494 -0.72184795
-0.39192596 0.125288 0.057064112 -0.6915294 0.84205 -0.8899767 -0.6940639 1.0798923
-0.9837109 0.39404258 0.10300429 -0.14324316 0.7094354 -0.13990533 0.01604725 -0.23165244
0.48717624 -0.31939945 -0.35237807 -0.004108506 -0.7979548 0.44419917 -0.39072028 0.58678377
-0.36100733 0.6619086 -0.01510506 -0.93894595 -0.17444494 -0.10529615 -0.01936418 0.59051335
-0.31218705 0.6207001 -0.129915 0.029878763 0.5298194 -0.5588072 0.36874124 0.6585545
-0.6655703 0.025654044 0.22436568 -0.015300633 -0.53758234 0.1663325 0.12116759 -0.038569953
-0.06823102 -0.497408 0.1844102 -0.16109101 -0.4465143 0.082214214 -0.6438632 -0.3627009
-0.9577481 -0.06697842 0.5156544 -0.8637883 0.73354685 0.15787116 0.14994408 -0.13061258
0.18545763 -0.30501434 0.13350163 -0.14483023 -0.89633566 -0.03255731 0.19522756 -0.21552248
-0.7172436 -0.66912895 0.30911076 -0.43215504 -0.13512222 0.31738484 0.13826472 -0.4339307
-0.16602468 0.08228168 -0.1440956 0.9669176 0.72752094 -0.12084122 0.84969306 -0.8913424
0.80090266 0.17067407 -0.114839576 0.74808586 0.065843545 -0.02572436 0.075911164 -0.054296423
-0.39907148 -0.10780152 -0.061822254 -0.23155415 0.87316597 -0.5671657 0.7254288 0.6687536
-0.88136876 0.2331273 0.027503565 -0.52232987 -0.5843198 -0.7119066 0.0013520997 -0.0358335
-0.5157334 0.39841914 0.118548445 0.031876285 -0.49667314 0.52401006 0.20899513 0.22057559
-0.49215698 -0.021104995 -0.061091814 0.28681958 0.8310609 -0.051021863 -0.0060481234 -0.14977255
-0.06852701 -0.15252097 -0.03229227 -0.027249554 0.82104486 0.74523246 -0.5370903 0.546298
-0.7476693 -0.42623106 -0.6952625 0.22355752 -0.5414314 0.022569802 0.077091895 -0.03702772
0.19707982 -0.054546792 0.13574275 0.23250939 0.64181703 0.46729973 -0.32547382 -0.23874837
-0.0054791975 -0.15266187 0.19161746 -0.30882913 -0.29802126 0.1403729 -0.5306284 -0.16027464
0.3059856 0.21296956 0.3460822 0.653702 0.07029365 -0.27434534 0.9987991 -0.84298176
00000000: 237e 9fbf 7d12 103f d953 1bbe 8f06 903d
00000010: 166a 00be d53e febd 4b9e 86bd 3631 85bd
00000020: e780 143f 5989 06be 7fdf 723d 4f30 0d3f
00000030: 6c22 ef3e 1e58 363f 19bf d33d ce34 cebd
00000040: ec39 d53d dae0 153d 13b2 193f 8e59 7bbf
00000050: b6c7 563d ef6b 10be 1ea8 1ebe 64f1 1e3f
00000060: cc7a 483c 143d eabd 6b46 cabd 8ba7 ff3e
00000070: 61bc 3fbf 963a d53e 26d3 183e 6087 3f3f
00000080: f8ad 513f 0dfb 2cbe 2476 d5bd b1e9 093f
00000090: 26cd 92be ed5f 503c 6dc8 18be f2a5 9d3e
000000a0: 0127 0cbf 46da 27bd 2f2f 0a3f da54 26bf
000000b0: 10cd 223f b3e1 a03e afa7 71bf 0def 023f
000000c0: cd11 553f 922b 07bd 80bd 40be 2539 033f
000000d0: ca4a 6dbe 49e7 07bd be67 acbd 2db3 7d3d
000000e0: 6131 4abd 8b36 a63e de38 02be 6a0b 063e
000000f0: 634a 553f a2c9 0dbf eaaf 9e3e 0e4c cbbe
00000100: 46dc 7cbe e463 80be e2ed dcbd b723 24bf
00000110: 68d4 4c3d c821 043e 85ab c13d f7c4 97be
00000120: 07d5 863e 74c8 033e 54de b3bd e0e9 c03e
00000130: 377c 48bf 53bb d4be d017 8ebd bcaa 1b3f
00000140: d821 d23d 623b 35bc b583 a3bd ca23 b93b
00000150: 0925 37bf 5c26 003e 3b87 e23d 07cb 38bf
00000160: 85aa c8be 7f4b 003e 0fbc 693d 1208 31bf
00000170: 9790 573f 83d5 63bf 2cae 31bf e939 8a3f
00000180: 7ad4 7bbf f3bf c93e eaf3 d23d 56ae 12be
00000190: 8f9d 353f 5843 0fbe 8675 833c 4c36 6dbe
000001a0: 2a6f f93e 5388 a3be e66a b4be a5a0 86bb
000001b0: c446 4cbf 136e e33e 7d0c c8be 7637 163f
000001c0: f4d5 b8be d872 293f 377b 77bc c35e 70bf
000001d0: b2a1 32be 82a5 d7bd a1a1 9ebc e22b 173f
000001e0: fbd6 9fbe 34e6 1e3f 7008 05be 4fc4 f43c
000001f0: 3fa2 073f fd0d 0fbf a7cb bc3e 0797 283f
00000200: d162 2abf 6e28 d23c 1ec0 653e 82af 7abc
00000210: ff9e 09bf 1153 2a3e b726 f83d 87fb 1dbd
00000220: b4bc 8bbd 43ac febe 07d6 3c3e 0bf5 24be
00000230: 869d e4be ed5f a83d 38d4 24bf efb3 b9be
00000240: fb2e 75bf fb2b 89bd ed01 043f 3b21 5dbf
00000250: bac9 3b3f faa8 213e f18a 193e 4ebf 05be
00000260: 9be8 3d3e d72a 9cbe a7b4 083e 604e 14be
00000270: 4176 65bf d05a 05bd bce9 473e edb1 5cbe
00000280: 479d 37bf 094c 2bbf c443 9e3e 6d43 ddbe
00000290: 7b5d 0abe 4480 a23e 4495 0d3e 2a2c debe
000002a0: 6002 2abe 4c83 a83d cc8d 13be e987 773f
000002b0: d03e 3a3f 9a7b f7bd 7c85 593f 042f 64bf
000002c0: f507 4d3f 2fc5 2e3e 0331 ebbd 8e82 3f3f
000002d0: fbd8 863d e5bb d2bc 5077 9b3d ed65 5ebd
000002e0: 1953 ccbe 0bc7 dcbd 5539 7dbd 881c 6dbe
000002f0: ce87 5f3f c531 11bf b4b5 393f 7033 2b3f
00000300: 62a1 61bf ecb8 6e3e 284f e13c 69b7 05bf
00000310: fb95 15bf 833f 36bf f038 b13a 26c6 12bd
00000320: 1b07 04bf 98fd cb3e 87c9 f23d b590 023d
00000330: f14b febe 8625 063f d202 563e 91de 613e
00000340: 00fc fbbe 62e4 acbc 693b 7abd 04da 923e
00000350: 68c0 543f 4dfc 50bd 562f c6bb fa5d 19be
00000360: e457 8cbd 752e 1cbe e644 04bd 753a dfbc
00000370: ff2f 523f 8ec7 3e3f c07e 09bf 30da 0b3f
00000380: 4167 3fbf f53a dabe b9fc 31bf 43ec 643e
00000390: 409b 0abf 4ee4 b83c 5be2 9d3d 61aa 17bd
000003a0: 4bcf 493e 756c 5fbd 2600 0b3e f116 6e3e
000003b0: 1f4e 243f e941 ef3e 81a4 a6be 747a 74be
000003c0: d78a b3bb 6553 1cbe 5e37 443e da1e 9ebe
000003d0: 3e96 98be eabd 0f3e 43d7 07bf 091f 24be
000003e0: 25aa 9c3e b114 5a3e b031 b13e 0459 273f
000003f0: 1ef6 8f3d fe76 8cbe 4cb1 7f3f a7cd 57bf

arr_20 f4 [32, 32, 6, 6]
-0.12898569 0.19913755 0.10593693 0.17696343 0.26253605 0.030891525 0.06936468 0.1791455
-0.17312066 -0.096791215 -0.36202186 -0.109421596 0.048598815 -0.022990622 0.27674922 -0.20098153
-0.22852482 -0.10144234 -0.00044491794 0.41224682 -0.058641687 0.47015455 -0.043662164 0.17595285
0.045448933 -0.011885398 -0.30108503 -0.054002106 -0.044118334 -0.29546198 -0.106826626 -0.17461711
0.04920055 0.18655972 -0.17995046 0.20299393 0.15728013 -0.13166702 -0.37680244 -0.36729196
-0.0014623451 -0.107873686 -0.124871284 0.12958093 0.1543404 0.19633162 0.21463355 0.03992764
-0.21863402 0.014580727 0.03728993 0.24743482 -0.10384012 0.0883478 0.19976266 0.24202079
0.24694958 -0.41607556 0.131309 0.19646433 0.08286592 0.124745436 -0.04797219 -0.6455809
-0.036477108 -0.10243655 -0.013348319 -0.19574507 0.0469523 -0.35985863 0.19528812 -0.14859144
-0.04667175 0.23767053 0.16867283 -0.14611788 0.24364552 -0.022954684 0.25180197 0.3785481
-0.29767725 0.28802487 -0.123539716 -0.069512755 -0.057787046 -0.1864824 -0.015637608 -0.013745022
0.23296753 -0.024802463 -0.088908315 0.13787714 -0.12282237 -0.026395474 -0.122204795 0.15729645
-0.17743325 0.2864317 -0.03574545 0.17961758 -0.20035939 0.05144429 -0.12422053 -0.1892122
-0.06561718 -0.039348096 -0.030847205 -0.21273476 -0.1846133 -0.17808966 -0.046636898 -0.10529405
-0.34301844 -0.017696664 -0.2601403 -0.42876837 -0.09555334 0.14517376 -0.07692264 -0.097522534
0.21131976 0.06447298 0.06940386 0.12587008 0.2811678 -0.059007175 0.18286356 0.15049368
0.03906587 -0.20971954 0.29090104 -0.0024418014 0.018647503 0.19720177 0.08767648 0.3439956
-0.011807109 -0.14974368 -0.24720263 -0.21748446 -0.019807624 -0.24881282 -0.31992707 -0.1977866
0.029809851 0.049801525 -0.030720606 0.04640701 0.0857761 0.072930366 0.0764731 0.33303267
-0.18385334 0.28124383 -0.14014865 0.2681921 0.12185247 -0.08075003 0.016221678 0.13406846
-0.09218389 0.02436856 0.030851083 -0.08546491 -0.061067455 0.3354412 -0.8574608 -0.055710442
0.5674833 0.5452541 0.25109708 0.37627476 0.54683983 0.33098888 -0.18370225 -0.09830646
0.02250467 0.24746174 0.05043464 0.23928487 -0.004792981 -0.028340412 0.4119958 0.0057610897
-0.014511861 -0.20329162 0.2938856 0.073796555 -0.008251894 0.038291734 -0.17996086 0.22179992
0.19224377 -0.043997362 0.042332508 -0.082504995 0.11113671 -0.16419084 -0.32248396 -0.114571705
-0.04152201 0.321541 -0.028043116 -0.0041647553 -0.14917277 -0.16877773 -0.048106257 -0.31466627
0.15847315 0.0062530315 0.09452626 -0.1549818 -0.269283 -0.15808734 -0.22134806 -0.04287812
0.17140335 -0.20268983 0.012248228 0.24137527 -0.03238289 0.49504894 -0.12014973 -0.1954917
-0.15866013 -0.1263644 -0.09266631 0.29218906 -0.058328923 0.19086754 -0.06929338 -0.0057496936
0.13787434 -0.038919553 -0.23712857 0.18562335 -0.14923188 0.10062267 0.28714827 -0.14637741
0.0028199337 -0.19580933 0.017497 -0.012631483 -0.047538895 -0.14529958 -0.18861464 -0.04837821
-0.250347 -0.07056842 -0.21852428 -0.018934876 -0.3492714 -0.097495005 -0.28336164 -0.4418677
00000000: d314 04be b7ea 4b3e 76f5 d83d e735 353e
00000010: 206b 863e 3910 fd3c 120f 8e3d eb71 373e
00000020: 8b46 31be 793a c6bd ee5a b9be 6e18 e0bd
00000030: 8d0f 473d d456 bcbc 13b2 8d3e 1ace 4dbe
00000040: 6902 6abe 00c1 cfbd e043 e9b9 0412 d33e
00000050: 4432 70bd 19b8 f03e 19d7 32bd fc2c 343e
00000060: a928 3a3d f9ba 42bc d127 9abe 5031 5dbd
00000070: 6db5 34bd cb46 97be ebc7 dabd d4ce 32be
00000080: 8486 493d 8309 3f3e ef44 38be a4dd 4f3e
00000090: 0b0e 213e b8d3 06be 40ec c0be b10d bcbe
000000a0: 29ac bfba e1ec dcbd 84bc ffbd ddb0 043e
000000b0: 690b 1e3e 280b 493e e6c8 5b3e 2a8b 233d
000000c0: 99e1 5fbe 00e4 6e3c 53bd 183d 8e5f 7d3e
000000d0: 21aa d4bd b1ef b43d 958e 4c3e 4cd4 773e
000000e0: 5ae0 7c3e db07 d5be de75 063e f22d 493e
000000f0: 9cb5 a93d 897a ff3d 7d7e 44bd ca44 25bf
00000100: 0569 15bd 41ca d1bd e8b2 5abc 6571 48be
00000110: 0e51 403d 643f b8be 9cf9 473e 5b28 18be
00000120: e02a 3fbd e75f 733e 92b8 2c3e ed9f 15be
00000130: 367e 793e 760b bcbc 30ec 803e 0ed1 c13e
00000140: 2769 98be ff77 933e 6402 fdbd b45c 8ebd
00000150: 1cb2 6cbd 3ef5 3ebe 711a 80bc cd32 61bc
00000160: 0a8f 6e3e 892e cbbc 9015 b6bd aa2f 0d3e
00000170: 4b8a fbbd 523b d8bc 8246 fabd 5212 213e
00000180: 10b1 35be 2da7 923e d269 12bd aced 373e
00000190: 032b 4dbe 3fb7 523d 5567 febd d8c0 41be
000001a0: 4d62 86bd 782b 21bd 47b3 fcbc 24d7 59be
000001b0: 450b 3dbe 235d 36be 5506 3fbd 68a4 d7bd
000001c0: 1da0 afbe 98f8 90bc 1c31 85be 8787 dbbe
000001d0: 78b1 c3bd 6ea8 143e 9e89 9dbd e5b9 c7bd
000001e0: 3564 583e 690a 843d 9c23 8e3d 16e4 003e
000001f0: 3af5 8f3e 82b1 71bd 9640 3b3e 041b 1a3e
00000200: 8903 203d b8c0 56be fbf0 943e a106 20bb
00000210: a6c2 983c 43ef 493e ba8f b33d 3120 b03e
00000220: 9b72 41bc 6856 19be b022 7dbe 3fb4 5ebe
00000230: 9943 a2bc cac8 7ebe 7bcd a3be 9288 4abe
00000240: ca33 f43c affc 4b3d c8a9 fbbc 4715 3e3d
00000250: 61ab af3d 845c 953d ee9d 9c3d 4283 aa3e
00000260: 0d44 3cbe 31ff 8f3e 2183 0fbe 7a50 893e
00000270: ca8d f93d 4660 a5bd 53e3 843c 3e49 093e
00000280: e8ca bcbd 93a0 c73c 69bb fc3c 3a08 afbd
00000290: de21 7abd f3be ab3e 8d82 5bbf a230 64bd
000002a0: 9646 113f c695 0b3f cc8f 803e 16a7 c03e
000002b0: b2fd 0b3f 6077 a93e 711c 3cbe e654 c9bd
000002c0: b75b b83c 9c66 7d3e 8e94 4e3d 1807 753e
000002d0: 700e 9dbb 272a e8bc 1df1 d23e 86c7 bc3b
000002e0: 28c3 6dbc ae2b 50be 2c78 963e a622 973d
000002f0: f432 07bc cbd7 1c3d a947 38be 851f 633e
00000300: 8ddb 443e 9436 34bd da64 2d3d 61f8 a8bd
00000310: a59b e33d a521 28be 9e1c a5be 92a4 eabd
00000320: fc12 2abd 06a1 a43e adba e5bc 8078 88bb
00000330: bfc0 18be 12d4 2cbe 110b 45bd f01b a1be
00000340: c946 223e 3be6 cc3b fc96 c13d 8db3 1ebe
00000350: 76df 89be a6e1 21be 11a9 62be f8a0 2fbd
00000360: 5c84 2f3e ec8d 4fbe cbac 483c 142b 773e
00000370: eca3 04bd 0e77 fd3e 1011 f6bd fa2e 48be
00000380: cd77 22be ab65 01be d6c7 bdbd ce99 953e
00000390: 4fea 6ebd c872 433e b0e9 8dbd ed67 bcbb
000003a0: ee2e 0d3e 1c6a 1fbd d5d1 72be 0c14 3e3e
000003b0: 3ed0 18be 4213 ce3d 1905 933e f6e3 15be
000003c0: a3ce 383b 3e82 48be de55 8f3c 48f4 4ebc
000003d0: 25b8 42bd 6ac9 14be 3224 41be 3b28 46bd
000003e0: 7b2d 80be 2d86 90bd d4c4 5fbe 501d 9bbc
000003f0: b3d3 b2be 76ab c7bd c714 91be 7c3c e2be

arr_21 f4 [32]
0.1342959 0.04929575 0.1287777 0.2384683 -0.039011654 -0.041521795 1.980455 0.095446795
-0.029560816 -0.053394716 -0.028197385 0.07252531 -0.013631674 0.08850717 -0.015544989 0.17840412
-0.035161022 -0.11005475 0.0936049 0.066846594 0.042908385 0.029934416 -0.08760665 0.0056448593
0.116370946 -0.009828175 0.29662907 -0.09857062 0.04052427 -0.013897789 -0.3193565 -0.015546098
00000000: dd84 093e 57ea 493d 4dde 033e 0931 743e
00000010: afca 1fbd c212 2abd 8d7f fd3f 9c79 c33d
00000020: 8629 f2bc 6bb4 5abd 34fe e6bc 2688 943d
00000030: 6357 5fbc 3f43 b53d 69b0 7ebc 92af 363e
00000040: 0105 10bd 6364 e1bd edb3 bf3d dee6 883d
00000050: b4c0 2f3d 0539 f53c 1e6b b3bd 83f8 b83b
00000060: e453 ee3d 5b06 21bc c4df 973e 65df c9bd
00000070: c7fc 253d 8db3 63bc b282 a3be 10b5 7ebc

arr_22 f4 [32]
1.6561309 1.6705211 1.6786673 1.773366 1.6111206 1.7095041 1.5563563 1.6680866
1.6578152 1.8022223 1.7440131 1.7685809 1.6802353 1.7086998 1.6122673 1.7065521
1.6765816 1.5584203 1.6799669 1.6743597 1.7716408 1.7274628 1.4223559 1.726482
1.7341219 1.9038306 1.6930468 1.79965 1.6831996 1.6534722 1.5967488 1.8349335
00000000: 19fc d33f a3d3 d53f 92de d63f a8fd e23f
00000010: 3339 ce3f 08d1 da3f af36 c73f dd83 d53f
00000020: 4a33 d43f 38af e63f d23b df3f dc60 e23f
00000030: f311 d73f adb6 da3f c65e ce3f 4d70 da3f
00000040: 3a9a d63f 517a c73f 2809 d73f 6b51 d63f
00000050: 20c5 e23f 801d dd3f c20f b63f 5dfd dc3f
00000060: b5f7 dd3f b9b0 f33f c2b5 d83f ee5a e63f
00000070: 1673 d73f faa4 d33f 4462 cc3f 1adf ea3f

arr_23 f4 [32]
1.2263205 0.4457014 -1.0808134 -0.70274454 -0.10612489 -0.69098514 -0.23770386 -1.4194248
-0.12893434 -1.0701053 -1.1549938 -2.5011888 -0.14044467 -1.3004841 -0.6473818 -0.9667436
-0.4392279 0.6545531 -1.4505476 -1.6825511 0.5366356 -0.008668689 -0.4718565 -1.532913
0.7515068 -1.0189527 -0.9225142 0.37988335 0.21635486 -0.63498247 0.5165956 -1.0711467
00000000: 12f8 9c3f f932 e43e 1858 8abf 11e7 33bf
00000010: 0258 d9bd 67e4 30bf a468 73be b6af b5bf
00000020: 5d07 04be 36f9 88bf d6d6 93bf 7a13 20c0
00000030: bad0 0fbe 4376 a6bf d0ba 25bf 827c 77bf
00000040: 7be2 e0be cb90 273f 8bab b9bf d65d d7bf
00000050: f360 093f 1e07 0ebc 2d97 f1be 7e36 c4bf
00000060: c062 403f 0b6d 82bf e429 6cbf 1280 c23e
00000070: 218c 5d3e 368e 22bf 9c3f 043f 561b 89bf

arr_19 f4 [32]
0.25122812 0.22980072 0.2746804 0.24332908 0.2200052 0.27903387 0.2442178 0.22247966
0.2708707 0.20198564 0.22209276 0.18381405 0.23268676 0.2528385 0.27660117 0.26539913
0.21926792 0.25386518 0.20909353 0.26103985 0.2561185 0.24648249 0.2439496 0.28028458
0.26254097 0.24029578 0.23586656 0.23573163 0.23495248 0.2610825 0.22715734 0.22878249
00000000: f9a0 803e e150 6b3e e9a2 8c3e 422b 793e
00000010: 0b49 613e 87dd 8e3e 3b14 7a3e b5d1 633e
00000020: 90af 8a3e 53d5 4e3e 496c 633e c039 3c3e
00000030: 7045 6e3e 0c74 813e ab9e 8d3e 65e2 873e
00000040: c587 603e 9efa 813e 9d1c 563e 04a7 853e
00000050: f721 833e e865 7c3e edcd 793e 7681 8f3e
00000060: c56b 863e 1910 763e 0187 713e a263 713e
00000070: 6297 703e 9bac 853e ef9b 683e f545 6a3e

arr_18 f4 [32]
-2.3703592 -1.9903148 -2.0216134 -2.3193223 -1.0947645 -1.2636765 -0.74118876 -0.42987978
-0.6483037 -4.4063253 -0.3593368 -0.25688225 -1.7532109 -0.9325207 -2.1013944 -1.5139213
-1.1966549 -2.1919408 -2.6370099 -2.1223898 -1.754961 -1.4365127 -1.4228793 -0.8921637
-1.1045727 -0.76375306 -1.4089279 -2.1763074 0.32563674 -2.0978057 -1.4965342 -2.7543354
00000000: f7b3 17c0 a3c2 febf 1d62 01c0 c76f 14c0
00000010: 3e21 8cbf 27c0 a1bf 8cbe 3dbf 3419 dcbe
00000020: 3bf7 25bf 9e00 8dc0 fefa b7be 1286 83be
00000030: 3769 e0bf adb9 6ebf 3f7d 06c0 2cc8 c1bf
00000040: fd2b 99bf c248 0cc0 c5c4 28c0 3cd5 07c0
00000050: 90a2 e0bf a6df b7bf e920 b6bf d764 64bf
00000060: a362 8dbf 5285 43bf c057 b4bf 9f48 0bc0
00000070: dcb9 a63e 7342 06c0 6f8e bfbf 0847 30c0

arr_11 f4 [32]
-0.5431408 -0.24673286 -0.6165624 -0.43806878 -0.25059003 -0.79128665 -0.48742938 -0.96672094
-0.4451064 -0.4218063 -0.5012381 -0.10084551 -0.76982385 -0.23865612 -0.54873633 -0.46389815
-0.7486755 -0.94836247 0.029930294 -0.3422082 -1.030743 -0.3438085 -0.9105881 -0.9752232
-0.5785003 -0.16416848 -0.64718103 -0.72205925 -0.28556395 -0.6990292 -0.46599627 -0.53507745
00000000: 470b 0bbf 8aa7 7cbe 09d7 1dbf 8d4a e0be
00000010: 564d 80be c391 4abf 5890 f9be 067b 77bf
00000020: fce4 e3be fff6 d7be 2451 00bf 1788 cebd
00000030: 2d13 45bf 4562 74be fc79 0cbf 0f84 edbe
00000040: 33a9 3fbf e2c7 72bf 6030 f53c ea35 afbe
00000050: 63ef 83bf ab07 b0be 4d1c 69bf 3aa8 79bf
00000060: 9818 14bf c81b 28be a8ad 25bf e0d8 38bf
00000070: 7035 92be 94f3 32bf 1097 eebe d6fa 08bf

arr_10 f4 [32, 32, 6, 6]
-0.17990616 0.051345814 0.13568763 -0.38335717 -0.07052172 0.029341398 -0.058983367 -0.65186965
-0.08457501 -0.4775808 -0.35367993 0.110407524 -0.07071689 -0.1142096 -0.21401282 -0.4467304
-0.18378755 0.3572469 0.30736685 0.30282658 0.05689485 0.05284694 -0.07802158 0.0064178132
0.6097953 0.52316815 0.55875576 -0.10673614 -0.24042761 0.26587206 0.35603467 0.55000085
-0.09947305 -0.37284565 -0.2992707 -0.09164104 0.07672335 0.17104948 -0.25254226 -0.057563595
0.014672234 -0.024186583 0.33020365 0.39797547 0.1900711 -0.16551144 -0.39589337 -0.5569285
0.34447074 0.08860223 0.53463733 0.1540384 -0.10273682 -0.6425367 0.11258463 0.38948256
0.106902175 0.6078693 0.012086251 -0.15049598 0.16076027 -0.019972444 -0.07708041 0.16652949
0.09727381 0.25153714 0.0699212 -0.24038716 0.01873383 0.053818032 -0.30066866 -0.1409961
-0.07427748 0.26154208 -0.013355865 0.005328856 0.37458408 0.17029357 0.0003107027 -0.2084512
-0.057241347 0.008631391 0.23600192 -0.014845099 -0.2874786 0.029998243 -0.09281839 0.34696376
0.03603851 0.10292512 -0.264784 -0.5711166 -0.19593254 0.06856387 -0.053080827 0.36187628
-0.2549362 -0.82804924 -0.26945826 -0.18702029 -0.22545056 -0.15578768 -0.5872457 -0.45724365
-0.2579414 -0.30738202 -0.2801286 0.31963626 0.21048056 -0.2348025 -0.27877793 0.1812254
-0.2535084 -0.06716967 -0.14786643 0.13269712 0.3010736 -0.052792713 -0.19202888 0.14479584
0.43336812 0.16984731 -0.22804764 -0.23129685 -0.30846173 0.041984912 0.18469931 0.03429694
-0.18875736 -0.17716399 -0.05926846 0.28652155 -0.015375143 0.18513256 0.20052074 0.10319452
8.539593e-06 0.1646307 -0.023729082 0.10981613 0.3940497 0.13470404 -0.038676396 0.47128972
-0.15985528 -0.12653574 0.32012305 -0.10690914 -0.24051274 -0.041032504 0.08867457 -0.06439421
-0.29514194 0.013557748 -0.1846099 0.08583021 0.004930636 -0.17761865 -0.25794902 -0.3824623
-0.21154448 0.10645668 -0.29585278 0.008745137 -0.16678903 -0.1442699 0.21186297 0.21243775
0.26592866 0.23889653 0.05361965 0.023581486 0.15200032 -0.025910856 -0.0076171546 0.17529331
0.15611471 -0.20635289 -0.0010966859 0.37026995 -0.010885302 0.060340796 0.3630433 0.13514392
0.046064794 -0.47199178 0.13716175 0.31716746 0.19199465 -0.32656413 -0.026944522 -0.08024185
0.029229548 0.2633494 -0.028562345 -0.11349134 0.043842886 -0.069060296 0.037144545 0.04128669
0.109001145 0.10051441 -0.08834312 -0.3056961 -0.13966154 -0.15033169 -0.13263115 0.05569618
0.07923711 -0.14374748 0.002909387 -0.14173846 -0.2735864 -0.21191287 0.011605878 -0.66577464
0.1103015 -0.029304326 0.006743331 0.057122912 0.057543397 -0.022207461 0.018982619 0.30536383
0.07921874 0.19440536 -0.43911427 -0.15011044 -0.02137838 -0.11044227 -0.15791386 -0.072510205
-0.270898 -0.228299 -0.31736445 -0.3740585 -0.17091867 -0.4562004 0.023144126 0.11102779
-0.276812 -0.41396675 -0.07067124 -0.08090461 0.20649673 0.06207176 -0.31072474 -0.34996003
0.22477476 0.34411833 0.025217703 -0.12391058 -0.2230494 -0.11912816 -0.04009127 -0.19126548
00000000: 5239 38be fd4f 523d b3f1 0a3e 6447 c4be
00000010: b16d 90bd 5f5d f03c 8b98 71bd eee0 26bf
00000020: aa35 adbd 7885 f4be 8915 b5be 571d e23d
00000030: 04d4 90bd b9e6 e9bd 2d26 5bbe d9b9 e4be
00000040: ce32 3cbe 11e9 b63e 305f 9d3e 160c 9b3e
00000050: 930a 693d 0876 583d c7c9 9fbd 854c d23b
00000060: 8b1b 1c3f 59ee 053f 9e0a 0f3f 7a98 dabd
00000070: a832 76be 6220 883e 2d4a b63e dbcc 0c3f
00000080: 87b8 cbbd a0e5 bebe 023a 99be 4cae bbbd
00000090: 2221 9d3d 9827 2f3e 384d 81be cec7 6bbd
000000a0: cf63 703c f122 c6bc 7410 a93e 71c3 cb3e
000000b0: 00a2 423e d57b 29be 89b2 cabe de92 0ebf
000000c0: 785e b03e 1675 b53d fedd 083f 3ebc 1d3e
000000d0: af67 d2bd 497d 24bf c592 e63d 426a c73e
000000e0: 87ef da3d 539d 1b3f 6905 463c 9e1b 1abe
000000f0: 579e 243e 409d a3bc 56dc 9dbd b586 2a3e
00000100: 7e37 c73d 7ac9 803e d932 8f3d 0d28 76be
00000110: b077 993c 4c70 5c3d 3ef1 99be 4861 10be
00000120: cb1e 98bd d8e8 853e 8fd2 5abc af9d ae3b
00000130: 7cc9 bf3e 7061 2e3e cfe5 a239 3b74 55be
00000140: e775 6abd ae6a 0d3c 7daa 713e dc38 73bc
00000150: 6530 93be e0be f53c 9117 bebd 3ca5 b13e
00000160: 1e9d 133d 68ca d23d c591 87be b334 12bf
00000170: 8aa2 48be 376b 8c3d 486b 59bd d947 b93e
00000180: ff86 82be 09fb 53bf 6ff6 89be 3f82 3fbe
00000190: 83dc 66be ce86 1fbe bc55 16bf d71b eabe
000001a0: e510 84be 2d61 9dbe 046d 8fbe 5da7 a33e
000001b0: 3788 573e 1170 70be fbbb 8ebe 2793 393e
000001c0: dacb 81be 4090 89bd 4c6a 17be c1e1 073e
000001d0: 5226 9a3e 2c3d 58bd 38a3 44be 5c45 143e
000001e0: 6de2 dd3e 74ec 2d3e 5285 69be 15d9 6cbe
000001f0: b2ee 9dbe 5ff8 2b3d d121 3d3e f37a 0c3d
00000200: 9c49 41be 7a6a 35be 7cc3 72bd f4b2 923e
00000210: 06e8 7bbc 6493 3d3e 4f55 4d3e a657 d33d
00000220: 4645 0f37 f394 283e 7e63 c2bc 47e7 e03d
00000230: e2c0 c93e dbef 093e 246b 1ebd e34c f13e
00000240: 1ab1 23be 9692 01be 2be7 a33e 2ef3 dabd
00000250: f948 76be b311 28bd 039b b53d 1de1 83bd
00000260: d81c 97be 5121 5e3c 610a 3dbe c0c7 af3d
00000270: 2c91 a13b aae1 35be e511 84be 19d2 c3be
00000280: 1e9f 58be f605 da3d 047a 97be c347 0f3c
00000290: beca 2abe 7dbb 13be 9bf2 583e 4889 593e
000002a0: cd27 883e 4ba1 743e 47a0 5b3d f62d c13c
000002b0: f9a5 1b3e 0143 d4bc 5399 f9bb 1780 333e
000002c0: 89dc 1f3e 2c4e 53be acbe 8fba 0694 bd3e
000002d0: 4458 32bc e927 773d d0e0 b93e 2b63 0a3e
000002e0: 70ae 3c3d e8a8 f1be 2174 0c3e c663 a23e
000002f0: 3f9a 443e 6a33 a7be c2ba dcbc d755 a4bd
00000300: ce72 ef3c bcd5 863e 94fb e9bc 266e e8bd
00000310: 9994 333d 7c6f 8dbd e124 183d 3b1c 293d
00000320: fe3b df3d 80da cd3d 3ded b4bd 3384 9cbe
00000330: 6f03 0fbe 8df0 19be 76d0 07be ad21 643d
00000340: 1147 a23d 8a32 13be 6aab 3e3b e323 11be
00000350: 8413 8cbe b0ff 58be 9526 3e3c 3570 2abf
00000360: c1e5 e13d a00f f0bc 29f7 dc3b b7f9 693d
00000370: a0b2 6b3d 6cec b5bc 7081 9b3c a658 9c3e
00000380: 6f3d a23d 3312 473e 96d3 e0be 8db6 19be
00000390: b621 afbc 8f2f e2bd 2cb4 21be 3b80 94bd
000003a0: 25b3 8abe 37c7 69be 987d a2be 9984 bfbe
000003b0: 4e05 2fbe 1993 e9be c098 bd3c 8a62 e33d
000003c0: 4dba 8dbe 73f3 d3be 15bc 90bd 51b1 a5bd
000003d0: e173 533e f53e 7e3d 5017 9fbe f62d b3be
000003e0: 5b2b 663e 4730 b03e 5b95 ce3c d5c4 fdbd
000003f0: 1067 64be 77f9 f3bd be36 24bd 19db 43be

arr_13 f4 [32]
1.2065 1.3556389 0.35217762 0.71094316 1.9657768 -0.084995344 2.960676 -1.5432855
0.8933014 1.7896769 2.3861568 2.0029254 -1.9378499 2.140495 1.2437023 0.37096834
-0.17386247 0.3477233 0.03465634 0.25484985 -0.9029799 0.81167006 0.005690334 -5.24388
3.248393 2.0072348 -1.9852884 2.422222 1.3499714 -0.42878348 -2.6334765 1.7344522
00000000: 986e 9a3f 9385 ad3f a050 b43e 5f00 363f
00000010: 939e fb3f 0a12 aebd b77b 3d40 618a c5bf
00000020: 67af 643f 2214 e53f cbb6 1840 ee2f 0040
00000030: 770b f8bf dffd 0840 a331 9f3f 90ef bd3e
00000040: 0109 32be ca08 b23e cef3 0d3d ae7b 823e
00000050: b129 67bf 9cc9 4f3f fb75 ba3b ddcd a7c0
00000060: ace5 4f40 8976 0040 ee1d febf af05 1b40
00000070: ddcb ac3f 8289 dbbe e18a 28c0 8802 de3f

arr_12 f4 [32]
0.9062571 1.0240432 1.0578578 0.95320755 0.9763959 1.1670959 1.1733569 0.95573133
0.9567683 1.1813905 1.0855429 0.9290071 1.0364777 1.0005448 1.0409712 1.0154548
1.1624665 1.2078902 1.0219976 0.96792716 0.9498001 0.9711023 0.87453437 0.9336614
1.0049665 0.9261092 1.0926154 1.0772829 1.040348 0.99375623 0.7054011 0.9352121
00000000: 7700 683f d913 833f e267 873f 6905 743f
00000010: 15f5 793f 6663 953f 8f30 963f cfaa 743f
00000020: c4ee 743f ce37 973f 12f3 8a3f 69d3 6d3f
00000030: 4dab 843f da11 803f 8b3e 853f 6cfa 813f
00000040: b4cb 943f 259c 9a3f d1d0 823f 13ca 773f
00000050: 1926 733f 299a 783f 7ce1 5f3f 6f04 6f3f
00000060: bea2 803f 7e15 6d3f d2da 8b3f 68e4 893f
00000070: 202a 853f cf66 7e3f 2b95 343f 0f6a 6f3f

arr_15 f4 [32, 32, 6, 6]
0.31643522 0.37740666 0.23076299 -0.13985781 0.25277495 -0.050842606 0.088441744 -0.21358617
-0.061852127 -0.22018039 -0.08835744 0.14322113 -0.08356373 0.15355243 -0.00441015 0.18833788
-0.17729351 0.204674 -0.090216614 -0.2702526 -0.17412767 0.36366 -0.09335113 -0.3687941
0.49176836 -0.014815738 0.074322656 0.031173771 -0.018164428 -0.20831437 0.15996729 -0.20848589
-0.15560757 0.22078343 0.24535222 0.072627954 -0.06943731 0.025204903 0.016808385 -0.27250016
-0.13320945 -0.032284442 -0.008491088 0.080329105 -0.10824253 -0.21199374 0.064894825 0.009572631
0.36113042 -0.14633325 0.33148634 0.2722668 0.32095852 0.008030518 -0.051063854 -0.18555085
0.22947213 -0.16015531 -0.08328712 -0.1964329 0.06876776 -0.012304522 0.116412476 -0.08169462
-0.04266414 0.2507889 0.009631125 0.104547486 -0.14225116 -0.07267125 -0.106257446 -0.131824
-0.2709116 0.013876578 0.022713961 -0.12803681 -0.0065549007 -0.17217408 0.35281715 0.5835145
-0.24483803 0.068319365 -0.5253475 -0.350236 0.21831931 0.34502003 0.27517465 -0.09896474
-0.11777663 -0.4286084 0.14839841 -0.07302872 0.15571566 0.3906876 -0.07900243 -0.17987944
-0.019487778 0.21197423 0.038139742 -0.14581572 -0.099529155 -0.1481553 -0.0644051 -0.28222358
0.15585275 -0.062556215 -0.12024075 -0.10697013 -0.10989321 0.35142612 0.45404795 0.17766741
0.17951016 0.5814226 -0.32664582 -0.061392695 0.06110143 -0.09659527 0.19137974 0.16684784
0.30286786 0.0484025 -0.2709603 -0.053292193 0.21601667 -0.21536335 -0.19325086 0.1816393
-0.45265117 0.09516579 0.47624645 0.09408522 0.009441063 -0.23547606 -0.20660433 -0.107735306
-0.22045407 -0.13436866 0.14707537 0.22636536 -0.23296332 0.0149260685 0.020336734 0.07541746
-0.24962337 -0.036141723 -0.2110981 0.20501114 -0.36190987 0.069280006 -0.46257815 0.18272242
0.10174471 0.24788463 -0.061332773 -0.030367117 0.14925368 0.2593988 -0.052063715 -0.07275517
0.05990807 -0.635294 -0.2732317 -0.1432852 -0.060664695 0.08802131 -0.29236183 -0.2795801
-0.24303022 -0.22632729 0.031610202 0.081332594 -0.31975135 -0.043466885 -0.33307582 -0.36261606
-0.11668842 -0.4124205 -0.033955596 -0.21766438 0.01802799 -0.45004985 -0.08577209 0.12314279
0.247877 -0.045829926 -0.18902753 0.17085958 -0.34482816 0.08620804 -0.0048781657 0.39517558
0.12531324 -0.21201119 0.069391966 -0.280407 -0.46173033 -0.5196585 0.343272 -0.45232427
-0.20865151 -0.10885519 -0.5609024 0.058094457 0.3224523 -0.09795804 0.02723034 0.14285958
-0.1220305 0.15975374 0.33113003 0.37084633 0.14731136 -0.06327364 -0.010331619 0.3603038
-0.29120302 -0.36433315 0.11883606 0.015269763 0.20754707 0.16390964 -0.06669057 -0.08537817
0.10104134 0.19769709 -0.055285238 0.21663927 -0.24077344 0.088677585 0.1647632 0.1685873
-0.18659462 -0.06695641 -0.12156836 0.13163833 0.12928678 0.18731365 -0.086523 -0.26086494
-0.30845353 0.33299506 -0.21978298 -0.055811476 -0.11407496 -0.5319253 0.08037783 0.021321457
-0.29791206 0.09598654 -0.1151692 -0.032373607 -0.0670058 0.12452756 0.09818788 0.07139614
00000000: cc03 a23e 723b c13e 224d 6c3e e336 0fbe
00000010: b86b 813e 5640 50bd f220 b53d 55b6 5abe
00000020: a858 7dbd f876 61be bff4 b4bd 8fa8 123e
00000030: 7623 abbd d93c 1d3e 0583 90bb a5db 403e
00000040: 6e8c 35be 1096 513e 7dc3 b8bd 8c5e 8abe
00000050: 864e 32be a531 ba3e e12e bfbd 95d2 bcbe
00000060: 10c9 fb3e b6bd 72bc 7a36 983d 2360 ff3c
00000070: 91cd 94bc 5d50 55be 77ce 233e 537d 55be
00000080: 9757 1fbe 0d15 623e 9d3d 7b3e f7bd 943d
00000090: 2635 8ebd 837a ce3c bdb1 893c 2485 8bbe
000000a0: 0f68 08be b13c 04bd 341e 0bbc 9683 a43d
000000b0: 42ae ddbd e314 59be 94e7 843d 86d6 1c3c
000000c0: 16e6 b83e 62d8 15be 94b8 a93e 8e66 8b3e
000000d0: ad54 a43e 6f92 033c 5528 51bd 0b01 3ebe
000000e0: befa 6a3e c1ff 23be 7092 aabd b525 49be
000000f0: 1dd6 8c3d e898 49bc aa69 ee3d 824f a7bd
00000100: 98c0 2ebd 6767 803e decb 1d3c fe1c d63d
00000110: 4aaa 11be aad4 94bd 819d d9bd dffc 06be
00000120: edb4 8abe 965a 633c a112 ba3c 151c 03be
00000130: 7eca d6bb 674e 30be 73a4 b43e 3561 153f
00000140: d2b6 7abe 06eb 8b3d 2c7d 06bf 2252 b3be
00000150: 198f 5f3e 77a6 b03e b1e3 8c3e 07ae cabd
00000160: e034 f1bd 8f72 dbbe c1f5 173e 1590 95bd
00000170: ed73 1f3e 3508 c83e 07cc a1bd 5132 38be
00000180: d5a4 9fbc c60f 593e 6b38 1c3d b750 15be
00000190: f1d5 cbbd 06b6 17be d2e6 83bd 9c7f 90be
000001a0: dd97 1f3e 791d 80bd c840 f6bd 2813 dbbd
000001b0: b10f e1bd 20ee b33e f978 e83e 72ee 353e
000001c0: 83d1 373e 1dd8 143f 1f3e a7be e876 7bbd
000001d0: 7e45 7a3d bed3 c5bd 0df9 433e 29da 2a3e
000001e0: 7f11 9b3e b341 463d 4fbb 8abe ea48 5abd
000001f0: 7933 5d3e 3688 5cbe 8ee3 45be a7ff 393e
00000200: e5c1 e7be 48e6 c23d 93d6 f33e c0af c03d
00000210: b0ae 1a3c a320 71be 1690 53be 54a4 dcbd
00000220: b6be 61be f097 09be ed9a 163e 52cc 673e
00000230: f08d 6ebe 788c 743c 3999 a63c 7874 9a3d
00000240: 459d 7fbe 5809 14bd 1a2a 58be 71ee 513e
00000250: 404c b9be ade2 8d3d 0bd7 ecbe 961b 3b3e
00000260: 885f d03d 78d5 7d3e 1338 7bbd 76c4 f8bc
00000270: f5d5 183e ebcf 843e c340 55bd aa00 95bd
00000280: 2a62 753d a1a2 22bf 06e5 8bbe 5bb9 12be
00000290: 8b7b 78bd 8444 b43d 73b0 95be 1f25 8fbe
000002a0: eadc 78be 57c2 67be b379 013d b491 a63d
000002b0: 73b6 a3be 550a 32bd ea88 aabe d0a8 b9be
000002c0: 57fa eebd c828 d3be 0615 0bbd 69e3 5ebe
000002d0: 6faf 933c ef6c e6be 47a9 afbd 4932 fc3d
000002e0: 78d3 7d3e 29b8 3bbd 6f90 41be d0f5 2e3e
000002f0: 518d b0be d78d b03d 05d9 9fbb 7454 ca3e
00000300: 1d52 003e 7619 59be 601d 8e3d 8291 8fbe
00000310: eb67 ecbe 5708 05bf 59c1 af3e 0c97 e7be
00000320: bea8 55be 78ef debd 4d97 0fbf 74f4 6d3d
00000330: 7818 a53e 3a9e c8bd 2912 df3c c849 123e
00000340: 20eb f9bd 7c96 233e e089 a93e 92df bd3e
00000350: cad8 163e 9c95 81bd f345 29bc bd79 b83e
00000360: 9018 95be e089 babe 5260 f33d 072e 7a3c
00000370: 3887 543e eed7 273e 1195 88bd c0da aebd
00000380: c3ee ce3d 1b71 4a3e c672 62bd afd6 5d3e
00000390: 508d 76be 989c b53d afb7 283e 26a2 2c3e
000003a0: a912 3fbe 7120 89bd d5f8 f8bd 33cc 063e
000003b0: c163 043e 26cf 3f3e f832 b1bd 1790 85be
000003c0: 9fed 9dbe 547e aa3e ca0e 61be 939a 64bd
000003d0: 22a0 e9bd 422c 08bf 229d a43d 56aa ae3c
000003e0: ee87 98be 9794 c43d d4dd ebbd 309a 04bd
000003f0: 563a 89bd 4e08 ff3d ba16 c93d 2438 923d

arr_14 f4 [32]
0.23251864 0.20624225 0.17757192 0.27248 0.1783637 0.18645792 0.18004018 0.18039152
0.18981442 0.15438734 0.17462572 0.13766547 0.2141211 0.17921157 0.1761233 0.28897282
0.18583336 0.21647038 0.16209915 0.20792548 0.27727738 0.18604396 0.24731861 0.29663742
0.21653107 0.20483953 0.20166413 0.17114553 0.17355753 0.17827138 0.16237363 0.20527562
00000000: 5e19 6e3e 2b31 533e 6ad5 353e 8082 8b3e
00000010: f9a4 363e d3ee 3e3e 745c 383e 8eb8 383e
00000020: b65e 423e b717 1e3e 16d1 323e 2df8 0c3e
00000030: 9042 5b3e 3d83 373e ab59 343e 3ff4 933e
00000040: 1a4b 3e3e 69aa 5d3e 52fd 253e 6bea 543e
00000050: 4df7 8d3e 4f82 3e3e 1741 7d3e dce0 973e
00000060: 52ba 5d3e 74c1 513e 0b81 4e3e c640 2f3e
00000070: 11b9 313e c68c 363e 4645 263e c633 523e

arr_17 f4 [32]
0.8537517 0.957004 0.96379757 0.94486266 0.91087425 1.0854881 0.90515083 0.9989962
0.9609418 0.9729857 0.8641896 0.97058076 1.0964242 0.8878035 0.9218632 0.8305641
0.9180899 0.9692982 0.91975677 1.0455494 0.8663063 0.9512367 0.8714301 0.9067415
1.0868397 0.9506479 0.92524916 0.85805976 0.880078 0.8074442 0.882855 0.96638966
00000000: 798f 5a3f 37fe 743f 70bb 763f 85e2 713f
00000010: 0e2f 693f 46f1 8a3f f7b7 673f 37be 7f3f
00000020: 4800 763f 9715 793f 883b 5d3f fb77 783f
00000030: a157 8c3f 1747 633f 3aff 6b3f d99f 543f
00000040: f107 6b3f ed23 783f 2e75 6b3f 90d4 853f
00000050: 40c6 5d3f 4084 733f 0b16 5f3f 3620 683f
00000060: 901d 8b3f a95d 733f 21dd 6c3f cea9 5b3f
00000070: cb4c 613f aab4 4e3f c902 623f 5065 773f

arr_16 f4 [32]
-0.539513 -0.8245698 -0.7951154 -0.65656483 -0.39450192 -1.0398412 -0.45844498 -0.48619664
-0.4541155 -0.24409597 -0.32447192 -0.4230198 -0.56189984 -0.9621638 -0.8775415 -0.6505966
-0.5973133 -0.6220256 -0.6828717 -0.60293 -0.5530052 -0.5552202 -0.5984316 -0.8877367
-0.7263386 -0.5556249 -0.20743264 -0.6996651 -0.3748506 -0.48168844 -0.41672915 -0.5672977
00000000: 861d 0abf 0217 53bf af8c 4bbf a214 28bf
00000010: 28fc c9be 8419 85bf 4db9 eabe c4ee f8be
00000020: d481 e8be 4bf4 79be 2f21 a6be 0d96 d8be
00000030: abd8 0fbf 5e50 76bf 8fa6 60bf 808d 26bf
00000040: 86e9 18bf 123d 1fbf aed0 2ebf 9f59 1abf
00000050: c091 0dbf e922 0ebf d032 19bf b642 63bf
00000060: 54f1 39bf 6f3d 0ebf 3969 54be 411d 33bf
00000070: 6bec bfbe de9f f6be 865d d5be 6c3a 11bf

arr_1 f4 [32]
0.0836375 -0.41493458 -0.6853314 -0.8738767 -0.46543542 -0.39993063 0.30565077 -0.3928056
0.053297788 -0.85859877 -0.3248979 -0.41515312 -0.26652464 0.111992 -0.07183478 -0.08528577
-0.3662824 -0.8187931 -0.6791455 0.1419802 0.025929395 -0.54452467 0.18822676 0.055041473
0.10885532 -0.455755 -0.1436161 0.21081816 0.28133094 -0.59380126 -0.8657267 -0.73576397
00000000: 234a ab3d 4e72 d4be e171 2fbf 62b6 5fbf
00000010: 8d4d eebe b5c3 ccbe 427e 9c3e d11d c9be
00000020: c84e 5a3d 21cd 5bbf 0459 a6be f38e d4be
00000030: eb75 88be 105c e53d 1d1e 93bd 4eaa aebd
00000040: 5e89 bbbe 6d9c 51bf 7bdc 2dbf 4263 113e
00000050: e269 d43c f865 0bbf 84be 403e 2b73 613d
00000060: 8aef de3d b858 e9be 1910 13be b7e0 573e
00000070: 9c0a 903e 5c03 18bf 44a0 5dbf 075b 3cbf

arr_0 f4 [32, 1, 6, 6]
-0.013915819 0.16474153 0.012909383 0.13754626 0.045916736 -0.027212817 -0.107083574 0.048960954
0.2888675 -0.038950827 -0.0016747287 -0.1083167 -0.16618617 -0.20414244 0.9179672 0.038602225
0.030453054 -0.13632108 -0.031540222 0.17474945 0.42303434 0.036744725 -0.032939933 -0.14418648
-0.11457075 0.04371558 1.5494069 0.110382244 -0.049114242 -0.1201127 -0.054145206 -0.09198256
0.18948679 -0.0160508 -0.06441668 -0.13823631 0.04730976 0.010131524 -0.020997355 -0.029234007
-0.07037696 -0.090123236 0.03976514 0.05003793 0.004605578 0.034469213 -0.09203675 -0.01614727
0.11837825 -0.03647508 -0.20705457 0.0677125 -0.03426816 -0.05820127 0.06068641 -0.356954
1.2369392 -0.106366575 0.010529039 -0.05705057 -0.05972145 -0.075241044 0.17153002 0.2546565
-0.021806015 -0.09271719 -0.11779266 -0.19058785 -0.043498397 0.86277574 -0.063881055 -0.09664838
-0.0050164983 -0.1967374 -0.3056729 -0.27227873 -0.009873887 0.07271193 0.24964952 -0.0132482825
-0.09788247 -0.0617864 -0.023115944 -0.025618607 0.22195597 0.8256153 0.3953869 0.016006421
-0.06267545 -0.018555725 -0.10580634 -0.0037647518 0.11949997 0.08883227 -0.054499604 -0.03613574
-0.35713068 -0.3872306 -0.070765704 0.03277533 0.041686058 -0.0057694986 0.024984058 -0.05048397
0.003921749 0.039124917 0.011640563 0.034430318 0.3105628 0.06528202 -0.058772426 -0.096128665
-0.0003392338 0.16746125 0.14955518 0.0013041585 -0.1691795 -0.23003708 -0.15484233 -0.21090642
0.06738698 0.05764323 -0.05342464 -0.07741007 -0.27761912 -0.0979034 0.18666615 0.013756272
-0.0441231 0.05368022 -0.17371471 -0.9442834 0.13825947 0.07649221 0.06987207 -0.010769405
0.08133069 -1.0566812 0.22987235 -0.00040301878 -0.11864495 -0.17171007 -0.35812393 -0.68142116
-0.15419431 -0.14878058 1.128305 0.11847761 -0.48058492 0.056522626 -0.11733782 -0.096912816
0.868544 -0.2517632 -0.16144042 -0.0014948943 -0.018940175 -0.010438552 -0.31381664 -0.38674587
0.0046573062 0.008505794 -0.02875892 0.06682447 0.045442402 -0.08080378 -0.05047345 0.008068187
-0.02316482 0.020224432 0.0732763 -0.0004035195 0.1103411 0.080480866 -0.044552878 0.02615804
0.016745055 -0.05882359 0.03592449 0.0063766073 0.1728211 0.14555646 -0.049719326 -0.31659004
-0.22377788 -0.03688369 0.26334012 0.18572873 -0.026753351 -0.3763375 -0.19005305 0.05328762
0.33232954 0.18358299 -0.030798016 -0.19566773 0.022416927 0.23242992 0.19576728 -0.017288247
-0.14081608 -0.2165677 0.10240319 0.32785794 -0.030370532 -0.31126213 -0.35576788 -0.13859864
0.21961564 0.4717511 -0.07552726 -0.3904541 -0.1234884 0.07055913 0.2086138 0.24347965
0.432585 0.16445391 0.14276515 0.1328982 -0.052862655 -0.5008577 -0.0056072865 0.11889609
-0.08459742 0.07499308 0.37505257 -0.13887829 0.17913948 -0.28280988 -0.07895335 -0.023874916
0.31641516 0.059946563 0.16009267 0.34161568 -0.2602106 0.018079335 0.10801427 0.2780734
0.11044051 -0.04547091 0.073642 -0.07093538 0.05718001 0.0050571873 -0.07994039 0.31696802
0.034525804 0.20707794 -0.08871263 -0.06777781 0.024510462 -0.052713513 -0.114253975 0.090875946
00000000: 2dff 63bc 01b2 283e e081 533c edd8 0c3e
00000010: 3013 3c3d 6aed debc a24e dbbd 488b 483d
00000020: 71e6 933e e78a 1fbd 9282 dbba 25d5 ddbd
00000030: b52c 2abe b70a 51be e6ff 6a3f 5e1d 1e3d
00000040: af78 f93c c197 0bbe 5230 01bd 85f1 323e
00000050: f597 d83e a381 163d 06ec 06bd 9fa5 13be
00000060: 12a4 eabd 1c0f 333d f752 c63f 1610 e23d
00000070: 042c 49bd a6fd f5bd 5dc7 5dbd 5a61 bcbd
00000080: d308 423e f87c 83bc e4ec 83bd d28d 0dbe
00000090: e1c7 413d b1fe 253c a502 acbc 287c efbc
000000a0: cc21 90bd 8892 b8bd c5e0 223d 93f4 4c3d
000000b0: 63ea 963b 972f 0d3d c37d bcbd 4847 84bc
000000c0: 4c70 f23d e566 15bd 1d06 54be daac 8a3d
000000d0: c55c 0cbd 7464 6ebd 5092 783d adc2 b6be
000000e0: 0654 9e3f b8d6 d9bd fe81 2c3c dcad 69bd
000000f0: 7b9e 74bd fa17 9abd 91a5 2f3e 5662 823e
00000100: 87a2 b2bc 83e2 bdbd 473d f1bd 7629 43be
00000110: 602b 32bd dfde 5c3f 12d4 82bd 96ef c5bd
00000120: 7061 a4bb 8775 49be 2981 9cbe 1e68 8bbe
00000130: 15c6 21bc fee9 943d 20a4 7f3e 530f 59bc
00000140: 9b76 c8bd bc13 7dbd a65d bdbc 1dde d1bc
00000150: 6d48 633e 865b 533f 2770 ca3e e61f 833c
00000160: fd5b 80bd 2d02 98bc ffb0 d8bd 0eba 76bb
00000170: 66bc f43d b1ed b53d fa3a 5fbd 1203 14bd
00000180: d5d9 b6be 1743 c6be 9ced 90bd 6d3f 063d
00000190: 00bf 2a3d 100e bdbb 5eab cc3c 48c8 4ebd
000001a0: 0482 803b 7341 203d 0fb8 3e3c ce06 0d3d
000001b0: 1602 9f3e 94b2 853d 5bbb 70bd 1bdf c4bd
000001c0: 31db b1b9 f67a 2b3e fe24 193e 4cf0 aa3a
000001d0: 643d 2dbe d78e 6bbe fd8e 1ebe daf7 57be
000001e0: 2f02 8a3d 4f1b 6c3d ccd3 5abd 2c89 9ebd
000001f0: 1824 8ebe 9481 c8bd 6925 3f3e fd61 613c
00000200: 6cba 34bd cadf 5b3d 45e2 31be 8fbc 71bf
00000210: e493 0d3e f3a7 9c3d 1619 8f3d 2972 30bc
00000220: b490 a63d 5441 87bf a863 6b3e 444c d3b9
00000230: 20fc f2bd c4d4 2fbe 055c b7be 9e71 2ebf
00000240: 1de5 1dbe f059 18be 4c6c 903f 64a4 f23d
00000250: 3a0f f6be 4584 673d d04e f0bd 3a7a c6bd
00000260: e658 5e3f 1be7 80be a350 25be 54f0 c3ba
00000270: 6d28 9bbc 7606 2bbc 93ac a0be 8e03 c6be
00000280: 519c 983b e35b 0b3c d497 ebbc 45db 883d
00000290: d021 3a3d 747c a5bd 40bd 4ebd 6e30 043c
000002a0: 26c4 bdbc b5ad a53c e311 963d 788f d3b9
000002b0: 84fa e13d 27d3 a43d 147d 36bd 6349 d63c
000002c0: ed2c 893c 01f1 70bd 8f25 133d dcf2 d03b
000002d0: 04f8 303e c10c 153e 7ea6 4bbd 1718 a2be
000002e0: 0726 65be 5a13 17bd 84d4 863e ac2f 3e3e
000002f0: d829 dbbc 4faf c0be 449d 42be 1f44 5a3d
00000300: 1927 aa3e 2efd 3b3e 1f4c fcbc 1f5d 48be
00000310: b4a3 b73c 1c02 6e3e 3877 483e 15a0 8dbc
00000320: 1732 10be ecc3 5dbe c4b8 d13d ffdc a73e
00000330: 9fcb f8bc c05d 9fbe 3527 b6be cdec 0dbe
00000340: ece2 603e 5c89 f13e 09ae 9abd 9ae9 c7be
00000350: 7ce7 fcbd 4e81 903d db9e 553e bb52 793e
00000360: c87b dd3e 9b66 283e 0731 123e 7716 083e
00000370: 8386 58bd 3638 00bf 54bd b7bb cb7f f33d
00000380: 6a41 adbd f995 993d e406 c03e 1c36 0ebe
00000390: 5770 373e 75cc 90be 4bb2 a1bd 5495 c3bc
000003a0: 2b01 a23e 878a 753d 55ef 233e 40e8 ae3e
000003b0: 533a 85be 1d1b 943c 9636 dd3d a35f 8e3e
000003c0: a22e e23d b43f 3abd 9ed1 963d 9246 91bd
000003d0: 9635 6a3d c3b6 a53b cab7 a3bd a249 a23e
000003e0: ee6a 0d3d 3d0c 543e f8ae b5bd 18cf 8abd
000003f0: 2aca c83c 20ea 57bd fdfd e9bd 2b1d ba3d

arr_3 f4 [32]
2.1696448 0.89306504 0.033560712 -2.7659879 0.20803556 0.13679907 1.6005065 0.12367422
0.074542694 -2.772996 1.5682364 -2.7221062 1.0740404 0.2659223 0.30568913 0.86044544
0.324295 -2.0262132 -2.5363286 1.7293934 0.07747966 -0.16201845 0.14016722 1.024851
2.3029616 0.22470823 0.83357203 0.12589192 1.8460796 -3.0117192 -1.2504252 -0.9378711
00000000: 76db 0a40 e99f 643f f576 093d f205 31c0
00000010: 4607 553e 0e15 0c3e 66dd cc3f e948 fd3d
00000020: d7a9 983d c478 31c0 f8bb c83f fd36 2ec0
00000030: 287a 893f f826 883e 4983 9c3e 2746 5c3f
00000040: ff09 a63e 7aad 01c0 3553 22c0 c35c dd3f
00000050: a8ad 9e3d 2ae8 25be ff87 0f3e 512e 833f
00000060: b963 1340 ea19 663e fa64 553f d0e9 003e
00000070: 564c ec3f 02c0 40c0 ef0d a0bf 5218 70bf

arr_2 f4 [32]
1.2058965 1.1180053 1.1997765 0.5627373 0.83325917 1.2857145 1.0802481 1.6853539
0.6884977 0.67003244 0.9980992 0.5843143 1.0826093 1.6492137 1.0493374 0.90343535
1.4577899 0.595226 0.61672455 1.0906256 1.2869098 0.8146565 1.5646439 0.96175504
1.292327 0.974146 0.9428562 1.7192053 1.0697792 0.6443657 0.3995118 0.5350454
00000000: d15a 9a3f cc1a 8f3f 4792 993f 8d0f 103f
00000010: 7950 553f 4b92 a43f 9245 8a3f adb9 d73f
00000020: 6341 303f 3f87 2b3f 6e83 7f3f 9f95 153f
00000030: f192 8a3f 6f19 d33f b050 863f 8a47 673f
00000040: dc98 ba3f bb60 183f a9e1 1d3f 9f99 8b3f
00000050: 76b9 a43f 548d 503f 4046 c83f 9435 763f
00000060: f96a a53f a261 793f 065f 713f eb0e dc3f
00000070: 86ee 883f 27f5 243f d08c cc3e bcf8 083f

arr_5 f4 [32, 32, 6, 6]
-0.26762664 -0.17063618 -0.22199942 -0.055567022 -0.12905547 -0.07946102 -0.44982848 -0.39076215
-0.40537637 -0.257174 -0.1513809 -0.22252278 -0.4715228 -0.47768888 -0.52180976 -0.2757544
-0.08587811 -0.16240527 -0.32861164 -0.46355373 -0.38349533 -0.26825273 -0.26564202 -0.09642024
-0.15162998 -0.30386418 -0.34777313 -0.04766384 -0.25662583 0.06813387 -0.062168114 -0.2521465
-0.11579661 -0.006313039 -0.0077180886 0.37376332 -0.15909699 -0.03534206 -0.11445507 -0.15651195
-0.08443104 -0.18257032 -0.21017124 -0.33219814 -0.36627322 -0.49701196 -0.22633456 -0.33585104
-0.22300859 -0.20692423 -0.21662739 -0.34911534 -0.29982004 0.022285018 0.0314631 -0.22613825
-0.33473343 -0.3075029 -0.14475691 0.029096384 0.038421713 0.04636588 0.09791894 0.42054197
0.07041049 0.22683318 0.14194389 -0.052094873 0.23122068 -0.056812838 0.09463437 0.25153258
0.06844538 0.1339806 0.21808271 -0.051402334 -0.22421174 -0.19163345 -0.2882473 0.09703126
-0.3506218 -0.2805485 -0.28225642 -0.46222398 0.10458428 0.033334713 -0.2572434 -0.3274033
-0.14695619 -0.07463171 0.1500744 0.3198095 0.17035745 -0.025325557 0.0681647 0.16376075
0.23553495 0.34916633 0.25248787 0.19219303 0.54647434 0.1930343 0.16578342 0.31904474
0.124132 0.2483782 0.19492409 0.19485563 -0.14958973 -0.099852964 -0.042239044 0.10191812
0.015927367 0.119740054 -0.36861098 -0.30849764 -0.08921897 -0.09343303 -0.18021576 0.061605725
-0.3333285 -0.4093567 -0.17885736 -0.15495959 -0.1997425 -0.021875724 -0.41433927 -0.34688917
-0.19021386 -0.21535207 -0.102505475 -0.16867878 -0.38356936 -0.3536108 -0.33205467 -0.27539068
-0.29169798 -0.32252473 -0.41104347 -0.34355658 -0.34344426 -0.11601274 -0.1345562 -0.19687511
0.11118052 0.44451925 0.040656492 0.21519852 -0.14923052 -0.19546142 0.09895116 0.021630974
0.078277394 -0.26750728 -0.0013457238 -0.19010288 -0.056424174 -0.09935208 -0.1323318 -0.24292865
0.095453605 -0.15396631 -0.11976153 0.016971176 -0.08742442 -0.18617648 -0.117930785 0.029227149
-0.10636291 0.0548103 -0.03373063 -0.009762839 0.30750254 0.2162977 0.16273339 -0.06112266
-0.011776813 0.35211536 0.4445634 -0.035923228 0.07854823 0.18766691 -0.14868785 -0.18835935
-0.18350384 0.11870288 -0.005575898 0.048097275 -0.2847065 -0.19152491 -0.038862072 0.2305762
0.011122283 0.08094373 -0.24874608 -0.33025813 0.13609602 0.20667529 -0.09008654 -0.17075153
-0.13997076 0.18641639 0.055765748 0.36505598 0.0043881326 -0.034770038 -0.063596666 0.19000658
-0.026289301 -0.07854589 -0.21357328 -0.27120245 -0.093495995 0.010192236 0.06752114 -0.1059942
-0.15175758 -0.30608037 -0.27252787 -0.27384013 -0.2772817 -0.13819398 -0.13642718 -0.29632336
-0.23806554 -0.3930752 -0.29532185 -0.23506817 -0.17960773 -0.33893457 -0.42893985 -0.3261299
-0.33800784 -0.15889174 -0.31583458 -0.4428458 -0.50316757 -0.5155955 -0.29425758 -0.31324
-0.20473342 -0.38865435 -0.41302216 -0.4503306 -0.29099202 -0.34209517 -0.3173433 -0.45928338
-0.43683857 -0.43595716 -0.34896854 -0.2669105 0.13947381 0.2778725 0.0131189255 -0.041112475
00000000: 5c06 89be 40bb 2ebe d153 63be 3f9a 63bd
00000010: 1e27 04be 76bc a2bd eb4f e6be fa11 c8be
00000020: 7e8d cfbe 4fac 83be 9803 1bbe 03dd 63be
00000030: 706b f1be a393 f4be 5395 05bf ae2f 8dbe
00000040: dde0 afbd 914d 26be c93f a8be ea56 edbe
00000050: 8059 c4be 6c58 89be 3b02 88be fa77 c5bd
00000060: e444 1bbe 1694 9bbe 520f b2be 293b 43bd
00000070: 7664 83be c589 8b3d fea3 7ebd 5919 81be
00000080: c626 edbd 9cdd cebb 05e8 fcbb e85d bf3e
00000090: 52ea 22be d6c2 10bd 6b67 eabd ab44 20be
000000a0: 2eea acbd b7f3 3abe 2137 57be e015 aabe
000000b0: 2a88 bbbe 5a78 febe 3fc4 67be abf4 abbe
000000c0: 5d5c 64be f2e3 53be 92d3 5dbe 3fbf b2be
000000d0: 0382 99be 128f b63c 74df 003d c990 67be
000000e0: 2e62 abbe 0571 9dbe 283b 14be 8a5b ee3c
000000f0: 1660 1d3d 26ea 3d3d ba89 c83d 4751 d73e
00000100: 6033 903d f546 683e bd59 113e 6f61 55bd
00000110: 1dc5 6c3e 94b4 68bd aacf c13d e1c8 803e
00000120: 172d 8c3d 3632 093e 1351 5f3e 418b 52bd
00000130: c397 65be 8f3b 44be 2695 93be 53b8 c63d
00000140: b384 b3be 0ea4 8fbe ea83 90be 9fa8 ecbe
00000150: 4830 d63d fb89 083d 68b5 83be 68a1 a7be
00000160: af7b 16be 83d8 98bd 1aad 193e 12be a33e
00000170: 2f72 2e3e 8b77 cfbc ef99 8b3d e6b0 273e
00000180: 1330 713e eec5 b23e 1746 813e 40ce 443e
00000190: bee5 0b3f c9aa 453e 21c3 293e d559 a33e
000001a0: eb38 fe3d db56 7e3e 2e9a 473e 3c88 473e
000001b0: 0d2e 19be b67f ccbd d902 2dbd 73ba d03d
000001c0: 1c7a 823c 463a f53d 94ba bcbe 67f3 9dbe
000001d0: 6fb8 b6bd d159 bfbd 7b8a 38be 4956 7c3d
000001e0: 08aa aabe 3497 d1be 6226 37be baad 1ebe
000001f0: 4c89 4cbe b834 b3bc 4724 d4be 759b b1be
00000200: 6cc7 42be 4185 5cbe 64ee d1bd 21ba 2cbe
00000210: 3463 c4be 7a0c b5be 1203 aabe 0200 8dbe
00000220: 7059 95be f621 a5be 4a74 d2be a6e6 afbe
00000230: edd7 afbe 1698 edbd 1ac9 09be a199 49be
00000240: 9db2 e33d 0798 e33e 6c87 263d 005d 5c3e
00000250: e3cf 18be 0a27 48be e8a6 ca3d 7133 b13c
00000260: e64f a03d b7f6 88be ff62 b0ba 54aa 42be
00000270: 091d 67bd 1a79 cbbd fd81 07be 4ac2 78be
00000280: 2e7d c33d 58a9 1dbe 8845 f5bd 2307 8b3c
00000290: 930b b3bd 0ca5 3ebe b285 f1bd c66d ef3c
000002a0: ccd4 d9bd c480 603d 2129 0abd 51f4 1fbc
000002b0: f970 9d3e 257d 5d3e 95a3 263e c15b 7abd
000002c0: 89f3 40bc 7748 b43e d09d e33e 3c24 13bd
000002d0: e5dd a03d c12b 403e a141 18be 46e1 40be
000002e0: 6ee8 3bbe 7f1a f33d 06b6 b6bb a601 453d
000002f0: 0dc5 91be 1b1f 44be d62d 1fbd 2b1c 6c3e
00000300: 3c3a 363c d4c5 a53d 4bb7 7ebe 9817 a9be
00000310: c15c 0b3e b0a2 533e 4b7f b8bd 7dd9 2ebe
00000320: 7f54 0fbe f0e3 3e3e a06a 643d 9ee8 ba3e
00000330: 53ca 8f3b 076b 0ebd f83e 82bd 1691 423e
00000340: a95c d7bc abdc a0bd f4b2 5abe 0cdb 8abe
00000350: d47a bfbd 56fd 263c 8648 8a3d 7d13 d9bd
00000360: 5766 1bbe 91b6 9cbe c688 8bbe c634 8cbe
00000370: def7 8dbe b982 0dbe 91b3 0bbe b2b7 97be
00000380: 74c7 73be 2741 c9be 6d34 97be b6b5 70be
00000390: 17eb 37be d588 adbe 019e dbbe 80fa a6be
000003a0: 5d0f adbe 84b4 22be 12b5 a1be afbc e2be
000003b0: 97cf 00bf 11fe 03bf eea8 96be fe60 a0be
000003c0: a3a5 51be b4fd c6be a477 d3be bb91 e6be
000003d0: e8fc 94be 1927 afbe d27a a2be 3127 ebbe
000003e0: 4ea9 dfbe c735 dfbe 01ac b2be 7ea8 88be
000003f0: 39d2 0e3e 4e45 8e3e c3f0 563c 8e65 28bd

arr_4 f4 [32]
0.82982224 1.8481412 4.5048747 0.61200064 3.5763512 2.5768154 1.1901923 2.9603534
3.266454 0.6595552 1.1374056 0.68121654 1.6231598 2.880641 3.146623 2.10706
3.2342489 0.91053534 0.7113623 1.0801067 1.9003425 1.2920136 2.336682 1.7489071
0.810245 4.010009 2.2030003 2.0208223 0.88441557 0.6235817 1.2156671 1.7402347
00000000: 3b6f 543f e48f ec3f ef27 9040 13ac 1c3f
00000010: f0e2 6440 8bea 2440 3958 983f 6e76 3d40
00000020: 950d 5140 9cd8 283f 8296 913f 3564 2e3f
00000030: b3c3 cf3f 6c5c 3840 4562 4940 12da 0640
00000040: effd 4e40 d818 693f d71b 363f f040 8a3f
00000050: 6c3e f33f b460 a53f 338c 1540 30dc df3f
00000060: 376c 4f3f fe51 8040 f5fd 0c40 2755 0140
00000070: 0f69 623f 0da3 1f3f fb9a 9b3f 03c0 de3f

arr_7 f4 [32]
1.160475 0.84118444 1.0176413 1.1153916 1.035373 0.795911 1.15416 0.6239181
1.1190166 0.6761426 1.4443356 1.6349909 1.1377943 1.067108 1.1917437 1.2052132
0.92715967 1.0982511 0.6145579 0.92905253 1.2575115 1.0911493 0.5936826 0.9122723
1.0251932 0.5245825 1.2908212 0.6544148 1.2348093 0.6283269 0.7808849 1.0028667
00000000: 728a 943f dd57 573f 1242 823f 27c5 8e3f
00000010: 1a87 843f d3c0 4b3f 84bb 933f 19b9 1f3f
00000020: f03b 8f3f ae17 2d3f fddf b83f 6247 d13f
00000030: 3ea3 913f ff96 883f 0f8b 983f 6d44 9a3f
00000040: 565a 6d3f 7e93 8c3f ab53 1d3f 63d6 6d3f
00000050: 23f6 a03f c8aa 8b3f 95fb 173f ad8a 693f
00000060: 8839 833f 0a4b 063f a139 a53f ba87 273f
00000070: 3b0e 9e3f 08da 203f 13e8 473f f05d 803f
