pretrained_model/MSRA_pretrained/p0/params/-1_de_params.npz (npz, 14410 bytes, 4 tensors)

arr_1 f4 [40]
0.46993908 0.41267243 0.70956576 0.42922774 0.72181785 0.73167413 0.6256744 0.7291132
0.6194875 0.73549384 0.5530084 0.5970825 0.76467615 0.4521886 0.5546833 0.4357565
0.47424105 0.45343268 0.6391644 -0.009694038 0.33699095 0.4414009 0.3952095 0.4048264
0.35805127 0.35412154 0.39263463 0.36313134 0.37899333 0.35185158 0.36857346 0.47442043
0.4222525 0.32426134 0.34689018 0.34701476 0.4073716 0.3723817 0.3788111 0.34099066
00000000: db9b f03e cd49 d33e 1aa6 353f bdc3 db3e
00000010: 0ec9 383f ff4e 3b3f 332c 203f 2aa7 3a3f
00000020: bc96 1e3f 5349 3c3f f591 0d3f 66da 183f
00000030: d1c1 433f 4485 e73e baff 0d3f 7a1b df3e
00000040: b9cf f23e 5428 e83e 47a0 233f bed3 1ebc
00000050: 148a ac3e 4cff e13e e658 ca3e 6845 cf3e
00000060: 7f52 b73e 6b4f b53e 6807 c93e 5aec b93e
00000070: 6a0b c23e e425 b43e a9b5 bc3e 3ce7 f23e
00000080: 7b31 d83e 9505 a63e 979b b13e ebab b13e
00000090: 0393 d03e d0a8 be3e 87f3 c13e 5496 ae3e

arr_0 f4 [20, 40]
0.102061 0.10147754 0.1572907 -0.3260392 -0.44998828 0.1110551 -0.28147304 -0.14356743
-0.36048403 -0.30502483 -0.41770196 -0.0035009184 -0.37101313 0.24165373 -0.6138717 -0.38692552
-0.0778837 -0.43414342 0.12130571 -0.18933453 0.057338063 -0.014296552 -0.12549265 -0.15842119
-0.08369607 0.12966579 0.44730812 0.034693405 0.013690011 0.024077434 0.017370407 -0.20340474
-0.06781791 0.03812524 0.19841318 0.19454023 -0.1389412 -0.0539709 0.043976475 0.08953352
0.17310627 0.34425765 0.40265676 0.3362912 0.26783457 -0.084676385 -0.015690923 0.30082366
0.04702324 0.5463483 -0.29798266 0.1471464 0.5233785 0.26282364 0.4432559 -0.15052187
-0.375996 -0.21726716 0.19413848 0.13813834 0.27715588 0.13029513 0.08036067 -0.012436232
0.23940147 -0.2307171 -0.3457069 0.056329828 0.06737942 -0.007664979 0.040696252 -0.11707302
0.011076109 0.040280018 0.072865725 0.016102629 0.08376028 0.06490134 0.1852295 0.24079522
0.07587172 -0.19090182 -0.020134842 -0.14738509 0.28731778 0.24542595 -0.050571702 0.12506746
-0.31207687 -0.36271498 0.23583896 0.18800539 0.4827281 -0.23110643 0.25786427 -0.78930134
0.08469282 0.007781826 0.13826379 -0.47086972 -0.2458108 -0.09972333 -0.08619922 -0.16916086
-0.12651415 -0.0137322685 0.070416965 -0.13192351 -0.1719165 -0.1648358 -0.20214897 -0.10557062
-0.09339475 -0.05487653 -0.116407484 -0.07121886 -0.17562714 -0.14558554 -0.15346877 0.03549807
0.23737471 0.09848208 0.1382666 0.07379076 0.14573778 0.46083838 0.1463344 0.41305882
-0.27143738 -0.36800247 -0.15861148 -0.67106056 -0.10085961 -0.17245705 0.21124703 0.04042771
0.027392676 0.181953 -0.51553464 0.16602112 0.029331723 -0.101500124 -0.1499677 -0.027941829
0.17482667 0.22061275 -0.043925352 0.28265345 0.08705274 0.14111099 0.22797632 -0.28462374
-0.1643182 0.09490803 0.07755825 0.076696485 -0.10855216 -0.07554306 0.13391805 0.20608436
0.23228355 0.4079429 -0.07622724 0.17130628 0.19207282 0.17130314 0.085374825 -0.55564183
0.07711678 -0.16931632 0.054992028 0.36288357 0.170437 -0.10102804 -0.368328 -0.27776596
0.15809715 0.12768474 -0.5282143 0.4194245 0.10599672 0.2699433 0.028114835 0.23807338
0.08952883 0.048684396 -0.0538783 0.096404284 0.053327948 -0.028290814 -0.110600114 0.28128645
0.021654438 0.21355021 -0.013118113 -0.044399384 0.15151231 0.039617702 -0.095828645 0.10070631
0.28612742 0.2392537 0.20717697 0.10703273 0.42183864 0.40538955 -0.48178625 -0.004551357
-0.47277716 0.14937769 0.24080007 0.2504346 -0.57778376 -0.29198992 0.050482653 0.34635958
0.06365491 -0.18793549 -0.10974494 -0.20762551 -0.1287046 0.19565462 0.08133593 -0.08908259
0.021100638 -0.32631892 -0.104265034 -0.2342388 -0.07028318 -0.073476836 -0.1874046 0.012542809
0.06275899 -0.12990195 -0.14488739 -0.13319306 0.0010194536 -0.036864955 -0.17504592 -0.018735535
-0.1511679 0.10603795 -0.2471326 -0.024939688 0.065626234 0.1255079 0.34376472 0.44005623
0.09061317 -0.17072883 0.29221842 0.27730387 -0.32170632 -0.02788963 -0.1674253 -0.09430861
00000000: 5c05 d13d 75d3 cf3d d010 213e 9cee a6be
00000010: dd64 e6be db70 e33d 3c1d 90be 5703 13be
00000020: 5d91 b8be 372c 9cbe 08dd d5be aa6f 65bb
00000030: 6ff5 bdbe 1374 773e b226 1dbf 1a1b c6be
00000040: 7d81 9fbd 0c48 debe 216f f83d e9e0 41be
00000050: 51db 6a3d 163c 6abc 2581 00be 2a39 22be
00000060: d868 abbd 1cc7 043e 9205 e53e ac1a 0e3d
00000070: 114c 603c 0a3e c53c 624c 8e3c 5549 50be
00000080: 1ee4 8abd 3629 1c3d d32c 4b3e 8e35 473e
00000090: 9a46 0ebe 9710 5dbd ad20 343d 5a5d b73d
000000a0: c542 313e 8a42 b03e 0729 ce3e 5c2e ac3e
000000b0: 9d21 893e d06a adbd 408a 80bc 8f05 9a3e
000000c0: 719b 403d 7bdd 0b3f 2f91 98be 8cad 163e
000000d0: 22fc 053f d290 863e 70f2 e23e 6822 1abe
000000e0: 8c82 c0be 487b 5ebe 3dcc 463e 2374 0d3e
000000f0: 60e7 8d3e 166c 053e 2394 a43d 56c1 4bbc
00000100: a925 753e 1a41 6cbe 7f00 b1be 1bba 663d
00000110: 39fe 893d 812a fbbb 1db1 263d fbc3 efbd
00000120: 9178 353c a9fc 243d a03a 953d a9e9 833c
00000130: 828a ab3d feea 843d cdac 3d3e 0693 763e
00000140: a262 9b3d c47b 43be d3f1 a4bc 1eec 16be
00000150: 511b 933e f150 7b3e 4624 4fbd af11 003e
00000160: 8ac8 9fbe c7b5 b9be c57f 713e 7c84 403e
00000170: 2328 f73e 2aa7 6cbe c906 843e a70f 4abf
00000180: 6e73 ad3d b0fe fe3b 0695 0d3e d615 f1be
00000190: d4b5 7bbe bf3b ccbd 3789 b0bd 8138 2dbe
000001a0: ed8c 01be 4ffd 60bc c536 903d f516 07be
000001b0: e10a 30be b7ca 28be 2400 4fbe 6935 d8bd
000001c0: bf45 bfbd 36c6 60bd 0c67 eebd 32db 91bd
000001d0: 9ad7 33be 6014 15be eb26 1dbe 6d66 113d
000001e0: 5b12 733e f9b0 c93d c295 0d3e 9c1f 973d
000001f0: 493c 153e 02f3 eb3e afd8 153e 727c d33e
00000200: d7f9 8abe d26a bcbe 0c6b 22be a0ca 2bbf
00000210: 7c8f cebd 9598 30be 2451 583e 8797 253d
00000220: 9b66 e03c e351 3a3e 14fa 03bf 7101 2a3e
00000230: 1549 f03c 4cdf cfbd 2291 19be 43e6 e4bc
00000240: c305 333e 4fe8 613e 12eb 33bd f4b7 903e
00000250: b548 b23d 667f 103e a072 693e 34ba 91be
00000260: 0843 28be 245f c23d dcd6 9e3d 0c13 9d3d
00000270: 9850 debd 52b6 9abd d021 093e c707 533e
00000280: bddb 6d3e e4dd d03e 071d 9cbd ea6a 2f3e
00000290: bdae 443e 176a 2f3e ffd8 ae3d 8b3e 0ebf
000002a0: 67ef 9d3d 4261 2dbe 523f 613d e0cb b93e
000002b0: 0987 2e3e cae7 cebd 7d95 bcbe 5737 8ebe
000002c0: 38e4 213e cabf 023e 0d39 07bf cfbe d63e
000002d0: cf14 d93d 0236 8a3e 1551 e63c 82c9 733e
000002e0: e45a b73d 4a69 473d 7eaf 5cbd 9c6f c53d
000002f0: 686e 5a3d 23c2 e7bc 5082 e2bd c704 903e
00000300: a664 b13c e8ac 5a3e 5bed 56bc 21dc 35bd
00000310: 0b26 1b3e 2c46 223d cf41 c4bd 1c3f ce3d
00000320: 4b7f 923e ecfe 743e 3326 543e fa33 db3d
00000330: 3cfb d73e 388f cf3e b0ac f6be 8d23 95bb
00000340: d90f f2be 77f6 183e 4b94 763e f738 803e
00000350: a3e9 13bf b47f 95be e6c6 4e3d 0b56 b13e
00000360: 815d 823d 2972 40be f5c1 e0bd c89b 54be
00000370: 23cb 03be af59 483e 7493 a63d ef70 b6bd
00000380: 3fdb ac3c 4613 a7be e888 d5bd 4cdc 6fbe
00000390: a1f0 8fbd 067b 96bd fee6 3fbe 5b80 4d3c
000003a0: c987 803d 0405 05be 5c5d 14be c363 08be
000003b0: 309f 853a b5ff 16bd 3d3f 33be 447b 99bc
000003c0: c2cb 1abe 6d2a d93d 5410 7dbe 514e ccbc
000003d0: 0c67 863d 2585 003e ee01 b03e 0d4f e13e
000003e0: 6693 b93d 8ad3 2ebe a79d 953e c6fa 8d3e
000003f0: b1b6 a4be cb78 e4bc 8a71 2bbe df24 c1bd

arr_3 f4 [63]
-1.4624236e-05 4.5147917e-05 4.2236712e-05 0.038565695 0.07482636 0.017409885 -0.06634256 -0.04886793
-0.13746631 -0.22244217 -0.19918248 -0.039013017 -0.34023634 -0.26275396 0.1484081 -0.13793412
0.11562382 0.057843834 -0.09526373 0.018041367 -0.012618879 -0.05998224 -0.0061774384 0.025093317
-0.037281457 -0.044756565 -0.05470164 -0.25062197 0.13754459 0.092111476 -0.09747376 0.023310646
-0.016753303 -0.022880802 -0.10487462 0.056257777 -0.008375137 -0.20876734 0.12012258 -0.36134937
0.15028596 0.10018625 -0.11771933 0.21506837 0.05244918 -0.062297437 0.22485617 0.091331035
-0.07356202 0.21578132 0.13829692 0.11906949 -0.028448632 -0.03795864 0.19698848 -0.08111859
-0.042115808 0.2576816 0.010939135 -0.16034079 0.40872952 0.19911648 -0.2669702
00000000: 9e5a 75b7 355d 3d38 5327 3138 10f7 1d3d
00000010: 903e 993d 2d9f 8e3c 9cde 87bd bd29 48bd
00000020: f8c3 0cbe e1c7 63be 7ef6 4bbe 1dcc 1fbd
00000030: 7533 aebe b087 86be 4bf8 173e 9a3e 0dbe
00000040: 2ecc ec3d a8ed 6c3d a119 c3bd 7dcb 933c
00000050: 6abf 4ebc f0af 75bd 1c6c cabb 8090 cd3c
00000060: 71b4 18bd a952 37bd d40e 60bd 8651 80be
00000070: 7dd8 0c3e f1a4 bc3d 53a0 c7bd f8f5 be3c
00000080: 393e 89bc 8570 bbbc 81c8 d6bd 8e6e 663d
00000090: df37 09bc 1bc7 55be d402 f63d c902 b9be
000000a0: 90e4 193e 732e cd3d d516 f1bd e23a 5c3e
000000b0: f4d4 563d 992b 7fbd b240 663e c40b bb3d
000000c0: afa7 96bd c7f5 5c3e b59d 0d3e b4da f33d
000000d0: 1b0d e9bc 857a 1bbd 59b7 493e 8121 a6bd
000000e0: a081 2cbd d8ee 833e 0f3a 333c 6030 24be
000000f0: ff44 d13e 31e5 4b3e 51b0 88be

arr_2 f4 [40, 63]
-1.603278e-05 2.4358491e-05 -3.134556e-06 0.27187607 0.14637703 0.32214066 0.32485044 0.3491939
0.36598948 0.38204208 0.47303116 0.39802808 0.46205464 0.54066706 0.43428108 0.29018742
0.31708807 0.3277852 0.2803288 0.5121721 0.2950882 0.2235541 0.5917747 0.36497638
0.20109524 0.6337005 0.3193297 0.2568012 0.45401043 0.309776 0.21527152 0.57195336
0.31097433 0.12499016 0.60380554 0.28091705 0.14817044 0.5792466 0.1332654 0.2016083
0.5993318 0.24446541 0.046388943 0.58116716 0.26217607 -0.059127357 0.5700477 0.24068192
-0.07916907 0.58428127 0.20470834 0.08687434 0.025707444 0.14515768 0.1492046 0.044955313
0.23121016 0.1928118 0.17583047 0.28759193 0.22741634 0.23473169 0.27559656 -2.2329426e-05
6.949285e-05 -2.116675e-05 -0.3881416 0.020195099 0.32332078 -0.59990567 0.26204273 0.3634023
-0.68908256 0.48435608 0.29037142 -0.7213831 0.629373 0.22154607 -0.3425437 -0.075287886
0.38479128 -0.65437657 0.14100903 0.3423575 -0.76990604 0.19800179 0.13594158 -0.7753357
0.13284594 -0.003841095 -0.26610142 -0.14739805 0.39483348 -0.57786936 0.007556868 0.21193947
-0.66918606 0.10858016 -0.049871348 -0.6411467 0.1551925 -0.2083981 -0.17256162 -0.18565263
0.31436375 -0.3075399 -0.12766461 0.15250285 -0.3351565 -0.16821575 0.034848474 -0.37054223
-0.28372684 -0.01257958 -0.28714532 0.051589537 -0.061241116 -0.52519584 0.057646357 -0.020173542
-0.49249434 0.09198364 -0.038790528 -0.576903 0.09209228 -0.047253467 -1.5113102e-05 4.3259126e-05
3.3977049e-06 -0.22315684 0.44756666 0.47630516 -0.11033617 0.590092 0.83668953 0.06511063
0.6557653 0.94135946 0.17807627 0.66479796 0.9409422 -0.2812398 0.30779263 0.3527986
-0.11580762 0.2749594 0.5641866 -0.024143811 0.07830724 0.7266183 -0.07208706 -0.0468391
1.047238 -0.30214298 0.13613363 0.19836807 -0.07563466 0.18816663 0.3116707 0.09501817
0.14954136 0.3477093 0.12035096 0.13890538 0.42685905 -0.24189343 -0.08281436 0.001606902
-0.20874448 -0.11400821 0.028380964 -0.14541781 -0.12993893 0.0068231924 -0.07403497 -0.116324425
-0.0039663347 0.19545954 0.3458294 0.34217194 0.32735276 0.70413595 0.66335875 0.38207552
0.65617174 0.7121456 0.47286248 0.69205004 0.69775355 -1.4733761e-05 6.2116094e-05 -2.0179581e-05
-0.20620792 0.26456746 -0.019731795 -0.0044374424 0.44763818 -0.029007638 0.19833213 0.5219133
-0.08834924 0.29827178 0.5530442 -0.08829661 -0.017492175 0.08050801 -0.24507473 -0.0108065745
0.6016236 -0.022009818 -0.02238951 0.7939949 -0.07029599 -0.15820661 0.8467257 -0.08989526
0.15030265 -0.09791449 -0.41062492 0.07051958 0.14050078 -0.34939042 0.19821575 0.22486904
-0.39161167 0.41274655 0.26301542 -0.3396388 0.38563883 -0.27993885 -0.54405403 0.40784362
-0.36995727 -0.5491254 0.44837087 -0.5018942 -0.5273323 0.5440045 -0.64138395 -0.47366259
0.012252545 0.2465996 0.040870707 -0.060912743 0.45968392 0.032985907 0.04284492 0.4648717
0.047719363 -0.21031678 0.1974652 0.12668043 -1.7627899e-05 2.7309274e-05 -2.105216e-05 0.2996764
00000000: 227e 86b7 7655 cc37 435b 52b6 5733 8b3e
00000010: dce3 153e 9fef a43e cc52 a63e 8bc9 b23e
00000020: f962 bb3e 059b c33e 2431 f23e 56ca cb3e
00000030: 6d92 ec3e 2869 0a3f 175a de3e 7293 943e
00000040: 5e59 a23e 76d3 a73e 4287 8f3e b61d 033f
00000050: cd15 973e 5eeb 643e 8c7e 173f 2fde ba3e
00000060: e9eb 4d3e 323a 223f 2f7f a33e 727b 833e
00000070: 0e74 e83e f69a 9e3e 2370 5c3e 896b 123f
00000080: 0738 9f3e d7fa ff3d 0093 1a3f 5cd4 8f3e
00000090: feb9 173e 8149 143f ba76 083e 6872 4e3e
000000a0: cf6d 193f 2455 7a3e 5502 3e3d 5fc7 143f
000000b0: f13b 863e 872f 72bd a5ee 113f 5275 763e
000000c0: 6523 a2bd 7593 153f 109f 513e 2deb b13d
000000d0: 6b98 d23c 37a4 143e 17c9 183e 1023 383d
000000e0: 5bc2 6c3e 7570 453e e70c 343e 403f 933e
000000f0: d4df 683e 815d 703e fe1a 8d3e 1450 bbb7
00000100: b1bc 9138 408f b1b7 7fba c6be 3170 a53c
00000110: 4d8a a53e 6b93 19bf 772a 863e de0f ba3e
00000120: b767 30bf 85fd f73e 90ab 943e 90ac 38bf
00000130: 971e 213f f9dc 623e e361 afbe 8930 9abd
00000140: 5d03 c53e 3985 27bf ac64 103e 7b49 af3e
00000150: 9018 45bf fbc0 4a3e 4534 0b3e 677c 46bf
00000160: c408 083e e1ba 7bbb 723e 88be 84ef 16be
00000170: 9d27 ca3e 3fef 13bf 9a9f f73b a906 593e
00000180: c74f 2bbf 465f de3d e645 4cbd 3122 24bf
00000190: c8ea 1e3e 5066 55be feb3 30be b91b 3ebe
000001a0: 49f4 a03e df75 9dbe 83ba 02be b529 1c3e
000001b0: a299 abbe c040 2cbe 46bd 0e3d b6b7 bdbe
000001c0: a544 91be 951a 4ebc b604 93be 8d4f 533d
000001d0: f7d7 7abd 3c73 06bf 961e 6c3d fc42 a5bc
000001e0: 3828 fcbe eb61 bc3d d1e2 1ebd eaaf 13bf
000001f0: e19a bc3d da8c 41bd 478e 7db7 2271 3538
00000200: 2004 6436 3a83 64be 7527 e53e 45de f33e
00000210: eef7 e1bd 4510 173f 4931 563f b958 853d
00000220: 3ce0 273f effc 703f a059 363e 3330 2a3f
00000230: 97e1 703f aafe 8fbe ff96 9d3e 05a2 b43e
00000240: 8c2c edbd 7ac7 8c3e 886e 103f 3ec9 c5bc
00000250: 8c5f a03d a803 3a3f 61a2 93bd 5bda 3fbd
00000260: e50b 863f 7cb2 9abe 9d66 0b3e 0021 4b3e
00000270: 58e6 9abd c1ae 403e 4d93 9f3e e398 c23d
00000280: 5f21 193e f406 b23e 907a f63d 363d 0e3e
00000290: 458d da3e e9b2 77be 939a a9bd af9e d23a
000002a0: 1dc1 55be 237d e9bd 327f e83c 68e8 14be
000002b0: b60e 05be 1695 df3b a59f 97bd 803b eebd
000002c0: 07f8 81bb 8c26 483e 8d10 b13e 2931 af3e
000002d0: c89a a73e 4142 343f e1d1 293f 679f c33e
000002e0: dffa 273f 2d4f 363f 081b f23e 312a 313f
000002f0: fa9f 323f 0631 77b7 5344 8238 5247 a9b7
00000300: 2b28 53be 6375 873e 93a4 a1bc f767 91bb
00000310: d530 e53e 6da1 edbc 9417 4b3e 1c9c 053f
00000320: 72f0 b4bd 14b7 983e 4e94 0d3f dad4 b4bd
00000330: c04b 8fbc 62e1 a43d dff4 7abe 0f0e 31bc
00000340: 0104 1a3f ef4d b4bc 356a b7bc 4043 4b3f
00000350: 58f7 8fbd ea00 22be 04c3 583f 021b b8bd
00000360: f0e8 193e 6487 c8bd 6e3d d2be 926c 903d
00000370: 70df 0f3e 4de3 b2be 12f9 4a3e 1244 663e
00000380: 5381 c8be 8453 d33e f5a9 863e 23e5 adbe
00000390: 7472 c53e 2554 8fbe 2047 0bbf e1d0 d03e
000003a0: 0a6b bdbe 7b93 0cbf de90 e53e 237c 00bf
000003b0: 40ff 06bf e143 0b3f bd31 24bf e783 f2be
000003c0: e6be 483c 9b84 7c3e 0b68 273d a47f 79bd
000003d0: b15b eb3e 3b1c 073d 287e 2f3d aa03 ee3e
000003e0: 6175 433d 485d 57be 5134 4a3e 84b8 013e
000003f0: a0df 93b7 3816 e537 2b99 b0b7 2f6f 993e
