pretrained_model/MSRA_pretrained/p0/params/-1_en_params.npz (npz, 17866 bytes, 6 tensors)

arr_1 f4 [40]
0	0x3cd88178	0.026428923
1	0xbd4d6657	-0.050146427
2	0x3f0663e7	0.5249619
3	0x3c784d42	0.015155138
4	0x3e607748	0.21920502
5	0x3e4c2841	0.1993723
6	0x3e7137b9	0.23556413
7	0x3eda956b	0.42692122
8	0x3e44a48d	0.19203396
9	0x3dafd81e	0.08586143
10	0xbe935772	-0.28777653
11	0x3d97001a	0.07373066
12	0xbd33af76	-0.043868504
13	0xbe53eb35	-0.20695193
14	0x3da00dda	0.07815142
15	0x3c64af31	0.0139577845
16	0xbd43246d	-0.04764216
17	0xbd86059f	-0.06544041
18	0x3ec34305	0.3813707
19	0x3de33beb	0.11095413
20	0xbe04bbcb	-0.12962262
21	0xbd8cfb11	-0.068838246
22	0xbe85af6e	-0.26110405
23	0xbe45fc68	-0.19334567
24	0xbe9eb0f7	-0.30994388
25	0xbe58e10d	-0.211796
26	0xbe87cd77	-0.26523945
27	0xbda2c615	-0.079479374
28	0xbedb7780	-0.4286461
29	0xbd5e253e	-0.054234736
30	0x3e053786	0.13009462
31	0xbe90b3ed	-0.28262272
32	0xbe920d0a	-0.28525573
33	0x3e1d0a82	0.1533604
34	0xbea90665	-0.3301269
35	0xbe37f812	-0.17965725
36	0xbdf02f0f	-0.11727726
37	0x3cd5884b	0.026065966
38	0x3e8dde01	0.27708438
39	0xbe29f376	-0.16596779

arr_0 f4 [63, 40]
0	0x2ee8b1a2	1.05816925e-10
1	0x2ef3b029	1.1081653e-10
2	0x2f2ad41f	1.553677e-10
3	0x2f19daa5	1.3992947e-10
4	0xae0688cb	-3.058957e-11
5	0x2f7a48c4	2.2763219e-10
6	0xb096554b	-1.0938178e-09
7	0x30483f39	7.284942e-10
8	0xaf5214f1	-1.9106829e-10
9	0x300bffcb	5.093141e-10
10	0xaff472e7	-4.4464984e-10
11	0xb10996f0	-2.0021922e-09
12	0x2f93fe5f	2.6919886e-10
13	0x309ed72f	1.1557172e-09
14	0x3105311e	1.9381967e-09
15	0xb0df6fc3	-1.625715e-09
16	0xb0c61be6	-1.4414325e-09
17	0x2fedda22	4.3265042e-10
18	0xb13e9d54	-2.773807e-09
19	0x30a4a682	1.1979895e-09
20	0xb1048ec2	-1.9289677e-09
21	0x301d4ced	5.7225585e-10
22	0xb0a542e7	-1.2024345e-09
23	0x2e916653	6.612013e-11
24	0x318b3133	4.0510257e-09
25	0xb1a6967b	-4.8483435e-09
26	0xaee46cea	-1.03875866e-10
27	0x3221d130	9.418997e-09
28	0xb23812d8	-1.0714494e-08
29	0xb193ca49	-4.3012602e-09
30	0xb19adfb6	-4.507423e-09
31	0xb2134d22	-8.574064e-09
32	0x312a0507	2.4741114e-09
33	0x31c4b8e6	5.7253713e-09
34	0x31c8559c	5.8304988e-09
35	0x3163c284	3.3143417e-09
36	0xb23106e1	-1.030432e-08
37	0xb136da10	-2.660844e-09
38	0xb1d7f151	-6.284758e-09
39	0xb358e31f	-5.0497984e-08
40	0x33800000	5.9604645e-08
41	0x33000000	2.9802322e-08
42	0xb4000000	-1.1920929e-07
43	0x32800000	1.4901161e-08
44	0x33180000	3.5390258e-08
45	0x34200000	1.4901161e-07
46	0xb4400000	-1.7881393e-07
47	0xb3800000	-5.9604645e-08
48	0x34400000	1.7881393e-07
49	0xb4380000	-1.7136335e-07
50	0x33e00000	1.0430813e-07
51	0x34000000	1.1920929e-07
52	0xb3880000	-6.3329935e-08
53	0x32c00000	2.2351742e-08
54	0xb3800000	-5.9604645e-08
55	0x33d00000	9.685755e-08
56	0x34080000	1.2665987e-07
57	0xb4920000	-2.719462e-07
58	0x33600000	5.2154064e-08
59	0x33f00000	1.1175871e-07
60	0xb3400000	-4.4703484e-08
61	0xb4130000	-1.3690442e-07
62	0x33740000	5.6810677e-08
63	0xb29a0000	-1.792796e-08
64	0xb1800000	-3.7252903e-09
65	0xb42c0000	-1.6018748e-07
66	0x33c24000	9.0454705e-08
67	0x33600000	5.2154064e-08
68	0xb50f0000	-5.327165e-07
69	0x350d8000	5.271286e-07
70	0x33b80000	8.568168e-08
71	0x34b00000	3.2782555e-07
72	0xb4730000	-2.2631139e-07
73	0x32300000	1.0244548e-08
74	0x332c0000	4.004687e-08
75	0xb4170000	-1.4062971e-07
76	0xb4250000	-1.5366822e-07
77	0xb38a0000	-6.426126e-08
78	0xb4a78000	-3.1199306e-07
79	0xb4180000	-1.4156103e-07
80	0x33800000	5.9604645e-08
81	0x32800000	1.4901161e-08
82	0xb2800000	-1.4901161e-08
83	0x32c00000	2.2351742e-08
84	0xb32c0000	-4.004687e-08
85	0xb4000000	-1.1920929e-07
86	0x34200000	1.4901161e-07
87	0xb3800000	-5.9604645e-08
88	0xb2000000	-7.450581e-09
89	0x33000000	2.9802322e-08
90	0xb2c00000	-2.2351742e-08
91	0xb3c00000	-8.940697e-08
92	0x33600000	5.2154064e-08
93	0xb3800000	-5.9604645e-08
94	0x33c00000	8.940697e-08
95	0xb2800000	-1.4901161e-08
96	0xb3e00000	-1.0430813e-07
97	0xb3480000	-4.656613e-08
98	0xb4080000	-1.2665987e-07
99	0xb3300000	-4.0978193e-08
100	0xb2800000	-1.4901161e-08
101	0x339a0000	7.171184e-08
102	0x32000000	7.450581e-09
103	0xb4aea000	-3.252644e-07
104	0x351f0000	5.9232116e-07
105	0x35240000	6.109476e-07
106	0x34501000	1.937733e-07
107	0x35470000	7.4133277e-07
108	0x35230000	6.072223e-07
109	0x351c0000	5.811453e-07
110	0xb4950000	-2.7753413e-07
111	0x34a50000	3.0733645e-07
112	0x34c78000	3.715977e-07
113	0x35328000	6.649643e-07
114	0x34b10000	3.296882e-07
115	0x34030000	1.2200326e-07
116	0x34a90000	3.1478703e-07
117	0xb416c000	-1.4039688e-07
118	0x34ddc000	4.1304156e-07
119	0x36336000	2.6728958e-06
120	0x3dd1f4a0	0.10251737
121	0xbe60f927	-0.21970044
122	0x3c148643	0.009065214
123	0xbdd8ddd9	-0.10589189
124	0x3e386b89	0.18009771
125	0x3dff416f	0.12463652
126	0x3dbed47a	0.093178704
127	0x3e1597c7	0.1460868
128	0xbde841b8	-0.1134066
129	0xbe2e4f3c	-0.17022413
130	0xbc963b9a	-0.018338967
131	0xbc310d53	-0.010806399
132	0x3c989556	0.018625896
133	0x3eaa5965	0.33271328
134	0x3e167502	0.14693072
135	0x3dbe96f3	0.09306135
136	0xbe9f6d73	-0.3113819
137	0xbe03dbd5	-0.12876828
138	0xbd3bfad6	-0.045893513
139	0x3edf8391	0.43655065
140	0xbde89e3f	-0.11358308
141	0xbae05a12	-0.0017116687
142	0x3e1f614e	0.15564463
143	0xbd52f6cd	-0.0515049
144	0xbd829672	-0.063763514
145	0x3e0c52f0	0.13703513
146	0x3ebe7a36	0.37202615
147	0x3dce59c6	0.10075717
148	0xbe699d8d	-0.22814007
149	0xbc050ba6	-0.008120453
150	0x3a92d39b	0.0011201979
151	0xbe31672d	-0.17324515
152	0xbd662409	-0.05618671
153	0x3d4a9ed8	0.04946789
154	0x3e1abcf0	0.15111136
155	0xbccdcd27	-0.025122238
156	0x3aa7a0e1	0.0012789035
157	0x3deed475	0.11661617
158	0x3d0c2a9a	0.034220316
159	0xbcef6fec	-0.029228173
160	0x3dbeb93f	0.09312677
161	0x3dd0d7ef	0.10197436
162	0xbd60c9cf	-0.05487996
163	0x3d83c640	0.064342976
164	0xbc782f6e	-0.015148027
165	0x3d8eb19b	0.06967469
166	0xbdc03466	-0.09384994
167	0x3dcdaaa1	0.100423105
168	0x3b02194f	0.001985151
169	0xbd52a754	-0.051429108
170	0x3defb208	0.11703879
171	0xbd4bb17b	-0.049729805
172	0x3e25edff	0.1620407
173	0x3e9ec991	0.31013158
174	0x3e43ac49	0.1910869
175	0x3e8644eb	0.26224455
176	0xbd1da4b6	-0.03848716
177	0xbce7681f	-0.028247891
178	0x3e1ae2de	0.15125605
179	0x3ded6727	0.115919404
180	0xbb9e1f54	-0.004825512
181	0xbe346bdf	-0.17619275
182	0x3c5b2576	0.013375631
183	0x3e34c51f	0.1765332
184	0xbd80c6a2	-0.06287886
185	0xbc8bf088	-0.017082468
186	0xbe233e06	-0.15941629
187	0x3e18da2b	0.14926974
188	0x3ea78bd1	0.3272386
189	0x3e283d36	0.164296
190	0xbe6a0de4	-0.22856861
191	0x3dba397b	0.09092995
192	0xbd422af5	-0.04740425
193	0x3df40b15	0.11916176
194	0xbd22e4b4	-0.03976889
195	0xbdfaf08e	-0.122529134
196	0xbd5eeedb	-0.05442701
197	0xbd19acee	-0.037518434
198	0x3ccd3d76	0.02505372
199	0xbd1ad6dd	-0.037802566
200	0x3dcf7d60	0.10131335
201	0xbd127371	-0.035754625
202	0x3e895cef	0.26828715
203	0xbe1ebc18	-0.1550144
204	0xbe8cb0f0	-0.27478743
205	0xbe7ae186	-0.24500093
206	0xb6bbed2c	-5.6006447e-06
207	0xbdb58cea	-0.08864768
208	0xbdecf806	-0.11570744
209	0xbe095b54	-0.13413745
210	0xbe18a484	-0.14906508
211	0xbde198ee	-0.11015497
212	0xbb04afdc	-0.0020246422
213	0x3deb9afd	0.11504171
214	0xbdd358c9	-0.10319669
215	0x3e46a8d4	0.1940034
216	0xbea253b9	-0.317045
217	0x3eb3fd52	0.35154206
218	0x3ddffb48	0.109366
219	0xbdb0e0ec	-0.086366504
220	0xbe1afd50	-0.15135694
221	0x3d85fdf5	0.06542579
222	0xbe3f4b8f	-0.18681167
223	0x3d92a370	0.071600795
224	0xbe36cfc9	-0.17852701
225	0xbddc84c9	-0.10767514
226	0xbc57e9b3	-0.013178277
227	0xbb8e0c1f	-0.004334941
228	0xbd30710a	-0.043076552
229	0x3db4de06	0.0883141
230	0xbe3a2acb	-0.18180387
231	0xbe0c1b28	-0.13682234
232	0xbc5c0db9	-0.013431006
233	0xbe9ca04c	-0.30591047
234	0xbe466329	-0.19373764
235	0x3e6b9bdd	0.23008676
236	0xbb428c91	-0.0029685835
237	0x3c834815	0.016025582
238	0x3c68cd93	0.014209169
239	0xbe35c7a3	-0.17751937
240	0x3e28360a	0.16426864
241	0xbe4b18a2	-0.19833615
242	0xbd978564	-0.07398489
243	0xbe120e55	-0.1426328
244	0x3de7fedb	0.11327907
245	0x3dc4a9bb	0.09602686
246	0x3d478133	0.0487072
247	0x3e92d32f	0.28676745
248	0x3b11ba73	0.0022236377
249	0xbe1c9deb	-0.15294616
250	0xbe2efd0e	-0.1708872
251	0xbe1450ca	-0.14483944
252	0xbc9f0045	-0.019409308
253	0x3de1f822	0.11033656
254	0x3cc14a62	0.023595039
255	0xbc11e211	-0.008903996

arr_3 f4 [20]
0	0x3e5c38dc	0.21506065
1	0x3d14f321	0.03636468
2	0x3dceea76	0.101033136
3	0xbe0bf6ee	-0.13668415
4	0xbd89ceb8	-0.067288816
5	0x3e6979fa	0.22800437
6	0x3e594b0b	0.21220033
7	0x3e5e512e	0.21710655
8	0xbdb44bcf	-0.08803522
9	0xbd7e2800	-0.062049866
10	0xbe920671	-0.2852054
11	0x3e4a26dd	0.19741388
12	0xbe7f72c4	-0.24946123
13	0xbe58fad8	-0.2118944
14	0x3d8d88e3	0.06910875
15	0x3e80e106	0.2517168
16	0x3d0d0722	0.03443063
17	0x3ea8f2ea	0.3299783
18	0x3e3418fe	0.17587659
19	0x3e825574	0.2545582

arr_2 f4 [40, 20]
0	0x3c28a353	0.010292846
1	0xb97d94fc	-0.00024183461
2	0x3d0b1cc8	0.033962995
3	0x3d2dcb4f	0.04243022
4	0x3c8c7a5b	0.017148187
5	0x3d1dbf03	0.03851224
6	0xbd2e34ca	-0.042530812
7	0x3cdac372	0.026704524
8	0x3c109c18	0.008826278
9	0x3cdd648c	0.027025484
10	0x3d4782d0	0.048708737
11	0x3ccb44c5	0.024813065
12	0xbb06a323	-0.0020544014
13	0xbc284de7	-0.01027248
14	0xbca53111	-0.020164998
15	0x3d2b99c6	0.041894697
16	0xbc02764c	-0.0079627745
17	0x3c0a26e6	0.008432126
18	0xbcd53d59	-0.02603023
19	0x3cf77f43	0.03021205
20	0x3c648490	0.013947621
21	0xbb406f95	-0.0029363383
22	0xbd00e79c	-0.03147088
23	0x3d2f4a48	0.04279545
24	0x3d31a4ec	0.043370172
25	0x3c1d0a41	0.009584964
26	0x3beedbcd	0.007289386
27	0xbd061b9d	-0.032741178
28	0xbcef3a85	-0.029202709
29	0x3b2d3d9e	0.0026434432
30	0xbd04c146	-0.032410882
31	0xbd271548	-0.04079178
32	0xbd0707c0	-0.032966375
33	0xbd237ec9	-0.039915834
34	0xbd4603d9	-0.048343513
35	0x3b2abc94	0.0026052343
36	0x3c6ade22	0.014335187
37	0xbd1a000d	-0.037597705
38	0xbd391936	-0.04519006
39	0xbc6f8890	-0.014619961
40	0x3cb7e8db	0.022449901
41	0x3cf08cad	0.029363954
42	0x3c0947c1	0.008378924
43	0xbb1c95bd	-0.0023892962
44	0xbd057a86	-0.03258755
45	0x3ccfdd07	0.025373949
46	0x3cdd32ea	0.027001817
47	0x3d2e1916	0.042504393
48	0x3d0f1661	0.03493345
49	0xbd411f66	-0.047149085
50	0xbda8ec8c	-0.08248243
51	0x3c25e982	0.010126473
52	0xbd143301	-0.036181454
53	0xbd80f971	-0.06297577
54	0xbcb17242	-0.021660928
55	0x3d4d3334	0.05009766
56	0xbe119f7a	-0.14220992
57	0x3d4bacca	0.04972533
58	0x3cd4da41	0.025982978
59	0x3d428cdc	0.047497615
60	0xbd18937a	-0.03725002
61	0x3de319d2	0.11088909
62	0x3d5bb514	0.053639486
63	0xbd387b24	-0.04503931
64	0x3d7e05de	0.062017314
65	0x3b0a35a4	0.0021089101
66	0xbc6d89b1	-0.01449816
67	0x3d079160	0.033097625
68	0x3d390c76	0.0451779
69	0xbb707ae2	-0.0036694338
70	0x3ca6c3b1	0.020356985
71	0xbda217b5	-0.07914678
72	0xbcd6f4f1	-0.026239844
73	0x3bf70ba0	0.0075392276
74	0x3cd57d4f	0.026060728
75	0x3c9ae460	0.018907726
76	0xbcaaf2f3	-0.0208678
77	0xbb84b715	-0.0040501454
78	0xbc253315	-0.01008298
79	0x3c832c28	0.016012266
80	0xbda5ab52	-0.080893174
81	0xbca23f15	-0.01980547
82	0x3abf41a0	0.0014591701
83	0xbb259d10	-0.0025270618
84	0x3d1a15a0	0.03761828
85	0x3ce76e76	0.028250914
86	0x3d10098f	0.035165366
87	0x3d1df920	0.038567662
88	0xbd65bb0b	-0.05608658
89	0xbcfc87ce	-0.030826475
90	0xbcc44d4d	-0.023962641
91	0x3cfba31f	0.03071743
92	0xbca1276d	-0.01967212
93	0x3ddf0a6d	0.108906604
94	0xbd391911	-0.04518992
95	0xbcafaf4a	-0.021445889
96	0x3d14308b	0.036179107
97	0xbd26fb52	-0.04076702
98	0x3c800f9b	0.015632441
99	0x3d8c5179	0.06851477
100	0x3d3733d2	0.044727154
101	0xbd106761	-0.03525484
102	0x3d47c030	0.04876727
103	0x3d6600e7	0.056153204
104	0x3c6a18a2	0.0142880995
105	0x3d8cfe2d	0.06884418
106	0x3c9bff8c	0.019042753
107	0xbcf6047e	-0.030031439
108	0x3d21d434	0.039509013
109	0x3d128f8e	0.035781436
110	0x3d1dcd02	0.03852559
111	0x3c363a8d	0.011122358
112	0xbd26c47e	-0.040714733
113	0x3cad4028	0.021148756
114	0x3cff791a	0.031185675
115	0xbc875619	-0.016520547
116	0xbd7b5996	-0.061364733
117	0xbd17b409	-0.03703693
118	0x3da10e8f	0.07864105
119	0xbd2cf6ea	-0.042227663
120	0x3bd24a95	0.0064175823
121	0xbd32247d	-0.04349183
122	0xbb94328a	-0.0045226263
123	0x3d8ecd82	0.06972791
124	0xbd2115ba	-0.03932736
125	0x3cbdcd3e	0.023169156
126	0x3d9ef890	0.07762253
127	0xbd48d0b3	-0.049027156
128	0xbd5c5d18	-0.05379972
129	0x3d3417fd	0.04396819
130	0xbd8ac801	-0.06776429
131	0x3dda4e7a	0.106594995
132	0xbcb6fed5	-0.02233831
133	0x3b89068f	0.00418169
134	0x3ab8e785	0.0014107084
135	0x3ce1a725	0.027545521
136	0x3c7e4b48	0.015520878
137	0x3d808ede	0.0627725
138	0x3ce761e1	0.028244914
139	0x3cae38f8	0.0212674
140	0x3cd26025	0.02568061
141	0x3d2bf6b9	0.04198334
142	0x3d0d9d01	0.03457356
143	0x3d8c71ad	0.068576194
144	0xbd8257c4	-0.06364396
145	0x3c87b5aa	0.016566116
146	0x3d15c0b7	0.03656074
147	0x3c139b07	0.009009129
148	0x3d9791eb	0.074008785
149	0xbd82071c	-0.06349012
150	0xbd6cfb64	-0.057856932
151	0x3caba82a	0.02095421
152	0x3ce3d6b2	0.027812336
153	0x3d0f5a3d	0.034998167
154	0x3c5d9e22	0.013526471
155	0x3c987ad5	0.018613258
156	0xbd781e2a	-0.06057564
157	0x3d17bc6c	0.037044927
158	0xbd8481ec	-0.06470093
159	0xbbf44931	-0.007455014
160	0xbcee5bea	-0.029096562
161	0xbc51692e	-0.012781424
162	0xbd123e08	-0.03570369
163	0xbd243d60	-0.040097594
164	0x3c3a7c8f	0.011382236
165	0xbd52b3a2	-0.051440842
166	0x3d577f3f	0.052611586
167	0xbd95f353	-0.07321801
168	0x3d6f64fe	0.058445923
169	0x3cf7d0a7	0.03025086
170	0x3c836899	0.016041087
171	0x3d907fe4	0.07055643
172	0x3caaef41	0.020866038
173	0xbc0804de	-0.008301942
174	0xbcf82719	-0.03029208
175	0x3da0a59b	0.07844087
176	0xbdfef4fe	-0.12449072
177	0xbd191a27	-0.037378456
178	0x3c63f9eb	0.013914566
179	0x3d21b455	0.03947862
180	0xbc0bd46b	-0.008534531
181	0xbc08d46f	-0.008351429
182	0xbc814999	-0.015782164
183	0xbcd2bb18	-0.025723979
184	0xbc881470	-0.016611308
185	0xbc83a752	-0.016070995
186	0x3c275e3c	0.010215338
187	0xbc271ecc	-0.010200214
188	0x3b4f48e2	0.0031629135
189	0x3b95f777	0.0045766192
190	0xbd18e271	-0.037325326
191	0xbc53b5fb	-0.0129218055
192	0xbc2ea989	-0.0106605375
193	0x3c755c0b	0.014975558
194	0x3b14b308	0.0022689719
195	0xbc18ecaf	-0.0093337735
196	0x3b0187ac	0.0019764705
197	0xba82d94e	-0.0009982975
198	0x3ba1674b	0.0049256436
199	0xbca5fffe	-0.020263668
200	0xbd2382bd	-0.039919604
201	0xbc8bf703	-0.017085558
202	0x3d440714	0.047858313
203	0xbd30f05a	-0.043197967
204	0x3c934961	0.017979326
205	0x3d7ca825	0.061683793
206	0x3ca8cd0d	0.020605588
207	0xbd57c300	-0.0526762
208	0x3d19f7e9	0.03758994
209	0x3bea35a6	0.0071475087
210	0x3cee7f36	0.029113393
211	0x3c8e053d	0.017336482
212	0x3d724381	0.059146408
213	0xbd136caa	-0.035992302
214	0x3c5ff2cc	0.013668727
215	0x3bff62ba	0.0077937515
216	0x3e0a5fb7	0.13513075
217	0xbcf5d55d	-0.030008966
218	0xbd5886c4	-0.052862898
219	0xbd6fda09	-0.058557544
220	0xbba9fc22	-0.0051875273
221	0x3c00d903	0.00786424
222	0xbcf90379	-0.030397164
223	0xbd0ee4cc	-0.034886166
224	0xbc60d791	-0.01372327
225	0xbd026404	-0.031833664
226	0x3d42b287	0.04753354
227	0xbcce83cc	-0.02520933
228	0xbc63af29	-0.013896742
229	0xbd0decb5	-0.03464957
230	0xbce63559	-0.02810161
231	0xbcc92870	-0.024555415
232	0x3c64edac	0.013972681
233	0x399457ca	0.00028294168
234	0x3c8c95d2	0.017161284
235	0xbd4b51b6	-0.049638472
236	0x3c0e5db8	0.0086893365
237	0xbbd339ad	-0.0064460845
238	0x3ceadb86	0.02866913
239	0xbca44957	-0.020054502
240	0xbd5ecabd	-0.054392565
241	0xbc51191e	-0.012762336
242	0x3d94eceb	0.07271751
243	0x3cc00c41	0.023443343
244	0x3bb22dd9	0.0054375944
245	0xbdce01aa	-0.10058911
246	0xba255bbc	-0.000630792
247	0xbd080ab9	-0.03321335
248	0xbcf90e8b	-0.030402442
249	0x3d1404de	0.036137454
250	0x3ab7a839	0.0014011926
251	0x3d6f3d42	0.05840803
252	0xbd8ec590	-0.06971276
253	0xbd4f4f1d	-0.050612558
254	0xbbaede86	-0.0053365855
255	0xbdff72a8	-0.12473041

arr_5 f4 [20]
0	0xbcb1712e	-0.021660414
1	0xbc9ee1c9	-0.019394772
2	0xbcbb86fc	-0.022891514
3	0xbd3420d4	-0.04397662
4	0xbd106b9d	-0.035258878
5	0xbd067ced	-0.032833982
6	0xbcf99897	-0.030468268
7	0xbcd3d67f	-0.025859116
8	0xbcc0da40	-0.02354157
9	0xbcc35e2e	-0.02384862
10	0xbd1086ae	-0.03528469
11	0xbd0af1e4	-0.03392209
12	0xbd210fec	-0.039321825
13	0xbd0fe121	-0.03512681
14	0xbd172fcc	-0.036910817
15	0xbcede06f	-0.029037682
16	0xbcc767cf	-0.024341492
17	0xbd0cd4c7	-0.034382608
18	0xbd0cb392	-0.03435094
19	0xbcc1cd80	-0.02365756

arr_4 f4 [40, 20]
0	0xb9681bbd	-0.00022135577
1	0xb9f9cde0	-0.0004764637
2	0x390654a4	0.00012810767
3	0x381cf94a	3.7425467e-05
4	0xb9d53fb9	-0.00040674003
5	0xba178df7	-0.0005781347
6	0xba85587b	-0.0010173464
7	0x38a384c7	7.7971774e-05
8	0xba2a6894	-0.00065005687
9	0x395b574e	0.00020917991
10	0x3a070086	0.00051499193
11	0xb9a92a9c	-0.00032265938
12	0x3a1bf9f9	0.00059500296
13	0x39c10280	0.0003681369
14	0xb889bbf4	-6.567678e-05
15	0x3988c0cb	0.00026083583
16	0xb7fec9ac	-3.037307e-05
17	0x39dba43d	0.00041893302
18	0xba13336c	-0.00056152674
19	0x39ba61a4	0.00035549433
20	0x394624d3	0.0001889647
21	0xb93642dc	-0.0001738178
22	0xb82a8c04	-4.0661558e-05
23	0xb9f6447e	-0.00046971807
24	0x39734bff	0.00023202597
25	0x39d9d240	0.00041546114
26	0x3a3dbe6f	0.00072381546
27	0x39c627d2	0.0003779517
28	0x37bfe260	2.2874388e-05
29	0xb991c170	-0.00027800677
30	0xb930b4e2	-0.00016852052
31	0xb99f5685	-0.00030391305
32	0xb90f09fc	-0.00013641262
33	0x3a0099fe	0.0004905759
34	0xb9a0fcb1	-0.00030705848
35	0x38ea7206	0.00011179228
36	0xb9f7bee8	-0.00047253747
37	0x379837a8	1.8145729e-05
38	0xba2a2b92	-0.0006491478
39	0xb868c148	-5.5493118e-05
40	0xbb628ad4	-0.0034567611
41	0x39e5006e	0.00043678604
42	0x3af3fde0	0.0018615089
43	0xbb92c687	-0.0044792327
44	0xbb255918	-0.0025230106
45	0xbb3378d5	-0.0027385254
46	0xbb29318e	-0.002581689
47	0xb97574c9	-0.00023408527
48	0x3a8f8aa8	0.0010951357
49	0x3a9ef17a	0.0012126409
50	0xbb90354b	-0.0044008843
51	0xbab8e7a6	-0.0014107123
52	0x376077b0	1.3379307e-05
53	0x3b3a45eb	0.0028423022
54	0xbb9eb935	-0.0048438557
55	0xbb1f559f	-0.0024312509
56	0x39f2fe13	0.00046347137
57	0xbb6246ce	-0.0034527066
58	0xbb9161c7	-0.004436705
59	0x3aa01ac8	0.0012215013
60	0xb8ba88c9	-8.894649e-05
61	0xb9a54d1e	-0.0003152871
62	0x39e191c0	0.00043023936
63	0xb950847e	-0.00019885783
64	0xba1b495f	-0.0005923714
65	0xba3decb7	-0.0007245051
66	0xb9b4ef89	-0.00034510743
67	0x399cfd15	0.000299432
68	0xb9bc55a7	-0.0003592197
69	0xb9cca436	-0.0003903226
70	0x37649370	1.3624187e-05
71	0xb9145206	-0.00014144936
72	0xba419633	-0.0007384747
73	0xba126e5f	-0.00055859046
74	0xb99f3e01	-0.0003037304
75	0x392101fa	0.00015354893
76	0x3844dc1a	4.6935027e-05
77	0xb98cfaae	-0.00026889652
78	0xb996cec9	-0.00028764296
79	0xba0422b2	-0.00050405704
80	0xb74bae80	-1.2140372e-05
81	0xb9b69b87	-0.00034829622
82	0x39617cf2	0.00021504218
83	0xba7461ee	-0.0009322454
84	0x398a2af3	0.0002635341
85	0xb9d63c1e	-0.00040862052
86	0xba93e43e	-0.0011283231
87	0xb9d71290	-0.00041021826
88	0xb9c0e6ef	-0.00036793153
89	0xb8c8b5d8	-9.570614e-05
90	0xba44020e	-0.0007477113
91	0xba13126b	-0.00056103495
92	0xb957c6c0	-0.00020578038
93	0xba062687	-0.00051174354
94	0xb9116860	-0.0001386716
95	0xba72cf1d	-0.00092624297
96	0x38e6d1e4	0.0001100635
97	0xb9ac3daa	-0.0003285234
98	0xb96c4217	-0.00022531334
99	0xb9cc77c8	-0.00038999156
100	0xb7c32008	-2.3260727e-05
101	0xb99996f0	-0.0002929489
102	0xb96336bb	-0.00021668796
103	0xba512669	-0.0007978441
104	0xb9f1a89d	-0.0004609273
105	0xba3c10ab	-0.00071741146
106	0xb999f506	-0.0002936499
107	0x37fee2aa	3.0384708e-05
108	0x398266e6	0.00024872198
109	0xb6993ce0	-4.566842e-06
110	0x39bbdc81	0.00035831708
111	0x39deb8e4	0.00042480894
112	0x38c7c0f4	9.525e-05
113	0xb9197ab1	-0.00014636923
114	0x3796e3f0	1.7987535e-05
115	0xba3d2330	-0.0007215021
116	0xb9967ea3	-0.0002870458
117	0xb95bab11	-0.00020949195
118	0xb8fbbf7a	-0.00012004278
119	0x39b6ff32	0.0003490388
120	0xb948d56a	-0.00019152989
121	0xbaa8920c	-0.0012860908
122	0xbaa75cc6	-0.0012768738
123	0x3a8c13cd	0.0010687053
124	0x3b1b92d7	0.0023738646
125	0x3a06f921	0.00051488174
126	0xbb4b93ed	-0.0031063512
127	0xbbaf479b	-0.005349112
128	0xba9346b3	-0.001123628
129	0xba23c67f	-0.0006247535
130	0xbb1bdf9e	-0.002378441
131	0xba3e214c	-0.00072528864
132	0xbb912328	-0.00442924
133	0xbb834a5b	-0.0040066666
134	0xba70e1a1	-0.0009188895
135	0xbb8055fb	-0.0039164997
136	0xbb07969a	-0.002068913
137	0x39837c3e	0.00025078835
138	0x3b1836cf	0.0023226028
139	0x3ae26316	0.0017271962
140	0xb9c513ee	-0.00037589617
141	0x39068890	0.0001283011
142	0xba247e09	-0.0006274884
143	0xbaa07649	-0.0012242283
144	0xbaf25c37	-0.0018490617
145	0xba8ab05d	-0.0010581125
146	0xbac20ea6	-0.0014805391
147	0xba07c006	-0.0005178455
148	0xba429ca4	-0.0007423854
149	0xba2c399a	-0.00065698626
150	0xbaad46c6	-0.0013219945
151	0xbaaa776b	-0.001300556
152	0xb9eba4d8	-0.0004494551
153	0xba8e5dca	-0.0010861692
154	0xba4fd799	-0.000792855
155	0xb980ae50	-0.00024543935
156	0xb93925f8	-0.0001765712
157	0xba0756f2	-0.0005162797
158	0xba4c953f	-0.0007804222
159	0xbaaf121d	-0.0013356839
160	0xb8a10540	-7.678056e-05
161	0x39a9e4c4	0.00032404636
162	0xb8f4add4	-0.00011667205
163	0xb93cf7c5	-0.00018021378
164	0xba07e268	-0.00051835785
165	0xb99775b8	-0.00028888672
166	0xb7dd5f18	-2.6389534e-05
167	0x396a8ca4	0.00022368372
168	0x38c0a221	9.185472e-05
169	0xb9f8385c	-0.00047344237
170	0xbabb363e	-0.0014283133
171	0xba833e01	-0.0010012985
172	0xba43001f	-0.0007438678
173	0x38c69600	9.4693154e-05
174	0xba0c88fb	-0.0005360988
175	0xb9716970	-0.0002302283
176	0xb8a542cb	-7.880254e-05
177	0xba73a1a7	-0.00092938024
178	0xba4a395d	-0.0007714236
179	0xba05a8c4	-0.00050986954
180	0xb85b2664	-5.2249423e-05
181	0xb76f5724	-1.4265799e-05
182	0x3a3febca	0.0007321207
183	0xb94f67aa	-0.00019779676
184	0x3ab5727e	0.0013843325
185	0x3955121b	0.00020320008
186	0xb6b2cc40	-5.328591e-06
187	0x3a8034d6	0.0009781371
188	0x398ea24a	0.00027205265
189	0x3a953404	0.00113833
190	0x3a6f42df	0.0009127091
191	0xb8a6b7f8	-7.949764e-05
192	0x3a341420	0.0006869454
193	0x39a19a73	0.00030823387
194	0x3ac41049	0.0014958467
195	0xb980cb7b	-0.00024565667
196	0xba88a409	-0.0010424863
197	0x3af2ebc4	0.0018533398
198	0x3a31a420	0.00067764707
199	0x380bcbc0	3.332994e-05
200	0x39ebc460	0.00044969004
201	0x39b621b6	0.00034738862
202	0x3a1645b2	0.00057324313
203	0x3a01283f	0.00049269566
204	0x3a6de426	0.0009074829
205	0x3a342f4e	0.0006873504
206	0x3aa099dd	0.0012252886
207	0x3a05b2c4	0.00051001855
208	0xb912cb05	-0.00013999276
209	0x3a44b10c	0.00075031887
210	0x38575410	5.1338284e-05
211	0x3a96c6f4	0.0011503384
212	0x3968f2d6	0.00022215708
213	0x3a4d4a1c	0.00078311726
214	0x3a07ad40	0.00051756576
215	0x39338130	0.00017118896
216	0x39aa4a64	0.00032480352
217	0xb8a4f85e	-7.8663914e-05
218	0x39b5b794	0.00034659787
219	0xb876ca8c	-5.8839607e-05
220	0x39d94360	0.00041439664
221	0x3a632c06	0.0008665923
222	0xba0abc4e	-0.0005292342
223	0x3ac8046f	0.001526011
224	0xba312745	-0.0006757866
225	0xb8979c66	-7.2293726e-05
226	0x3aacb274	0.0013175742
227	0x3a3aa1ee	0.00071194663
228	0x38e5876a	0.00010944794
229	0xb85672cc	-5.112849e-05
230	0x3a9f48a5	0.0012152387
231	0x3989269e	0.00026159448
232	0x395eaf50	0.00021236879
233	0x3a56e127	0.00081970025
234	0x39bb0abf	0.00035675426
235	0xb9c404c0	-0.00037387572
236	0x3a216257	0.00061563164
237	0xba8efa0b	-0.0010908259
238	0x39f74ae0	0.00047167297
239	0x39b5fe34	0.00034712406
240	0x397c4344	0.00024057651
241	0x378c2570	1.6706734e-05
242	0x39a23359	0.00030937305
243	0x388f629d	6.8371395e-05
244	0x3aada750	0.0013248716
245	0x39db4980	0.00041825697
246	0x3a1d6fdd	0.00060057436
247	0x3a0e7b10	0.0005435208
248	0xb9cf97e3	-0.0003959528
249	0x39520958	0.00020030641
250	0x38d8c400	0.000103361905
251	0x39e76dc9	0.0004414155
252	0x3a0d222e	0.00053838163
253	0xb96fb8b8	-0.00022861629
254	0x3910792d	0.00013778052
255	0x384f5bee	4.9438262e-05
