pretrained_model/MSRA_pretrained/p0/params/-1_gen_params.npz (npz, 656534 bytes, 26 tensors)

arr_24 f4 [32]
0.39491242 0.73128486 0.55551624 0.37070474 0.6007159 0.24445532 0.58572954 0.30987597
0.5837852 0.41959733 0.70700896 0.5011646 0.43610427 0.76658833 0.5759147 0.6087742
0.5758125 0.578217 0.49880797 0.301071 0.3581577 0.3340499 0.5992731 0.47133124
0.6251762 0.40308613 0.7104314 0.51876956 0.30647752 0.38267505 0.69305557 0.45356303
00000000: f631 ca3e 7c35 3b3f 5036 0e3f 03cd bd3e
00000010: 84c8 193f 7f52 7a3e 5ff2 153f 10a8 9e3e
00000020: f272 153f 76d5 d63e 8afe 343f 534c 003f
00000030: 0f49 df3e 223f 443f 256f 133f a0d8 1b3f
00000040: 7368 133f 0806 143f c263 ff3e fa25 9a3e
00000050: 7260 b73e 9708 ab3e f669 193f 5452 f13e
00000060: 8c0b 203f 4e61 ce3e d5de 353f 15ce 043f
00000070: 9fea 9c3e fced c33e 176c 313f 6a39 e83e

arr_25 f4 [32, 1, 6, 6]
0.02677073 0.20353927 0.11590131 0.10124401 0.14752896 0.031461623 0.19735423 0.31437126
0.36699942 0.3570832 0.2780147 0.16684242 0.090195715 0.19874586 0.40057865 0.2317616
0.2781941 0.10991824 0.2234165 0.28982148 0.46325105 0.36087245 0.39023763 0.27219623
0.21955842 0.23536375 0.4665565 0.33297488 0.29571635 0.06680237 0.12536755 0.2013534
0.2474043 0.2596164 0.23013514 0.118705 -0.19645241 -0.37986633 -0.48073265 -0.80915177
-0.27146485 -0.4432732 -0.32982117 -0.6072919 -0.3966102 -0.43875334 -0.84286284 -0.22229908
-0.32241654 -0.28046346 -0.9577833 -1.3364296 -0.89888287 -0.8729486 -0.23209657 -0.7041456
-0.58803725 -0.9286203 -0.5216428 -0.4828879 -0.110604145 -0.3519717 -0.6369658 -0.36706755
-0.81078506 -0.49779332 -0.15397905 -0.16537438 -0.19780241 -0.24007572 -0.114318706 -0.10776064
-0.071035326 -0.092686184 0.15671973 0.30796602 0.5229523 0.4192955 -0.04650638 0.1982251
1.0045558 1.5202863 0.5839628 0.7970147 -0.06799388 0.70412165 1.409638 0.48371145
1.7965549 1.1130749 -0.019983102 0.7582622 1.9531381 2.6571636 0.32044205 0.84546816
0.08927278 1.0149581 1.814648 2.4606445 1.9582314 1.9109589 -0.102237426 0.13090986
0.7097591 -0.28984633 0.41248977 0.20595491 0.07272315 0.35371006 0.20017701 0.39587757
0.13870867 0.16977426 0.13393149 0.25515416 0.33238786 0.47786263 0.3619375 0.18417846
0.2776365 0.79502434 0.62129205 0.7877568 0.4141622 0.29924855 0.16087069 0.28091595
0.27896786 0.40242076 0.36841902 0.1742527 0.24209431 0.30093348 0.37379837 0.3367202
0.34878084 0.123404 0.09913705 0.0634425 0.15868998 0.120547675 0.1547917 0.09183714
0.05671154 0.19768168 0.25522843 0.25812867 0.6051685 0.11033122 0.11794779 0.005390463
0.16313234 0.51366454 0.7222201 0.16657124 0.017982608 0.2616409 0.32705608 0.92767763
0.89787585 0.31474823 0.04137856 0.02893702 0.21402378 0.9596804 0.796544 0.45791414
-0.0007350319 0.08011132 0.22005054 0.7971519 0.8299765 0.5846593 0.016582986 0.1096077
-0.007230317 0.18601596 0.3922245 0.32423362 -0.08476685 -0.20920737 -0.07503893 -0.14089209
-0.15654045 -0.06074407 -0.18423547 -0.25681373 -0.08856637 -0.17761378 -0.26862648 -0.17172085
-0.041808493 -0.054438423 -0.02478516 -0.012958663 -0.09324495 -0.07527562 -0.004655483 -0.0140793435
0.01625837 0.055751953 -0.09062779 -0.079653054 -0.14641733 -0.23141162 -0.08174475 -0.074466124
-0.30079114 -0.14539827 -0.14513372 -0.16540189 -0.046822175 -0.10145535 -0.1866088 -0.11132663
0.026328584 -0.6505234 -0.8069789 -0.65354794 -1.1703165 -0.05218526 -0.8952194 -0.8823314
-1.6728175 -1.237069 -0.09664211 -0.34423542 -0.17845495 -1.302228 -1.2122546 -1.2328598
-0.973496 -0.15234455 -0.81738335 -1.0055463 -2.8698275 -1.1997635 -0.6309359 -0.37789318
-0.337974 -0.91474193 -0.5388108 -0.50083774 -0.1609828 0.079768844 -0.43295383 -0.32651806
-1.1035445 -0.37143236 -0.22324462 -0.050750002 -0.058459356 0.03153266 -0.018605212 0.15768564
00000000: 4a4e db3c 996c 503e ab5d ed3d 0559 cf3d
00000010: d511 173e e7dd 003d 3a17 4a3e 45f5 a03e
00000020: 59e7 bb3e 9cd3 b63e f157 8e3e bdd8 2a3e
00000030: 88b8 b83d 0984 4b3e a518 cd3e ea52 6d3e
00000040: 756f 8e3e d01c e13d 4cc7 643e 7b63 943e
00000050: 3e2f ed3e 46c4 b83e 3acd c73e 4e5d 8b3e
00000060: ecd3 603e 3203 713e 7ee0 ee3e af7b aa3e
00000070: 2268 973e aecf 883d 5a60 003e 962f 4e3e
00000080: 8e57 7d3e 71ec 843e 8ca8 6b3e 9b1b f33d
00000090: d22a 49be d77d c2be 9722 f6be 9224 4fbf
000000a0: 71fd 8abe b4f4 e2be 52de a8be 7b77 1bbf
000000b0: 7e10 cbbe 47a4 e0be dcc5 57bf 5fa2 63be
000000c0: c813 a5be e898 8fbe 4931 75bf 2010 abbf
000000d0: 301d 66bf 8f79 5fbf b9aa 6dbe e342 34bf
000000e0: 9c89 16bf 0fba 6dbf 628a 05bf 153d f7be
000000f0: 6d84 e2bd a235 b4be 3110 23bf 47f0 bbbe
00000100: 9c8f 4fbf c4de febe afac 1dbe e757 29be
00000110: b78c 4abe 69d6 75be ed1f eabd 9cb1 dcbd
00000120: f87a 91bd 41d2 bdbd 237b 203e b9ad 9d3e
00000130: 34e0 053f e6ad d63e 797d 3ebd 85fb 4a3e
00000140: 4995 803f be98 c23f 967e 153f 2809 4c3f
00000150: 6040 8bbd 5141 343f 056f b43f 07a9 f73e
00000160: 83f5 e53f 3d79 8e3f 9ab3 a3bc 791d 423f
00000170: 6e00 fa3f f80e 2a40 fb10 a43e 9a70 583f
00000180: a6d4 b63d 26ea 813f 6346 e83f 337b 1d40
00000190: 54a7 fa3f 4d9a f43f db61 d1bd 3c0d 063e
000001a0: c6b2 353f bd66 94be dc31 d33e d8e5 523e
000001b0: e0ef 943d 7c19 b53e 34fb 4c3e 77b0 ca3e
000001c0: a509 0e3e 4ed9 2d3e 5625 093e 91a3 823e
000001d0: be2e aa3e 69aa f43e df4f b93e 4799 3c3e
000001e0: 5f26 8e3e b786 4b3f ff0c 1f3f 6eaa 493f
000001f0: 110d d43e 1b37 993e 49bb 243e 37d4 8f3e
00000200: e0d4 8e3e 180a ce3e 6ba1 bc3e 4d6f 323e
00000210: 92e7 773e f413 9a3e 8062 bf3e 9766 ac3e
00000220: 6793 b23e 3dbb fc3d 5e08 cb3d 24ee 813d
00000230: a07f 223e b3e1 f63d b781 1e3e 1c15 bc3d
00000240: 5c4a 683d 116d 4a3e 4dad 823e 7129 843e
00000250: 53ec 1a3f 56f5 e13d 9c8e f13d 7ba2 b03b
00000260: 2a0c 273e 857f 033f 6be3 383f a791 2a3e
00000270: 4350 933c ccf5 853e e573 a73e 487c 6d3f
00000280: 31db 653f ae26 a13e 917c 293d 540d ed3c
00000290: 0d29 5b3e 9dad 753f 4fea 4b3f b973 ea3e
000002a0: 28af 40ba 6711 a43d ee54 613e 2612 4c3f
000002b0: 5779 543f 3bac 153f 0bd9 873c 007a e03d
000002c0: 4cec ecbb f87a 3e3e a6d1 c83e f301 a63e
000002d0: 3e9a adbd 753a 56be 03ae 99bd 0446 10be
000002e0: 244c 20be c6ce 78bd 39a8 3cbe 177d 83be
000002f0: 4962 b5bd 63e0 35be 6989 89be 97d7 2fbe
00000300: 623f 2bbd d3fa 5ebd 3f0a cbbc 9250 54bc
00000310: 35f7 bebd 1b2a 9abd 068d 98bb 0cad 66bc
00000320: 4630 853c 295c 643d 109b b9bd 2421 a3bd
00000330: 6dee 15be 2bf7 6cbe cb69 a7bd b281 98bd
00000340: 4c01 9abe 49e3 14be ef9d 14be 1d5f 29be
00000350: 9cc8 3fbd d3c7 cfbd 6116 3fbe 37ff e3bd
00000360: 0baf d73c b488 26bf 2b96 4ebf eb4e 27bf
00000370: eecc 95bf 36c0 55bd 192d 65bf 78e0 61bf
00000380: e21e d6bf 4758 9ebf 4cec c5bd a03f b0be
00000390: e5bc 36be 68af a6bf 292b 9bbf 5ace 9dbf
000003a0: 0937 79bf 3600 1cbe 0940 51bf beb5 80bf
000003b0: 41ab 37c0 da91 99bf 0485 21bf 377b c1be
000003c0: ee0a adbe 872c 6abf 81ef 09bf e736 00bf
000003d0: add8 24be d95d a33d 20ac ddbe 602d a7be
000003e0: f240 8dbf 622c bebe 3d9a 64be 3cdf 4fbd
000003f0: 1473 6fbd 6428 013d f569 98bc 5878 213e

arr_20 f4 [32, 32, 6, 6]
0.17569792 0.24632427 0.2882403 0.16890942 -0.2727284 0.17268276 0.17562269 -0.14406571
-0.3884705 0.04623689 0.2643011 -0.42773318 0.0077122883 0.043543246 -0.071469106 0.07312911
0.5058042 0.033567782 -0.3018822 0.16852093 -0.19840124 -0.15361041 -0.1929104 0.17484808
-0.6450649 -0.12057334 -0.4138452 0.21737795 0.11375449 0.0002590962 0.24905479 -0.072961226
-0.010277766 -0.020219296 0.3305092 0.23362227 -0.26337606 -0.19545487 -0.36566395 0.004390382
-0.5072361 0.25575706 0.53960615 -0.03903237 0.5414877 0.48397878 0.11370004 0.11221737
-0.4177535 -0.11446367 0.3846014 0.11248194 0.12897627 0.11625498 -0.7674361 -0.0127697345
-0.45926407 0.2984682 0.3322479 0.17443371 -0.24661537 -0.141498 -0.32467365 -0.32638222
0.019995073 0.25546438 0.00493896 -0.6612633 -0.08211611 -0.23852079 -0.3370741 0.4403389
0.096104756 0.47455636 0.03686219 -0.2410084 0.20999207 -0.121839575 0.1023365 -0.21802115
-0.14625216 0.4091018 -0.13682164 -0.45280105 0.0783937 0.27498883 0.15647493 0.21033965
-0.40259525 -0.10710798 0.19794519 0.30471298 -0.27914277 -0.02626935 0.09761477 -0.2905415
-0.3666655 -0.2956198 0.20582913 0.047671467 0.4446197 -0.23379667 0.16595414 0.1080085
-0.30567893 -0.67840946 -0.20651037 0.056007594 -0.01885398 -0.29579857 0.48933756 -0.29198465
0.37393352 -0.30268124 0.026181959 0.08942896 0.026219139 -0.10940087 0.00075950485 -0.27242723
-0.18495588 -0.6454701 0.22234432 -0.032854132 0.14885071 -0.32069942 0.23124523 -0.051167853
-0.23285848 -0.29144865 -0.005137774 -0.042676166 -0.032361925 -0.14568098 0.30342618 0.1827445
0.37994182 0.050200433 -0.18786933 -0.07267425 -0.20833993 -0.38361558 0.0535953 -0.5468728
-0.37629038 0.124838576 0.5347014 0.35932252 -0.41718167 0.13367628 -0.27070218 0.12227685
0.046137773 0.0368279 -0.24147406 0.14404118 -0.45882684 0.53447485 -0.15411636 0.26995453
-0.53745687 0.023521436 0.36954987 0.16722716 0.0567697 -0.23137672 0.3987054 0.25922436
0.38697016 0.27951115 0.026706494 0.09232993 0.31127742 0.15665235 -0.05443348 0.22674766
-0.059696894 0.18217994 -0.20157121 -0.36778808 0.23940538 0.3391095 0.36114997 0.15246502
0.18041527 0.10599884 0.32303566 0.4385742 0.35513076 0.32060286 0.20320186 0.15662134
0.22268021 0.48510283 0.14534505 0.33569282 0.20460357 0.21099958 0.6369921 0.49174437
0.2717306 0.32193848 0.072860666 0.08207627 0.24995272 0.502493 0.36494043 0.24968144
0.14339133 0.1621655 0.15272932 0.29187933 0.23727684 0.26354438 0.16583288 0.110561185
-0.46549025 -0.009086694 -0.16293472 -0.031685334 0.45364794 0.7800403 -0.04111553 0.41073442
0.08972831 0.60036933 0.074459575 0.47922027 -0.0641585 0.43294236 0.0042866264 0.08308771
0.06982527 0.26480356 -0.02356734 0.087698124 -0.09909813 0.43872154 -0.12245388 0.318322
0.08926635 0.052308787 -0.17209493 0.059901908 -0.4207555 0.09376158 -0.15779929 0.52125907
-0.3828568 0.31616524 0.02282855 0.15814365 -0.069380805 0.0055636135 0.050599165 0.09655382
00000000: 28ea 333e 6e3c 7c3e 3c94 933e 97f6 2c3e
00000010: 0fa3 8bbe c0d3 303e 6fd6 333e f685 13be
00000020: 9be5 c6be e562 3d3d 7952 873e d8ff dabe
00000030: 5db7 fc3b 675a 323d 655e 92bd b7c4 953d
00000040: 627c 013f 5f7e 093d 4e90 9abe c090 2c3e
00000050: b229 4bbe 0c4c 1dbe 4e8a 45be 600b 333e
00000060: f922 25bf 28ef f6bd 85e3 d3be 5398 5e3e
00000070: 1df8 e83d 4ed7 8739 3808 7f3e b26c 95bd
00000080: 1364 28bc f0a2 a5bc 8038 a93e ad3a 6f3e
00000090: 3ad9 86be 5225 48be 4e38 bbbe 32dd 8f3b
000000a0: 3ada 01bf 97f2 823e a123 0a3f 68e0 1fbd
000000b0: f09e 0a3f 11cc f73e 91db e83d 38d2 e53d
000000c0: c9e3 d5be ee6b eabd 7aea c43e ee5c e63d
000000d0: 5b12 043e 1717 ee3d b176 44bf 2638 51bc
000000e0: a924 ebbe d3d0 983e 661c aa3e c09e 323e
000000f0: bd88 7cbe dae4 10be a03b a6be 921b a7be
00000100: b5cc a33c 3acc 823e 00d7 a13b 8d48 29bf
00000110: 7e2c a8bd cb3e 74be fa94 acbe 1a74 e13e
00000120: 92d2 c43d 0df9 f23e cffc 163d e8ca 76be
00000130: 2908 573e 0787 f9bd cd95 d13d f040 5fbe
00000140: 20c3 15be cb75 d13e f91a 0cbe 8ad5 e7be
00000150: e08c a03d 56cb 8c3e f73a 203e 4763 573e
00000160: f720 cebe 6e5b dbbd 25b2 4a3e 5703 9c3e
00000170: cdeb 8ebe d232 d7bc 41ea c73d dbc1 94be
00000180: 95bb bbbe 7a5b 97be dfc4 523e 2843 433d
00000190: 31a5 e33e 6568 6fbe e2ef 293e 8f33 dd3d
000001a0: f381 9cbe 3eac 2dbf 7477 53be 3868 653d
000001b0: a973 9abc e972 97be 748a fa3e 037f 95be
000001c0: 3774 bf3e 09f9 9abe 8c7b d63c 8826 b73d
000001d0: 85c9 d63c 900d e0bd 8219 473a 957b 8bbe
000001e0: 1365 3dbe 873d 25bf 3bae 633e 0e92 06bd
000001f0: 526c 183e b732 a4be 8dcb 6c3e 6295 51bd
00000200: 7472 6ebe c238 95be c65a a8bb 34cd 2ebd
00000210: f08d 04bd 652d 15be ad5a 9b3e 6021 3b3e
00000220: bc87 c23e f89e 4d3d d160 40be 3dd6 94bd
00000230: 1057 55be 4369 c4be bf86 5b3d dbff 0bbf
00000240: 22a9 c0be 5eab ff3d 31e2 083f 1ff9 b73e
00000250: d698 d5be 6fe2 083e 7a99 8abe 496c fa3d
00000260: f6fa 3c3d dad8 163d fa44 77be 887f 133e
00000270: 5aeb eabe 58d3 083f aed0 1dbe 7b37 8a3e
00000280: c696 09bf 07b0 c03c a435 bd3e 993d 2b3e
00000290: 5887 683d 05ee 6cbe 1d23 cc3e 0eb9 843e
000002a0: f420 c63e 161c 8f3e 94c7 da3c 7917 bd3d
000002b0: c15f 9f3e 7969 203e a4f5 5ebd 8a30 683e
000002c0: bb84 74bd 618d 3a3e af68 4ebe b84e bcbe
000002d0: af26 753e c39f ad3e a6e8 b83e ca1f 1c3e
000002e0: c8be 383e eb15 d93d ee64 a53e cc8c e03e
000002f0: b3d3 b53e 0f26 a43e 2614 503e 5861 203e
00000300: 4806 643e 665f f83e 55d5 143e eedf ab3e
00000310: 9983 513e 4610 583e ea11 233f ebc5 fb3e
00000320: 4620 8b3e 1fd5 a43e f937 953d 9a17 a83d
00000330: 9bf3 7f3e 62a3 003f 79d9 ba3e 7eac 7f3e
00000340: 2dd5 123e b60e 263e 1365 1c3e 3571 953e
00000350: b3f8 723e 4aef 863e 18d0 293e e76d e23d
00000360: bd54 eebe 5be0 14bc 5cd8 26be 7bc8 01bd
00000370: 8b44 e83e b9b0 473f c268 28bd c84b d23e
00000380: 7ac3 b73d ceb1 193f 437e 983d 5c5c f53e
00000390: 8865 83bd 9faa dd3e d476 8c3b e429 aa3d
000003a0: 8d00 8f3d 5594 873e 4b10 c1bc 139b b33d
000003b0: f6f3 cabd 1ca0 e03e 1ac9 fabd 1afb a23e
000003c0: 47d1 b63d bd41 563d a739 30be b45b 753d
000003d0: 446d d7be 1206 c03d 2396 21be 3c71 053f
000003e0: ce05 c4be 69e0 a13e f002 bb3c 69f0 213e
000003f0: 8617 8ebd f94e b63b 1241 4f3d 02be c53d

arr_21 f4 [32]
-0.13582456 -0.65452284 -0.7437386 0.04683409 -0.2735778 -0.03714572 -0.7466236 0.49348322
-0.49640056 -1.4108744 -0.5285726 -0.1300005 -0.30808124 -0.28412816 -0.49333122 -0.6931242
-0.4986267 -0.63948923 -0.17186831 0.7156412 -0.21432655 0.0025464315 -1.8363374 -0.17243943
-0.36002365 -0.80690116 -0.19970146 -0.2864617 0.45008478 -0.29491597 -0.5237009 -0.16005962
00000000: 9815 0bbe cf8e 27bf a765 3ebf 1ad5 3f3d
00000010: 6412 8cbe 1c26 18bd b922 3fbf d5a9 fc3e
00000020: 3728 febe 8897 b4bf 8950 07bf da1e 05be
00000030: d3bc 9dbe 3f79 91be e995 fcbe 9670 31bf
00000040: 004c ffbe 91b5 23bf 3ffe 2fbe 4334 373f
00000050: 6b78 5bbe 08e2 263b 1b0d ebbf f693 30be
00000060: 0555 b8be 1391 4ebf 8a7e 4cbe 1cab 92be
00000070: 8371 e63e 3aff 96be 4311 06bf abe6 23be

arr_22 f4 [32]
1.1801987 1.3976939 2.3157096 1.4995733 1.3898284 1.0809808 1.8510034 8.76639
1.2457689 8.37807 3.9430535 1.3984697 3.2684946 0.98724765 1.7146846 2.511846
3.6806421 1.4246074 1.5673918 9.086873 11.276667 0.9140373 2.773308 3.2771046
0.937821 9.205086 0.84115475 4.4934826 9.810664 10.993481 3.1336682 4.463259
00000000: c010 973f a2e7 b23f 9634 1440 05f2 bf3f
00000010: e6e5 b13f 945d 8a3f aeed ec3f 2243 0c41
00000020: 5b75 9f3f 930c 0641 fd5a 7c40 0e01 b33f
00000030: 042f 5140 43bc 7c3f c97a db3f 16c2 2040
00000040: a48f 6b40 8959 b63f 4ba0 c83f d563 1141
00000050: 3a6d 3441 59fe 693f e17d 3140 15bc 5140
00000060: 0915 703f 0848 1341 eb55 573f 9cca 8f40
00000070: 7bf8 1c41 4ce5 2f41 058e 4840 05d3 8e40

arr_23 f4 [32]
-0.030431082 0.13006252 1.4587482 0.37151948 0.6461074 -4.3966045 0.32354316 0.9870481
0.0059990278 1.8257709 0.2674796 1.0749989 0.9488511 0.09797721 0.5353779 0.03077855
0.85628164 0.55154 0.2170375 0.99755514 1.3517752 -0.60073704 0.3546245 1.2836146
-1.0502597 1.8455997 0.34266642 0.30895224 1.1494048 1.8348995 0.19564961 0.37735826
00000000: 9b4a f9bc 1c2f 053e 43b8 ba3f cd37 be3e
00000010: 4b67 253f fcb0 8cc0 73a7 a53e 2faf 7c3f
00000020: 7e93 c43b dcb2 e93f 16f3 883e 9099 893f
00000030: e8e7 723f 47a8 c83d 870e 093f 4c23 fc3c
00000040: 4635 5b3f ba31 0d3f 143f 5e3e c65f 7f3f
00000050: f806 ad3f e7c9 19bf 5891 b53e 7c4d a43f
00000060: e96e 86bf 9c3c ec3f f971 af3e fd2e 9e3e
00000070: b21f 933f fddd ea3f 5f58 483e 1a35 c13e

arr_19 f4 [32]
0.66119856 0.5383874 0.5038958 0.47221744 0.60188943 0.4863345 0.5864945 0.76328737
0.78477395 0.7457977 0.62282294 0.7457039 0.7440987 0.48279387 0.5844221 0.7279519
0.55365396 0.4414222 0.7106337 0.62495995 0.6789766 0.7114178 0.65287715 0.68306017
0.67232007 0.5758568 0.58942115 0.6851253 0.52646255 0.6228825 0.65887904 0.5754123
00000000: 4f44 293f c2d3 093f 51ff 003f 7cc6 f13e
00000010: 6d15 1a3f d600 f93e 8124 163f cd66 433f
00000020: f2e6 483f 99ec 3e3f 5371 1f3f 73e6 3e3f
00000030: 417d 3e3f c230 f73e b09c 153f 0e5b 3a3f
00000040: 44bc 0d3f 1702 e23e 17ec 353f 60fd 1f3f
00000050: 69d1 2d3f 7a1f 363f f522 273f 08dd 2e3f
00000060: 2b1d 2c3f 5a6b 133f 4ee4 163f 5f64 2f3f
00000070: 40c6 063f 3a75 1f3f 4cac 283f 384e 133f

arr_18 f4 [32]
-0.9421476 -0.35917297 -0.8125043 -1.4693778 -1.0781891 -1.5195422 -0.61120623 -1.2617588
-1.4616681 -0.579359 0.080397174 -1.1719891 -1.1859082 -1.2534575 -1.1518075 -0.7511613
-1.0485976 -1.531353 -0.76568526 -1.2256786 -1.4363334 -1.1908294 -1.3445573 -1.1049128
-0.9829978 -1.7017066 -0.44146833 -1.5196517 -1.0025604 -1.3481692 0.48650527 -1.5248294
00000000: 9630 71bf 85e5 b7be 4800 50bf 9214 bcbf
00000010: 1a02 8abf 5c80 c2bf 0378 1cbf 5081 a1bf
00000020: f117 bbbf df50 14bf 46a7 a43d bd03 96bf
00000030: d7cb 97bf 4c71 a0bf 6e6e 93bf 1b4c 40bf
00000040: 7238 86bf 6003 c4bf f303 44bf 09e3 9cbf
00000050: c6d9 b7bf 196d 98bf 741a acbf c86d 8dbf
00000060: bea5 7bbf 86d1 d9bf 2308 e2be f283 c2bf
00000070: e653 80bf cf90 acbf 3817 f93e 9c2d c3bf

arr_11 f4 [32]
-0.67521524 -0.6370773 -0.6514777 -0.77251375 -1.2064798 -0.7158941 -0.6529427 -0.38460797
-0.73062366 -0.4245561 -0.27886847 -0.8731061 -0.92876345 -0.25339118 -0.26168913 -0.6658283
-0.7160347 -0.59385234 -0.754134 -0.5648217 -0.6728441 -0.65683514 -0.52923393 -0.25741372
-0.39231712 -0.8982592 -0.5361859 -0.93492275 -0.36059117 -0.30411246 -1.1282189 -0.972543
00000000: e8da 2cbf 7f17 23bf 3ec7 26bf 76c3 45bf
00000010: ee6d 9abf d644 37bf 4127 27bf 56eb c4be
00000020: 270a 3bbf 6b5f d9be d9c7 8ebe e283 5fbf
00000030: 71c3 6dbf 7dbc 81be 1efc 85be b973 2abf
00000040: 0d4e 37bf b506 18bf ed0e 41bf 2898 10bf
00000050: 833f 2cbf 5926 28bf e07b 07bf bbcb 83be
00000060: cadd c8be 51f4 65bf 7b43 09bf 1957 6fbf
00000070: 689f b8be a1b4 9bbe 7a69 90bf 94f8 78bf

arr_10 f4 [32, 32, 6, 6]
0.105174445 -0.22930561 -0.340685 -0.15881845 -0.67028314 -0.047866978 -0.10454762 0.18071726
0.17246558 -0.0046773003 0.19711271 0.25650898 0.11200026 -0.43851396 -0.3100362 0.12387754
-0.0716865 0.068551436 -0.43392396 -0.07070759 0.0062666684 -0.13323426 -0.35669065 -0.42655498
-0.522535 0.035021476 -0.31221926 -0.31035674 -0.13910684 -0.39119148 -0.51617235 -0.19741882
-0.26178434 -0.30137956 -0.11095241 -0.44416538 0.2829425 -0.23214786 0.11947723 0.27250877
-0.31032425 -0.14938028 -0.043007325 -0.07306284 0.18543974 0.09812453 -0.20189825 -0.21745127
0.19204716 0.655084 -0.02077675 -0.26048863 0.29815656 -0.22439525 -0.06513586 -0.2941956
0.09559395 -0.32198367 -0.006895944 0.11212426 -0.52547956 -0.011768398 -0.12322059 0.18924741
-0.17390247 -0.026836114 0.2396947 0.15617216 -0.5201186 0.109754995 -0.28332037 0.12795638
0.32901382 0.12190878 0.15852715 -0.45710114 -0.013704988 -0.03345599 -0.1887547 -0.58486456
0.24345155 -0.12648083 -0.043230377 -0.16278946 -0.5475887 0.21640244 -0.15539816 0.16503417
-0.45747367 0.22913714 -0.31592315 -0.05848224 0.034832716 0.05048729 -0.2683784 0.15101421
-0.5245005 -0.17894298 -0.07383254 -0.39920893 0.06325773 -0.5623887 -0.54532546 -0.61797744
-0.13762406 -0.20757042 -0.039712172 -0.739083 -0.19350673 -0.38908657 0.26838621 0.115095176
-0.086909994 0.0613244 -0.25309148 -0.26137933 0.012501095 0.22150572 -0.26655456 0.20180607
0.19801192 -0.0890996 -0.39718005 0.49866706 -0.15358756 -0.2151677 -0.5229865 0.55656785
0.22114597 -0.18410695 0.2750132 0.15160567 0.1406324 0.22323897 0.5283186 -0.26773754
-0.0067747287 -0.19381379 0.121426456 0.07503197 0.14064129 0.28605562 0.18334244 -0.101053365
0.19820485 -0.1921796 -0.6536144 -0.35300797 -0.45782676 0.14979108 0.06539464 -0.3357688
-0.15935762 -0.018631674 0.21592695 -0.13760556 -0.15325408 0.32264206 0.20375176 0.105824254
0.4297675 0.10851719 -0.20647667 -0.07740172 0.4759304 0.2840366 0.18211283 0.14918277
0.058056023 -0.6095494 -0.63466203 0.052999154 0.36157104 -0.11688374 0.027555687 0.19688186
-0.39229852 -0.2798289 -0.15996914 0.04791842 -0.17978966 -0.052965645 -0.006345478 -0.57423484
-0.05237429 0.058201563 -0.3045357 -0.27083224 0.069658495 0.23791 0.24694635 0.07969434
0.56896895 0.2869859 -0.5569256 -0.06129258 -0.003827686 0.15735771 0.030688541 0.0068292446
-0.34949797 0.12224342 0.45186546 0.45762277 0.06772879 0.12613174 0.076342046 -0.18955533
0.019499192 0.07736465 -0.058254436 -0.04661999 -0.024081971 -0.3703428 -0.12648366 -0.06315378
0.06298081 0.15997665 -0.12020171 0.038916238 -0.19671626 -0.23888923 -0.08307354 0.15075208
0.22616403 -0.17584172 -0.8854331 0.34379163 -0.13641551 -0.13079284 -0.03271409 -0.07536292
-0.4389224 -0.10345074 0.24637595 0.040117074 0.10195871 -0.45981276 -0.29384193 -0.43458676
-0.18397287 -0.031745464 0.26910833 -0.37498975 0.01342648 -0.14622514 -0.4164848 -0.018508112
-0.08844724 -0.0123845795 0.017331216 -0.69709206 -0.009203255 -0.017955849 0.06816429 0.16906817
00000000: b365 d73d 17cf 6abe 446e aebe 4ea1 22be
00000010: ad97 2bbf 2a10 44bd 101d d6bd f20d 393e
00000020: d19a 303e 0a44 99bb ead7 493e 2555 833e
00000030: 6460 e53d e784 e0be 11bd 9ebe 82b3 fd3d
00000040: 5fd0 92bd b264 8c3d 482b debe 24cf 90bd
00000050: a058 cd3b 906e 08be 28a0 b6be 6a65 dabe
00000060: dbc4 05bf ae72 0f3d 34db 9fbe 14e7 9ebe
00000070: 0672 0ebe 404a c8be df23 04bf 2928 4abe
00000080: 9908 86be 6c4e 9abe 043b e3bd a569 e3be
00000090: d7dd 903e 2bb8 6dbe 7ab0 f43d 4586 8b3e
000000a0: d2e2 9ebe 25f7 18be 7328 30bd f8a1 95bd
000000b0: eae3 3d3e 83f5 c83d 6abe 4ebe 8cab 5ebe
000000c0: 03a8 443e 96b3 273f 0134 aabc c45e 85be
000000d0: faa7 983e dec7 65be f365 85bd cea0 96be
000000e0: c3c6 c33d 0bdb a4be 5ff7 e1bb 67a1 e53d
000000f0: d485 06bf 3dd0 40bc 145b fcbd 13ca 413e
00000100: 7d13 32be 69d7 dbbc 8772 753e 98eb 1f3e
00000110: 7e26 05bf 3ac7 e03d 5e0f 91be ff06 033e
00000120: 8074 a83e 4fab f93d f154 223e 2909 eabe
00000130: e38a 60bc 2609 09bd e948 41be afb9 15bf
00000140: 5d4b 793e 3184 01be 5612 31bd 48b2 26be
00000150: c62e 0cbf 9a98 5d3e b220 1fbe b8fe 283e
00000160: fd39 eabe eda2 6a3e aec0 a1be 138b 6fbd
00000170: c0ac 0e3d c3cb 4e3d e568 89be 78a3 1a3e
00000180: aa45 06bf d43c 37be 8435 97bd 1d65 ccbe
00000190: 458d 813d b5f8 0fbf 739a 0bbf c533 1ebf
000001a0: 52ed 0cbe 578d 54be 3ba9 22bd 8b34 3dbf
000001b0: a126 46be 5b36 c7be eb69 893e 05b7 eb3d
000001c0: defd b1bd 4b2f 7b3d 3595 81be 83d3 85be
000001d0: 65d1 4c3c 65d2 623e d779 88be 40a6 4e3e
000001e0: a3c3 4a3e da79 b6bd 2f5b cbbe 4a51 ff3e
000001f0: 0f46 1dbe ec54 5cbe 71e2 05bf 3b7b 0e3f
00000200: 1774 623e 8886 3cbe 88ce 8c3e 843e 1b3e
00000210: f101 103e c298 643e e33f 073f e514 89be
00000220: 8bfe ddbb 1f77 46be 6fae f83d 5daa 993d
00000230: 4504 103e e275 923e 1fbe 3b3e 11f5 cebd
00000240: 36f6 4a3e bbca 44be 4653 27bf 76bd b4be
00000250: 4568 eabe d562 193e a0ed 853d e3e9 abbe
00000260: a52e 23be 74a1 98bc f41b 5d3e 79e8 0cbe
00000270: a3ee 1cbe 5731 a53e 4da4 503e 63ba d83d
00000280: 7c0a dc3e 433e de3d 9f6e 53be cb84 9ebd
00000290: 26ad f33e 3f6d 913e c97b 3a3e 5ec3 183e
000002a0: 27cc 6d3d 6e0b 1cbf 3679 22bf a415 593d
000002b0: d71f b93e be60 efbd 77bc e13c 669b 493e
000002c0: 5adb c8be bc45 8fbe f3ce 23be 1b46 443d
000002d0: c81a 38be 81f2 58bd baed cfbb 0e01 13bf
000002e0: 6c86 56bd c364 6e3d 1aec 9bbe 86aa 8abe
000002f0: 1da9 8e3d ae9e 733e 81df 7c3e c936 a33d
00000300: f3a7 113f d1ef 923e ad92 0ebf ee0d 7bbd
00000310: ead9 7abb 6122 213e 8966 fb3c dbc7 df3b
00000320: 66f1 b2be c25a fa3d e95a e73e 884d ea3e
00000330: 64b5 8a3d ae28 013e 3859 9c3d cb1a 42be
00000340: c5bc 9f3c 5c71 9e3d 349c 6ebd 9af4 3ebd
00000350: 8e47 c5bc 929d bdbe ef84 01be c556 81bd
00000360: 15fc 803d ebd0 233e 502c f6bd a266 1f3d
00000370: fd6f 49be 619f 74be 7622 aabd c15e 1a3e
00000380: 8b97 673e da0f 34be beab 62bf 7505 b03e
00000390: 82b0 0bbe 8fee 05be 36ff 05bd e057 9abd
000003a0: 70ba e0be fbdd d3bd fa49 7c3e cd51 243d
000003b0: bacf d03d 946c ebbe 7372 96be 2882 debe
000003c0: 6263 3cbe 8807 02bd 91c8 893e a8fe bfbe
000003d0: bdfa 5b3c 0bbc 15be 7f3d d5be 539e 97bc
000003e0: d423 b5bd b1e8 4abc 32fa 8d3c a074 32bf
000003f0: 40c9 16bc 2518 93bc b899 8b3d 3520 2d3e

arr_13 f4 [32]
-1.4801501 -1.4691417 -1.348998 -1.4343098 -1.4224756 -1.1158125 -1.3978691 -0.4768824
-1.385654 -0.84139735 -0.5825513 -1.481392 -1.6178628 -1.5841534 -0.67398965 -1.5779636
-1.0836201 -1.173736 -1.9156295 -0.95334935 -1.5380445 -1.6246123 -1.0399913 -0.88128215
-1.07776 -1.5179955 -1.3574656 -1.2597829 -0.63365626 -0.77205175 -2.1132972 -1.8113481
00000000: 8f75 bdbf d60c bcbf f7ab acbf 7797 b7bf
00000010: ae13 b6bf f2d2 8ebf 60ed b2bf ee29 f4be
00000020: 1c5d b1bf d165 57bf 1522 15bf 419e bdbf
00000030: 2116 cfbf 8ac5 cabf 968a 2cbf b6fa c9bf
00000040: 10b4 8abf fb3c 96bf 5933 f5bf b40e 74bf
00000050: a4de c4bf 4cf3 cfbf 6f1e 85bf b59b 61bf
00000060: 0af4 89bf ad4d c2bf 6fc1 adbf 9140 a1bf
00000070: 4c37 22bf 2fa5 45bf 4340 07c0 41da e7bf

arr_12 f4 [32]
0.65386975 0.7589368 0.9118081 0.9396435 1.0270493 0.6618935 0.91017896 0.8872625
0.7313618 0.70110846 0.5800206 1.0440439 0.8956078 0.6925518 0.653543 0.88176656
0.90460837 0.63951665 0.8661476 1.0232031 0.93661153 0.77088064 0.6085326 0.92299426
0.6715187 0.9499594 0.7393922 0.7843045 0.780408 0.6087119 1.1029485 1.0978531
00000000: 0264 273f af49 423f 416c 693f 7a8c 703f
00000010: 5a76 833f da71 293f 7d01 693f a323 633f
00000020: 873a 3b3f d87b 333f 3b7c 143f 3ba3 853f
00000030: 8e46 653f 134b 313f 984e 273f 74bb 613f
00000040: 6a94 673f 5db7 233f d9bb 5d3f 52f8 823f
00000050: c6c5 6f3f 6f58 453f cbc8 1b3f 5a49 6c3f
00000060: a6e8 2b3f 8a30 733f cf48 3d3f 2ec8 483f
00000070: d2c8 473f 8bd4 1b3f 6b2d 8d3f 7386 8c3f

arr_15 f4 [32, 32, 6, 6]
-0.068051495 -0.32437772 0.3351077 0.08364195 -0.09181566 -0.23498619 -0.09580446 -0.040419288
-0.3419731 -0.20907588 0.2985242 0.1941744 0.3498766 0.3506362 -0.0553189 0.24906781
0.031477943 0.19921511 0.14154536 0.14563061 -0.46712464 0.04978608 0.1387424 -0.046650082
0.13544165 0.21044785 -0.048929747 0.22386765 -0.34027597 0.39080685 0.12884928 -0.2825299
0.11106789 0.4093987 0.28250948 0.2202351 0.021841625 -0.30093804 0.04784469 -0.23983851
-0.53485143 -0.4062671 -0.37282354 0.0251144 -0.36773568 -0.34256563 -0.48590064 0.25003642
-0.10253819 -0.06776418 -0.15581867 -0.15909818 -0.22985855 -0.2954739 -0.12499303 0.31582162
0.03777742 0.04109041 -0.19136627 0.092174456 -0.34752578 -0.72067654 -0.010111782 -0.07942862
-0.46192566 -0.4493202 0.1306683 -0.54834396 -0.1274878 -0.23911059 0.20761539 -0.14026135
0.26219562 0.23201776 -0.15335935 0.23548189 0.19679044 0.10047549 0.06812694 0.17493084
-0.060162567 -0.07595602 0.342288 -0.115257464 -0.5118219 -0.025903245 -0.09312394 -0.14345104
0.29379618 -0.35170752 0.1624667 -0.11839174 0.058729474 -0.21818332 0.57287276 -0.024018733
-0.2293605 -0.28894144 -0.47618195 -0.28684798 0.3853809 -0.66162795 0.23784702 0.06832624
-0.13796802 0.29504234 0.3084596 -0.027949035 -0.0044011357 0.14496216 -0.03954238 0.15163547
0.008610452 0.4267139 -0.11510103 -0.21287003 0.31727168 0.037514806 -0.13974324 0.24016064
0.2111757 -0.07466645 -0.0040983814 0.3040688 0.10393115 0.2548157 0.091529936 -0.16730931
-0.21735151 0.17841555 -0.3765248 -0.046703354 -0.17221928 0.14995144 0.10679533 -0.018392865
0.097960845 0.20179677 -0.16792245 -0.2435821 -0.20481938 -0.055028982 -0.16265357 -0.18461059
-0.24383245 -0.16504306 -0.37284434 -0.17009012 -0.16722538 0.0018494097 0.17852168 0.17825268
-0.095495485 -0.26890033 -0.3354289 -0.090946145 -0.17613865 0.17722031 -0.34086967 -0.19041339
0.111032754 0.044077676 0.017588291 0.19451573 -0.4621602 -0.27146786 0.11853163 -0.3820251
-0.018771295 -0.0057342616 0.14939566 0.13589028 0.2674173 0.3349786 -0.31701943 -0.18744226
-0.19151714 -0.17327234 0.1437176 -0.02707528 0.2980537 0.4222344 -0.28006124 0.17954361
0.02465578 0.024202159 -0.5206419 -0.029517082 -0.385542 -0.14097773 -0.69389397 -0.03884018
-0.104334794 0.32836378 -0.2654017 0.5171561 -0.24568027 0.2627545 0.26443613 0.002090442
-0.42981455 0.08502245 -0.67566836 -0.7892874 -0.04910165 -0.22057498 0.24316327 0.12505136
-0.6336911 -0.16072637 -0.127517 -0.12053397 0.08009966 -0.30270952 -0.1522244 -0.74352545
0.26795945 0.09651184 0.35420424 0.05362302 -0.024249436 -0.080578364 0.061642993 0.01829013
0.08528201 0.11928291 0.52762675 0.13801093 0.20299184 0.16438319 -0.09425985 -0.15933302
-0.22675201 0.09966907 -0.07073211 -0.23898935 0.03720371 -0.60224336 -0.37884247 -0.19792657
-0.014663283 0.15118736 -0.44685394 -0.43293828 -0.41010684 -0.6168536 -0.20639548 -0.12850106
-0.15921113 -0.3048085 -0.11425548 -0.02497974 0.05709977 0.028754337 0.14242657 0.13984375
00000000: 955e 8bbd d614 a6be 3d93 ab3e 784c ab3d
00000010: d909 bcbd 38a0 70be 2135 c4bd b28e 25bd
00000020: 1917 afbe fd17 56be 2ad8 983e a7d5 463e
00000030: 0723 b33e 9786 b33e 1296 62bd a20b 7f3e
00000040: 04ef 003d 0cff 4b3e 44f1 103e 3120 153e
00000050: f62a efbe 7dec 4b3d 7d12 0e3e 2814 3fbd
00000060: 37b1 0a3e a47f 573e 8f6a 48bd 903d 653e
00000070: a738 aebe d617 c83e 11f1 033e c2a7 90be
00000080: 9077 e33d b59c d13e 15a5 903e 4f85 613e
00000090: 35ed b23c 8d14 9abe cbf8 433d 3a98 75be
000000a0: 06ec 08bf 3e02 d0be bae2 bebe b7bc cd3c
000000b0: da47 bcbe c364 afbe f8c7 f8be c604 803e
000000c0: 8bff d1bd f2c7 8abd ee8e 1fbe a2ea 22be
000000d0: 0a60 6bbe 5b48 97be 59fc ffbd 5fb3 a13e
000000e0: 7fbc 1a3d 6b4e 283d 85f5 43be f6c5 bc3d
000000f0: e6ee b1be 427e 38bf e3ab 25bc 79ab a2bd
00000100: 8581 ecbe 4c0d e6be e9cd 053e 4560 0cbf
00000110: 298c 02be 68d9 74be 2199 543e aca0 0fbe
00000120: 813e 863e 1096 6d3e 3c0a 1dbe 2a22 713e
00000130: 6f83 493e 18c6 cd3d 2386 8b3d 1221 333e
00000140: 066d 76bd d48e 9bbd 5f40 af3e 1b0c ecbd
00000150: c306 03bf 0b33 d4bc c4b7 bebd d4e4 12be
00000160: 746c 963e 0213 b4be ac5d 263e 5e77 f2bd
00000170: 518e 703d 736b 5fbe caa7 123f efc2 c4bc
00000180: 7bdd 6abe 22f0 93be 1fce f3be bddd 92be
00000190: a550 c53e 7360 29bf 2b8e 733e a1ee 8b3d
000001a0: 7d47 0dbe ca0f 973e 6bee 9d3e 60f5 e4bc
000001b0: 6737 90bb f670 143e 31f7 21bd 5446 1b3e
000001c0: da12 0d3c 3f7a da3e 17ba ebbd 9afa 59be
000001d0: 6f71 a23e 20a9 193d da18 0fbe acec 753e
000001e0: 713e 583e b9ea 98bd b74b 86bb e8ae 9b3e
000001f0: dbd9 d43d 3477 823e 0c74 bb3d 2253 2bbe
00000200: 6591 5ebe 91b2 363e dcc7 c0be 044c 3fbd
00000210: 405a 30be df8c 193e 83b7 da3d a2ac 96bc
00000220: b29f c83d d0a3 4e3e ddf3 2bbe 966d 79be
00000230: 2cbc 51be 1266 61bd a88e 26be 8f0a 3dbe
00000240: 37af 79be 0c01 29be 74e5 bebe 1b2c 2ebe
00000250: 213d 2bbe e467 f23a 63ce 363e df87 363e
00000260: 2393 c3bd 4ead 89be 56bd abbe f941 babd
00000270: b15d 34be 3e79 353e 7886 aebe bafb 42be
00000280: 2465 e33d cb8a 343d 5215 903c 222f 473e
00000290: 43a0 ecbe d6fd 8abe b6c0 f23d cb98 c3be
000002a0: 42c6 99bc 79e6 bbbb 2dfb 183e d226 0b3e
000002b0: ecea 883e 5182 ab3e 5f50 a2be ddf0 3fbe
000002c0: 121d 44be 4e6e 31be b52a 133e facc ddbc
000002d0: 7f9a 983e 1b2f d83e 3064 8fbe 48da 373e
000002e0: ebfa c93c 9b43 c63c ca48 05bf cfcd f1bc
000002f0: c365 c5be 775c 10be 09a3 31bf e116 1fbd
00000300: 7bad d5bd 4c1f a83e bbe2 87be 5864 043f
00000310: 9c93 7bbe c287 863e 2c64 873e ccff 083b
00000320: a710 dcbe 4020 ae3d 9af8 2cbf bd0e 4abf
00000330: d01e 49bd 68de 61be cbff 783e 770d 003e
00000340: 9439 22bf 7495 24be d193 02be 84da f6bd
00000350: 4a0b a43d befc 9abe b7e0 1bbe af57 3ebf
00000360: fb31 893e 00a8 c53d 425a b53e d0a3 5b3d
00000370: c1a6 c6bc 4506 a5bd 5d7d 7c3d 2fd5 953c
00000380: 56a8 ae3d 994a f43d 8c12 073f bd52 0d3e
00000390: 18dd 4f3e 1154 283e 4f0b c1bd 3228 23be
000003a0: ae31 68be 4c1f cc3d ffdb 90bd a0b9 74be
000003b0: eb62 183d 9f2c 1abf a4f7 c1be 43ad 4abe
000003c0: 443e 70bc dcd0 1a3e 0aca e4be 16aa ddbe
000003d0: 86f9 d1be 1eea 1dbf 5659 53be c895 03be
000003e0: 3e08 23be dc0f 9cbe c7fe e9bd 50a2 ccbc
000003f0: 73e1 693d 378e eb3c 45d8 113e 3333 0f3e

arr_14 f4 [32]
0.5787733 0.60111487 0.53398997 0.659345 0.6013206 0.6389075 0.55660826 0.5315797
0.5825641 0.6113443 0.49345922 0.6190671 0.59573233 0.5428032 0.5813774 0.5832962
0.62509894 0.5783277 0.5484962 0.517931 0.5379444 0.6014968 0.61139554 0.5019652
0.38820758 0.5692038 0.5709738 0.65564287 0.58740914 0.6269182 0.56016463 0.562179
00000000: 7d2a 143f aae2 193f 91b3 083f d5ca 283f
00000010: 26f0 193f 718f 233f e17d 0e3f 9b15 083f
00000020: ec22 153f 0f81 1c3f b0a6 fc3e 2e7b 1e3f
00000030: ea81 183f 27f5 0a3f 26d5 143f e652 153f
00000040: 7c06 203f 490d 143f 3f6a 0c3f 2097 043f
00000050: b9b6 093f b2fb 193f 6b84 1c3f cb80 003f
00000060: 25c3 c63e 57b7 113f 572b 123f 36d8 273f
00000070: 7260 163f b67d 203f f366 0f3f f7ea 0f3f

arr_17 f4 [32]
0.54800093 1.1828887 1.0077246 0.5628192 0.6054398 0.6764491 0.9530115 0.64281094
0.95887536 0.8175748 1.301874 0.5037099 0.7857835 0.9475797 0.89348096 0.58258325
0.9485183 0.6032744 0.8314504 0.73637646 0.72067773 0.6296667 0.7941407 0.6101687
0.6035668 0.907464 0.51172143 1.1396182 0.8244077 0.59199184 0.62841725 0.9895486
00000000: ca49 0c3f e668 973f 1ffd 803f eb14 103f
00000010: 1afe 1a3f c52b 2d3f 90f8 733f 428f 243f
00000020: db78 753f 954c 513f cfa3 a63f 22f3 003f
00000030: 1c29 493f 9594 723f 2bbb 643f 2d24 153f
00000040: 18d2 723f 3170 1a3f efd9 543f 2b83 3c3f
00000050: 567e 383f d631 213f ce4c 4b3f 0434 1c3f
00000060: 5b83 1a3f 904f 683f 2d00 033f 02df 913f
00000070: 620c 533f c78c 173f f4df 203f 0f53 7d3f

arr_16 f4 [32]
-0.44842878 -0.12845714 -0.3361539 -0.14671507 -0.3912157 -0.17063604 -0.24336578 -0.667447
-1.093013 -0.8376441 -0.24926567 -0.5645897 -0.7271599 -0.19696617 -0.6851249 -0.49671236
-0.63304526 -0.41536167 -0.57970965 -0.5482764 -0.69891083 -0.6810873 -0.8023877 -0.50927883
-0.4403888 -0.7176475 -0.30828544 -1.0486937 -0.39405417 -0.35873002 -0.60939574 -0.7370365
00000000: 7598 e5be 458a 03be 5d1c acbe 7a3c 16be
00000010: 6d4d c8be 37bb 2ebe e134 79be cedd 2abf
00000020: dae7 8bbf d86f 56bf 803f 7fbe f388 10bf
00000030: 2727 3abf 80b1 49be 5864 2fbf 1551 febe
00000040: 410f 22bf 49aa d4be da67 14bf d85b 0cbf
00000050: d2eb 32bf bd5b 2ebf 4869 4dbf 1960 02bf
00000060: a47a e1be bfb7 37bf 97d7 9dbe 983b 86bf
00000070: 78c1 c9be 76ab b7be 5c01 1cbf 6dae 3cbf

arr_1 f4 [512]
-0.0989441 0.12794407 -0.013512184 -0.37000266 -0.41461465 -0.8223784 -0.49759376 -0.36110368
0.045910176 -0.77146983 -0.20206927 -0.42135006 -0.12543836 -0.060444146 -0.19509347 0.061504096
-0.43716735 0.00996281 -0.024185022 0.22598965 -0.045035776 0.14726277 -0.53443396 0.34268606
-0.06827147 -0.80074733 -0.06882251 -0.77055323 0.14407267 0.15975764 -0.20761126 -0.5638855
-0.23819654 -0.6378296 -0.20646411 -0.26107153 -0.48415866 -0.80918044 -0.58841646 -0.19750632
-0.17252839 -0.5137827 0.11173824 -0.43164352 -0.18541071 -0.08856557 0.052374173 0.27509052
-0.031482417 -0.22812207 -0.6066822 -0.22715051 -0.09906657 -0.02589845 -0.49666825 -0.23715693
-0.4589512 -0.31860355 -0.6370432 -0.08803872 0.2167139 -0.42114928 0.08561961 -0.26354465
-0.22638048 -0.5386481 -0.2798648 -0.5935121 -0.33579144 -0.4331857 0.1606342 -0.41067082
-0.036140654 -0.97271633 -0.08103824 0.1126251 -0.4315157 -0.23370335 -0.55973107 0.21155979
-0.36828414 -0.03037723 -0.74821174 -0.4118304 -0.6239333 -0.84455997 0.25276834 -0.6185559
-0.21288687 -0.59379363 -0.83417815 -0.19734275 -0.46408057 0.27089244 -0.14314747 0.20090666
-0.069436125 -0.12758179 0.37888408 -0.26505834 -0.23083028 -0.33950868 -0.7921954 -0.32420126
-0.014642947 -0.8413055 0.4951407 -0.8787541 -0.2933053 -0.37641573 -0.32594982 -0.049000304
0.18289328 0.07377275 -0.3710558 -0.040778223 -0.566918 -0.23757465 -0.8713936 0.08821574
-0.46780306 -0.76426864 -1.0263844 -0.19420509 -0.42439595 0.48569813 -0.04990482 -0.27757627
-0.69500554 -0.39625418 -0.5101515 -0.77187437 -0.24867788 -0.5967097 -0.23730637 -0.28686908
-0.23790528 -0.4963664 -0.06498083 -0.31722286 0.36443976 -0.10984813 -0.019080112 -0.5057544
-0.0015036495 -0.78516936 -0.30272037 -0.63310325 -0.23336816 -0.5385637 -0.48212516 -0.89863086
-0.53388286 -0.23768614 -0.66440177 0.1477982 -0.4083735 -0.85969746 0.22265668 0.020324742
-0.14019376 -0.30891764 -0.6010309 -0.5416405 0.15185651 -0.43210497 -0.008564189 -0.80092204
-0.21550933 -0.7595599 0.107423574 0.058957227 -0.23915553 -0.46424553 -0.20276062 -0.1638372
-0.16468036 -0.12184622 0.021508953 -0.6206125 -0.7343309 -0.6543451 -0.10996102 -0.6062866
-0.45758134 -0.6219877 -0.47521004 -0.6587668 -0.07203325 -0.027488118 -0.56800777 0.74143434
-0.38506734 -0.06182348 -0.08511599 0.09065873 -0.097365834 -0.30858096 -1.0549198 -0.1747944
0.1076419 -0.39590317 -0.49420324 -0.4548731 0.013823045 -0.11813869 0.0037144783 -0.4102274
-0.024707997 -0.20052353 -0.33050194 -0.39154696 -0.18632369 -0.1458879 -1.0179864 -0.21055798
-0.9724604 -0.6370175 -0.7305242 -0.41588503 -0.13842216 0.06901343 -0.17244236 -0.8997589
0.08037592 0.039109554 -0.055005997 -0.62629056 -0.26978427 -0.28878477 -0.44604582 0.24176845
-0.38106152 -0.47315323 -0.31458455 -0.16494668 -0.29911977 -0.32741624 -0.22013403 -0.029648673
-0.3444838 -0.43296397 0.10257586 -0.62558687 -0.34072718 -0.51811516 -0.5263878 -0.6264373
-0.31795308 -0.6663681 -0.32821426 -0.5252026 -0.65025204 -0.18441346 -0.7208654 0.030709084
00000000: 34a3 cabd c503 033e 3562 5dbc fd70 bdbe
00000010: 5f48 d4be 6487 52bf 9cc4 febe 95e2 b8be
00000020: 4f0c 3c3d 0c7f 45bf 3feb 4ebe 32bb d7be
00000030: ea72 00be 4894 77bd 95c6 47be b8eb 7b3d
00000040: 66d4 dfbe 0e3b 233c ab1f c6bc d569 673e
00000050: 6f77 38bd 0dcc 163e aad0 08bf 8c74 af3e
00000060: ead1 8bbd c7fd 4cbf d1f2 8cbd fa42 45bf
00000070: c987 133e 8297 233e 0c98 54be cd5a 10bf
00000080: cbe9 73be cd48 23bf 546b 53be 2bab 85be
00000090: a5e3 f7be 7326 4fbf 76a2 16bf 193f 4abe
000000a0: 48ab 30be 4387 03bf 05d7 e43d 6100 ddbe
000000b0: 4edc 3dbe de61 b5bd 4d86 563d aad8 8c3e
000000c0: b5f3 00bd d598 69be 864f 1bbf 259a 68be
000000d0: 6ae3 cabd fc28 d4bc 4d4b febe 44d9 72be
000000e0: a7fb eabe 0120 a3be 4315 23bf a54d b4bd
000000f0: 40ea 5d3e e1a0 d7be 5659 af3d 53ef 86be
00000100: 49d0 67be d8e4 09bf 704a 8fbe 69f0 17bf
00000110: dbec abbe 84ca ddbe 4b7d 243e 7243 d2be
00000120: 3908 14bd f003 79bf 60f7 a5bd fda7 e63d
00000130: a0ef dcbe ee4f 6fbe 894a 0fbf 21a3 583e
00000140: bd8f bcbe abd9 f8bc ce8a 3fbf 6fdb d2be
00000150: 18ba 1fbf 1535 58bf da6a 813e ae59 1ebf
00000160: 04ff 59be dc02 18bf b38c 55bf 3814 4abe
00000170: f89b edbe 6ab2 8a3e 4095 12be 7aba 4d3e
00000180: 8734 8ebd cda4 02be 18fd c13e bab5 87be
00000190: c65e 6cbe 15d4 adbe 51cd 4abf b5fd a5be
000001a0: f9e8 6fbc cc5f 57bf 1583 fd3e 07f6 60bf
000001b0: 1d2c 96be 90b9 c0be e5e2 a6be 8bb4 48bd
000001c0: 6048 3b3e 2b16 973d 07fb bdbe 1107 27bd
000001d0: 8a21 11bf c546 73be a713 5fbf 74aa b43d
000001e0: e283 efbe 1ca7 43bf 9060 83bf b3dd 46be
000001f0: 6d4a d9be 6dad f83e ff68 4cbd 7a1e 8ebe
00000200: e2eb 31bf d4e1 cabe 4a99 02bf 8f99 45bf
00000210: 6aa5 7ebe f8c1 18bf 7100 73be 81e0 92be
00000220: 719d 73be bd23 febe ab14 85bd 096b a2be
00000230: d997 ba3e 0ef8 e0bd e54d 9cbc 1f79 01bf
00000240: 1b16 c5ba dc00 49bf 2afe 9abe 0e13 22bf
00000250: 10f8 6ebe 50df 09bf 1cd9 f6be ac0c 66bf
00000260: 8cac 08bf ff63 73be 3c16 2abf 6958 173e
00000270: 5516 d1be 2215 5cbf 1d00 643e 1380 a63c
00000280: f48e 0fbe 742a 9ebe 29dd 19bf f4a8 0abf
00000290: 4680 1b3e dd3c ddbe d050 0cbc 3a09 4dbf
000002a0: 7aae 5cbe 8572 42bf e400 dc3d 227d 713d
000002b0: 30e5 74be 97b1 edbe 7ba0 4fbe f0c4 27be
000002c0: f8a1 28be 838a f9bd 8b33 b03c 76e0 1ebf
000002d0: 1cfd 3bbf 2983 27bf 3e33 e1bd 9935 1bbf
000002e0: 1a48 eabe 963a 1fbf bb4e f3be f1a4 28bf
000002f0: 2b86 93bd c32e e1bc f568 11bf a4ce 3d3f
00000300: 8c27 c5be 9e3a 7dbd 4b51 aebd 49ab b93d
00000310: bd67 c7bd 53fe 9dbe 9d07 87bf 4efd 32be
00000320: 5b73 dc3d d2b3 cabe 3508 fdbe 21e5 e8be
00000330: 0e7a 623c b3f2 f1bd 9b6e 733b 5309 d2be
00000340: 6d68 cabc 0a56 4dbe 8d37 a9be d878 c8be
00000350: a3cb 3ebe a363 15be 614d 82bf 839c 57be
00000360: 2af3 78bf 9413 23bf a203 3bbf e2ee d4be
00000370: 8abe 0dbe ea56 8d3d bb94 30be 9956 66bf
00000380: 219c a43d 5731 203d f84d 61bd 9454 20bf
00000390: 2a21 8abe 99db 93be 1e60 e4be 2692 773e
000003a0: 7f1a c3be 2441 f2be 3a11 a1be c8e7 28be
000003b0: 3a26 99be 1aa3 a7be d16a 61be c6e1 f2bc
000003c0: 2e60 b0be 74ad ddbe 4b13 d23d 7626 20bf
000003d0: cb73 aebe 32a3 04bf 5ac1 06bf 325e 20bf
000003e0: bfca a2be 1a97 2abf b30b a8be ad73 06bf
000003f0: eb76 26bf e2d6 3cbe a38a 38bf 9e91 fb3c

arr_0 f4 [23, 512]
0.0978809 0.15953921 0.29685923 0.4041637 0.19037895 -0.106197454 0.28542286 -0.37537885
-0.17212896 -0.064799264 -0.045200165 -0.24027285 -0.019895952 0.19384651 0.116527505 0.30505168
0.03963543 -0.123143695 -0.063759096 0.2890957 -0.45789373 -0.27123114 0.1629284 -0.49837363
0.007876961 0.11036578 0.17207837 -0.6057605 -0.10909885 -0.36653048 -0.5809697 0.25281394
0.1333865 -0.040963575 -0.4405783 -0.3895748 -0.43096775 0.13162911 0.3707426 -0.26293913
-0.026474059 0.31833902 0.09623877 0.36147177 0.09885893 -0.01600359 0.018292353 -0.22345386
-0.022658365 -0.24588108 -0.104911365 -0.39782134 -0.24676447 -0.32164428 -0.11077396 0.059782177
0.2540565 -0.4235435 0.0017650772 -0.62155205 0.07126777 0.23530544 -0.18582353 -0.026446538
0.03091965 0.07113564 -0.35703224 -0.2835946 -0.16171412 0.26812944 0.089859076 0.11400798
-0.20893429 0.1050282 -0.14507657 -0.034019485 0.1871415 -0.3477224 -0.021419805 0.23054814
0.2338713 -0.21623719 0.30247253 0.0871528 0.40518442 0.16396917 -0.024660565 0.4720354
-0.32326084 0.21601476 0.037196096 -0.13601197 0.08117785 0.2449829 0.10059176 -0.1742526
-0.23233879 0.18022461 -0.08087103 0.00786163 -0.4300467 -0.090382785 -0.4812267 -0.36635363
0.04075321 0.10089142 0.23042606 -0.072996065 -0.1144722 0.397419 -0.45603123 -0.68906707
0.21488257 -0.28053552 0.05315373 0.13337362 0.31923866 0.07602867 0.07332301 -0.5060671
0.16712667 0.012650682 0.1339841 0.21586202 -0.1302039 0.17652582 -0.35786512 0.5163273
0.3470793 0.0701679 0.17406328 -0.22161421 0.19253604 0.31547442 -0.38381922 -0.415307
-0.2560647 -0.17382637 -0.07690593 -0.45010445 -0.11070223 0.108366944 0.08902489 0.26443902
0.08191505 0.064092584 0.42902097 -0.10818806 -0.07994304 -0.53292936 0.024657529 0.15545943
0.023513759 0.107164145 -0.06405146 -0.019847693 0.06478008 0.34201723 0.28114763 0.34286273
-0.5397163 -0.4236559 0.055652305 0.21054432 -0.49475348 0.28575855 -0.16110362 0.087435596
0.2755766 -0.037189335 0.060466208 -0.023048049 -0.4325999 -0.008594103 -0.21975802 0.27281806
-0.30208156 -0.007283713 -0.009609054 0.008506164 0.026991501 -0.36871797 -0.1185318 -0.24241687
0.21852338 -0.23629563 0.18923482 -0.12080702 0.29945758 -0.18189697 -0.01381257 -0.2417242
0.11275323 0.21848968 0.15641701 0.32756308 -0.24748488 0.12702173 0.10224382 -0.14387895
0.118561745 0.14620209 0.31056318 0.13882065 -0.05661911 0.26936573 -0.2595008 -0.17297256
-0.49919888 -0.3952801 0.3581829 0.2008388 -0.0293504 -0.19353458 0.19533971 -0.56225044
0.23547332 0.44744036 -0.0974513 -0.10867788 0.065406784 0.15784505 0.18898177 0.6546866
-0.11936193 -0.10581427 0.15536433 0.28483385 -0.14047447 -0.28065723 -0.034150254 -0.17236203
-0.022761079 0.18576859 -0.18304026 0.06649349 -0.42450765 0.08911944 0.13728754 0.083053164
-0.119114906 -0.15846267 0.0035334432 -0.2305251 -0.09361679 0.24451715 -0.019133704 -0.46549383
0.24110524 0.2769652 0.2990598 -0.19849694 -0.03214965 0.076655366 0.18394324 0.044084664
00000000: c875 c83d 3f5e 233e effd 973e 8bee ce3e
00000010: b3f2 423e 0d7e d9bd f222 923e a831 c0be
00000020: 9342 30be 7ab5 84bd cf23 39bd 160a 76be
00000030: d6fc a2bc b37f 463e f9a5 ee3d bc2f 9c3e
00000040: c358 223d c332 fcbd 2194 82bd 5a04 943e
00000050: 0c71 eabe cfde 8abe b4d6 263e d42a ffbe
00000060: 5e0e 013c 7407 e23d 5035 303e 1f13 1bbf
00000070: 386f dfbd e2a9 bbbe 6eba 14bf d470 813e
00000080: 7896 083e 6cc9 27bd 7b93 e1be 5976 c7be
00000090: cea7 dcbe c8c9 063e f9d1 bd3e f59f 86be
000000a0: 20e0 d8bc 55fd a23e d518 c53d d412 b93e
000000b0: 8d76 ca3d f619 83bc d8d9 953c 17d1 64be
000000c0: 099e b9bc 40c8 7bbe c5db d6bd 3daf cbbe
000000d0: d3af 7cbe 8fae a4be 75dd e2bd 28de 743d
000000e0: b213 823e b2da d8be 2a5a e73a 091e 1fbf
000000f0: d6f4 913d e9f3 703e 8648 3ebe 69a6 d8bc
00000100: 354b fd3c 90af 913d eecc b6be 5033 91be
00000110: 6398 25be 4348 893e 0908 b83d 047d e93d
00000120: dff2 55be 0619 d73d f48e 14be 0458 0bbd
00000130: 05a2 3f3e ac08 b2be 9678 afbc d014 6c3e
00000140: f57b 6f3e 486d 5dbe aedd 9a3e 2b7d b23d
00000150: 5574 cf3e 89e7 273e f404 cabc a0ae f13e
00000160: 7282 a5be f932 5d3e ef5a 183d b946 0bbe
00000170: 9340 a63d ccdc 7a3e 0d03 ce3d 466f 32be
00000180: 38ea 6dbe cd8c 383e b69f a5bd 11ce 003c
00000190: 152f dcbe 9c1a b9bd 5963 f6be b492 bbbe
000001a0: d7ec 263d 29a0 ce3d cff4 6b3e f67e 95bd
000001b0: 6770 eabd 817a cb3e ed7c e9be b366 30bf
000001c0: 2d0a 5c3e 5aa2 8fbe bab7 593d 1893 083e
000001d0: 4073 a33e ebb4 9b3d 602a 963d 9d8d 01bf
000001e0: 4123 2b3e ce44 4f3c 2133 093e ef0a 5d3e
000001f0: 2c54 05be 2fc3 343e 193a b7be 072e 043f
00000200: 61b4 b13e 30b4 8f3d a53d 323e d6ee 62be
00000210: 2b28 453e dd85 a13e f483 c4be 1ea3 d4be
00000220: ea1a 83be 8aff 31be db80 9dbd 1774 e6be
00000230: dab7 e2bd 7def dd3d ae52 b63d 8d64 873e
00000240: 14c3 a73d f942 833d a3a8 db3e b491 ddbd
00000250: 2db9 a3bd 0f6e 08bf 96fe c93c c230 1f3e
00000260: ed9f c03c e078 db3d 692d 83bd a197 a2bc
00000270: 6bab 843d e21c af3e 95f2 8f3e b48b af3e
00000280: d92a 0abf 6de9 d8be acf3 633d ee98 573e
00000290: 5450 fdbe f24e 923e 59f8 24be 6f11 b33d
000002a0: 6018 8d3e d853 18bd 6aab 773d 43cf bcbc
000002b0: bc7d ddbe 48ce 0cbc 3f08 61be cfae 8b3e
000002c0: 6faa 9abe 37ac eebb 4b6f 1dbc 705d 0b3c
000002d0: 481d dd3c 9ac8 bcbe cdc0 f2bd 213c 78be
000002e0: 98c4 5f3e 7bf7 71be c6c6 413e ac69 f7bd
000002f0: 8152 993e 3343 3abe 1e4e 62bc 8c86 77be
00000300: 2aeb e63d c2bb 5f3e c82b 203e 59b6 a73e
00000310: ad6c 7dbe fc11 023e 3565 d13d 0155 13be
00000320: 80d0 f23d 00b6 153e 2302 9f3e 0027 0e3e
00000330: 71e9 67bd 4eea 893e 4add 84be b81f 31be
00000340: ff96 ffbe 2762 cabe c063 b73e b0a8 4d3e
00000350: 4070 f0bc ee2d 46be 2207 483e a5ef 0fbf
00000360: eb1f 713e e716 e53e 8c94 c7bd 8292 debd
00000370: fef3 853d 22a2 213e 7084 413e 8b99 273f
00000380: 0774 f4bd 27b5 d8bd d417 1f3e bed5 913e
00000390: 8ad8 0fbe 4eb2 8fbe 23e1 0bbd ac7f 30be
000003a0: 7175 babc 1f3a 3e3e e86e 3bbe bd2d 883d
000003b0: 1159 d9be 4184 b63d 1b95 0c3e c717 aa3d
000003c0: 84f2 f3bd 0a44 22be 5791 673b c60e 6cbe
000003d0: 29ba bfbd b462 7a3e 49be 9cbc 3555 eebe
000003e0: 4be4 763e 62ce 8d3e 5e1e 993e c842 4bbe
000003f0: 5aaf 03bd 7dfd 9c3d 9e5b 3c3e 1f92 343d
