pretrained_model/MSRA_pretrained/p0/params/-1_reco_params.npz (npz, 497458 bytes, 22 tensors)

arr_20 f4 [23, 23]
00000000: 62bd 623e 2dba 8e3e 07d7 c13e ec74 25bd
00000010: 63bf 863e 4057 46bf 2cf9 a13e b936 d9be
00000020: 8d05 c4be f2bd 17bd 6188 2c3f e5e3 f1bd
00000030: aa84 bb3d 0961 3c3d a170 15be e60c 193e
00000040: 76e8 0ebf 2e8b 4f3c 4189 953e 24ba 8e3e
00000050: 97e3 8bbe 100f bfbe fe5d 073f 12a0 ff3c
00000060: ffaa 13be 9ee6 433e daa8 94bd e643 5dbe
00000070: 2491 4ebd 4a39 683e a5fd ab3e f743 2d3e
00000080: 9b22 11be ca05 3fbe 5c04 473e 9d8a 73bd
00000090: 4b42 f03c 5d6d 133c 7fff 8f3e 01ed 8ebd
000000a0: e603 973e 8fd3 8e3e 75a3 013e 4cc4 8cbe
000000b0: 5ea2 e93e 0810 15be 32fb 893c 2031 583e
000000c0: e2b6 85bb 5235 9abc ec3f 61be 7f8f ff3d
000000d0: 247f 31be 056f c63d 9432 743e dc3e 5a3d
000000e0: 4d12 903e f083 d13c f231 903e dc05 6d3d
000000f0: 0f56 a63e f3da 94bd 10d1 0c3e 9a51 b23e
00000100: 4486 0a3e 6f6d bebd b65b 3ebf 6011 873b
00000110: fa13 8b3e 68af dabd 0a10 bbbd 5a52 c43d
00000120: 744f ba3c ae9a a83c 40aa 1abe e056 15bd
00000130: 6515 923d f774 8d3c 1691 57bd 1b7f e63d
00000140: e100 d53c 038b a53d 89bc b53d ff69 1cbd
00000150: a66c 9d3c 6a66 313d 7617 523b 8336 4cbd
00000160: 8297 9a3c c924 37bf 3fb7 0f3e 35cd 6fbf
00000170: ea41 453e 9e8b a4bd 7b63 aa3d 96e5 133f
00000180: fe03 933d 9043 483d 6135 623e 0fd3 0f3c
00000190: 713b eebb 8e4a 973e 75bf d5bd 5d26 343e
000001a0: 601a cdbe e510 16be 5b03 aebe 34ac dd3e
000001b0: 2778 003e 97c1 dfbe 7260 ad3c 77b9 3d3e
000001c0: 7ec0 ed3e 6d4c 4cbe 9f4e 04bf dd1a 2dbe
000001d0: 9a6d 0ebf 3670 5e3d 1b23 50be eb5f b73c
000001e0: 38cd d1be 6454 5abe ee27 cebe 6b98 2f3e
000001f0: 314d e93e 9edd 8a3c a2da 5d3f e174 943d
00000200: 6faf 233e e24e 90bd 8a4e 433d e0e5 68be
00000210: 03db 303e 572c d2be e158 683d dbbc fcbd
00000220: cfd8 99be 91e0 4b3e 4b68 49be 1e46 db3e
00000230: 7ad6 4abe dedf 793e 9bab 92be 75d8 bb3d
00000240: 048d 77bd 58c1 763d fa79 6f3e eb04 30be
00000250: 3d00 eb3d 22e0 533e ba9c 183e 4569 e93e
00000260: b5ff 64be 4db4 023e c39e 42bc af5a a6be
00000270: 11d7 75be 1d3c 5c3e 2c7c 0abe 83d7 1cbf
00000280: 76b2 d53e 303e 9cbe 6180 13bf a4ac ddbc
00000290: 3745 a7bb 9f16 e53d e8ba 003f 9163 afbe
000002a0: af76 2abe 4b97 aabe 3702 113e cc69 44bd
000002b0: c330 b43e 047c 1ebf 58fc 283f 5671 f23d
000002c0: dc42 003e 29f4 bd3e 7df3 063e 6c59 8d3e
000002d0: 045f e6bd b805 aebc 8223 25be a85b e23e
000002e0: 490c 4f3e 0e75 d6be aebe 0cbd 8fcc 6abe
000002f0: 6011 c03d 3697 3b3c c8d1 e83e b020 bebe
00000300: 6776 8a3e f2f0 89be 27a4 f03d 764c 34be
00000310: a4fa ab3d cffe a1be af6d 2d3d 0d57 143e
00000320: 2362 893e ea4b acbe 9664 51be fcb2 1bbe
00000330: 86a2 853e 9cd9 00bc ae57 0a3f 4e05 243e
00000340: 3965 4d3d c018 95bd ca7d ce3d f9b6 74be
00000350: 58a4 393e 0891 923e 99a7 8dbe f6ff 67be
00000360: b4ac c1bc d194 65be c9b4 d83d 1885 343e
00000370: dea6 943e 09b6 9d3e afac 293e a684 4dbe
00000380: 60f3 423e 236a 483d d397 5b3e 27e5 b73e
00000390: c236 123f 61ed 17be 024a 2dbc e4a4 c6be
000003a0: 0173 26bd e338 553e 88fd 653e a294 6c3d
000003b0: d778 b83c 6952 133e c903 0fbf f00c 833d
000003c0: 0b96 70be 9234 d3bc 7ea9 443f 737b 4e3e
000003d0: 6b8d bfbe 28d8 64be 7862 3fbd 6e17 adbe
000003e0: a5b1 383e 434e 2abd eaa5 933d e14f b1be
000003f0: 7853 093f 6332 23bf 02f5 c43e be11 d33d
0.22142556 0.27876416 0.37859365 -0.04039471 0.2631789 -0.7747688 0.31635416 -0.42424563
-0.38285485 -0.03704638 0.673956 -0.118110456 0.09156163 0.045990977 -0.14593746 0.14946327
-0.5582346 0.01266746 0.2920628 0.2787639 -0.27322075 -0.3731618 0.52877796 0.031204257
-0.14420699 0.19130942 -0.072587684 -0.21607932 -0.050431386 0.22678104 0.33591953 0.16920458
-0.14173357 -0.18654552 0.19435257 -0.059458364 0.029328486 0.008998242 0.28124616 -0.06978799
0.29495162 0.2789578 0.1266001 -0.27493513 0.4563169 -0.14556897 0.016843412 0.2111249
-0.004080639 -0.018824253 -0.2199704 0.124785416 -0.17333657 0.09689144 0.23847419 0.053282604
0.28138962 0.025575608 0.28163105 0.057866916 0.32487532 -0.07268324 0.13751626 0.34827882
0.13527781 -0.092982166 -0.7435869 0.0041219443 0.27163678 -0.10677987 -0.091339186 0.0958602
0.022742964 0.02058157 -0.15104008 -0.036459804 0.07132987 0.017267687 -0.0526286 0.11254712
0.026001396 0.08083155 0.08873851 -0.038187023 0.019216847 0.04331056 0.003205744 -0.049856674
0.018871073 -0.71540505 0.14034747 -0.93672496 0.19263425 -0.08034442 0.08319756 0.57772195
0.07178496 0.048892558 0.22090675 0.008778348 -0.0072702696 0.29549068 -0.10436908 0.1759276
-0.40059185 -0.14654882 -0.33986935 0.43295443 0.12545834 -0.43702385 0.021164153 0.1852778
0.46435922 -0.19951029 -0.51682466 -0.16904779 -0.5563599 0.05430623 -0.20325892 0.022384604
-0.40976882 -0.21321255 -0.4026484 0.17147987 0.45566705 0.016951378 0.8666173 0.072488554
0.15984891 -0.07046296 0.047682323 -0.2274394 0.17271046 -0.41049454 0.056725387 -0.12340709
-0.30048224 0.19909884 -0.19668691 0.42826933 -0.19808379 0.24401805 -0.2864655 0.09172145
-0.060437217 0.06024298 0.23386374 -0.17189376 0.11474655 0.20690969 0.14903536 0.45588127
-0.2236317 0.12764092 -0.011878672 -0.3249106 -0.24007823 0.21507306 -0.1352393 -0.61266345
0.41737717 -0.30516195 -0.57617766 -0.02705986 -0.0051046866 0.11185955 0.50285196 -0.3425565
-0.16646837 -0.33318552 0.14161001 -0.04795246 0.35193452 -0.6190798 0.66010046 0.11838023
0.12525505 0.37100342 0.13178821 0.27607286 -0.112485915 -0.021242961 -0.16126826 0.44210553
0.2021953 -0.4188618 -0.034361534 -0.22929595 0.09378314 0.011449626 0.4547255 -0.37134314
0.2704346 -0.2694164 0.117500596 -0.17607293 0.08397415 -0.31639716 0.04234093 0.14486332
0.26832685 -0.33651668 -0.20448527 -0.15204996 0.26100558 -0.007864382 0.5404004 0.16017649
0.05014536 -0.07280111 0.10082586 -0.23897924 0.18129098 0.28626275 -0.2766693 -0.22656235
-0.023641922 -0.2242005 0.10581357 0.17628896 0.2903356 0.30802944 0.1656978 -0.20070133
0.19038153 0.048929345 0.21444635 0.35917017 0.57114804 -0.14836647 -0.010576727 -0.38797677
-0.04063702 0.20822482 0.22459996 0.057758935 0.022518558 0.14386906 -0.5586515 0.06398952
-0.23494737 -0.025781903 0.76821125 0.2016428 -0.3741258 -0.22348082 -0.046724766 -0.33806938
0.18036516 -0.041578542 0.0720938 -0.34631255 0.5364299 -0.6374876 0.38468176 0.103061184

arr_21 f4 [23]
00000000: 1c8a debc 799d 633d d0ef 59bd ff4e cbbd
00000010: f7a5 c4bd c368 dbbc a836 49bd f2f9 213e
00000020: 7236 f63d cded 563c 7069 a4bc d16f a4bd
00000030: 38ce 8c3b 3c83 0dbe cfb2 0b3e 843f 44bd
00000040: 91a4 ebbc f80f b8bb 0447 b53d bfa5 75bc
00000050: 40cb 01be 8520 c1be e85d 053f
-0.027165465 0.0555701 -0.05320722 -0.09927177 -0.09601968 -0.026783353 -0.04912439 0.15818003
0.12022103 0.01311822 -0.020069808 -0.0802914 0.004297044 -0.13819593 0.13642429 -0.047912136
-0.028764995 -0.005617138 0.08851436 -0.01499313 -0.1267519 -0.37720123 0.52096415

arr_19 f4 [23]
00000000: b04f 233e 2888 e63d aa14 173e 1be5 d83d
00000010: 56cc 103e e598 f63d e641 fd3d 679d 1b3e
00000020: 265a 073e 7612 193e 87d8 f53d c7aa 193e
00000030: bdd9 e13d 644c f43d 33f7 023e d377 293e
00000040: 25f1 ee3d e700 ed3d a4ae fc3d 857d 0e3e
00000050: 7df4 eb3d 5097 0d3e d6f6 1a3e
0.15948367 0.112564385 0.14753976 0.105905734 0.14140448 0.12040881 0.12366085 0.15196763
0.13217983 0.14948449 0.1200419 0.15006553 0.110278584 0.11928633 0.12789612 0.16549616
0.116670884 0.11572438 0.123379976 0.1391507 0.11521242 0.13827252 0.15133223

arr_18 f4 [23]
00000000: d4d9 783f 6b3b 88c0 6110 8fbf 374b d1c0
00000010: 34c7 5bc0 8f20 34c0 5cbc 2140 8d8d 2540
00000020: f5c9 0c40 3b43 06c0 cdde 0340 afb0 79c0
00000030: 6dd8 0bc0 5459 4240 830d 7bc0 c806 c3bf
00000040: d4d0 a1be b082 bdbd 1ce2 37bf e059 0ac0
00000050: 9a89 1d40 9808 5740 69c1 523e
0.9720738 -4.257253 -1.1176873 -6.5404315 -3.4340334 -2.8144872 2.5271215 2.5867646
2.1998265 -2.0978534 2.0604737 -3.901409 -2.1850846 3.0367022 -3.9226997 -1.5236444
-0.31604636 -0.09253442 -0.7182939 -2.1617355 2.4615235 3.3598995 0.20581593

arr_11 f4 [32]
00000000: 263e 34bf 790d 81bf ea45 64bf 858d 68bf
00000010: 556f 09bf 1098 4fbf 766b 93bf 7cce 4cbf
00000020: 7dab b7be 1514 95bf 12c5 a4bf be15 0bbf
00000030: a0c6 55bf 3055 95bf 3363 7bbf d878 8ebf
00000040: 59b0 38bf d366 40bf 20f6 93bf 0b4c 4bbf
00000050: 0168 4cbf 5421 9cbf 22b4 4dbf e629 69bf
00000060: 627c 1abf b85b 57bf d645 a9bf 8eea 55bf
00000070: f2be 7abf e042 4cbf 39c8 13bf b092 6dbf
-0.7040733 -1.0082237 -0.8916918 -0.9084094 -0.53685504 -0.81091404 -1.151717 -0.8000257
-0.35873023 -1.1646754 -1.2872641 -0.5433005 -0.835062 -1.1666622 -0.9819824 -1.1130629
-0.72144085 -0.751569 -1.1559486 -0.7941291 -0.798462 -1.2197671 -0.80352986 -0.91079557
-0.60346043 -0.84124327 -1.3224437 -0.8356103 -0.9794761 -0.79789543 -0.5772739 -0.9280195

arr_10 f4 [32, 32, 6, 6]
00000000: d7bd 993f 82c8 45bf 0128 afbf cbdd 763f
00000010: 0b4c 903f c6b4 06bf 3048 0f3e 9f5d 833f
00000020: fb0c 81bf d25f d93e 9ed8 6a3f ebe7 91bf
00000030: 245e 02be 356e 493e 2b19 70bf 19fd 9e3f
00000040: e9b4 133f 2f52 193f 95b7 0abd 286d 6cbd
00000050: 6b23 48bd f7f6 c53e 37d2 d1bd f6a2 203f
00000060: 87e9 323e 828e 5e3f 6d9d a43d 70cd 093f
00000070: e408 3b3f 44ec b83d f75d 2dbf 7e01 b63e
00000080: a9bf ffbe 4dd2 38be 67a2 cabe d73d 78bc
00000090: 6a93 343f fcf5 b0be d563 013f 5e43 7dbf
000000a0: 5c98 2f3f 6422 eebd c3f2 cfbe 215e e7be
000000b0: 10c7 40be c5df 32bf f813 ae3f 8e1d 203f
000000c0: c59e e6bf ad6e 373f 9d79 8fbc 3fe6 073f
000000d0: 056d d53e fc86 a73e fa42 ad3e 3a77 903f
000000e0: 61dd 7f3e 5ff7 a63f 5b6d 693f 469d e6be
000000f0: d34e 133e 7e33 f9be 19b3 1ebe fb7a 6abd
00000100: 9933 1c3f 7a09 423f 7809 ce3e 4e8d d5be
00000110: 3a27 66bf ae99 ac3e e53f 293f e9ac 333f
00000120: c3c6 dabf 7e5c 733b 1614 8cbe a6b9 db3e
00000130: 2fbb 21bf baec 8b3e 05bb 113f bacc e93e
00000140: cda3 8dbf aaf5 163e 6380 30bf c895 b0bf
00000150: 06fd 293f 11d2 97be 7b21 d03e 266a 66bf
00000160: 3294 10be 43e2 cc3e 3204 493e 7f67 99bd
00000170: 7ead 9a3e d681 cbbe 0f55 7abf 6bf8 02bf
00000180: 3ada 15bf d8b6 313f 49ca d93e 3f9f 95be
00000190: 5214 adbe ce36 fdbe 5046 9d3e 5436 a33e
000001a0: 5b9a 57bf e40c 66be ee03 a2bc ac35 c0be
000001b0: 49e3 2ebe 8067 733e 27bf a03e edf0 febe
000001c0: 356e 863f 8c83 6cbf c04e 853d aaea 7abf
000001d0: 4d5f c43e c8a2 273f dab5 013e 2d8e 4a3f
000001e0: 8134 533f 43c3 53bf cb71 27bf 5159 4dbf
000001f0: 2c67 c63e f500 04be 6bae a9bd a0fa 3f3f
00000200: 5d49 7d3f 9eac 3fbf 9d45 1c3f 2a9c aabe
00000210: 8ec0 45be 2d70 a23e 9412 5ebe 5fd6 ba3e
00000220: 2757 ff3e 001d c73e de92 a43e 2e96 b33e
00000230: 6802 1e3f 7064 323e f722 e53e b841 ffbd
00000240: 2477 26bd 1880 04bf 5dc7 28bf 751f aabf
00000250: c772 063e 08ee 843e 5124 b4bd 3a62 e03e
00000260: 8285 45bd 3d42 953e 6b6b de3e 51c8 503e
00000270: d078 01bd c89d 1f3e ac6a 903f 419d 043f
00000280: 9694 29bf 823a 10bd 85c8 5c3e fbba f7be
00000290: cf18 c7bd 49cd 33bf 2c3c 5abf 85cc 9cbf
000002a0: c368 49bf b51d 01c0 8ab5 b3be d97e d0be
000002b0: d18b 933e 54db 423f df87 d23e 2263 bb3d
000002c0: 9694 35bd eb29 6c3e 2955 5cbd c939 843c
000002d0: bc88 67be 96bd ee3e f4fd eb3a 2a5f cc3e
000002e0: 538c b83e b437 623f b683 9cbf 5337 57bf
000002f0: 751b 033f e864 c23e fafa 4bbe 3dd6 fa3d
00000300: 1094 f53e 3aea 42bf ca62 5a3f 8539 29bc
00000310: 2972 c1bf 74bc 283e b173 d4be 23bd 083f
00000320: 6e4f 173e 93e3 91be 55df bc3d 571a c33e
00000330: 044e ee3d cc02 e33d 4c85 35be ba82 79bf
00000340: 5e35 1b3f de8b 5abf f58c 3bbf f26d 25bf
00000350: 3749 4a3f bddd d63e 2357 d43e bd53 4c3e
00000360: 81f6 993f 2266 303f f4d3 0ebe cdad c83d
00000370: 69bb 6bbf dd1f 3f3f 4104 eb3e c8a0 f53e
00000380: 52a9 a9be 52bb 2dbf 2183 d93e 0fbb dd3d
00000390: 56ba 16be 06ad 443f 6015 153e b8e2 11be
000003a0: 5564 42be 8d86 fdbe 656d 0bbe 66ba 2fbf
000003b0: b410 ec3e a2e1 773c b536 4e3f 7bdd 7a3f
000003c0: e7a1 1fbe 9540 03bf bbf1 393e 073a bcbe
000003d0: 9311 4f3e 8af6 5a3f a033 843e 3a6e fc3e
000003e0: 7a2b 93bf 52d7 87be 6052 fc3e e37b ab3e
000003f0: 0434 d23d b3b3 62bf 8647 fcbd 6cb7 4a3f
1.201106 -0.77259076 -1.3684083 0.9643218 1.1273206 -0.5261959 0.13992381 1.0262946
-1.0082086 0.42455918 0.9173678 -1.1398901 -0.12731224 0.19670947 -0.93788403 1.2420989
0.5769792 0.5989103 -0.033866484 -0.057721287 -0.048861902 0.38664982 -0.102451734 0.6274866
0.17471896 0.869362 0.08037839 0.538291 0.7306044 0.09029439 -0.67721504 0.35548013
-0.49950913 -0.18048973 -0.39577028 -0.0151514625 0.70537436 -0.3456267 0.50542957 -0.9893092
0.68591857 -0.11627653 -0.406149 -0.45189002 -0.18825936 -0.69872695 1.3599844 0.62545097
-1.8017203 0.7165325 -0.017514044 0.530857 0.41684738 0.32720172 0.33840162 1.1286385
0.24986793 1.3044242 0.9118249 -0.45041865 0.14385538 -0.48672098 -0.15498008 -0.05724619
0.6101623 0.7579571 0.402416 -0.4170937 -0.89903605 0.33710998 0.6611312 0.70185715
-1.7091907 0.0037133987 -0.27359074 0.42915076 -0.63176244 0.27329046 0.56925994 0.45664006
-1.1065613 0.14742151 -0.689459 -1.379571 0.6640171 -0.29652455 0.40650544 -0.9000572
-0.14119032 0.40016374 0.19630507 -0.074904434 0.3021049 -0.39747494 -0.9778604 -0.51160306
-0.5853611 0.6941962 0.42537144 -0.29223058 -0.33804566 -0.49455875 0.30717707 0.31877387
-0.842199 -0.22465855 -0.019777264 -0.37540948 -0.1707889 0.23769951 0.31395838 -0.49793187
1.0502383 -0.92388225 0.06509161 -0.9801432 0.3835396 0.6548276 0.12667027 0.79123193
0.8250199 -0.8271982 -0.6540801 -0.8021441 0.3875059 -0.1289099 -0.08285221 0.749918
0.9894007 -0.7487277 0.6104372 -0.3332227 -0.19311735 0.31726208 -0.21686774 0.36491677
0.4987118 0.38889313 0.321433 0.35075516 0.6172242 0.17421126 0.4475324 -0.12463707
-0.040640965 -0.51757956 -0.65929204 -1.329085 0.13129722 0.25962853 -0.08795989 0.4382494
-0.048223026 0.29152098 0.43441328 0.20388915 -0.031609356 0.15587533 1.1282554 0.5180245
-0.6624235 -0.035212047 0.21560867 -0.48384842 -0.09721529 -0.70235115 -0.85248065 -1.2249914
-0.7867548 -2.0174382 -0.3509944 -0.40721777 0.2881761 0.7611592 0.41119286 0.091497675
-0.044331156 0.23062865 -0.053792153 0.016140835 -0.22610754 0.46629018 0.0018004761 0.39916354
0.3604456 0.88366246 -1.2227695 -0.84068793 0.5121377 0.3796761 -0.19919959 0.12247894
0.47964525 -0.7613865 0.8530699 -0.010328655 -1.5112964 0.16478139 -0.41494516 0.534136
0.14776394 -0.28493938 0.09222285 0.38106033 0.11635974 0.11084518 -0.1772663 -0.974651
0.60628307 -0.8536967 -0.7326196 -0.6462089 0.79017967 0.41966048 0.4147273 0.19953819
1.2028352 0.6890584 -0.13948041 0.09798775 -0.9208284 0.74657995 0.45901683 0.4797423
-0.33136994 -0.67863953 0.42482856 0.10826694 -0.14719519 0.7682651 0.14558935 -0.14246643
-0.18983586 -0.49516717 -0.1361595 -0.68643796 0.46106493 0.015129479 0.80552226 0.979942
-0.15589105 -0.5127042 0.18158619 -0.3676302 0.20221548 0.8553244 0.25820637 0.49302846
-1.1497643 -0.26531464 0.49281597 0.33492956 0.102638274 -0.8855545 -0.123183295 0.7918613

arr_13 f4 [32]
00000000: 32f7 c7bf 33ae 1abf 8d81 edbf adf1 3dc0
00000010: 2a7b 873f 90b3 4dbf 4fc7 28c0 c7cf 87bf
00000020: 7d31 df3f 6fb5 80c0 71da 29c0 ed97 afbf
00000030: db45 1fc0 3aef 27bf e1fc 92c0 63a5 68bf
00000040: f196 08c0 c9b6 e7be 70c6 163e 4a87 2cbe
00000050: a295 dabe bdca 8abf eb28 8dbf cc7f 30c0
00000060: d7d6 eabd 358b 72c0 4394 01bf acd4 9dbf
00000070: ab3b 9dbf 53b4 04c0 38f9 b9bf 8be3 75bf
-1.5622313 -0.60422057 -1.8555161 -2.9678757 1.0584462 -0.80352116 -2.6371648 -1.0610284
1.7436978 -4.0221477 -2.6539576 -1.3718239 -2.4886386 -0.65599406 -4.593369 -0.9087736
-2.1342127 -0.45256642 0.14724135 -0.16848484 -0.42692286 -1.0843121 -1.1028112 -2.7578
-0.11466759 -3.7897465 -0.50616854 -1.2330527 -1.2283834 -2.073506 -1.452918 -0.9605033

arr_12 f4 [32]
00000000: cc9f 8e3f b261 9d3f e029 933f 7cb2 a23f
00000010: 6204 7e3f 1acc 8b3f a28a ac3f 8566 8c3f
00000020: 573e 813f c701 ac3f 9d97 a43f 2234 7a3f
00000030: c771 933f b644 a23f a14e 9f3f c7ec af3f
00000040: ee86 963f 4797 983f ca53 b63f 3a54 9a3f
00000050: 184b 8e3f 1011 a23f 3fbc 8f3f acd0 963f
00000060: 5db4 703f 16fc 9a3f 3420 bb3f 48a6 913f
00000070: 9fd8 923f fb0e 903f f577 853f 2f7d 933f
1.1142516 1.2295439 1.1497154 1.2710719 0.9922544 1.0921662 1.3479807 1.0968786
1.009715 1.3438042 1.2858769 0.977358 1.1519097 1.2677219 1.2445871 1.3744134
1.1759927 1.1921166 1.424432 1.2056954 1.1116667 1.2661457 1.1229323 1.1782432
0.9402521 1.210818 1.4619203 1.137887 1.1472358 1.1254572 1.0427233 1.1522578

arr_15 f4 [512, 23]
00000000: 5db7 3ebf 80df 983e 2ec1 d43e 4fd6 b53e
00000010: 372e d03f 973f 0abf 5e7d e6bd faac 443f
00000020: 86f9 1dbf 2432 78bf fe68 55bf a637 82bf
00000030: ddee 6c3e f36b 32be d2e9 943d 1773 a33e
00000040: 7b55 79be a191 203f dcb0 ab3e 4ea8 7bbe
00000050: 8033 b33e 67af 5b3d 1a15 aebe 4818 d1be
00000060: 1996 20bf f420 7e3f 9299 793f b25a 05be
00000070: fa18 94be 4585 253e d9f8 a7bd 8fe2 da3e
00000080: d5f1 383f 9f24 76be 566a dabf 5d86 e73b
00000090: c774 9dbe 6e47 87bf 4ef7 bdbe 2222 6fbf
000000a0: 6f2c 643f 7e74 c33e a3be 8ebf f059 95be
000000b0: b781 51be cee9 713f ff48 0d3f 9582 d1bd
000000c0: 92b2 e33b 5ff6 14be e469 6bbf 256b 44bf
000000d0: d7e9 bcbc b82e 713d 8256 fe3d 68c8 033f
000000e0: 93c7 ccbe 8207 17bf c9b3 b0bd 69ee 233f
000000f0: b5c2 8fbe b145 f7be ee1f d8be f6bd 293e
00000100: 942f 15bf 06d3 8a3e 219b bf3e ab90 36bd
00000110: 3f82 edbe b70a 213f 2cb4 86be e6c4 2f3c
00000120: fbcb 7dbf aab8 e03e 64d7 d43c b120 c33e
00000130: 8a61 01bd 59ee 19bf e9d9 2f3f ec33 59be
00000140: c108 eb3c 8e38 91bf 46d7 293e ccd8 713f
00000150: 2144 65bf 1522 97be a734 c33e b7ab c3be
00000160: 6eb9 713f 8cc9 5dbf 2685 e1bf 836e 993e
00000170: aff4 003f 9de7 dabe c990 1fbf a598 14bf
00000180: 87b2 263f 8e41 133f 0afa 423d 18ef 993e
00000190: f528 65bd 54f5 32be 9951 133e 04e7 2dbf
000001a0: b692 023f 8284 9e3c 5f96 3fbf 7515 5e3f
000001b0: 7eeb 08be a03b 26be fb2e 913e 7db5 3e3d
000001c0: a62f c63d 8377 f1be 60fe 86be a628 9bbd
000001d0: 8692 053f aa60 2e3f 9133 cfbd b334 c2be
000001e0: 4d4f a03e 9c5c 6a3e a262 36be d477 f63e
000001f0: b279 413e 12ea 263f d661 edbe b381 9fbe
00000200: fb40 21be 38ea 0fbf 82b5 5f3e 49aa 163d
00000210: 40ec 353e bff6 d43e 94f0 84bf 67d7 a3be
00000220: 432e 71bf 8c75 463f f890 81bd d2ee cf3e
00000230: 81d6 543e d5ed 3abe edb4 aebe f456 5cbf
00000240: 73fa fcbe c4db 84be 6597 82bf 9460 3fbf
00000250: e7d2 433e cf05 86bf fc58 ddbf 7478 7fbf
00000260: e2e6 8fbd 0916 49bf 10ba 5bbe 1964 373d
00000270: bfdf ab3d 12da 96bf 67b7 13bf 4107 743e
00000280: 9d64 963e 5962 213e 646b 903c 2d92 d2bd
00000290: 42be 93bd 0454 143f ca0b 57be 38fb ff3d
000002a0: fee8 343f a805 cebe 2e67 0ebe aa4e e73d
000002b0: 588a babc fa2e b93e 1f99 dc3e 5eb3 8dbe
000002c0: 18e4 82bf 1a50 623f 000e 13bd d9f4 cdbd
000002d0: 8cc9 c23e df3a 863f e8bb e43e 16db 513e
000002e0: 5583 703e 4068 9f3f 7892 5ebf ed9e 283f
000002f0: 7d26 243f 8a44 053e fe9a 9d3d 56c9 a2bd
00000300: e01b e13e 65d4 9f3c f25e 87bd edc1 da3d
00000310: efab 173f 1390 243f 550b bd3f 5099 e93d
00000320: f412 79bd 1500 a13e 3518 4bbf e38b 993e
00000330: 06d4 0dbf 19d2 f0bd 67fb 843e bdb7 5d3e
00000340: 12ca 073f 76a0 573f 1224 963f 6d24 9e3e
00000350: 1fe3 de3e 0d3a 25bd 0980 363f 0213 f33f
00000360: e91a 3a3f fc46 623e 8206 da3d 9832 cabd
00000370: 8955 bdbe daec 75bd b79e a23f cb5f 333f
00000380: 117b 553f 9f40 233e 055c b93e c493 29bf
00000390: 61f2 91bd 3979 223d f4e8 3b3f f742 31bf
000003a0: 2b93 723f 8e60 2b3f ed41 14bf 0432 27bf
000003b0: e9ff b63e e231 d13e e349 303f ce6d 7a3f
000003c0: 81ce 17be 609f 1dbf 90b8 92bf 60f3 1f3e
000003d0: 896b a83e a591 b03e 455f 1b3f 3ac1 24bf
000003e0: c9f1 a03d dd11 b4bd e5b1 af3d a90a 2f3f
000003f0: e6a8 fa3e 4f46 373f 963b 55be fb3a 193e
-0.7449854 0.29858017 0.41553634 0.35515067 1.6264104 -0.5400328 -0.11254381 0.7682644
-0.6170887 -0.9695151 -0.8336333 -1.0173233 0.23137994 -0.17423992 0.0727116 0.31923744
-0.24349014 0.6272221 0.3353337 -0.24575922 0.3500023 0.053634074 -0.34000474 -0.40838838
-0.6272903 0.9926903 0.97499955 -0.13022879 -0.28925306 0.1616412 -0.08201761 0.42750975
0.72244006 -0.24037407 -1.7063701 0.007065578 -0.30753157 -1.0568674 -0.3710274 -0.9341146
0.891303 0.38174814 -1.1151928 -0.2917018 -0.20459639 0.9449738 0.5518951 -0.10229985
0.0069487775 -0.14547108 -0.9195845 -0.7672599 -0.023060722 0.058882445 0.12418844 0.5147767
-0.39996013 -0.5899583 -0.08628041 0.6403566 -0.28078237 -0.48295358 -0.4221186 0.1657637
-0.58275723 0.27114123 0.3742304 -0.04457156 -0.46388432 0.62906975 -0.26309335 0.010728097
-0.99139374 0.43890887 0.025981613 0.3811088 -0.03158716 -0.60129315 0.6869188 -0.21211213
0.028690698 -1.1345384 0.16586027 0.9447143 -0.8955708 -0.2951819 0.38126108 -0.38216946
0.9442357 -0.8663566 -1.7618759 0.29967126 0.5037336 -0.42754832 -0.623303 -0.5804542
0.6511616 0.57521904 0.047601737 0.30065227 -0.055947263 -0.17476398 0.14386596 -0.67930627
0.51005113 0.019350294 -0.74838823 0.8675149 -0.13371083 -0.16233683 0.28356156 0.0465598
0.09677057 -0.47161493 -0.26365948 -0.075761124 0.521767 0.6811625 -0.101172574 -0.3793083
0.31310502 0.2288689 -0.17811063 0.48138297 0.1889408 0.6520091 -0.46363705 -0.3115364
-0.15747444 -0.56216764 0.21846583 0.03678349 0.17765903 0.41594502 -1.0385919 -0.32000276
-0.94211215 0.7752311 -0.06326479 0.40611893 0.20784952 -0.18254788 -0.3412241 -0.8607018
-0.49409828 -0.25948918 -1.0202452 -0.7475674 0.19123422 -1.0470523 -1.7292781 -0.9979317
-0.07026459 -0.7854925 -0.21457696 0.044773195 0.083922856 -1.17853 -0.57701725 0.23830892
0.29373637 0.15760173 0.017629333 -0.10281787 -0.07214023 0.579407 -0.21000591 0.12499088
0.7066802 -0.4023869 -0.13906547 0.11294301 -0.022771046 0.36168653 0.43085572 -0.2767591
-1.0225859 0.88403475 -0.035902023 -0.100564666 0.38044393 1.0486716 0.4467461 0.20493731
0.23487599 1.245369 -0.86942244 0.658675 0.6412123 0.13014427 0.07695578 -0.07948558
0.4396658 0.019510457 -0.06609906 0.1068152 0.59246725 0.6428234 1.4769083 0.11406195
-0.06080909 0.31445375 -0.7933381 0.29989538 -0.5540165 -0.11758823 0.25973055 0.21652122
0.5304271 0.8422922 1.1729758 0.30887166 0.43532655 -0.040338565 0.71289116 1.8990176
0.7269731 0.22097391 0.106457725 -0.09872931 -0.3697932 -0.060040332 1.2704686 0.70068043
0.8339091 0.1594262 0.36203018 -0.662411 -0.07126308 0.03966639 0.73402333 -0.69242805
0.9475581 0.66944206 -0.57913095 -0.6531069 0.3574212 0.4085837 0.6886274 0.978238
-0.14824869 -0.6157131 -1.1462574 0.15620184 0.32894543 0.34486118 0.60692245 -0.6435734
0.07858617 -0.0879247 0.085788526 0.6837564 0.48956984 0.7159166 -0.20823511 0.14963906

arr_14 f4 [32]
00000000: f3f1 9e3d 3761 b03d f164 af3d 8761 ac3d
00000010: 3be3 a63d a609 a83d b9f5 913d df57 a83d
00000020: 7134 913d 8578 a53d 4684 b03d 2761 9e3d
00000030: 1a0e b43d 8327 af3d c2dc 9f3d 1bfa 9c3d
00000040: 938c 9e3d 6d8d 963d 8c86 9a3d 4a3b a33d
00000050: d091 a23d 7a6c aa3d 46cf ad3d 9665 a83d
00000060: bd1c a83d 7663 9e3d ca56 a83d 8541 aa3d
00000070: f287 ab3d 3c1b b23d 61a0 aa3d 82a9 a93d
0.07760992 0.08612292 0.08564175 0.08417039 0.081488095 0.08204965 0.07126946 0.08219885
0.070900805 0.08079628 0.08618979 0.07733374 0.08791752 0.08552458 0.07805778 0.07664891
0.07741656 0.073511936 0.07545194 0.07970293 0.07937968 0.083214715 0.084868 0.08222501
0.082086064 0.077338144 0.08219679 0.08313278 0.08375539 0.08696601 0.08331371 0.08284284

arr_17 f4 [23]
00000000: decb c53d daa3 d33e af75 933e a25e ee3e
00000010: 824e 3c3e 75a7 163e 1249 6e3e 4029 f03d
00000020: f355 723e 6800 433e a1f7 433e 99b8 253e
00000030: a528 913e 2b8e 7a3e aca7 6c3e 7563 663e
00000040: 77c9 6e3e 0c7d c33e 9ba2 623e 51a1 8e3e
00000050: 01c9 823e cac5 523e 36a1 023e
0.09658025 0.41335946 0.28800723 0.46556574 0.18389323 0.14712317 0.23270062 0.11726618
0.236656 0.19043124 0.19137432 0.161837 0.28351322 0.24468295 0.23110837 0.22498877
0.2331904 0.3818134 0.22132342 0.2785745 0.2554398 0.20583263 0.1275681

arr_16 f4 [23]
00000000: ec96 0c3e 0861 d6bd 0398 963c 3bd5 febe
00000010: dd84 143e 420a cc3d 5681 533d 9640 043e
00000020: 380a ac3d 0deb a53d eac8 c73d cc1b 883d
00000030: a7a1 df3c b8ea a73d 10cd e53d 4ca0 323d
00000040: 0dc3 3a3d 55ca 2bbe cd24 463b 5d4b 7e3b
00000050: 636b 56bc 322b e7bb 487a 023e
0.13729447 -0.10467726 0.018383032 -0.49772057 0.14503808 0.09962894 0.051637016 0.12915263
0.084003866 0.08101473 0.09755118 0.06645927 0.027298762 0.08199066 0.11220753 0.043609902
0.04559617 -0.16776402 0.0030234337 0.0038802244 -0.013087126 -0.00705471 0.12741959

arr_1 f4 [32]
00000000: ad05 25bf 1797 08bf 5908 bfbf 9118 b1bf
00000010: cf2d 84bf f379 9dbe 127d b3bf a9a4 50bf
00000020: 9287 20be c62a 14bf b4a7 aabe 4f4a 43bf
00000030: f71f 89be 00c9 74bf 9fa1 0dbf 0df5 26bf
00000040: 362a 28bf 9445 a3be a514 7bbf 3796 ecbe
00000050: ea49 49bf 08b0 77bf e779 89bf 77aa a0bf
00000060: 4e55 713c 03dc cdbe e493 0dbf 723a 00bf
00000070: 7402 2a3e 7ae9 a23e d0a1 ebbe c26e adbe
-0.64461786 -0.53355545 -1.4924423 -1.3835622 -1.032648 -0.30757102 -1.4022543 -0.8150125
-0.15676716 -0.5787777 -0.33331072 -0.7628526 -0.267822 -0.956192 -0.5532474 -0.6521767
-0.6568941 -0.3188902 -0.98078376 -0.46208355 -0.7862841 -0.9675298 -1.0740327 -1.2552022
0.014729811 -0.40206918 -0.5530379 -0.5008918 0.16602498 0.31818753 -0.4602189 -0.33873564

arr_0 f4 [32, 32, 6, 6]
00000000: de78 a1be 55b4 273e c969 493e bfcb 7fbd
00000010: 4bda 13bf 33a9 fbbe bf5d 35be 2e02 c23e
00000020: a0db 4d3e cdfe 49bf fc79 6ebf 5a60 fabe
00000030: 31c5 2ebf 3c95 dd3e a7ab f43e bfef 4dbf
00000040: d526 65bf dc2f 4cbe 2122 14be c5f1 0c3f
00000050: 41bf 06bf c251 9fbf af92 32bf a8b7 57be
00000060: e2b1 80be 672b 65be 3cc8 17bf 9f88 d8be
00000070: 2dbc 2bbf 8c26 38bf c21c a4bc eb88 0abf
00000080: 6b25 08bf ac7b 10bf 30bb 5ebe b31a 0abf
00000090: 3465 65be e678 b83d d5de 7f3d aadd 093e
000000a0: 067c 8e3f d7e0 7d3e eee3 003f ebf2 b93f
000000b0: a0fd d03e c478 573f ab2f c63e a10c 98bd
000000c0: aa0e 9e3f 328d 923f 5b7c 873f b4fb 223f
000000d0: eac0 aabe f187 18bf 4c6e 463f 795d c33d
000000e0: f7a8 d1bd 9bb5 4ebf 8dc6 7abf 7cd6 d9be
000000f0: 421a b1be b99c d1be 3e4e 51bf b462 10bf
00000100: 256d b53e b702 0abf 79d4 e4be b2ff 39be
00000110: 100e 133e 67b7 6cbe 59e1 2bbd 15d9 65be
00000120: 2656 863e 03ee 163f 9be6 ffbd c917 4cbf
00000130: ded8 e23e 39bf e0be 6619 183e 7960 8cbf
00000140: 325b d0be aa0d 05bf 7b57 553f 8a28 373e
00000150: 55ca bfbe e939 0cbf 26ac 5fbe 74b8 b7be
00000160: 33bd 03bf c6bc 923e eaf7 87bd 8c92 4c3e
00000170: a8db 57bf edad adbe d163 93be a8f4 123f
00000180: 32ef c3be 4d02 3fbe 238e 903a c070 a53e
00000190: 80d8 0f3e 431e 8a3e af0d 25bf 66dd da3d
000001a0: 94c1 0d3f a64e 2f3f be72 793e 9d5a 12be
000001b0: bc37 fcbe e365 883e 69ff 41be 3e6e 43bd
000001c0: db6a 843d fcbf 1fbe ca4f 693d 6fb9 2f3e
000001d0: d2f3 203f c18f 413f f56d c1be 0cd8 24bd
000001e0: cd26 83be 088a 413e f2ad 583f 48ba ef3e
000001f0: 05f8 1dbe 8633 673e bbae abbe 0942 24be
00000200: 9abc 793d a235 1ebf 54c9 3bbf bcd5 753d
00000210: ecf2 01bf 825c 0bbc c45c 1ebf 2c3d aabf
00000220: 4bc7 babf 9fd3 73bf e696 6dbe 0c5c abbe
00000230: 7ce1 08bf f9fa 74bf d9c0 44bf 9a82 15bf
00000240: 9ad6 873e 4678 95be e1f9 3ebe bc44 8cbe
00000250: e7a1 0ebf ad58 de3d 2aeb 9a3e 6551 283e
00000260: f91a cdbe 9806 05bf 2f7d 6ebf 1bd3 c93c
00000270: a304 fc3d 2e11 6f3e f42a 613e 9649 293e
00000280: 5fcf dabe 4ec8 10be f546 afbe dcce d73e
00000290: ad1a 313e 5cae 833e 1d47 3fbe b06a 1a3e
000002a0: 4069 5abe 388c 8bbe a08d 193c 90f6 f5be
000002b0: dc94 eb3e 08e6 ab3e abc8 6fbe 3984 ebbe
000002c0: 7699 863d 3de7 a03e 276b 043e c2fa e63d
000002d0: 1a16 223f bb58 b23e 666e 35bf 4efa 72bf
000002e0: cdfc 81bf dca3 cabd fe69 ce3e 1c56 103f
000002f0: 4d31 4e3d 780e a5bf 905e ffbf 689c a3bf
00000300: f2c6 493f ab07 1b3f 8db9 ddbd ce18 99bf
00000310: d8af 01c0 2381 3cbf 04e2 643e 3c21 793e
00000320: 8b0e c93d b146 cfbf 24eb 70bf 289b 5abe
00000330: 07c5 c63e 5147 25bd c693 b0be dce0 babe
00000340: 6753 773e 8d72 003f 3f4c 2fbe 0dc9 b23c
00000350: c46a 3abf 2cb0 01bf 15e3 fd3e b7b0 3f3e
00000360: e6cf 82be 8976 c6be 4e05 1c3e 11b2 c4bd
00000370: d3fe 1fbf 7d25 04bf 141e 9b3d 1a64 dd3e
00000380: ccea e53e 1f83 cd3e 6008 c23d d12f 59bd
00000390: 35db 30bd 81fe 323e 5796 dc3d da03 3e3e
000003a0: f9ab 983e dfab babe a059 573e d91f 5bbe
000003b0: a75f d6be c6a4 233e ded8 3a3e 45c3 633d
000003c0: 592a 773e 7dc3 8ebe 3811 bf3d 3df4 8a3d
000003d0: 922d e63e f1b6 093f 6212 ae3c 519a 8c3d
000003e0: c300 1abe c29a 70be 941c 493f 31c7 263f
000003f0: e2b5 8c3f c541 94bd 70da b2be 76cc 64bf
-0.31537527 0.16377385 0.1966926 -0.062450167 -0.57754964 -0.49152526 -0.17711543 0.37892288
0.20103312 -0.7890442 -0.93154883 -0.48901635 -0.6826964 0.4327792 0.4778721 -0.8044395
-0.8951238 -0.19940132 -0.14466144 0.5505641 -0.5263558 -1.2446826 -0.6975507 -0.21066153
-0.25135714 -0.22379838 -0.5928991 -0.42291734 -0.6708401 -0.7193382 -0.020033244 -0.5411517
-0.53182095 -0.5643871 -0.21751094 -0.5394699 -0.22401887 0.090074345 0.06246837 0.13463464
1.1131599 0.24792801 0.50347793 1.4527258 0.408185 0.8416865 0.38708243 -0.07424284
1.2348225 1.1449339 1.0584825 0.6366532 -0.33350307 -0.5958243 0.7751205 0.09539313
-0.102373056 -0.8074586 -0.97959214 -0.4254645 -0.34590346 -0.40939882 -0.81760013 -0.5640061
0.35434833 -0.5391039 -0.44693354 -0.18163946 0.14360833 -0.23116837 -0.041962955 -0.22446091
0.262376 0.5895693 -0.124951564 -0.79723793 0.44306082 -0.4389589 0.14853439 -1.0966941
-0.40694577 -0.51973975 0.8333661 0.17886558 -0.37459055 -0.54775864 -0.21843013 -0.35882914
-0.5146057 0.28659648 -0.06639083 0.19977778 -0.84319544 -0.33921757 -0.2878709 0.57404566
-0.3826843 -0.18653221 0.0011028688 0.32312584 0.14047432 0.26976213 -0.64474005 0.1068676
0.553735 0.68479383 0.24360177 -0.14292379 -0.49261272 0.26640233 -0.18945087 -0.047712557
0.064656936 -0.1560058 0.05696086 0.17160581 0.6287204 0.75609976 -0.37779203 -0.0402451
-0.2561554 0.18900311 0.8464042 0.4682181 -0.15426643 0.22578248 -0.33531746 -0.16040815
0.06097088 -0.6180059 -0.7335408 0.060018286 -0.50761294 -0.008505942 -0.618603 -1.3299918
-1.4592069 -0.95244783 -0.23202094 -0.33468664 -0.5346906 -0.95695454 -0.7685676 -0.5840241
0.26530915 -0.29193324 -0.18650009 -0.2739619 -0.55715793 0.10856757 0.3025754 0.164373
-0.4005964 -0.51963186 -0.93159765 0.024636796 0.12305572 0.23346397 0.21989042 0.16531977
-0.42736337 -0.1413891 -0.34233823 0.4215001 0.17295332 0.25718963 -0.18679471 0.1507976
-0.21329212 -0.27255416 0.009372145 -0.48039675 0.46012008 0.33573937 -0.23416393 -0.45999315
0.06572239 0.3142642 0.129315 0.11278297 0.63314974 0.3483332 -0.7087158 -0.94913185
-1.0155274 -0.09894535 0.4031524 0.5638139 0.050339986 -1.289504 -1.9950733 -1.2782106
0.7881919 0.60558575 -0.10826407 -1.1960695 -2.0263577 -0.73634547 0.22351843 0.24329084
0.09817227 -1.6193448 -0.94108796 -0.2134825 0.38822195 -0.040351216 -0.34487742 -0.3649968
0.24152909 0.5017479 -0.1711893 0.021824384 -0.7281916 -0.5065944 0.49587312 0.18719755
-0.2554924 -0.3876231 0.15236399 -0.09604276 -0.62498206 -0.516197 0.07574096 0.43240434
0.44905698 0.401391 0.09474254 -0.053024117 -0.043177802 0.17479898 0.107708625 0.18556157
0.29818705 -0.36459252 0.21030283 -0.21398868 -0.41869852 0.15980825 0.18246791 0.055606145
0.24137248 -0.2788352 0.09329456 0.06784866 0.44956642 0.5379477 0.021249 0.06865371
-0.15039353 -0.23496535 0.7855923 0.6514769 1.0993006 -0.07239107 -0.3493228 -0.8937448

arr_3 f4 [32]
00000000: 8c17 cbbf 5e25 e5c0 052b 5d40 7436 8a40
00000010: ae38 f3be 8a79 4140 fc39 1d3f 4133 35c1
00000020: 843f d83e ab1e b740 a73a 73c0 7579 883f
00000030: 3524 36be 3651 863f d951 d140 c877 0341
00000040: d471 353e b268 6a40 09df 4040 a8e2 1941
00000050: 1170 9740 b7b2 2a41 55b8 9a3f 2ce1 ea3f
00000060: 86da 1cbf 26e2 e540 2a9c 08c1 4174 d6bf
00000070: 587f 853f fb3c 2d41 c2e0 b2c0 9cc1 5041
-1.5866561 -7.1608114 3.4557507 4.319147 -0.4750418 3.0230432 0.614166 -11.325013
0.4223596 5.7224936 -3.8004549 1.0662066 -0.1778725 1.0493534 6.541241 8.216743
0.17719203 3.66264 3.013613 9.617836 4.73243 10.668632 1.2087504 1.8349967
-0.6127094 7.183856 -8.538126 -1.6754228 1.0429487 10.827388 -5.5899363 13.047268

arr_2 f4 [32]
00000000: 7044 df3f fb7a ad3f e705 9b3f 9d0f 9c3f
00000010: f9f2 a73f d0b4 983f 6070 c93f 66ed 9c3f
00000020: 23ef 703f 18fe 943f dc54 5f3f 5d81 a53f
00000030: 2ddc a13f 9081 b33f f9c6 c33f 7ac9 a63f
00000040: a676 613f 391c 6a3f 51e5 9c3f 4c9e d43f
00000050: 1bf0 ae3f 91bf be3f 7705 b13f 0866 943f
00000060: 0f8a 7b3f cf6d 893f f986 613f 669a 863f
00000070: dcb9 853f 769e c33f 8bdf 923f 7b0e e03f
1.744276 1.3553156 1.2111176 1.2192265 1.3121024 1.193018 1.5737419 1.2259948
0.94114894 1.1640043 0.8723886 1.2930104 1.2645317 1.4023914 1.5295097 1.3030236
0.8807167 0.91449314 1.2257482 1.6610808 1.3667024 1.4902211 1.3829793 1.1593637
0.98257536 1.0736636 0.88096577 1.0515869 1.0447345 1.5282733 1.147447 1.7504419

arr_5 f4 [32, 32, 6, 6]
00000000: 6e26 3fbf 50d8 6ebf 6baa 42be b65a a9be
00000010: 3a6d fd3e e230 8e3f b219 97bf 8454 01be
00000020: c0e2 1a3e 87f4 8bbf b828 27bf 0518 85bf
00000030: 4e42 49bf f6ff 223c eddd 9bbe 7b88 25bf
00000040: 708d 63be ba2c b2be 7abf b2be 7e22 7e3e
00000050: 0f3e e9be c5b0 193f e6ca 063e 0c3e 0c3f
00000060: abe4 07be 1ac3 4ebe 8f00 26bf 6e70 22be
00000070: 891f 9ebe 6272 06bf 1261 953e d9aa 9abe
00000080: 74c4 31bf 2cd1 96bf e9f0 07bf 3ade 9fbf
00000090: 6217 373d fe09 6b3f b953 403f c25b a1bf
000000a0: e481 a2be dda7 7e3f 6564 15be 0aaa a13f
000000b0: a695 983e 9427 b93f 393f 323f cb41 8a3f
000000c0: e3a3 95bf 790a 6abf 7a42 433f ff0d 9bbd
000000d0: 3e98 94bf 3de3 e33e 40e4 913e 3867 98be
000000e0: d106 45bf 947c 323f 6bc0 7e3f df62 a0bf
000000f0: 6b5b 8abf 128c d9bd 1826 cabe 2afd 33bf
00000100: c14b 163f 4180 953e 5fd9 cd3d 6263 ab3d
00000110: 9a27 efbd 4aef 1fc0 ed1b 4bbe fcb6 9a3e
00000120: 0d90 2a3e ccb2 f13e a7f1 2c3e dcea b6bd
00000130: 602f 7abd 7b1a 8dbf 72b9 bcbf 3c59 a13e
00000140: 5737 663f a7b9 ea3f 8759 babe 15df eabe
00000150: 9f50 933e 9f72 0b3f da8e 583f 6504 ccbe
00000160: cb5a 1d3e 750b 4d3e 30a1 cfbe 9743 90bd
00000170: 78ea 8f3f cda7 a33e 58a2 3a3f e126 003f
00000180: 5467 18bd 6440 4c3f fb23 6a3f e750 c6be
00000190: 057c 323e de59 9fbf 1be8 573e 17d1 d73e
000001a0: 4d41 4f3e d479 883f 774f 2e3f 7038 94bf
000001b0: 3244 31bc 376d 8fbe 10ee 9fbe a433 51be
000001c0: b282 b8bf b6b4 35bf 30fc 143e 8ae6 d03d
000001d0: 029e 1ebf ea8a 8fbc ef23 8e3e 09b5 823e
000001e0: d4a6 febe 6e5b 853f 7666 9e3e ccf9 e73e
000001f0: 89c2 ba3e 0671 8abd f782 683d 2b64 923e
00000200: f0cf aa3e 1de2 b2bf 2ec9 d7bf 974e 4b3e
00000210: 6d10 233f 7304 b43e 3b13 dabe 7e53 5bbf
00000220: d515 69be 8b86 683e 1225 293e 18d9 e7bd
00000230: d647 e7be 0510 d0bf a42e 613e 92f9 55be
00000240: e21d c63e 5c45 e3be cb84 f83e a21a b9be
00000250: 11aa 483f c980 6c3d 4512 0e3e 0253 193f
00000260: 42a0 de3e e9c1 1c3f 557a cabe f437 86bf
00000270: 02db ddbe 0960 c4be abce 0e3f 98c0 41be
00000280: 1b08 b1bf 91ac cdbd fc8a 573f 5ca8 2e3d
00000290: a976 69bf 09fc 9bbe b020 3fbf 98c2 313f
000002a0: 24cc 9f3f e7aa 35bc 871d 2c3d c7a6 bbbe
000002b0: 3aad 143f 582e 37be 06a0 083f 9547 e2be
000002c0: f013 293e 9973 7ebe 8a9d 153d f9c2 a63f
000002d0: a0dc a93e a021 593f 257f 33bf e1ee 52bf
000002e0: 3bc0 a93d a39a f6be be75 ec3e d83e a73d
000002f0: 476e 5ebf 521a 5e3e 3ecf 23bf 26f2 933e
00000300: 0f1a 1cbf f2aa d2be ab93 213f 37e7 2e3d
00000310: a000 16bf a005 67bf c14d 023f c92a 243f
00000320: ed24 e03e 266b e13e 6024 533c ef8e dbbe
00000330: 0f33 fa3d 5b36 323e c32b 36bf 4aea 3f3f
00000340: fc5c 893f 5783 9b3f 21b2 503c 6854 6fbc
00000350: d438 b8be 2e02 733e 98bc 873d 3be2 9f3e
00000360: 9eea ad3e ff49 203f 31e2 d4be 1fd2 90be
00000370: 67cc 91bf 7d74 463f 8fbc 813e 7b18 32bf
00000380: e97b 90bd 37d2 3cbf 50d9 dcbe 1109 023f
00000390: af61 91be feff 903e a6d1 57bf 94b7 45bf
000003a0: 6d71 4f3e ee12 60bf b184 ecbe 36e7 4c3e
000003b0: 60e0 b73e 4b15 0e3f d657 263f e043 dfbe
000003c0: d7ec 10bf 1410 50bf 8376 bcbd 3c86 cebf
000003d0: d0ce 2dbf aac5 e03e b7c3 37bf 1024 9ebf
000003e0: cf8e ddbe 34b2 91be ba8b b33f 3198 e7bf
000003f0: 88ee babe 5b7c c9bf f31c 17bf 0f97 0bbe
-0.74668014 -0.93298817 -0.19010322 -0.3307702 0.49497396 1.1108668 -1.1804717 -0.12629896
0.15125561 -1.0933999 -0.65296507 -1.0397955 -0.786168 0.009948721 -0.30442753 -0.6466138
-0.22221923 -0.3479975 -0.3491171 0.24817845 -0.4555516 0.60035354 0.13163337 0.54782176
-0.13270824 -0.20191613 -0.648446 -0.15863201 -0.30883434 -0.52518284 0.2917562 -0.3020847
-0.6944039 -1.1782584 -0.53101975 -1.2489693 0.044700034 0.9181212 0.7512775 -1.2606127
-0.31739724 0.9947489 -0.14589079 1.2630017 0.29801673 1.4465203 0.6962772 1.0801328
-1.1690639 -0.9142223 0.7627331 -0.07571029 -1.1608961 0.44509307 0.28494453 -0.2976625
-0.76963526 0.6972134 0.99512357 -1.2530173 -1.0809149 -0.106224194 -0.39482188 -0.7030817
0.5870934 0.29199412 0.10051226 0.08368565 -0.11677475 -2.49898 -0.19834872 0.3021773
0.16656514 0.47206724 0.16889058 -0.089315146 -0.061080337 -1.1023706 -1.4744093 0.31513393
0.8992819 1.8337907 -0.3639643 -0.45873323 0.28772447 0.5447177 0.84592974 -0.39847103
0.15366666 0.20023902 -0.40552664 -0.07044142 1.1243429 0.3196396 0.72903967 0.50059325
-0.037207916 0.7978575 0.9146115 -0.387336 0.17430122 -1.24493 0.21084635 0.4215171
0.20239754 1.0662179 0.68090004 -1.1579723 -0.010819482 -0.28013012 -0.31236315 -0.20429856
-1.4414885 -0.7097887 0.14549327 0.10200222 -0.6195985 -0.017522294 0.2776179 0.25528744
-0.49736655 1.0418527 0.30937546 0.45307767 0.36476544 -0.06759839 0.056765523 0.28592047
0.3336177 -1.3975254 -1.685827 0.19854198 0.6369694 0.35159644 -0.42592797 -0.85674274
-0.22762235 0.22707574 0.16518047 -0.11320704 -0.45171994 -1.6254889 0.21990448 -0.20895985
0.38694674 -0.44388855 0.48538813 -0.36153132 0.783845 0.057740007 0.13874157 0.59892285
0.43481642 0.61233383 -0.39546457 -1.0485826 -0.43331152 -0.3835452 0.557841 -0.18921125
-1.3830599 -0.1004268 0.8419645 0.04264103 -0.91196686 -0.30465725 -0.7465925 0.6943755
1.2484174 -0.01108811 0.042020347 -0.3665068 0.5807682 -0.17888772 0.53369176 -0.44195238
0.16511512 -0.24848785 0.036527194 1.3028251 0.33176136 0.8481693 -0.7011588 -0.8239575
0.08288618 -0.48164853 0.4618358 0.08166283 -0.8688702 0.21689728 -0.639881 0.28895682
-0.6097726 -0.41146046 0.6311595 0.042700972 -0.58594704 -0.9024296 0.50899893 0.64127785
0.43778172 0.4402706 0.01288709 -0.42882487 0.1221677 0.17403547 -0.71160525 0.7496687
1.0731502 1.2149457 0.012737782 -0.014607526 -0.35980856 0.237313 0.06627768 0.31227288
0.3396806 0.6261291 -0.4157882 -0.2828531 -1.1390504 0.77521497 0.2533917 -0.69568604
-0.07054884 -0.7375826 -0.43134546 0.50795084 -0.2839484 0.28320307 -0.84304273 -0.77233243
0.20258112 -0.87528884 -0.46194986 0.20010075 0.35913372 0.5550124 0.64977777 -0.43606472
-0.5661139 -0.81274533 -0.09202292 -1.6134715 -0.67893696 0.43900806 -0.7178301 -1.2354755
-0.43273017 -0.2845627 1.4027016 -1.809332 -0.3651011 -1.5741075 -0.5902855 -0.13631843

arr_4 f4 [32]
00000000: a8e4 4e3d 9633 893d 1c11 8e3d a745 8e3d
00000010: 88a0 613d 7fad 5d3d f411 963d faa1 803d
00000020: 617b 6c3d a553 7e3d de81 913d bd4f 6f3d
00000030: f711 4e3d 8373 603d 1db7 463d 5a68 8d3d
00000040: 306e 9c3d 9af4 8f3d 8d6f 7e3d 56cc 4b3d
00000050: 3f2a 723d 81ed 6d3d c218 6d3d f756 a23d
00000060: 6e4e 693d c9b8 663d eeed 9e3d 66a2 883d
00000070: b03f 2f3d 10c1 373d df30 663d 08a8 393d
0.050511032 0.06699292 0.06936857 0.06946879 0.055084735 0.054120537 0.07327643 0.062808946
0.05773485 0.06209149 0.07104848 0.058425654 0.0503101 0.05479766 0.048514474 0.06904669
0.07638204 0.07029076 0.062118102 0.049755417 0.05912232 0.05808783 0.05788494 0.079267435
0.056959562 0.05632857 0.07760225 0.066716 0.042785347 0.044861853 0.05619895 0.045326263

arr_7 f4 [32]
00000000: 4c69 cf3f 7110 a63f 2af9 923f b132 c93f
00000010: cb98 ab3f 788f 8d3f 247d a43f 9432 a83f
00000020: fc71 8e3f b384 a43f 3a7b b33f 6433 bb3f
00000030: ea0e a93f 329a 9e3f 37e5 b63f 6328 a03f
00000040: 59f0 a53f 00d7 973f 5cbf 913f 33d4 aa3f
00000050: 567d a93f e750 a43f bf8e 943f bfa5 883f
00000060: 238d a83f 96f3 9e3f 23bd a83f 3911 ad3f
00000070: b412 853f a325 983f 1ecc ac3f d332 9f3f
1.6204009 1.2973768 1.1482289 1.5718595 1.3406004 1.1059408 1.285069 1.3140435
1.1128535 1.2852997 1.4021981 1.4625058 1.3207676 1.2390807 1.4288701 1.2512325
1.2963973 1.1862488 1.1386523 1.3346008 1.3241374 1.283719 1.1606063 1.0675582
1.3168072 1.2418087 1.318272 1.3520881 1.0396333 1.1886486 1.3499792 1.2437385

arr_6 f4 [32]
00000000: 96d0 34bf eb78 0bbf 611c 56bf d771 3ebf
00000010: 844b 0bbf c6c8 0dbf 024c 2fbf 6a1c 58bf
00000020: 96c3 3dbf 1682 0bbf 1bbd 6ebf 2174 83bf
00000030: 5cea 1abf c77d 18bf 7ccf 2cbf ea79 1fbf
00000040: bf46 3dbf 4d65 3ebf f315 2abf 17d9 0dbf
00000050: 6393 80bf 49e6 23bf d475 2abf 8791 f1be
00000060: f851 38bf 6130 50bf 0844 46bf 05fd 4ebf
00000070: 78ec 01bf c67a 20bf 24f8 48bf e616 33bf
-0.70630777 -0.5448138 -0.8363705 -0.74392456 -0.544121 -0.5538448 -0.68475354 -0.84418356
-0.74126565 -0.5449537 -0.932573 -1.0269815 -0.60513854 -0.5956692 -0.67504096 -0.622954
-0.73936075 -0.7437332 -0.6643974 -0.5540938 -1.0044979 -0.6402326 -0.6658604 -0.4718134
-0.72000074 -0.8132382 -0.7744756 -0.8085483 -0.5075145 -0.6268734 -0.7850363 -0.69956815

arr_9 f4 [32]
00000000: 8943 563d 0d28 623d f234 923d 8e71 623d
00000010: 37f6 623d 5220 8e3d b8bb 833d a883 7b3d
00000020: 3d6b 833d ce84 7d3d ddd9 7e3d 161b 7c3d
00000030: b93b 843d 330b 823d ec33 633d 7553 823d
00000040: acf7 883d be2a 8c3d 3f86 8a3d d06b 643d
00000050: 088b 7e3d 0fe6 813d 6ae8 873d 737c 8d3d
00000060: e138 803d a574 693d 6444 883d edc4 7d3d
00000070: cb6d 903d f3f3 943d 1a09 813d 3070 823d
0.0523105 0.055213977 0.07139005 0.055284075 0.05541059 0.06939758 0.06432289 0.061404854
0.064169385 0.06189423 0.06221949 0.06154927 0.06456704 0.06349792 0.05546944 0.063635744
0.06687865 0.0684409 0.06763887 0.05576688 0.06214431 0.06342708 0.06636126 0.069085024
0.06260849 0.056996007 0.066536695 0.06195538 0.07052191 0.07273092 0.06300564 0.06369054

arr_8 f4 [32]
00000000: af2c da40 4619 7d40 5f36 79c0 6484 7640
00000010: e2b1 ba40 7bf0 bc3f 1a53 b23f c5e8 e03f
00000020: d849 cf40 4fdb 14c1 13b8 d7bf 0aa9 0f41
00000030: 0a06 03bf 4aef acc0 16b4 e6bf 39f0 1941
00000040: 0f00 da3f 7af1 fb40 3548 fabe 6198 13c1
00000050: 8158 13c0 2687 cfc0 1f34 dec0 1205 6dbe
00000060: 8add ba40 e569 abc0 9db8 093f aed1 2fc1
00000070: 2f74 973f fb0c 39c1 2389 a6c0 3edd ae3f
6.8179545 3.9546676 -3.8939435 3.8518305 5.834214 1.4760889 1.393161 1.7571036
6.477764 -9.303542 -1.685305 8.978769 -0.5118109 -5.40421 -1.8023708 9.621148
1.7031268 7.873227 -0.48883215 -9.224702 -2.3022768 -6.4852476 -6.9438624 -0.23146465
5.8395433 -5.3566766 0.5379732 -10.988691 1.1832331 -11.565669 -5.2042403 1.3661268
