pretrained_model/ICVL_pretrained/params/-1_de_params.npz (npz, 11950 bytes, 4 tensors)

arr_1 f4 [40]
0	0x3e3aec09	0.18254103
1	0x3e5d4b3e	0.21610734
2	0xbd7bf8d3	-0.061516594
3	0x3f399894	0.7249844
4	0x3f211703	0.6292574
5	0x3f0a8619	0.54110867
6	0x3f1c03b5	0.60943156
7	0x3ee91589	0.45524243
8	0x3f05448b	0.52057713
9	0x3f119c35	0.5687898
10	0x3edf6194	0.43629134
11	0x3ef2b369	0.47402504
12	0xbe3b94af	-0.18318437
13	0x3eccc8d3	0.39996967
14	0x3ec5c293	0.3862501
15	0x3ef6fafc	0.4823836
16	0x3e9b6cb8	0.30356383
17	0x3e8e80af	0.27832553
18	0x3e6d5b98	0.23179471
19	0x3eaa1348	0.33217835
20	0x3e718eed	0.23589678
21	0x3f1cbc6e	0.6122502
22	0x3e8f81a3	0.28028592
23	0x3e87f50f	0.26554152
24	0x3e9f11d9	0.31068304
25	0x3ddf8b94	0.10915294
26	0x3e9cbbfe	0.30612177
27	0x3e148d49	0.14507021
28	0x3ea7d9e9	0.3278344
29	0x3e5ffa4b	0.21872823
30	0x3e8a3c15	0.26998964
31	0x3eac64bb	0.336706
32	0x3e9dd8fa	0.30829602
33	0x3ea91143	0.33020982
34	0x3e8dd3e2	0.27700716
35	0x3e89ae79	0.26890925
36	0x3ea3e2ff	0.32009122
37	0x3ea4c87a	0.321842
38	0x3e894677	0.26811573
39	0x3dc44490	0.0958339

arr_0 f4 [20, 40]
0	0x3e5171cf	0.20453571
1	0x3f3929ba	0.72329295
2	0xbe60bf5b	-0.21947996
3	0x3d223490	0.03960091
4	0x3d817645	0.06321386
5	0xbcdccd6f	-0.026953427
6	0xbdc54ae6	-0.09633426
7	0xbdc7f500	-0.09763527
8	0xbebf6e39	-0.3738878
9	0xbcba1c43	-0.022718554
10	0x3e9b94ac	0.30386865
11	0xbe6ad719	-0.22933616
12	0x3e952c86	0.2913553
13	0xbe19f497	-0.1503471
14	0xbea45ba8	-0.32101178
15	0xbbf222da	-0.0073894085
16	0xbe354d0c	-0.17705172
17	0xbf1b23ba	-0.6060139
18	0x3d9903a7	0.074714
19	0x3e2e2641	0.1700678
20	0xbe464cb9	-0.19365205
21	0xbd86b3f7	-0.06577294
22	0xbd1641d7	-0.036683884
23	0x3e13f8a5	0.14450319
24	0x3c402b9a	0.011729145
25	0xbd95a5a7	-0.07306986
26	0xbc9cd0b2	-0.019142482
27	0x3e107fb6	0.14111218
28	0xbd0a5004	-0.033767715
29	0x3eaac7e0	0.33355618
30	0x3e3d29da	0.18472996
31	0xbd78a0a6	-0.06070008
32	0xbb31422e	-0.0027047503
33	0xbc035676	-0.008016219
34	0x3e2ad1f4	0.16681653
35	0x3d33f17d	0.043931473
36	0x3d0d27f9	0.03446195
37	0xbe10d95d	-0.14145418
38	0x3de22b32	0.11043395
39	0x3e19261a	0.14955941
40	0xbea2c21c	-0.3178872
41	0x3e6a4378	0.228773
42	0x3e056140	0.13025379
43	0xbe95646b	-0.29178175
44	0xbe68dcf8	-0.22740543
45	0x3e62ba00	0.22141266
46	0xbe965b13	-0.2936636
47	0x3e4f8da3	0.20268874
48	0xbe2b3f09	-0.16723265
49	0x3e705ee2	0.23473695
50	0x3f0c6546	0.5484203
51	0xbdc5f8e7	-0.09666615
52	0xbe89857f	-0.26859662
53	0xbcdc0385	-0.026857147
54	0xbed93fc5	-0.42431465
55	0xbd2e91ae	-0.0426194
56	0xbe648baf	-0.2231891
57	0xbdf2ba97	-0.118519954
58	0xbee1f72c	-0.4413389
59	0x3d0977f3	0.033561658
60	0x3f4f43a5	0.8096259
61	0x3e997322	0.29970652
62	0xbe0158ef	-0.12631582
63	0x3ca36580	0.01994586
64	0x3e2049b8	0.15653121
65	0xbe62766b	-0.22115485
66	0x3d092958	0.033486694
67	0x3d09c45b	0.033634525
68	0x3d5d17cb	0.05397777
69	0x3c5fb265	0.013653372
70	0xbdfdd54e	-0.123942
71	0x3aeaa7f4	0.0017902837
72	0x3df1d01b	0.11807271
73	0x3d5e8642	0.054327257
74	0x3cb77745	0.02239574
75	0x3e3edb19	0.18638267
76	0x3cc6fa34	0.024289228
77	0x3d30e955	0.043191273
78	0xbeb2634d	-0.34841385
79	0xbea0dfe9	-0.3142083
80	0xbeb1d073	-0.34729347
81	0xbd899d6b	-0.06719478
82	0xbc83a260	-0.016068637
83	0x3ed3fa51	0.41401914
84	0xbe7f16af	-0.24910997
85	0xbe50975e	-0.20370242
86	0x3f1dd7a7	0.61657184
87	0xbd3aa3b7	-0.045566287
88	0xbe4eb0ba	-0.20184603
89	0xbe11b61b	-0.14229624
90	0xbd6a6146	-0.057221673
91	0xbebd1500	-0.36930084
92	0xbf0da679	-0.5533214
93	0x3d49d56c	0.0492758
94	0x3e7a81fd	0.24463649
95	0xbc270872	-0.010194885
96	0x3e493234	0.19648057
97	0x3efaaa5c	0.489581
98	0xbea9ff19	-0.33202437
99	0x3dabce49	0.08388955
100	0x3f77fa5c	0.96866393
101	0xbdd1b2d1	-0.10239185
102	0xbe00a859	-0.1256422
103	0xbd6f4ba7	-0.058421757
104	0xbe12082c	-0.1426093
105	0xbe9c1817	-0.3048713
106	0x3ca3c5f5	0.019991854
107	0x3dd2a268	0.10284883
108	0x3d90b9ae	0.070666656
109	0xbdc25e6f	-0.09490668
110	0xbeb61ed3	-0.35570392
111	0x3e9b1765	0.30291286
112	0x3ddb4818	0.1070711
113	0x3dbc7952	0.092028275
114	0xbe0ee567	-0.13954698
115	0x3d9f7265	0.07785491
116	0x3dcd37b1	0.10020388
117	0x3d7c8ee9	0.061659727
118	0xbe77db99	-0.24204864
119	0xbf1183a6	-0.56841505
120	0x3d80663e	0.06269501
121	0x3f204324	0.6260245
122	0xbe44f368	-0.19233477
123	0x3ed36ea3	0.41295347
124	0x3d940073	0.07226648
125	0x3e41039f	0.18849038
126	0xbe16c584	-0.14723784
127	0x3d963d3a	0.07335897
128	0x3db4b84e	0.08824216
129	0x3e931895	0.28729692
130	0xbe4d3f45	-0.20043667
131	0x3d74c724	0.059760228
132	0xbebfe5ff	-0.3748016
133	0xbef7e83c	-0.48419368
134	0xba5bf7b3	-0.0008391097
135	0x3b7ef7cd	0.0038905025
136	0x3e875174	0.2642933
137	0xbcf71aff	-0.03016424
138	0x3e1392d2	0.14411476
139	0x3e479ceb	0.19493453
140	0x3ea9bebc	0.3315333
141	0x3d29a812	0.04142005
142	0xbc53d957	-0.012930236
143	0xbea51245	-0.322405
144	0xbd6c54aa	-0.05769793
145	0xbeae37c7	-0.3402693
146	0xbd9de7a3	-0.07710197
147	0xbec7420f	-0.38917586
148	0x3cb7b98a	0.02242734
149	0xbeae04d0	-0.33988047
150	0xbeb96214	-0.3620764
151	0x3e103edb	0.14086477
152	0xbd76d528	-0.060261875
153	0x3d2a5b23	0.04159082
154	0xbe225cb3	-0.15855674
155	0xbe124ad8	-0.14286363
156	0xbe047979	-0.12936963
157	0x3ea92fde	0.33044332
158	0xbe216c31	-0.15763928
159	0xbf396a78	-0.72428083
160	0x3eb2765f	0.34855935
161	0xbda0e68b	-0.078564726
162	0xbe9ac137	-0.30225536
163	0xbe873421	-0.2640696
164	0xbe58d038	-0.21173179
165	0x3e4012b6	0.18757138
166	0x3e7d83cf	0.24757312
167	0x3d46719d	0.048448194
168	0xbebe9122	-0.37220103
169	0xbf13360c	-0.57504344
170	0x3c4b8953	0.012422877
171	0xbccf3d3a	-0.02529775
172	0x3e969850	0.2941308
173	0xbf42b88e	-0.7606286
174	0xbe826b07	-0.2547228
175	0x3ebb8740	0.36626625
176	0x3de707fe	0.11280821
177	0xbe42bc1b	-0.19017069
178	0xbe6b43a8	-0.22975028
179	0xbdb2d16a	-0.08731349
180	0xbd5d0309	-0.053957973
181	0x3ead354a	0.3382972
182	0x3dcbe53f	0.099558346
183	0xbda81ae4	-0.08208254
184	0x3d56de33	0.052458
185	0x3d442bf0	0.047893465
186	0x3d2f723f	0.042833563
187	0xbe27d0ff	-0.1638832
188	0x3e0b9360	0.13630438
189	0x3e36236e	0.17786953
190	0xbd76e459	-0.060276363
191	0x3d8b51fb	0.06802746
192	0x3d267c54	0.040645912
193	0x3e488af4	0.19584256
194	0x3e0095e8	0.12557185
195	0xbc3e8ed1	-0.01163073
196	0xbd45c445	-0.04828288
197	0x3f0832d2	0.53202546
198	0xbd873af4	-0.06603041
199	0x3e3ab697	0.18233715
200	0x3e343cc2	0.17601302
201	0xbe002b2b	-0.12516467
202	0x3e322120	0.17395449
203	0x3df8f2dd	0.121556975
204	0x3e8143bb	0.25246987
205	0xbd5efa90	-0.054438174
206	0x3e407d8b	0.18797891
207	0xbea941d3	-0.33058032
208	0xbd9a7a0b	-0.07542809
209	0xbbe01c66	-0.006839323
210	0x3f1111e7	0.5666794
211	0xbd46df38	-0.04855272
212	0xbef8ef46	-0.4862005
213	0x3dba7925	0.09105138
214	0x3e84ce6c	0.25938737
215	0x3dc9c62a	0.0985225
216	0xbf1b1e67	-0.60593265
217	0x3f1c2713	0.6099712
218	0xbe8d4d0c	-0.27597845
219	0x3e63775b	0.22213499
220	0xbd99937d	-0.07498834
221	0x3e38bc2e	0.18040535
222	0xbe0d0941	-0.13773061
223	0xbdc3635f	-0.09540438
224	0xbe848088	-0.25879312
225	0xbe809c6f	-0.2511935
226	0x3de160fd	0.11004827
227	0xbecc97cd	-0.39959565
228	0x3e9bc8a8	0.30426526
229	0x3b0afc67	0.0021207572
230	0xbe45afa0	-0.19305277
231	0x3e989b23	0.2980586
232	0x3e87f121	0.26551154
233	0x3d113410	0.03545004
234	0xbd8d2d02	-0.0689335
235	0x3de342fb	0.1109676
236	0x3e8b224c	0.27174604
237	0xbe17f9f3	-0.14841442
238	0xbdb9d367	-0.09073525
239	0xbe81e6f3	-0.25371513
240	0xbda67846	-0.08128409
241	0x3e1679d8	0.14694917
242	0xbe26528e	-0.1624243
243	0xbd96d7fc	-0.073654145
244	0xbe9b3e87	-0.30321142
245	0xbd211f7d	-0.03933667
246	0xbd8ec9ae	-0.06972061
247	0xbea7f272	-0.3280216
248	0x3eaba06e	0.33520836
249	0xbf059a46	-0.5218853
250	0xbc6f9a34	-0.014624167
251	0xbea5661a	-0.3230446
252	0xbf2b8b70	-0.6700964
253	0x3e0be95c	0.13663238
254	0x3eaccf0d	0.33751717
255	0xbe63de47	-0.22252761

arr_3 f4 [48]
0	0x38004619	3.058286e-05
1	0x383d7634	4.5171197e-05
2	0x389b1cc8	7.396337e-05
3	0xbda5d9b2	-0.08098163
4	0xbe7cef66	-0.24700698
5	0xbdcecdc9	-0.10097844
6	0x3d34827a	0.044069745
7	0xbe3ddb70	-0.1854074
8	0x3d576ce7	0.05259409
9	0x3d95f177	0.073214464
10	0xbcaffdbd	-0.021483297
11	0x3dd0bee3	0.10192659
12	0xbe28b1e5	-0.16474111
13	0xbc8d33c6	-0.017236602
14	0x3ddd9931	0.108202346
15	0xbdf3572b	-0.1188186
16	0x3da42a24	0.0801585
17	0x3d8452b1	0.06461085
18	0xbde0764d	-0.10960064
19	0x3e002d60	0.12517309
20	0x3e324a62	0.17411187
21	0xbe0426ed	-0.12905474
22	0x3cc6c851	0.02426544
23	0xbd1192d9	-0.035540435
24	0xbd8a074b	-0.06739672
25	0xbc72c7e1	-0.014818163
26	0xbd9e5e3b	-0.07732817
27	0xbda54636	-0.08070032
28	0xbcf6f271	-0.030144902
29	0xbbb31543	-0.005465181
30	0xbe1e006d	-0.1542985
31	0x3dbdcf79	0.09268088
32	0xbcbb2483	-0.022844559
33	0xbe19370a	-0.14962402
34	0xbd352da6	-0.044232987
35	0x3c23cc9c	0.009997513
36	0xbe05e7f1	-0.1307676
37	0xbe1a9ce4	-0.15098912
38	0x3e0331d6	0.1281198
39	0x3ce39b12	0.027783904
40	0x3e987c07	0.29782125
41	0x3c489799	0.012243175
42	0x3dd50da2	0.10402991
43	0x3e5d820b	0.21631639
44	0x3b0cab56	0.002146443
45	0x3d87cdec	0.06631073
46	0x3d909476	0.07059567
47	0xbcdd2af0	-0.026998013

arr_2 f4 [40, 48]
0	0xb588d158	-1.0193717e-06
1	0xb672d23d	-3.6183185e-06
2	0xb6310fc3	-2.638423e-06
3	0xbd8b2cb3	-0.06795635
4	0xbbca91e7	-0.0061819437
5	0xbda87f5a	-0.082274154
6	0xbe07a5c7	-0.13246833
7	0x3d1caaff	0.038249012
8	0x3d8785a7	0.06617289
9	0xbdb71573	-0.08939638
10	0x3e05f377	0.13081156
11	0x3e86bcdf	0.26315972
12	0xbe6c93b3	-0.23103218
13	0x3d8135d7	0.06309097
14	0x3eff4140	0.4985447
15	0xbe0ae8d7	-0.13565384
16	0x3eabf789	0.33587292
17	0x3efbcc6e	0.49179405
18	0x3ceacff1	0.028663607
19	0x3ec7212e	0.38892502
20	0x3f043e76	0.5165781
21	0xbc8ab3e7	-0.016931487
22	0x3e00a5ea	0.12563291
23	0x3ed28fee	0.41125435
24	0x3e819949	0.2531226
25	0x3f120f72	0.5705482
26	0x3f09ab1b	0.5377671
27	0x3ee8e71a	0.45488816
28	0x3f48a11e	0.78370845
29	0x3efe33af	0.49648806
30	0xbbeac89a	-0.007165027
31	0x3e4dda41	0.20102789
32	0x3eb5b018	0.3548591
33	0x3e124a4b	0.14286153
34	0x3f25b5ac	0.64730334
35	0x3f10b7a1	0.56530195
36	0x3e8daa4b	0.27668986
37	0x3f56154a	0.83626235
38	0x3ee65b9f	0.44991776
39	0x3deeff85	0.1166983
40	0x3e063046	0.13104352
41	0x3d9742d7	0.073857956
42	0x3e858157	0.2607524
43	0x3e9f08ee	0.310615
44	0x3e65073c	0.22366041
45	0x3e8b2293	0.27174816
46	0x3e9c772b	0.30559668
47	0x3e7d232a	0.24720445
48	0x3638e9af	2.7554158e-06
49	0x359581f5	1.1139188e-06
50	0x36c80657	5.9612025e-06
51	0xbe09fe71	-0.13475968
52	0x3e8073c6	0.25088328
53	0xbd02bd48	-0.031918794
54	0xbc7631ec	-0.015026551
55	0x3ed3a207	0.41334555
56	0xbcb7c5a6	-0.022433113
57	0x3cce7dfb	0.025206557
58	0x3f003157	0.50075287
59	0x3d91c18b	0.071169935
60	0x3f088473	0.533271
61	0x3e7a515c	0.24445099
62	0x3e55bc65	0.20872648
63	0x3f377231	0.7165862
64	0x3eaf2598	0.3420837
65	0x3e2abab1	0.1667278
66	0x3f3e74df	0.7439708
67	0x3ee8027a	0.4531439
68	0xbc2626e6	-0.01014111
69	0x3f109e4f	0.5649156
70	0x3db4f72a	0.08836205
71	0x3de3924a	0.11111887
72	0x3f4c371a	0.7977158
73	0x3dde8193	0.10864558
74	0x3dde63de	0.10858892
75	0x3f571456	0.84015405
76	0x3df1cfed	0.11807237
77	0x3d592bdb	0.05302034
78	0x3ef568a4	0.47931397
79	0xbd0eeb1e	-0.034892194
80	0x3d646ff9	0.055770848
81	0x3f1e1067	0.6174378
82	0xbba22cc1	-0.0049491827
83	0x3d991c88	0.07476145
84	0x3f09279d	0.5357607
85	0x3dabab07	0.0838223
86	0x3c28730f	0.010281338
87	0x3ecb65d4	0.39726126
88	0xbe3202a2	-0.17383817
89	0xbd27d59d	-0.040975202
90	0x3f08589a	0.53260195
91	0xbe685318	-0.22687948
92	0xbd285952	-0.041100807
93	0x3f0b0f40	0.54320145
94	0xbe6485b2	-0.22316626
95	0x3d66d2a6	0.056353234
96	0x36328e4d	2.6606897e-06
97	0x362fa3f4	2.6172465e-06
98	0xb6fb8787	-7.4961604e-06
99	0xbe09cb65	-0.13456495
100	0x3e112265	0.14173277
101	0x3ed34067	0.41260073
102	0xbe2f5e11	-0.17125727
103	0xbe03b443	-0.12861733
104	0x3e33daa6	0.17563877
105	0xbe2ff350	-0.1718266
106	0xbeb0b27c	-0.34511173
107	0xbe4522d9	-0.19251575
108	0x3e28c6fc	0.16482157
109	0xbe911058	-0.28332782
110	0xbf1b8c33	-0.607608
111	0x3d8632e9	0.06552679
112	0xbe966c85	-0.2937967
113	0xbf033d01	-0.5126496
114	0x3a098d25	0.00052471674
115	0xbe23840f	-0.15968345
116	0xbf2109bd	-0.62905484
117	0x3e60d8f4	0.21957761
118	0xbe8834e0	-0.2660284
119	0xbf17e34d	-0.5933121
120	0x3debb549	0.11509187
121	0xbd2e0850	-0.042488396
122	0xbf1b362a	-0.6062952
123	0xbcff2e08	-0.03114988
124	0x3ea1777a	0.31536466
125	0xbf74847f	-0.95514673
126	0x3e8f80be	0.2802791
127	0xbeba5e00	-0.3639984
128	0xbec45171	-0.38343385
129	0x3e781805	0.24227913
130	0xbe56c218	-0.20972478
131	0xbedabeae	-0.42723602
132	0x3d9c59ab	0.0763429
133	0x3e43fec6	0.19140157
134	0xbf416297	-0.7554106
135	0x3e930177	0.28712055
136	0xbec39d24	-0.38205826
137	0xbe439484	-0.19099623
138	0x3e957ba6	0.291959
139	0xbe96b4bf	-0.29434773
140	0xbea1e5df	-0.3162069
141	0x3e8711e6	0.26380843
142	0xbde67da5	-0.112544335
143	0xbf100213	-0.56253165
144	0xb716915b	-8.97454e-06
145	0xb787b5c9	-1.6177904e-05
146	0xb80dae8c	-3.377958e-05
147	0xbcaf08e3	-0.021366542
148	0xbe8752de	-0.2643041
149	0xbe4013af	-0.18757509
150	0x3e84e74c	0.25957716
151	0xbe27d7dc	-0.16390938
152	0xbe810c53	-0.25204715
153	0x3f086ee5	0.5329421
154	0xbe8ac1b7	-0.27100918
155	0xbe9dc3b3	-0.3081337
156	0x3eca3eaf	0.3950095
157	0xbe42cb13	-0.19022779
158	0xbf2a9456	-0.6663259
159	0x3f3a78d3	0.72840613
160	0xbf1a71bb	-0.6032979
161	0xbf5d61a3	-0.86477107
162	0x3f66ee48	0.9020734
163	0xbf82a216	-1.0205715
164	0xbf4c4541	-0.79793173
165	0x3e8ba376	0.27273148
166	0x3dcaba0d	0.098987676
167	0xbe8a4bf4	-0.27011073
168	0x3ecd4145	0.4008886
169	0x3c0dcec3	0.008655253
170	0xbe92e2fc	-0.286888
171	0x3f15a0a2	0.5844823
172	0x3c5fb91c	0.013654973
173	0xbebc4c88	-0.3677714
174	0x3ebd6fc2	0.36999327
175	0x3e8edb32	0.27901608
176	0x3aa19c5e	0.0012329926
177	0x3f024055	0.5087941
178	0x3e7da9d0	0.2477181
179	0xbd503556	-0.050832115
180	0x3f14dc9d	0.5814913
181	0x3d5e76d5	0.054312546
182	0xbe2029c7	-0.15640937
183	0x3eb55d88	0.3542292
184	0x3eec5ec5	0.46166053
185	0x3e7df2e0	0.2479968
186	0x3ec7c49e	0.39017195
187	0x3f29cfa0	0.66332436
188	0x3e7776e7	0.24166451
189	0x3eeed4a7	0.46646616
190	0x3f37ec35	0.718448
191	0xbcb0869d	-0.021548564
192	0x3622fd22	2.4287224e-06
193	0x3546e148	7.4088575e-07
194	0xb725e6e0	-9.888521e-06
195	0x3d3aadc8	0.045575887
196	0x3c80b76f	0.015712468
197	0xbe60b00d	-0.21942158
198	0x3ed64aaa	0.4185384
199	0x3e84ae85	0.25914398
200	0xbece2163	-0.40259847
201	0x3f452054	0.77002454
202	0x3e5b5fac	0.21423215
203	0xbe976bef	-0.29574534
204	0x3e17e126	0.14831981
205	0x3ea339bb	0.31879982
206	0x3e4a63df	0.1976466
207	0x3e11676b	0.14199607
208	0x3efae19e	0.49000257
209	0x3ea64d44	0.32480824
210	0x3d8fb45f	0.07016825
211	0x3f10e4a8	0.565989
212	0x3ec29886	0.3800699
213	0x3ea4d8fd	0.321968
214	0x3eb6e78f	0.3572354
215	0x3ea5f03f	0.32409856
216	0x3f0c8c07	0.54901165
217	0x3f125e4e	0.5717515
218	0x3e9438bd	0.28949538
219	0x3f1f1494	0.62140775
220	0x3f298bc9	0.6622892
221	0x3e14c7ac	0.14529294
222	0x3ea97989	0.33100536
223	0x3e67e61a	0.2264637
224	0x3dbb88cd	0.09156952
225	0x3eea6c3c	0.457857
226	0x3eaec4e6	0.34134597
227	0x3bc6c618	0.006066095
228	0x3eb4fa92	0.3534742
229	0x3eaf29b0	0.34211493
230	0xba8de283	-0.0010824952
231	0x3e30b0dc	0.17254966
232	0x3c60776b	0.013700346
233	0xbca18380	-0.019716024
234	0x3e25cc41	0.16191198
235	0xbe2c4a6f	-0.16825269
236	0xbd52beb4	-0.0514514
237	0x3e2a123e	0.16608521
238	0xbe9c5b1f	-0.3053827
239	0xbbaa059d	-0.0051886574
240	0xb70a087f	-8.227419e-06
241	0xb7762ca9	-1.4673141e-05
242	0xb7836bb9	-1.566658e-05
243	0xbd792bac	-0.060832664
244	0x3f433fb9	0.7626911
245	0x3f05623b	0.5210301
246	0x3c8fcdfe	0.01755428
247	0x3f6de3de	0.9292582
248	0x3f5c04d0	0.85944843
249	0xbb14c18a	-0.0022698366
250	0x3f51323f	0.81717294
251	0x3f4817d9	0.7816139
252	0x3f09f23a	0.53885233
253	0x3ebd9909	0.3703082
254	0xbc1626b8	-0.009164505
255	0x3f14f853	0.5819141
