pretrained_model/ICVL_pretrained/params/-1_dis_params.npz (npz, 603798 bytes, 26 tensors)

arr_24 f4 [32]
000000 33 87 bf 3e 46 bc ae 3e 10 5b c6 3e 4f a2 c4 3e
       0.37407836 0.34128016 0.3874135 0.38405082
000010 fd a3 b3 3e 7d 8a b2 3e 4d 5c bd 3e 93 15 d6 3e
       0.3508605 0.34871283 0.36984482 0.41813335
000020 f5 16 d6 3e 44 68 c5 3e 2c df ba 3e e1 dd c2 3e
       0.4181439 0.3855611 0.36498392 0.38059905
000030 3e 9c c8 3e 12 a4 b2 3e ef 2c b5 3e 26 26 b7 3e
       0.39181703 0.348908 0.35385844 0.35771292
000040 d9 e2 a8 3e a3 82 d3 3e aa 0d c5 3e 56 28 b7 3e
       0.3298557 0.41310605 0.38486987 0.3577296
000050 50 d6 aa 3e b1 f1 bc 3e b5 cb c2 3e 23 8a b8 3e
       0.33366632 0.36903146 0.3804604 0.3604289
000060 0e 11 bc 3e 93 f1 ad 3e 22 3b bd 3e b6 b0 e1 3e
       0.36731762 0.3397337 0.36959177 0.44080132
000070 d3 1e b7 3e da c0 b3 3e e9 06 c7 3e a9 2c b4 3e
       0.35765705 0.35108072 0.3887246 0.35190323

arr_25 f4 [512, 1]
000000 d3 46 fc bb 54 ec c3 3e ef cb ad bd 2f c2 31 bf
       -0.0076988726 0.38266242 -0.08486163 -0.69436926
000010 dd 12 ec 3e 70 89 9d 3d f0 95 70 be e3 59 80 3e
       0.46108142 0.0769223 -0.23494697 0.25068578
000020 a5 91 13 bf 50 a5 1c 3e 41 97 21 3f 73 4b 7a be
       -0.5764411 0.15297437 0.6312142 -0.24442844
000030 07 a9 73 bf 54 44 70 be 13 7e 06 3f 3b cf ac be
       -0.9517979 -0.23463565 0.52536124 -0.33751854
000040 9d a6 4e bf f1 d2 81 3e 70 87 26 be 44 0a 59 bf
       -0.8072298 0.25356248 -0.16262603 -0.8478129
000050 06 f7 db bc 59 f5 fd 3d 16 57 5e 3e fe d3 86 bd
       -0.026851188 0.12400312 0.21712908 -0.06583403
000060 41 07 30 3f b7 ab 2f 3d c0 59 29 bf 07 24 1a 3e
       0.6876107 0.04288837 -0.6615257 0.15052806
000070 bd bb 22 bf 87 52 19 bf 8b a0 dc bb 3f a6 ca be
       -0.63567716 -0.5989155 -0.0067330054 -0.3957996
000080 09 1c 0e be 67 30 33 be 4b 1f 12 bf 7d 3c 6e be
       -0.13877882 -0.17498933 -0.57079 -0.23265262
000090 70 28 22 3e 26 7f 49 3e 20 34 cc 3d b2 a2 b1 3d
       0.15835738 0.1967741 0.099708796 0.0867361
0000a0 12 89 85 bf 2d 12 e1 3d c1 45 a7 be b0 8a c5 be
       -1.0432456 0.10989795 -0.32670406 -0.38582373
0000b0 d4 90 65 3f a8 bf 55 bf ba 4d 9d 3e 89 23 14 3f
       0.89674115 -0.8349557 0.30723363 0.5786672
0000c0 75 15 01 3e aa 78 04 3f ad 7c 3e be 5f f3 72 bd
       0.12605841 0.5174662 -0.18602248 -0.059314128
0000d0 c7 ae 40 3c 11 8a 7c be 36 41 d6 bd d4 8b 0c be
       0.01176042 -0.24662043 -0.10461657 -0.13725215
0000e0 bc d4 14 3f da 66 90 bd d0 4b 92 bd df 69 04 3f
       0.58137107 -0.070508674 -0.07143366 0.51724046
0000f0 56 00 34 3f bc 59 98 3e dd be 5c be 3a 87 32 be
       0.7031301 0.29755962 -0.21557184 -0.17434397
000100 65 c1 90 be fb b5 9e 3e 5d dc 66 be 6e a1 49 3f
       -0.28272548 0.30998215 -0.22545 0.7876195
000110 c3 30 22 3e 30 55 04 bd 33 ef a9 bc 54 fd 3b be
       0.15838914 -0.032307804 -0.020743942 -0.18358356
000120 df ed b4 3e d1 6d 0c be a7 8c 3d 3a 98 aa d7 3d
       0.3533773 -0.13713767 0.00072307367 0.10530585
000130 99 20 14 be 71 64 c6 3e 84 57 93 3d aa e7 c7 3d
       -0.1446556 0.38748506 0.07194427 0.09760983
000140 52 34 8b bd f4 57 9b be 86 c2 a0 be 51 2b d6 be
       -0.06797089 -0.3034054 -0.3139841 -0.41829923
000150 4c 88 5a bf f7 3e ab 3e d3 ef 78 3e a5 14 0f 3f
       -0.8536422 0.33446476 0.24310236 0.55890876
000160 8f 09 3f 3f 29 32 f4 3c cb 99 fb bd a5 93 40 bf
       0.7462396 0.029809074 -0.12285193 -0.7522529
000170 77 b9 30 3f 2a 02 1d 3f d7 f6 33 bf 65 e8 a4 be
       0.69032997 0.6133143 -0.7029852 -0.32208553
000180 ae a9 21 3f 67 d7 78 be b6 df 42 3d fc 5e 7a be
       0.63149536 -0.2430092 0.04757663 -0.24450296
000190 96 b7 35 3f 0c 63 ef bd 6e 24 67 bc fb be 32 3a
       0.70983255 -0.116888136 -0.014107807 0.00068186194
0001a0 75 b2 30 3e 1a 81 9e be 17 d6 c6 3e 2a c8 9d 3e
       0.17255576 -0.30957872 0.38835213 0.30816776
0001b0 b9 12 0f bf e2 ef 2d 3f f3 8a 32 bf 3c e7 59 bf
       -0.55887944 0.6794416 -0.6974327 -0.8511846
0001c0 d3 3f 6f bf 36 ff 38 be 02 33 21 3e 1e 1a 5c 3f
       -0.93456763 -0.18066105 0.15742114 0.8597735
0001d0 41 f4 cb be 8a 86 2a be 75 c9 0e 3f 3b 4c 8a bf
       -0.39834788 -0.16652885 0.5577615 -1.0804514
0001e0 ae e9 02 bf a2 1c f1 be 10 da e5 3e 33 c9 f8 3e
       -0.51137817 -0.47092158 0.4489293 0.48591003
0001f0 7f 6b 15 3f 6b 38 6f bf b2 4a 93 3e 05 55 84 bf
       0.5836715 -0.9344546 0.28767926 -1.0338446
000200 7e b2 d7 be 95 25 e9 be 06 e9 68 3e d3 34 91 bf
       -0.42128366 -0.45536485 0.22745141 -1.1344246
000210 bc 70 ba 3e a7 4f b3 3e 44 56 2c 3e f5 a3 b6 3b
       0.36414135 0.35021707 0.16829783 0.0055737444
000220 b1 64 8c bf 20 57 bb 3e 5b ed 3c bd 77 e9 0b bf
       -1.0968229 0.3658991 -0.046124797 -0.54653114
000230 0c 3b 4c bf 64 87 92 be b0 e6 30 bf 0b 00 35 3f
       -0.797776 -0.2861892 -0.69102 0.7070319
000240 fb b5 48 be 73 b2 4c be 36 79 e7 3e 2f 33 3b 3f
       -0.1960067 -0.19989948 0.45209664 0.73124975
000250 68 62 11 bd f8 2a 92 bb a6 cb 39 be 0b 49 22 3e
       -0.03549424 -0.0044606887 -0.18144092 0.15848176
000260 96 34 4e bd b9 d6 b1 bc 9f 78 92 3e b4 d4 69 be
       -0.05034312 -0.021708833 0.28607652 -0.22835046
000270 1b 87 4b 3f a2 ee bb bd 11 35 d6 3e de 65 0b bf
       0.7950303 -0.09176375 0.4183736 -0.5445231
000280 da 4b 1c 3f ab 4c e5 bd e0 cc 42 3e f1 0b 40 bf
       0.6105324 -0.11196264 0.19023466 -0.7501822
000290 b8 52 8f be 9e 4b 02 bf 96 0d 37 3e df c4 98 be
       -0.27992797 -0.5089663 0.17876276 -0.298377
0002a0 43 2e e0 3e cc f9 10 bf c9 a4 4f 3e aa cb 20 bf
       0.43785295 -0.5663116 0.20277704 -0.62810767
0002b0 6f 50 02 3f ea d9 d9 3c 74 8e a4 3e 84 b3 3a bf
       0.5090398 0.026593167 0.32139933 -0.7293017
0002c0 85 7c 0a 3f bd 71 33 3f c7 d0 32 bf fe 82 0b bf
       0.5409625 0.70095426 -0.6984982 -0.54496753
0002d0 d4 01 5c be 00 64 83 be f9 e1 6c bd cc 1f 71 3d
       -0.21485072 -0.2566223 -0.05783269 0.058868214
0002e0 29 55 b7 3e 56 97 8b 3e e0 f0 b9 bd 3b 02 3b bf
       0.3580716 0.27263898 -0.090791464 -0.7305028
0002f0 f8 09 19 bf 96 da 83 3e dd c3 ed be 20 6e 15 bd
       -0.59780836 0.25752705 -0.46438494 -0.036481977
000300 57 2a 4b 3f 7e af ef 3d 92 fc 4c be ea d8 d2 be
       0.7936148 0.11703394 -0.20018223 -0.41181117
000310 54 64 89 be ce 03 a6 3d 40 a8 a6 bd 2e f0 de bc
       -0.26834357 0.081061944 -0.0813756 -0.027214136
000320 ff db 52 bd cd 15 a1 3d eb 61 35 bd b6 76 83 be
       -0.051479336 0.07865486 -0.044282835 -0.25676507
000330 40 9f 68 3f d9 25 16 bf b9 f9 16 3f a3 7d 4f 3f
       0.90867996 -0.586515 0.58974797 0.8105108
000340 b0 84 0c be 9d 1d a4 be 4d 37 08 3f c9 f7 17 3e
       -0.13722491 -0.32053843 0.5320938 0.14840616
000350 c9 1d 37 bf bd 11 8d 3e 50 75 cd bd b4 1c 3a bd
       -0.71529824 0.27552596 -0.10032141 -0.04543753
000360 bc 0f b5 3e 38 af e7 bd e4 8f 0f bf be 2d 2b be
       0.35363567 -0.11312717 -0.56078935 -0.16716668
000370 5f 82 f2 bd d6 9f 11 bf eb 30 84 3f ac a1 70 be
       -0.118412726 -0.56884515 1.0327429 -0.23499173
000380 bb 03 c5 3c 32 6e ce 3c ed 3a 9c 3d 0d cf c5 3e
       0.02404963 0.02519903 0.07628427 0.3863453
000390 3e 77 cb 3e 90 f5 e6 3e cb c4 9f be 0b 79 0a be
       0.39739412 0.45109224 -0.3120483 -0.13522737
0003a0 99 a2 f4 3d c8 d4 65 be 46 75 91 be 73 c6 0b 3f
       0.119450755 -0.22444451 -0.28409785 0.54599684
0003b0 bc 58 0b 3f 05 ad 32 bd 51 49 4d bc 3b f9 30 3f
       0.5443227 -0.043622036 -0.012529687 0.69130296
0003c0 1b bd dd be 1c 97 0e be 77 57 e9 3e 85 ec 16 bf
       -0.4330834 -0.13924831 0.45574543 -0.5895465
0003d0 7a 66 42 be 9b ad ad 3e 2c 4e 34 3e 6e 6c 5e 3e
       -0.18984404 0.33921513 0.17607945 0.2172105
0003e0 cd f2 8e be f7 79 2f be a4 b2 c0 be 8c 83 f5 3e
       -0.27919617 -0.1713637 -0.37636292 0.47951925
0003f0 6b 0e 3e be 9f 2f 12 3c df 33 09 3f 32 9b 9e bc
       -0.18560188 0.008922487 0.53594774 -0.019361112

arr_20 f4 [32, 32, 6, 6]
000000 54 1e 5f 3c ac 18 11 3e de bc 96 bd a2 d9 42 3e
       0.013618071 0.14169568 -0.07360242 0.19028333
000010 b2 bf 91 bd dc 31 47 3e 20 52 e6 3d 47 22 d5 3d
       -0.07116641 0.19452614 0.11246133 0.104069285
000020 35 9f c6 bc ff f8 73 3e ae ec a0 be 5a a1 f1 3c
       -0.024245838 0.23825453 -0.31430572 0.029495884
000030 c6 91 bb 3e bd c4 ac 3d d4 e4 ea bb 7b 53 3b 3e
       0.36634654 0.08435962 -0.0071683917 0.18293564
000040 9c 0d 3c 3d 74 59 2b bc 15 b9 41 3e 96 8b 3f be
       0.045911416 -0.010458339 0.1891826 -0.18705592
000050 01 27 41 be 1e 9f 9c bd 88 9d d0 bd 9e 46 56 3d
       -0.18862535 -0.07647537 -0.10186297 0.05231344
000060 b2 e0 e9 bd aa fa 77 3e 71 0f cf 3d ca 4a a1 3d
       -0.1141981 0.24216715 0.10110367 0.07875593
000070 20 a9 b8 3e 4b 1e 3e be 68 f9 c7 bc b5 e1 7f be
       0.36066532 -0.18566243 -0.024410918 -0.24988444
000080 89 eb c1 3d 28 0d f8 be 4e 63 64 3e 2b 37 c0 be
       0.09468753 -0.48447537 0.22303507 -0.3754209
000090 f8 34 29 3e 4e 4d ec 3c 6b 66 53 be 45 aa df 3e
       0.16524112 0.028845455 -0.20644538 0.43684593
0000a0 8d 44 d6 3d 67 8f 4c 3e a5 9e 15 3e 1c e8 a0 3e
       0.10462294 0.19976579 0.146113 0.31427085
0000b0 b7 df 72 bd 35 1c f1 3e f9 d7 04 3e 11 b7 c5 3d
       -0.059295382 0.47091833 0.12973012 0.09654058
0000c0 4b d0 26 be 3a 3f c1 bd 95 54 b0 be 37 a7 a2 be
       -0.16290395 -0.09435888 -0.3443953 -0.317682
0000d0 f8 6d 6a be 32 dd 94 bd e4 c4 85 be 95 c3 58 3e
       -0.22893512 -0.07268752 -0.26126778 0.21168359
0000e0 85 1e 35 be 1b 73 fe 3d 58 ea 98 be 0f a2 9b 3e
       -0.17687424 0.124242984 -0.2986629 0.30397078
0000f0 21 7f 22 be ef 37 21 3e 55 8b 76 bc 62 78 81 be
       -0.15868808 0.15743993 -0.015047868 -0.25287157
000100 f1 5c ff 3d ab ad 94 3d 27 2b 47 be ec 9f 74 3c
       0.12468899 0.07259687 -0.19450055 0.0149307065
000110 5e 27 07 be c3 fa 58 bd 8f fc 4c be e7 31 1c be
       -0.13198611 -0.05297352 -0.20018218 -0.15253411
000120 66 82 ef 3d d5 ae 42 3e 14 a8 5d 3e b0 5c eb 3d
       0.116947934 0.19012006 0.21646148 0.11492288
000130 2e d1 ac 3e 86 43 c5 bd e9 69 07 bd f5 01 3f 3d
       0.3375334 -0.0963202 -0.03305999 0.046632726
000140 cf 81 92 3d 2f 7d 1a bd 1d 64 4d 3e 45 60 6e bc
       0.07153665 -0.03771704 0.20057721 -0.01454932
000150 79 18 fa 3d 48 ea 07 3f 25 8d 08 bd 3a ee 57 3e
       0.12211699 0.5309186 -0.03333773 0.2108697
000160 67 a6 05 3e c5 3c 0b 3e 05 a0 4d 3d 89 ae 82 bd
       0.13051759 0.135974 0.050201435 -0.06380946
000170 ec bc 59 bd 0e 6b 00 3e 65 1a f3 3c b4 29 5d 3e
       -0.053158686 0.12540838 0.029675672 0.2159794
000180 af fa 88 bd b6 c4 60 3e 13 e4 5b be 2c 3f 1a 3e
       -0.06688439 0.2195004 -0.21473722 0.1506316
000190 c7 ee af be 18 0f b8 3d b5 d9 02 3e e9 65 bf 3d
       -0.3436186 0.08987254 0.12778361 0.0934561
0001a0 e2 cf 89 3d 85 73 9c bc 4f 8e 8c be 57 46 ab 3e
       0.067291036 -0.019098053 -0.27452323 0.33452103
0001b0 79 4f 83 3e be 0d db be 17 92 f0 3e c3 0c 7c be
       0.2564657 -0.42783922 0.46986458 -0.24614243
0001c0 b3 15 d7 3e ee a1 74 be 6b 16 b6 bd ba 07 b7 bd
       0.42008743 -0.23889896 -0.08890995 -0.089370206
0001d0 fe 04 e7 bc 54 64 1e be ab f6 3c bd 52 b8 2f be
       -0.028200623 -0.1546796 -0.04613368 -0.17160156
0001e0 1c 76 ef bd 1c 46 3c 3e 9d 3c 63 3e 58 6a 46 3e
       -0.116924495 0.1838612 0.22191091 0.19376504
0001f0 96 42 95 3e f6 9f fc bd 5a 7b 75 be 2a 50 9a 3e
       0.29152364 -0.12335198 -0.23972836 0.30139285
000200 79 96 63 be 89 10 ac 3e ad c2 88 3e da 28 98 3d
       -0.2222537 0.33606365 0.26711026 0.07429667
000210 71 59 16 3e 5e 79 cf 3c 31 82 9e be 77 65 66 3e
       0.14682557 0.025326427 -0.30958703 0.22499643
000220 e3 a6 4a be 55 41 cd 3b b9 a2 94 3d 2c 5a 2a bb
       -0.19790225 0.0062638917 0.072575994 -0.0025993688
000230 b5 29 f8 3d e2 e1 2f 3e 77 a3 ef 3d 74 2a b1 3e
       0.1211733 0.17176011 0.117011 0.34602702
000240 f2 35 3b be a6 80 d5 3d 49 6d c1 be 85 a0 82 3e
       -0.18282297 0.10424928 -0.3777869 0.25513092
000250 7a 7d 21 3d fc d8 90 3e bf f6 ad be 8b b6 a4 3d
       0.039426304 0.28290546 -0.33977315 0.0804263
000260 14 6c 9d be 92 77 3f 3d 60 dc 80 3d 3a 12 13 3e
       -0.3074652 0.04674489 0.06292033 0.14362422
000270 72 7c 8a 3d 75 2a c5 3d 46 e4 35 3e 26 0f 1a be
       0.06762017 0.09627239 0.1776286 -0.15044841
000280 1d fb 82 bd 9b a0 b5 3d 6f 31 6c ba d8 6b 12 bf
       -0.06395552 0.08868524 -0.0009010052 -0.57195807
000290 9b 46 60 3e 69 3a 01 be 13 e5 23 be 7a f2 b7 bd
       0.21901934 -0.12619938 -0.16005354 -0.089817956
0002a0 90 c1 30 3e b1 ee 15 be c7 bd c4 3e e2 2b ec bb
       0.17261338 -0.14641835 0.3842604 -0.0072073797
0002b0 01 1d 92 3e 3a b5 09 bd 64 37 df bd 41 ec 99 bd
       0.28537753 -0.033620097 -0.10899237 -0.07515765
0002c0 e3 f5 ab 3e a0 4f f3 be ff db 20 3e b9 ef 02 bf
       0.33586034 -0.47521687 0.15708922 -0.5114704
0002d0 bf 36 a1 3e f5 43 59 bc a5 44 92 bc 36 f2 78 bc
       0.3148708 -0.013260831 -0.017854998 -0.015194466
0002e0 f7 85 d8 bd 13 9a 27 3e bc 04 05 bd eb b9 6a 3e
       -0.10572427 0.16367368 -0.03247522 0.22922485
0002f0 0d 19 18 3e d6 c7 3b bc 78 1a ca bc d4 dd 33 3e
       0.14853306 -0.011461219 -0.024670824 0.1756509
000300 54 0d d6 bc 43 88 62 bd e6 a7 1e 3e d5 db d3 3d
       -0.026129402 -0.05530573 0.15493736 0.10344664
000310 2f 05 f9 3d 18 e2 e8 bd 78 dd 95 3e bd f6 eb bd
       0.12159192 -0.11371249 0.2927053 -0.11521671
000320 66 b5 df be 06 45 f9 3d 2c 87 1f 3d 28 dc eb 3d
       -0.43693084 0.12171368 0.03894727 0.11516601
000330 a8 59 9a be 63 1d 47 bd aa 89 04 bd bf 0e 17 3e
       -0.30146527 -0.04861201 -0.03235785 0.14751719
000340 bc b1 0a 3d 5a e0 1d be c9 b1 7e bd 18 b3 b2 be
       0.033860907 -0.15417615 -0.062181268 -0.34902263
000350 03 e6 8b 3e 92 d8 cc bd 67 50 8b be 1a bb a3 bd
       0.27323923 -0.10002245 -0.2720978 -0.07994671
000360 f8 20 87 3c e6 19 cb 3c 5f 47 56 bc 12 06 a8 bd
       0.016495213 0.024792623 -0.01307854 -0.08204283
000370 cf 65 27 bd 60 d6 00 3e f7 dd 8b 3e 80 7a 89 be
       -0.040868577 0.12581778 0.27317783 -0.26851273
000380 aa ca da 3e 01 6e a8 be 0a 60 af 3d d8 c8 d6 bc
       0.42732745 -0.32896426 0.0856324 -0.026218817
000390 71 47 04 bf b6 d6 27 be 6f c5 d7 be 5c 73 16 3d
       -0.5167151 -0.163905 -0.42142817 0.03673111
0003a0 15 cf 42 be a0 5d 50 3c 08 a0 1a 3f 8b 11 65 be
       -0.19024308 0.012717634 0.6040044 -0.22369973
0003b0 62 9d 26 3f c2 1d 0d be de 0f c7 3e 79 7e 21 be
       0.650839 -0.13780883 0.38879293 -0.15770902
0003c0 16 f7 5c be d2 03 2b 3e 6f 06 9c be 42 ea 94 39
       -0.21578631 0.16700676 -0.30473658 0.00028403295
0003d0 d3 f2 49 be 54 ea 59 be ff c1 32 3e e1 b1 2c be
       -0.19721536 -0.21280795 0.17456816 -0.1686473
0003e0 4c 5b 89 3e 5a d1 20 be 2f fe f5 3e 83 a0 b6 be
       0.26827466 -0.15704861 0.4804549 -0.35669336
0003f0 09 1b d6 bd 79 1a 73 3e 8f a4 db bd 4a e0 96 bd
       -0.10454375 0.23740567 -0.107247464 -0.073669985

arr_21 f4 [32]
000000 31 42 51 bc 47 cb a1 bd 36 89 2a bd b4 ca 53 3d
       -0.012772129 -0.079001 -0.04163476 0.051706985
000010 58 59 d0 bd 90 1a 89 3d ac f3 29 3e a7 55 c0 3c
       -0.10173291 0.066945195 0.1659686 0.023478342
000020 34 e3 9b 3b dc a6 e7 3d 0c 95 ad bb de 6b b1 3c
       0.0047573093 0.11311123 -0.005297309 0.02165788
000030 3e 8e ee 3d 4f 2f 81 bd e0 e5 6d bc 7f a3 a4 3d
       0.11648224 -0.063078515 -0.0145201385 0.08038997
000040 ae cf c1 bc 36 17 c1 bd 28 a9 0c 3e f2 0f c4 3d
       -0.0236586 -0.09428255 0.13736403 0.09573354
000050 51 8f 05 3c b3 74 04 bd b3 8a 9c 3c 16 f8 a0 3d
       0.008151845 -0.032337856 0.019109106 0.07859819
000060 cf 28 90 bd e1 4c 54 bc e0 0e 2e 3d bf 0f ca ba
       -0.070390336 -0.0129577825 0.042494655 -0.001541607
000070 bb 4f b6 3d 5e a1 3f 3e fc 81 cd bd 8a a7 a2 bd
       0.08901926 0.187139 -0.10034558 -0.07942112

arr_22 f4 [32]
000000 f0 fe e8 3f 35 f3 d8 3f 3c 5a ea 3f d0 eb d6 3f
       1.8202801 1.6949221 1.8308787 1.6790714
000010 6c bd e6 3f a1 71 e4 3f ef c8 d6 3f 47 7d f0 3f
       1.8026557 1.7847177 1.678007 1.8788232
000020 b0 12 00 40 a7 24 eb 3f 4b 5a cc 3f e7 75 f9 3f
       2.0011406 1.837056 1.5965055 1.9489106
000030 cb d5 ef 3f 1e 93 cc 3f a0 e3 c7 3f 78 6a bf 3f
       1.873712 1.5982397 1.5616341 1.4954367
000040 2e 2b cc 3f 10 09 f5 3f 9d bb df 3f 6d e4 d6 3f
       1.5950677 1.9143391 1.747913 1.678846
000050 e6 3a cc 3f 84 9c ed 3f 67 7d d7 3f cc 0d d0 3f
       1.5955474 1.856339 1.6835145 1.625421
000060 4f 1f d4 3f 9b 37 cf 3f 95 8b d5 3f 17 c3 dc 3f
       1.6572055 1.6188844 1.6683222 1.7247037
000070 f8 02 d4 3f 6b a9 d7 3f 85 2d e8 3f 76 ba c5 3f
       1.6563406 1.6848577 1.8138891 1.5447528

arr_23 f4 [32]
000000 5e c3 53 bf c3 5d 36 bf be 51 01 be 9b fa dc bd
       -0.8271998 -0.7123682 -0.12628838 -0.10789987
000010 e1 3e f0 3e 57 6f 0e be 92 c2 bd be e4 09 bd 3e
       0.46922973 -0.1390966 -0.37062508 0.36921608
000020 92 c7 82 3e 3a 1a ad 3e 70 b9 49 bf 2e a0 dd 3e
       0.25542885 0.33809072 -0.7879858 0.4328627
000030 35 7c 5c bf c9 74 a6 bf ed c1 b1 bf 53 16 dc bd
       -0.86127025 -1.300439 -1.3887306 -0.107464455
000040 9c 50 9e bf 13 59 82 bf f2 bb 07 bf 3b 10 a8 be
       -1.236835 -1.0183433 -0.53021157 -0.32824883
000050 9e ee 13 bf 07 ea ed be 25 73 d5 be c4 0a 37 bf
       -0.57785976 -0.4646761 -0.4168941 -0.715008
000060 15 74 1c bf 10 7c 01 3f 94 b8 0e be 7a e4 4c bf
       -0.6111463 0.5057993 -0.13937598 -0.8003613
000070 af b5 07 bd 32 0f 3f bf 46 13 6c bf 24 37 5f 3d
       -0.03313225 -0.7463256 -0.9221691 0.054495946

arr_19 f4 [32]
000000 8f 89 94 3e 3c 1a 86 3e 37 26 7a 3e 33 24 89 3e
       0.290112 0.2619189 0.2442864 0.2678543
000010 41 44 8f 3e 38 8c 8d 3e ad 99 a0 3e 3e 61 99 3e
       0.2798176 0.2764604 0.31367245 0.29957002
000020 c4 4d 8a 3e c9 76 50 3e bb 1d 7f 3e b8 58 99 3e
       0.27012455 0.20357813 0.24913685 0.299505
000030 37 2b 87 3e fe a8 64 3e 65 96 8e 3e 8f 8c 90 3e
       0.26400158 0.2233009 0.27849117 0.28232238
000040 bd 0f 8b 3e 62 5e 83 3e 89 78 8b 3e 59 f0 71 3e
       0.27160445 0.25657946 0.272404 0.23626842
000050 84 45 8b 3e fe d6 9c 3e c7 f4 7b 3e e6 90 6b 3e
       0.27201474 0.30632776 0.24605094 0.23004493
000060 76 31 84 3e e3 69 82 3e fe 0b 83 3e 2a fd 8f 3e
       0.25818986 0.2547141 0.25595087 0.28122836
000070 28 05 9b 3e 2e 0b 8e 3e 37 8e 95 3e ab 7c 81 3e
       0.3027737 0.27742904 0.29210064 0.25290427

arr_18 f4 [32]
000000 7f 9d 94 3e 38 4d 92 bf 91 f2 54 be 75 72 46 bf
       0.2902641 -1.1429815 -0.20795657 -0.775184
000010 9f a4 80 bf 53 65 fc bf d8 fc 32 bf 61 a1 1d c0
       -1.0050238 -1.9718422 -0.6991706 -2.4629748
000020 39 09 8b 3e 8a 76 3e bf 4f dd a1 3e 51 53 09 bf
       0.27155474 -0.74399626 0.31614158 -0.53642756
000030 74 98 33 3d 83 0e 4d 3e 30 26 70 bf 00 34 65 bf
       0.043846563 0.20025067 -0.9380827 -0.8953247
000040 91 ba 68 3f fe 41 0b bf 5c f5 8d bf 09 28 e7 3e
       0.9090968 -0.5439757 -1.1090503 0.45147732
000050 25 33 fa bf 90 a6 a9 3e a9 df 53 3e a6 26 d8 3d
       -1.9546858 0.3313489 0.20690788 0.105542466
000060 d7 f9 0d bf ff ec fb bd ea ca 81 bd 66 48 55 be
       -0.5545935 -0.12301063 -0.06337531 -0.20828399
000070 43 dd 42 be 2e 28 93 3e 5f b9 2f 3e 91 45 af bf
       -0.19029717 0.28741592 0.17160557 -1.3693105

arr_11 f4 [32]
000000 2e a8 4a be 59 cf ec be f6 89 94 be 1a f5 05 bf
       -0.19790718 -0.46251944 -0.29011506 -0.5232712
000010 7f 56 ba be 78 05 b6 be 86 92 c1 be 71 15 ea be
       -0.36394116 -0.35551047 -0.378071 -0.45719483
000020 83 8a f2 be 3f b8 e9 be e3 03 06 bf 77 cd 5e bf
       -0.473713 -0.4564838 -0.5234968 -0.87032264
000030 38 fa 37 bf d3 f0 f6 be c9 b7 20 bf 96 68 22 bf
       -0.7186618 -0.4823061 -0.62780434 -0.63440835
000040 f1 2b 00 bf ba 62 6e bf 6f 7f 34 bf 80 9f e5 be
       -0.5006705 -0.93119395 -0.7050695 -0.4484825
000050 5a a9 28 bf 02 35 67 bf 80 9a 71 be f8 33 f1 be
       -0.6588341 -0.9031526 -0.23594093 -0.47109962
000060 22 4d d9 be bf 41 05 bf 3f b0 40 bf 8d e6 52 bf
       -0.4244166 -0.52053446 -0.7526893 -0.8238304
000070 ea 6e 27 bf db c1 48 bf 95 31 d7 bc 0e d7 66 bf
       -0.65403616 -0.784208 -0.02626876 -0.901719

arr_10 f4 [32, 32, 6, 6]
000000 ee 75 81 3b 67 ce 0d be ac c7 03 bd ae f2 6a bd
       0.003950826 -0.13848267 -0.032172844 -0.057360344
000010 65 2c 07 3f 0d 07 74 be b5 f5 be bc e2 5a e2 3e
       0.52802116 -0.23830815 -0.023310522 0.44209963
000020 9a 82 12 be e5 bf 0d be a3 69 73 3d e8 06 81 bb
       -0.14307633 -0.13842733 0.059426915 -0.003937591
000030 4d 90 32 3d 7f 51 8a bc 4f f8 22 be cf bc 0c 3e
       0.043594647 -0.016884563 -0.15915035 0.137439
000040 26 6f 64 be 84 60 3a 3d 73 e2 a1 3e 4b 56 de be
       -0.22308025 0.0455022 0.3161808 -0.4342521
000050 b5 8e 04 bd 72 e7 c1 3e 6d 19 a1 be a1 f4 06 3f
       -0.03236266 0.3787189 -0.3146471 0.52717024
000060 f9 c4 cb 3d e4 8f 3d 3e 1d 07 84 be 29 1a 8f 3e
       0.09949679 0.18511921 -0.25786677 0.27949646
000070 fe 23 b3 bb 20 73 e0 3e 20 22 89 bd 7d d6 0e be
       -0.005466937 0.43837833 -0.06695962 -0.13949008
000080 ce 9c 20 3e 4e 75 b5 3e 76 47 5b 3d de 42 1a 3d
       0.15684816 0.3544106 0.053534947 0.037661426
000090 18 ce ea 3d 2e bd 05 3e b8 cf af 3e e8 05 b6 3e
       0.114650905 0.13060448 0.34338164 0.3555138
0000a0 21 d1 db 3e 87 7a bd 3d 54 67 ad bb 4a a9 58 3e
       0.4293299 0.09251886 -0.0052918587 0.21158329
0000b0 6a 47 89 3e de 9c 6c bd 47 38 b0 3e 02 e5 9a 3c
       0.26812297 -0.057766788 0.34417936 0.018908028
0000c0 27 82 91 3e 73 f1 1a bc 07 22 8a 3c ce 6a 45 3d
       0.2841961 -0.00945698 0.016861929 0.04819756
0000d0 06 f6 6e 3e 04 e4 b4 3e 81 97 2f 3d 42 4b de 3d
       0.23336038 0.35330212 0.042869095 0.10854198
0000e0 ed 62 c0 bd a3 e8 1c 3d 08 10 f4 bd 89 99 1c 3c
       -0.093938686 0.038307797 -0.1191712 0.00955809
0000f0 25 cb e5 bd 32 2d 84 be 7d 57 2b 3c a9 40 31 3d
       -0.11220387 -0.2581573 0.010457871 0.043274555
000100 1e bc 54 be 10 c8 47 3d 5b b2 85 bd ca be 64 3e
       -0.20774886 0.04877478 -0.06528159 0.22338405
000110 b9 7e f6 3c 36 04 97 be 6c 09 cd bd ae cf 9a 3c
       0.030089723 -0.294954 -0.10011563 0.018897858
000120 d2 e2 07 bf 46 24 87 bd 09 91 3f bb 16 71 71 be
       -0.53080475 -0.065987155 -0.0029230735 -0.23578295
000130 fa 8c df bc e2 2b a2 be f0 2b 5f bd 27 b9 c3 bb
       -0.027288903 -0.31674105 -0.05448526 -0.0059729996
000140 22 61 b3 3e 01 51 da bb 61 4e fd 3e 29 40 8a be
       0.35035044 -0.0066624884 0.4947386 -0.27002075
000150 57 5f 34 bd a6 41 78 bd 2f b1 f1 3e ab b9 66 3d
       -0.044036236 -0.060609482 0.47205493 0.05632941
000160 c0 12 10 3e e2 3b 9f 3c 14 e5 9a 3d 11 44 95 3e
       0.14069653 0.019437734 0.075632244 0.29153493
000170 4c 73 ab 3e ed bb e0 bd ec 29 d4 3e d2 5a 61 bd
       0.33486402 -0.10973344 0.41438234 -0.055018254
000180 31 43 45 3d 8b 22 8b bd d3 41 83 3e 5a 32 ba be
       0.04815978 -0.06793698 0.25636157 -0.3636654
000190 62 09 60 3e 89 22 cf 3d 5e a5 34 3e 73 60 83 3e
       0.2187858 0.10114009 0.17641208 0.25659522
0001a0 97 a0 b6 3e bd b2 4e be 33 0d 7b be a1 1a 86 3e
       0.35669395 -0.2018537 -0.24516754 0.2619219
0001b0 3a 01 c8 be 96 cd 7a be 57 bb b3 be 71 47 18 bd
       -0.39063436 -0.24492487 -0.35103866 -0.037177507
0001c0 9f e3 0e 3d 59 f2 fa 3c 2b 3f 7f be 82 c6 17 bf
       0.034885045 0.030633138 -0.2492644 -0.59287274
0001d0 b4 1b e5 be 0d 56 a2 be 6b ff 25 be 2b 01 a5 3d
       -0.44747698 -0.31706277 -0.16210715 0.080568634
0001e0 08 99 1b bf 30 64 9d be 06 3a 47 3e 6f a7 0f 3e
       -0.6078038 -0.307405 0.19455728 0.14028715
0001f0 73 48 a4 3e 26 b4 44 3e c1 aa b9 be 5d 6a fc be
       0.32086524 0.19209346 -0.36263087 -0.492999
000200 15 26 52 3b bb 3d 1f bc e2 9e 03 3e 83 75 bf bd
       0.0032066156 -0.009719308 0.12853578 -0.093485855
000210 79 50 34 be f3 7f 11 3e a4 04 a9 3c 44 c7 1a 3d
       -0.17608823 0.14208965 0.020632096 0.03778769
000220 d8 5d ab 3e fd d3 b0 3e 29 6a eb 3e bf 35 51 be
       0.33470035 0.34536734 0.4597943 -0.20430659
000230 52 04 c0 3d 59 ab de 3e 33 6a 1f bd d3 2d 0d 3e
       0.09375824 0.43490103 -0.03891964 0.13787012
000240 02 10 27 bd 2c 69 19 3e 19 72 c7 3c 65 ef 81 3d
       -0.04078675 0.14981526 0.024346398 0.06344489
000250 38 bd f2 be 2c 5a 9a be 03 74 e3 3d 17 52 53 3e
       -0.47409987 -0.3014692 0.11106112 0.20636784
000260 b1 98 33 be 15 4b b6 bd 45 e5 a6 bd b3 2a f5 bd
       -0.17538716 -0.089010395 -0.081491984 -0.11971035
000270 37 68 c8 bc a9 8f 23 bb 6a 1d fc 3d 40 71 1f 3c
       -0.024463756 -0.0024957454 0.12310298 0.009731591
000280 09 36 39 bd c7 b3 82 3a e3 10 57 be d4 0d e1 be
       -0.045217548 0.0009971791 -0.21002536 -0.43955863
000290 82 dd fa bd 0f a2 b7 3d f5 9d ea 3d 91 88 ad be
       -0.122492805 0.08966457 0.11455909 -0.33893254
0002a0 f2 23 c7 be 6b 64 79 be a1 5f 34 be 02 59 00 be
       -0.38894612 -0.24354713 -0.17614605 -0.12533954
0002b0 d0 a8 8d bd c9 0d eb be ab 48 aa 3c 07 14 ec 3d
       -0.06916964 -0.45908955 0.020786604 0.115272574
0002c0 63 2e 61 bd aa f6 05 be ad f8 81 be b0 7b 9a be
       -0.05497588 -0.13082376 -0.25385037 -0.3017249
0002d0 74 f7 8f be 9a 63 c0 bd f4 80 0a be e7 29 0d 3c
       -0.2811848 -0.093939975 -0.13525754 0.008615947
0002e0 a2 71 07 be ad 94 c1 be 24 73 59 be 38 7d bd bd
       -0.13226941 -0.37808743 -0.21235329 -0.09252399
0002f0 b1 d2 90 bd b3 e3 fd 3d 55 7b 84 bd 7b 7c 0e 3b
       -0.07071436 0.12396946 -0.06468836 0.0021741677
000300 85 95 59 be bf 49 98 bd be a3 10 3e c4 09 a1 3d
       -0.21248443 -0.07435941 0.14124963 0.07863191
000310 07 de 9e 3d 8b 16 7c 3d 3b 56 8d 3e 0b 9e 23 bd
       0.07757192 0.061544936 0.2760485 -0.039945643
000320 d3 a9 3f 3e 16 a1 2b bd e3 00 14 bc 64 e2 42 be
       0.18717127 -0.04190167 -0.009033415 -0.19031674
000330 60 98 6f 3e 9f b3 8d 3c 92 32 86 3e 32 b5 20 3d
       0.2339797 0.017297564 0.26210457 0.0392353
000340 7b 27 fd 3d 64 7f 33 3e a6 9c f1 3d 57 6c c3 bd
       0.12361046 0.17529064 0.117974564 -0.095421486
000350 f7 34 5b 3e 81 b4 1a be 4b 0f 71 be ce cd a9 3e
       0.21406923 -0.1510792 -0.2354099 0.3316483
000360 93 cb d4 3e 68 4c 76 3d 94 ab 37 bf 2d 87 77 bf
       0.41561565 0.06013146 -0.7174618 -0.96690637
000370 03 76 69 be c8 de ee be 14 ad 83 3d e5 f9 3a be
       -0.22798924 -0.46654344 0.064294964 -0.1825939
000380 65 ad 3d bf c3 40 12 bf 20 5f ce be 25 6b 76 3c
       -0.74092704 -0.5713007 -0.4030695 0.015040194
000390 08 36 73 be 61 2d 5d bc 0f cf f5 be 5c 89 e7 be
       -0.2375108 -0.013499589 -0.48009536 -0.45221984
0003a0 55 7c 23 bf 0a 9e 03 bd 6e c9 c7 3e 95 35 51 3e
       -0.6386159 -0.03213314 0.39020866 0.20430596
0003b0 4a 82 0b bd f8 5f c8 be cb 36 aa be 3a 7d d6 be
       -0.0340598 -0.39135718 -0.3324493 -0.41892415
0003c0 06 b9 c7 bd 7d ad e5 bd ed dd de bd a5 dc 4c 3e
       -0.09752087 -0.11214731 -0.10882173 0.20006044
0003d0 50 5c ad 3e 7b 52 67 bd 1e ab 9a bd 16 ad ce 3b
       0.3385949 -0.056475144 -0.07552169 0.0063072545
0003e0 82 ab e5 bd ca 18 e6 3a 3f 54 10 3e 15 41 85 be
       -0.11214353 0.0017554995 0.14094637 -0.26026216
0003f0 4e 35 42 3e af 66 dd 3e c5 8c b2 3d 5f cf 96 3e
       0.18965647 0.43242404 0.08718256 0.29455087

arr_13 f4 [32]
000000 35 86 8b 3f 51 7f 70 3f 26 63 65 bf 01 f5 94 3d
       1.0900332 0.9394427 -0.89604414 0.07273293
000010 02 bc 84 3f d7 d3 83 3c 2a f7 7b be 37 cd a1 bd
       1.0369875 0.016092224 -0.24606004 -0.0790047
000020 f1 af b3 3f 88 e0 dd 3f 38 4c 14 bf 98 e6 27 bd
       1.4038068 1.7334146 -0.579288 -0.040991396
000030 b0 72 a9 3f 55 40 9f bf 5e 2b 5e 3f 48 3a c4 3f
       1.3238125 -1.2441508 0.86784923 1.5330286
000040 37 55 e5 3e 73 21 65 c0 52 dd 8e 3f 86 ba c3 3f
       0.44791576 -3.5801666 1.1161292 1.5291297
000050 11 ea a3 bd 6a ee d2 be 69 7d 2c 40 b1 09 9f 3f
       -0.08003629 -0.4119752 2.6951544 1.2424833
000060 e5 27 59 40 6a 5f a7 bf c3 16 2d bf 52 75 57 3f
       3.39306 -1.3075993 -0.67612857 0.8416339
000070 8e f6 86 bf 9a 45 8e bf 0f ef 88 be fa 7d 3e c0
       -1.0543993 -1.1114991 -0.26744887 -2.976439

arr_12 f4 [32]
000000 94 bd 78 3f 47 7b 88 3f 95 88 8d 3f 62 03 93 3f
       0.97164273 1.0662621 1.1057307 1.1485407
000010 3b 29 84 3f fd 06 71 3f 70 0a 73 3f ad 3e 6e 3f
       1.0325083 0.9415129 0.949378 0.93064386
000020 8c 02 7d 3f 95 c3 70 3f 9f 76 8c 3f 11 b4 6d 3f
       0.9883201 0.94048434 1.09737 0.92852885
000030 86 66 84 3f 68 c7 6e 3f a3 b7 8d 3f b2 64 70 3f
       1.0343788 0.9327302 1.1071666 0.9390365
000040 df 0b 95 3f 24 8d 5c 3f 25 0a 8c 3f 5d 32 87 3f
       1.1644248 0.86152864 1.0940596 1.0562245
000050 a1 d8 5a 3f 02 88 82 3f 22 af 84 3f 61 b5 8c 3f
       0.854868 1.0197756 1.0365946 1.0992852
000060 02 67 83 3f 16 b0 5c 3f 96 29 92 3f 04 1d 93 3f
       1.026581 0.86206186 1.1418941 1.149323
000070 b1 9a 74 3f a8 0b 7d 3f f7 77 78 3f 5a c6 46 3f
       0.9554854 0.9884591 0.9705805 0.7764641

arr_15 f4 [32, 32, 6, 6]
000000 0f 98 1d bd e0 f1 6f be c1 c1 1f 3c 11 1b 84 3e
       -0.038475093 -0.23432112 0.009750784 0.258019
000010 3a 3a 64 3d 43 81 7f 3d cb b7 a9 bd 64 bb b3 be
       0.05571959 0.062379133 -0.08287009 -0.35103905
000020 3a 75 62 be 96 62 84 bc bc c8 1c 3d 17 53 95 3d
       -0.22115031 -0.01616029 0.038277373 0.07291239
000030 19 de 70 3d 5d ea 88 3c 46 47 dc bd dd bb 31 bf
       0.05880556 0.016713316 -0.10755782 -0.6942728
000040 d0 2f 0a 3e 2e 98 2a 3e 1d b7 35 3e 5c 4d 71 3e
       0.13494802 0.16659614 0.17745633 0.23564667
000050 99 53 da be ec 6c 96 be 2b 35 a9 bb 62 cd cf bc
       -0.42641905 -0.29379976 -0.005163809 -0.025366489
000060 dc 22 4c be 8c 2f 9e bc 31 b7 3e 3e af af 9d 3e
       -0.19935173 -0.019309781 0.1862457 0.30798098
000070 1d 43 d4 3d ef ba 85 be 92 3e 64 bd e2 df a0 3d
       0.10364363 -0.26119182 -0.055723734 0.07855202
000080 1d 78 2a be 58 35 3b 3e 53 19 37 3e 16 22 9d bd
       -0.16647382 0.18282068 0.17880754 -0.07672517
000090 13 bc bb 3e 7a ac 8f be ea da 3c bf 8a 1a 2a bd
       0.36666927 -0.28061277 -0.73771536 -0.041529216
0000a0 84 c4 92 3d f5 fe ea 3e 87 88 8a be 36 34 5e 3e
       0.07166389 0.45897642 -0.27057287 0.21699604
0000b0 ae 11 10 bf ec 27 9a be 74 9f 28 3d 48 6e 9c 3e
       -0.5627698 -0.30108583 0.04116769 0.30552888
0000c0 63 bf b9 bd 5e 89 55 be 81 c3 2e be ff b5 16 bd
       -0.09069707 -0.20853183 -0.17066766 -0.03679466
0000d0 27 92 78 bd 63 48 ca bd 27 5c 71 be e8 b2 33 bd
       -0.060686257 -0.09877088 -0.2357031 -0.04387179
0000e0 b8 88 32 3d e5 79 3a 3e 43 b4 46 be c5 47 0e be
       0.043587416 0.18210562 -0.19404702 -0.13894565
0000f0 53 62 92 be b6 a2 f6 be 08 c1 a9 3e 59 05 9d 3e
       -0.2859064 -0.48171014 0.33155084 0.30668142
000100 18 23 03 3e 31 0c 6f be e2 01 c6 bb fc 92 ef 3d
       0.12806356 -0.23344494 -0.006042705 0.11697957
000110 eb 24 20 3d 0f 78 d6 3e e5 67 51 bd 7a c6 e1 3c
       0.039097708 0.41888472 -0.051124472 0.027560461
000120 59 b7 32 3e b8 86 79 be 60 ca 89 3d e2 bd c8 3d
       0.17452754 -0.24367797 0.06728053 0.09801842
000130 40 40 4d 3e 74 f1 39 be cd 95 cd 3c ae 63 f2 bd
       0.2004404 -0.18158513 0.025095845 -0.11835419
000140 9a e2 3b be 41 b6 a4 bd ca d9 e9 3c ab 76 ab be
       -0.1834816 -0.08042575 0.028546233 -0.33488974
000150 18 b4 3b 3e f7 66 64 bc 8f f7 72 bd 37 84 58 be
       0.18330419 -0.013940564 -0.05931812 -0.21144186
000160 9b 7a 86 bd 40 a6 5b be 33 2e 7a bc cd b9 a3 be
       -0.06566354 -0.21450138 -0.015269804 -0.31977692
000170 fe 67 1b 3f 94 db 44 3e 38 ff a5 3c 52 81 8c bd
       0.60705554 0.19224387 0.0202633 -0.068606034
000180 a5 51 40 be f8 98 0d be e2 91 4a 3d 51 00 fc bd
       -0.18781145 -0.13827884 0.04945553 -0.12304748
000190 a8 1f 7c 3e f6 17 7a 3d 41 26 c3 bd 29 eb af bd
       0.24621451 0.061058007 -0.09528781 -0.08589775
0001a0 b5 14 41 3d 48 b9 7e be 00 e6 6a be 38 48 e7 3d
       0.04713889 -0.24875367 -0.229393 0.112930715
0001b0 ef c8 0f be e1 fb bc 3e d4 7b 1a 3e cb 77 49 be
       -0.14041494 0.36910918 0.15086299 -0.19674604
0001c0 b0 dd 8c 3e 93 22 82 be f6 e6 a5 3e 86 9e d1 be
       0.27512884 -0.25417003 0.32402772 -0.40941256
0001d0 74 d2 9a be 86 de 40 be 5c 59 9b 3d 87 b9 21 3d
       -0.30238688 -0.18834886 0.07585403 0.039483573
0001e0 ec a0 06 3d 26 70 a6 be 91 e6 48 3d c5 71 bd bd
       0.03286831 -0.32507437 0.04904801 -0.092502154
0001f0 53 80 7f be 46 c6 93 3e af 25 60 3e 2a 96 f3 bd
       -0.24951296 0.28862208 0.21889375 -0.11893876
000200 2b ac 39 3e 6b 85 c8 3e 99 60 0c bd 8d 11 6d be
       0.18132083 0.3916429 -0.03427181 -0.23151226
000210 28 97 98 3e 0e 00 45 be ae a4 0d 3e bd 16 0d 3e
       0.29802823 -0.19238302 0.13832352 0.13778205
000220 9d e1 e6 bd 3f 7a 0a 3d 05 5e aa 3d 15 4f b2 3b
       -0.11273501 0.03380799 0.08318714 0.005441556
000230 21 90 6c 3d 9b e9 94 bd ae 84 d1 bc 1b 98 38 3e
       0.05775464 -0.07271119 -0.025575962 0.18026774
000240 30 70 05 3e a5 88 76 bc 8b 1a 8e be 06 ba 6a be
       0.13031077 -0.015047227 -0.27754626 -0.22922525
000250 3e e0 a7 be ee 07 cc be e8 2a ed 3d 1c 57 aa be
       -0.3278827 -0.398498 0.11580449 -0.33269584
000260 fd e1 eb bb c4 6f 80 3c 76 dc 22 3c ed 65 3e 3e
       -0.0071985708 0.015678294 0.009940257 0.18593569
000270 b3 e7 9d 3c 9f f0 98 3e ed 9d 2e 3e 9d 65 78 be
       0.019275522 0.2987108 0.17052431 -0.24257512
000280 2f ad 53 be 65 80 00 3d 40 89 fb be b5 a5 24 3d
       -0.20671533 0.031372447 -0.4912815 0.040197093
000290 eb 04 90 3e 66 71 13 3e e5 f1 a8 3d 03 b1 26 3e
       0.28128752 0.14398727 0.08249263 0.16278462
0002a0 de f1 74 bc b5 93 cf bd d1 e8 9b 3e 5f b4 88 3c
       -0.014950244 -0.10135595 0.30451062 0.01668757
0002b0 74 32 b3 b8 a7 56 b4 bd cd 1b b4 bd 64 4d 2d be
       -8.544783e-05 -0.0880559 -0.08794365 -0.16924053
0002c0 b1 5e d0 bd b6 df 46 3d ea 76 f2 bd ec aa dd 3c
       -0.10174311 0.04855319 -0.11839087 0.027059041
0002d0 e9 97 0e be bf c5 4e bd 4e 95 fd 3d ad 43 b3 be
       -0.13925137 -0.050481554 0.12381993 -0.3501257
0002e0 56 8e 80 3e 5f 88 04 3e 29 42 b9 3e 31 6a c4 bd
       0.25108594 0.12942646 0.3618329 -0.09590567
0002f0 ba 61 44 3d 8f 08 f5 bc ae e4 d9 bc e0 a2 9b 3e
       0.04794476 -0.029911308 -0.0265983 0.303977
000300 66 54 80 bd 36 30 21 3b dd 6c 5c 3d 5b da 22 39
       -0.06266098 0.0024595386 0.053814758 0.00015530868
000310 93 6c 1a 3e eb 23 25 3c 9b 00 0b bf 3b dd 15 be
       0.1508048 0.010079364 -0.542978 -0.14635174
000320 04 e8 b5 be 20 90 3c 3e 9f f1 4f 3e 47 58 0b 3e
       -0.35528576 0.18414354 0.20307015 0.13607894
000330 e5 cf 6e be ce 16 eb bd 83 45 10 be bc 2e 00 3e
       -0.23321493 -0.11478959 -0.14089017 0.12517828
000340 b4 7f 2e bd 5e 9d f5 bd 5a ac e6 bd ce 96 28 be
       -0.042602256 -0.11992906 -0.11263342 -0.16463777
000350 9f 42 99 be 37 89 62 3e 19 20 dd be 9c 7d 21 bf
       -0.2993364 0.22122656 -0.4318855 -0.6308229
000360 b7 dd 6d be d8 5a f0 3d ec bd d6 be 2d 0c 2b be
       -0.23229109 0.11736077 -0.41941774 -0.16703863
000370 6c 5b 75 3d f5 45 31 3e 69 a3 1f 3e 75 ea 2f be
       0.05990164 0.17311843 0.1558968 -0.17179282
000380 f2 ce ae bd fa 07 af be c1 d6 3e 3c da bc 03 3e
       -0.085355654 -0.34185773 0.011647881 0.1286501
000390 9f 6a 5c 3e 28 66 4c bb 1b a7 57 39 b3 74 97 be
       0.21525048 -0.003118882 0.0002056625 -0.29581222
0003a0 6b 10 7a 3e 7c 36 d2 bc 6b ed 63 be e4 7a eb bd
       0.24420325 -0.025660746 -0.22258537 -0.11498049
0003b0 5b cc db 3c 09 58 b2 be 3d b7 46 3c 44 fc 66 be
       0.026830843 -0.3483279 0.012128648 -0.22557169
0003c0 8e 96 3d 3e 3a 7d 8b 3d a5 50 be bd d6 e4 b3 bd
       0.18514463 0.068109944 -0.092927255 -0.08783881
0003d0 03 10 83 bd e4 67 a1 3b ec 33 57 be 18 cf ee bd
       -0.06399538 0.004925715 -0.210159 -0.11660594
0003e0 26 ad 0b 3d 2b f7 a5 3d a1 4e f7 bd 12 0a 26 be
       0.034100674 0.08103784 -0.12075544 -0.16214779
0003f0 01 e4 15 be f7 cc 3e 3e ec ab e7 3d 40 95 00 bf
       -0.14637758 0.18632875 0.11312088 -0.5022774

arr_14 f4 [32]
000000 70 72 03 3e 12 96 4c 3e 8a 65 2f 3e 1b cb 2b 3e
       0.12836623 0.19979122 0.17128578 0.16776697
000010 dc 73 3b 3e 35 f2 57 3e 01 9c 4a 3e a7 54 4e 3e
       0.18305916 0.21088488 0.19786073 0.2014948
000020 08 e7 4d 3e d7 f0 65 3e 02 ff 40 3e ca 5a 42 3e
       0.20107663 0.22455154 0.18847278 0.18979946
000030 8a a6 3c 3e 38 a5 5c 3e e6 9f 37 3e db b4 3c 3e
       0.18422905 0.21547401 0.1793209 0.18428366
000040 33 ba 39 3e d3 93 a8 3e 37 b6 4b 3e 2f 0d 31 3e
       0.18137436 0.3292528 0.19893728 0.17290185
000050 15 65 5c 3e 86 05 28 3e 86 80 25 3e 40 36 1c 3e
       0.21522935 0.16408357 0.16162309 0.1525507
000060 f0 cd 26 3e 4d b4 3a 3e bb 19 40 3e 8e 1c 3e 3e
       0.16289496 0.18232842 0.18759815 0.1856558
000070 d0 43 52 3e 71 30 5b 3e 8c 1b 0c 3e a0 f7 83 3e
       0.20533681 0.21405198 0.13682383 0.2577486

arr_17 f4 [32]
000000 98 9d 56 3f 48 c1 8a 3f 2d 3a 5c 3f 87 95 5d 3f
       0.8383422 1.0840235 0.8602627 0.86556286
000010 fa da 80 3f 51 0c 54 3f e4 29 82 3f 26 92 5e 3f
       1.0066826 0.82831293 1.0169034 0.86941755
000020 e0 19 57 3f 2e d2 70 3f ea 77 90 3f fa bf 6d 3f
       0.8402386 0.9407071 1.1286595 0.9287106
000030 91 7a 73 3f d2 be 80 3f 7a 3e 94 3f 98 fb 68 3f
       0.95108896 1.0058234 1.1581566 0.910089
000040 c2 be 45 3f d9 d3 79 3f 47 2d 80 3f 1f eb 50 3f
       0.772442 0.9758888 1.0013818 0.81608766
000050 b7 c6 4b 3f 80 ed 92 3f 82 f0 5b 3f c7 8d 71 3f
       0.7960009 1.1478729 0.8591386 0.9435696
000060 6e 47 7f 3f d0 a5 76 3f 69 c2 82 3f 84 e5 79 3f
       0.9971837 0.9634676 1.0215579 0.9761584
000070 39 9c 82 3f 61 b8 7a 3f 7b 90 7e 3f 25 a9 8c 3f
       1.0203925 0.9793759 0.9943921 1.0989119

arr_16 f4 [32]
000000 d0 24 ab be 8d ef 61 bf b5 48 c1 be 8e 34 0d bf
       -0.33426523 -0.8825615 -0.37750784 -0.5515832
000010 d6 9b 3b bf a4 10 f1 be ba e8 34 bf ed 72 31 bf
       -0.7328466 -0.47083008 -0.7066761 -0.6931599
000020 c7 f7 d2 be 88 1f 8c be 1f 33 80 bf 9d 6a 14 bf
       -0.41204664 -0.27367806 -1.0015601 -0.5797518
000030 8e 2a 29 be 73 fe 38 bf c0 65 91 bf 4e 06 02 bf
       -0.1652014 -0.7226326 -1.1359177 -0.5079087
000040 5e 3a 02 bf 2b d1 c5 be 81 05 23 bf e6 9b e6 be
       -0.5087031 -0.38636145 -0.63680273 -0.45040816
000050 a8 21 fb be ca 74 9a bf 17 f8 2b bf c0 4b ae be
       -0.49049115 -1.2066891 -0.6717543 -0.34042168
000060 ea e0 17 bf 9c 82 9d be 1d cf a8 be 77 d8 28 bf
       -0.59327567 -0.3076371 -0.32970515 -0.659553
000070 1f 31 84 bf 4d 81 3a bf c2 af 2f bf b9 ff a9 be
       -1.032749 -0.7285355 -0.6862756 -0.33202913

arr_1 f4 [32]
000000 62 97 52 bf 79 b6 0f bf 08 d5 60 3d 17 8f c2 3e
       -0.8226224 -0.56137806 0.054890662 0.37999794
000010 02 a9 01 bd 4b a8 59 3e 79 34 c2 be d8 00 31 bf
       -0.03165532 0.21255605 -0.37930658 -0.6914191
000020 d5 ac cd be c1 e4 99 be 77 ae fc be 3d cc 5d be
       -0.40170923 -0.30057338 -0.49351856 -0.21659942
000030 28 73 92 be fc db cc be 7f 41 31 3e d5 b2 72 be
       -0.28603482 -0.40011585 0.17310141 -0.23701032
000040 fe 07 25 3e 4c 32 37 bf 76 ad fc be 8c 76 c8 3d
       0.1611633 -0.7156112 -0.4935109 0.09788236
000050 d9 76 33 bf fb ac 38 bf 29 f3 4a 3e 03 84 de be
       -0.7010322 -0.7213895 0.1981932 -0.43460092
000060 90 02 ed be 31 af b6 3e 6d a9 4e bf bc 40 1a be
       -0.46291018 0.35680535 -0.80727273 -0.15063757
000070 3e 6f 1a bf fd 0d 0e bf b2 23 0b be 55 82 16 bf
       -0.6032599 -0.55490094 -0.13587835 -0.5879262

arr_0 f4 [32, 1, 6, 6]
000000 3c 7f 79 3e 82 73 5b 3d 90 c3 88 be 49 79 0d bd
       0.24364942 0.053576954 -0.26711702 -0.034539495
000010 ab 63 67 bd 0a a5 65 3e cd b0 bd 3b 84 0a 56 3d
       -0.056491535 0.22426239 0.0057888986 0.052256122
000020 d5 dc 92 bd ac 60 cf be e0 48 d8 be 8c 78 7f 3e
       -0.071710266 -0.40503442 -0.422431 0.24948329
000030 bd 47 b7 3d d4 5c 9a 3d 9c 5c fc 3e 41 6c 6f 3d
       0.0894923 0.07537237 0.49289405 0.05845285
000040 b0 38 2d bf 5e 52 9f 3d 40 b2 02 bd 2c f4 32 be
       -0.67664623 0.07779382 -0.031908274 -0.17475957
000050 57 86 a3 3d 76 a0 6f 3e 0c 93 9f bd d1 b7 c3 be
       0.07984608 0.23401055 -0.07791719 -0.38226178
000060 d7 6f 49 bd 63 28 21 3b b5 12 91 bc 57 d8 5e be
       -0.049178924 0.0024590723 -0.017709116 -0.21762215
000070 72 c8 3d bf 85 74 59 be 76 85 cd bc 68 87 2e be
       -0.7413398 -0.21235855 -0.025088053 -0.17043841
000080 e9 99 d7 bc 4f 90 0a bd 52 59 90 bc d0 ce bb bc
       -0.026318507 -0.03382903 -0.017620716 -0.022925764
000090 0b f4 44 be 97 f3 a9 3f 6b aa 80 bd 69 64 bd bd
       -0.1923372 1.3277463 -0.06282505 -0.09247667
0000a0 23 84 0a be 45 0b d1 bc e2 0b ea bd 99 31 81 bd
       -0.13526969 -0.025518069 -0.11428048 -0.06308288
0000b0 62 52 a0 bd 21 1a d1 bd db 49 b1 bd e7 7a 95 39
       -0.07828213 -0.10210062 -0.08656665 0.00028511064
0000c0 64 77 8e bd 2a 2b cb bd 34 6c 19 ba 55 77 80 3c
       -0.06956366 -0.09920342 -0.00058526103 0.015681902
0000d0 54 d1 29 bd 83 a5 cf 3d 91 56 a7 3c 94 a5 3a bd
       -0.041459396 0.10138991 0.02042702 -0.045568064
0000e0 ff 5d 79 bc 27 ad 14 3d af f2 59 bc cb 83 de bc
       -0.015220164 0.036297943 -0.013302489 -0.027162453
0000f0 5d 98 33 bd 12 7a aa bd b7 c0 9b 3d e4 9b 09 3d
       -0.043846477 -0.08324064 0.07605117 0.033595935
000100 f1 4a a0 bc 30 29 46 bc 43 03 51 3c 6d 46 13 bd
       -0.019566985 -0.012094781 0.012757125 -0.035955835
000110 63 cf d4 3c 0c 95 97 3d 25 8d 48 3d dc f5 b0 bc
       0.025977796 0.07401475 0.04896273 -0.02160161
000120 45 5d 9b 3d a0 56 49 3d ef 86 dd 3c 8f 9b 8a 3d
       0.07586149 0.049154878 0.02704188 0.06767952
000130 ef f7 b6 3e 79 14 d9 3e f9 b4 0a 3c 90 e5 03 bd
       0.35736033 0.42398432 0.008465999 -0.03220135
000140 aa f1 c6 bb 7e dd 13 be d8 a8 83 3e 34 78 f5 3e
       -0.006071289 -0.14439961 0.25714755 0.4794327
000150 ba c2 f8 bc 7e a3 74 bd 7a e1 b5 be 44 6c 49 be
       -0.03036629 -0.05972623 -0.35523587 -0.19670206
000160 b9 b4 61 3e 73 85 a7 3e 4c ba 87 3c 43 7e 99 bd
       0.22041596 0.32719 0.016568325 -0.07494786
000170 25 0c 07 bf 72 ab 7e be 30 6b 2b 3e 99 6d 62 3e
       -0.52752906 -0.24870089 0.16740108 0.2211212
000180 59 91 47 3c be 2d 8e bd 82 64 b3 be e7 13 67 be
       0.01218065 -0.069423184 -0.3503762 -0.22566186
000190 93 69 c2 3d 13 6c 0f 3e 8f 00 5b 3c 73 cf bc bd
       0.09492793 0.14006071 0.013366832 -0.09219255
0001a0 f5 f1 1b be 71 1b 05 be 5a de 7a bc 95 af 49 3c
       -0.15229018 -0.1299875 -0.015311802 0.012309928
0001b0 d3 d8 9d be d0 a9 9d bd 27 22 cb bd 04 b2 0c bd
       -0.30829486 -0.07698405 -0.099186234 -0.034349456
0001c0 77 a7 39 be c4 a4 00 be ab 2f 28 be 4a 63 5d be
       -0.18130289 -0.12562853 -0.16424434 -0.21619907
0001d0 4e f9 25 3e a1 64 03 3e f9 ee 6c 3e 9f 29 67 3d
       0.16208383 0.12831356 0.23138036 0.056436177
0001e0 8f dc 23 be 86 b9 f3 bc 81 fe 49 3e 4b 56 b9 3f
       -0.16002105 -0.02975155 0.19725992 1.447946
0001f0 dd cc ab 3f b7 79 1f 3e e7 06 52 bc b3 11 12 bd
       1.3421894 0.15573774 -0.012819028 -0.03566141
000200 47 9d 41 3e 94 17 f1 3c bb 1b 1c 3f b8 f4 3a 3e
       0.18907653 0.029430188 0.60979813 0.18257415
000210 16 da f0 3d 92 27 45 3d a7 0f 3b 3d 6f 40 5c bd
       0.117603466 0.04813344 0.045669224 -0.053772386
000220 13 14 11 3c 3f 2e 16 bd bf 62 ce 3c 0d 48 af 3d
       0.008854884 -0.036665197 0.02519357 0.085586645
000230 be 6b b9 bc b3 e6 36 be a4 4d 7c 3d af c7 40 bd
       -0.022634383 -0.17861442 0.06159748 -0.047065433
000240 40 ae 26 3d 84 87 16 3d a0 82 94 bc d6 34 a9 bd
       0.04069352 0.03675033 -0.018128693 -0.08262031
000250 a2 4d 82 3c 7e 6a 63 bc 96 81 48 bd 93 50 eb bb
       0.015906159 -0.01388037 -0.048951708 -0.007181236
000260 1a 0d 78 bd de fc 92 3d 83 be fc 3e 06 15 0c 3d
       -0.06055937 0.07177137 0.493641 0.034199737
000270 cf c3 48 3c bf c3 6f be 7b 2a cf 3c ee 3a c4 3d
       0.012253716 -0.23414515 0.025288811 0.095815524
000280 0a 98 5e 3e 01 4f 4a bd 6d d6 45 3d 46 99 2d bf
       0.21737686 -0.04939175 0.048300195 -0.67812
000290 dd be 2b be 70 e4 1b 3e 13 80 8e 3e 0d aa 97 bd
       -0.16772027 0.1522386 0.27832088 -0.074054815
0002a0 a7 36 1c 3d 21 25 aa be dd 67 b1 be 3c bc 02 3e
       0.038138058 -0.33231452 -0.34649554 0.12767118
0002b0 24 0f 0c 3f dd d0 33 be f1 07 4d 3d 8b 8c d6 3b
       0.547106 -0.17560144 0.0500564 0.0065475157
0002c0 dd 16 fe bd dd 38 b7 bc 87 1d 26 3e e9 7a 6f 3d
       -0.124067046 -0.022365982 0.16222201 0.058466826
0002d0 eb b1 af bd 9b 6e b4 bc ed cf f1 bc 81 2c 4d 3d
       -0.08578857 -0.022025397 -0.029518092 0.05009127
0002e0 f5 fb 8c bd bf f1 8d bd b3 16 20 be 0b 3f cd 3b
       -0.068839945 -0.06930875 -0.15633659 0.006263619
0002f0 6b 65 cd bd 5f 11 dd 3d 7c 29 29 3d 14 5e e2 3c
       -0.100291096 0.10794329 0.04129933 0.02763275
000300 b1 75 4c be 82 81 d3 bb 6c d1 8f 3f c5 ca b0 3e
       -0.1996677 -0.0064546475 1.1235785 0.345297
000310 6a a3 88 bd a9 bd c8 bd 87 0a b7 bd 7a a3 77 3e
       -0.06671794 -0.098018 -0.08937555 0.24183455
000320 70 93 2a 3f fe c2 92 3f 3b 53 0f be 3f 8c b2 bb
       0.6663122 1.1465757 -0.13996594 -0.0054488475
000330 11 e8 0e be 9c 6c b7 3e be b9 28 3e 2c 1a e0 3c
       -0.13955714 0.3582505 0.16477105 0.02735623
000340 d9 3e 66 3c be c3 42 3d a4 b8 4d be cb 93 96 bd
       0.01405307 0.047549956 -0.20089966 -0.07352408
000350 c0 88 87 3f 09 93 fd 3d c7 8a 57 3d 3e b3 c2 bd
       1.0588608 0.1238156 0.052622583 -0.09506844
000360 8d 7b 1e bd b3 a8 00 3d 04 ff 5a 3e dd 63 1d 3e
       -0.038692046 0.031410884 0.21386343 0.15370126
000370 24 c2 c8 3d cc be 25 3d 8f f4 99 be fe a1 e8 bd
       0.098026544 0.04046516 -0.30069396 -0.113590226
000380 55 3f 9b 3d a7 a5 25 3e e3 b9 bd 3d ae 52 b6 3d
       0.07580439 0.16176473 0.09263971 0.08902489
000390 92 13 95 be 8a c3 c6 be 19 1a 39 3d d4 db d3 3b
       -0.29116493 -0.3882106 0.045190904 0.0064654145
0003a0 08 0d 6b bd 8e 73 80 3d 0f cb 5f be b6 d0 d2 be
       -0.057385474 0.0627204 -0.21854804 -0.4117486
0003b0 a0 fe 0c bf d7 2a 9b be 4c 86 9f be 39 fc 82 be
       -0.55076027 -0.30306122 -0.31157148 -0.25583056
0003c0 d9 b0 a6 3e 3e 3b 25 bd 20 b2 aa 3d d6 a3 2c be
       0.325568 -0.0403397 0.08334756 -0.16859373
0003d0 64 4d c3 be b2 be 01 bf dc 67 6e 3d 48 c4 5c 3d
       -0.38144982 -0.506816 0.058204517 0.053898126
0003e0 10 94 01 3e e3 b7 9d 3e da 8d 2a 3d 2e fa 93 bd
       0.12654138 0.30804357 0.041639186 -0.07225452
0003f0 f9 bc 85 3d 32 bb 6b 3d 4f b3 23 bd c6 3f ac 3d
       0.06530184 0.05755157 -0.039965924 0.08410601

arr_3 f4 [32]
000000 20 cb cd bf c4 34 4f 3e ae 06 13 3e 01 3e 21 40
       -1.6077614 0.20234972 0.14358017 2.5194094
000010 70 9c 48 3d b6 13 40 40 af 81 df bf cc ba 8d be
       0.048977315 3.001203 -1.7461451 -0.27681577
000020 5a 42 36 c0 1d fd 8c 3e ef 44 3b 3e 39 d7 ab 3e
       -2.8477998 0.2753686 0.18288015 0.3356264
000030 c7 df 87 3d 90 b6 d9 3e ab 5e 01 3e 40 bc 20 3d
       0.06634479 0.42522097 0.12633769 0.03924203
000040 e7 c1 7d 3f f3 19 98 bc 95 f9 43 3e 11 49 5d 3e
       0.99123996 -0.018567061 0.19138177 0.21609904
000050 fa 5a 02 bc 22 5b 2d bf b6 d9 a9 3f 4e 12 d0 3d
       -0.007956261 -0.6771718 1.3269565 0.10159741
000060 72 f2 09 3d 8b 6b 36 3e 0e 5a b5 bd da 2e 71 3d
       0.03367848 0.17814462 -0.08855067 0.05888257
000070 72 1d a4 bf 8a 71 4b 3d 8b 13 f3 be 7d 30 94 3d
       -1.2821486 0.049668826 -0.47475848 0.07235811

arr_2 f4 [32]
000000 ba 6d 31 3f 69 69 61 3f 5e c7 0e 40 50 c7 a8 3f
       0.69308054 0.8805147 2.2309184 1.3185825
000010 a4 d0 93 3f a1 78 99 3f 73 7b 41 3f fc 7f c7 3e
       1.1548047 1.1989938 0.75578994 0.38964832
000020 be 79 1a 3f 2c b6 41 3f 36 fd 88 3f 40 4f 1b 3f
       0.60342014 0.756686 1.0702274 0.606678
000030 71 05 bb 3f 34 ef bc 3f 39 b9 ec 3f 0c 72 09 3f
       1.4611036 1.4760499 1.8494025 0.53689647
000040 8b ba 80 3f 1a b9 03 3f 80 aa 82 3f b9 47 f4 3f
       1.0056928 0.5145432 1.0208282 1.9084388
000050 76 32 d5 3e 8e e3 1a 3f 01 dc 7f 3f e1 c3 7f 3f
       0.4164006 0.6050347 0.99945074 0.9990826
000060 27 75 3d 3f 4d ca 04 40 f9 db 55 3f c9 85 14 40
       0.74006885 2.0748475 0.83538777 2.3206656
000070 9b d5 1c 3f 55 4e 11 3f 11 a2 09 3f 13 b5 5b 3f
       0.61263436 0.5676015 0.5376292 0.8582317
