pretrained_model/ICVL_pretrained/params/-1_en_params.npz (npz, 15466 bytes, 6 tensors)

arr_1 f4 [40]
000000 50 64 90 3e cc ca 25 bd 3d d6 ac bd 53 40 f7 3e
       0.28201532 -0.040476605 -0.084393 0.48291263
000010 64 78 cc 3e 45 a5 0f 3f a3 ab 31 3e 91 10 cc bb
       0.399356 0.56111556 0.1735063 -0.006227561
000020 3c a7 98 3d db e9 00 3f 9b 8e 09 3e fb 62 83 3d
       0.074537724 0.50356835 0.13433306 0.064153634
000030 fe 00 a8 bd cd 7c 69 3e f1 ff ea 3d f7 c8 3a 3e
       -0.08203314 0.22801514 0.11474598 0.18240725
000040 00 c6 a2 3e e3 09 a5 3e fc 75 21 bd 23 18 8f bd
       0.31791687 0.32234105 -0.03941916 -0.069870256
000050 33 f1 fb bc 84 9c 49 be ba 52 2a 3d 55 dc 7d 3e
       -0.030754661 -0.19688612 0.0415828 0.24791081
000060 3a a5 b8 3d fd e0 5d be ae 4c 14 bb cc ee 6d 3e
       0.090158895 -0.21667857 -0.0022628712 0.23235625
000070 5b 6e 3b 3e 87 66 a1 bd e1 df 55 bd 25 df aa bd
       0.18303816 -0.07880884 -0.05221546 -0.08343343
000080 e4 b6 23 be d5 6d e4 bc 7a c1 da bd a9 80 5b 3e
       -0.15987736 -0.027884403 -0.10681434 0.21435799
000090 b4 5b b7 bd 16 3f e9 3d 00 00 00 00 fe 44 54 3d
       -0.08953038 0.11388986 0.0 0.05182361

arr_0 f4 [48, 40]
000000 62 5c 64 2f 12 6f be 2f c2 ea 01 2f 15 e7 20 2f
       2.07693e-10 3.463972e-10 1.1815884e-10 1.4634012e-10
000010 f1 5d 39 af c2 40 53 2e f6 e9 0a 30 a6 d1 f5 ad
       -1.6859027e-10 4.8033362e-11 5.0536586e-10 -2.7946378e-11
000020 d2 42 d8 2e df 99 e8 2f c0 da 37 ae bc 1a 4a 30
       9.8344125e-11 4.2309886e-10 -4.180367e-11 7.3525164e-10
000030 97 19 a4 b0 23 5e cd 30 4c 04 8e b0 5e c1 0d 31
       -1.1939844e-09 1.4942468e-09 -1.0333081e-09 2.0628117e-09
000040 44 2c 83 b0 88 54 28 31 e2 97 5b b0 77 5e 8b 31
       -9.544086e-10 2.4495268e-09 -7.9887574e-10 4.056172e-09
000050 0a 59 3b 2f 94 00 55 31 49 69 b7 b0 6b 3b d5 af
       1.7039184e-10 3.0995908e-09 -1.3344926e-09 -3.8786693e-10
000060 1f 4a 0b 31 33 de 42 31 53 e1 c1 30 c2 26 ff 30
       2.0269295e-09 2.8357021e-09 1.4106639e-09 1.8564708e-09
000070 0e 62 3f 2f d9 c5 ee 2f d8 ab 9a 31 50 5a fb 30
       1.7406185e-10 4.3432527e-10 4.5015263e-09 1.8288322e-09
000080 d7 b7 ae b2 77 60 d4 b1 01 0a f8 b1 28 93 c2 b1
       -2.0339867e-08 -6.180979e-09 -7.2188873e-09 -5.662873e-09
000090 5c bf 39 b2 cb 07 9f b2 36 3d ae b2 5b 4b 0d b3
       -1.0811927e-08 -1.851358e-08 -2.0284102e-08 -3.2897656e-08
0000a0 00 00 00 00 00 00 80 33 00 00 e0 b3 00 00 c0 32
       0.0 5.9604645e-08 -1.0430813e-07 2.2351742e-08
0000b0 00 00 28 34 00 00 ec 33 00 00 00 00 00 80 f7 33
       1.5646219e-07 1.09896064e-07 0.0 1.1525117e-07
0000c0 00 00 ca 33 00 00 e0 32 00 00 23 b3 00 00 a8 33
       9.406358e-08 2.6077032e-08 -3.7951395e-08 7.8231096e-08
0000d0 00 00 30 b4 00 00 30 b4 00 00 28 34 00 00 44 34
       -1.6391277e-07 -1.6391277e-07 1.5646219e-07 1.8253922e-07
0000e0 00 00 c0 33 00 00 34 34 00 e0 a9 35 00 00 98 34
       8.940697e-08 1.6763806e-07 1.2656674e-06 2.8312206e-07
0000f0 00 68 12 35 00 00 50 32 00 d0 e5 35 00 f0 8a 34
       5.454058e-07 1.21071935e-08 1.7122366e-06 2.5879126e-07
000100 00 00 50 b1 00 d8 c0 35 00 90 3a 35 00 60 fb 34
       -3.0267984e-09 1.4367979e-06 6.9499947e-07 4.6822242e-07
000110 00 00 d7 33 00 04 9e b4 00 70 a9 35 00 00 82 34
       1.0011718e-07 -2.9432704e-07 1.2624077e-06 2.4214387e-07
000120 00 00 5e 34 00 00 0e 33 00 48 d0 35 00 48 ce 35
       2.0675361e-07 3.306195e-08 1.5518162e-06 1.5369151e-06
000130 00 d8 ee 35 00 06 57 36 00 c0 4e 36 00 51 84 36
       1.7795246e-06 3.204099e-06 3.080815e-06 3.943336e-06
000140 00 00 00 00 00 00 00 b3 00 00 80 b3 00 00 00 b3
       0.0 -2.9802322e-08 -5.9604645e-08 -2.9802322e-08
000150 00 00 00 00 00 00 80 32 00 00 00 b4 00 00 f8 33
       0.0 1.4901161e-08 -1.1920929e-07 1.15484e-07
000160 00 00 88 33 00 00 a0 33 00 00 29 b4 00 00 00 34
       6.3329935e-08 7.4505806e-08 -1.5739352e-07 1.1920929e-07
000170 00 00 a0 33 00 00 c0 33 00 00 40 33 00 00 80 33
       7.4505806e-08 8.940697e-08 4.4703484e-08 5.9604645e-08
000180 00 00 20 34 00 00 20 34 00 00 93 35 00 00 b0 34
       1.4901161e-07 1.4901161e-07 1.0952353e-06 3.2782555e-07
000190 00 a0 1f 35 00 00 00 00 00 00 c4 35 00 00 fb 33
       5.9464946e-07 0.0 1.4603138e-06 1.1688098e-07
0001a0 00 00 70 33 00 40 ab 35 00 00 42 35 00 40 40 35
       5.5879354e-08 1.2759119e-06 7.227063e-07 7.1618706e-07
0001b0 00 30 eb 34 00 40 51 34 00 40 89 35 00 80 6f 35
       4.3807086e-07 1.9487925e-07 1.0225922e-06 8.92207e-07
0001c0 00 00 9b b5 00 00 00 34 00 40 6a 35 00 80 75 35
       -1.15484e-06 1.1920929e-07 8.7264925e-07 9.1455877e-07
0001d0 00 00 77 34 00 40 cc 35 00 80 1d 36 00 b0 96 36
       2.3003668e-07 1.5217811e-06 2.346933e-06 4.4908375e-06
0001e0 20 51 35 be 00 b6 19 be 1d be c2 bd 05 d0 e9 bd
       -0.17706728 -0.15010834 -0.095089175 -0.1141663
0001f0 59 d9 8a bd 85 00 58 be 48 6f a5 bd e2 b4 f0 bd
       -0.06779737 -0.21093948 -0.08077866 -0.11753251
000200 6d fc f3 bd c8 2f 34 be f1 48 5f be a0 b2 32 3d
       -0.11913381 -0.17596352 -0.21805169 0.04362738
000210 f4 ed 99 3e 0e cb de bc 54 de f7 3d 31 f4 42 3d
       0.30064356 -0.027196433 0.121029526 0.04759616
000220 34 36 63 3c a7 90 bc 3c 5d dc cd bd 6b 81 f2 3d
       0.0138679035 0.023018194 -0.100517966 0.11841091
000230 36 e5 c8 3c 07 48 13 3d 4b 87 ee bc 31 bc 9d be
       0.024523359 0.035957363 -0.029117247 -0.3080764
000240 f6 09 24 be 56 b4 39 bd 53 6d 64 bd a0 11 23 be
       -0.16019425 -0.045337997 -0.055768322 -0.15924692
000250 38 1d bf 3d a3 e3 1f bd aa 69 f6 bc 4f 77 48 bc
       0.09331745 -0.03903545 -0.030079681 -0.012235477
000260 0b c8 ae bb 9d ba ab bd 74 ec 55 3d 0b bd c4 bd
       -0.0053339056 -0.08385203 0.052227452 -0.096063696
000270 70 8d 4a bf 73 7e e3 3d b1 64 1b bd 25 a2 3d bd
       -0.79122066 0.11108103 -0.037937824 -0.04629721
000280 2a f2 92 bb 93 de a1 bb 08 d2 92 3c 3d 21 18 be
       -0.0044844346 -0.004939863 0.017922416 -0.1485643
000290 cd 68 78 bc 7e 61 3f 3e 0b b9 da bd 4a 7b dd bd
       -0.015161705 0.18689534 -0.106798254 -0.10814531
0002a0 4a f3 e3 3b 36 1c ec bd 6a f3 09 bd c5 55 bd bd
       0.0069564926 -0.11528818 -0.033679403 -0.09244875
0002b0 4a 01 46 3d 4d 64 c6 bd 62 fa 30 be 13 b7 29 be
       0.048341073 -0.096870996 -0.17283013 -0.16573744
0002c0 0e 5a bb 3d 59 19 09 be 38 c3 7b 3d ca 0c c2 3d
       0.09148036 -0.13388576 0.061465472 0.094750956
0002d0 fa d4 da bd 6f c5 68 be 6d cf ae 3e fd da 10 be
       -0.10685153 -0.22731565 0.34142628 -0.14146037
0002e0 76 27 20 bd 03 de ed bc ff 7a 60 be 32 ee 62 3c
       -0.039100133 -0.029036527 -0.2192192 0.0138507355
0002f0 b0 5f 90 bd 62 54 e2 bd a2 20 ac bd 56 1d 8a 3d
       -0.07049501 -0.11051251 -0.08404662 0.06743877
000300 4a 20 1e bd e0 df 08 3a 20 98 76 be 6c 06 0e be
       -0.038605012 0.0005221348 -0.24081469 -0.13869637
000310 0c 77 0b bd 8d e2 dc bd 81 ac 24 3f 44 c6 99 3e
       -0.03404908 -0.10785399 0.6432572 0.30034077
000320 b9 38 37 bd d9 07 92 bd 6c 87 16 3d 18 96 e0 bd
       -0.04473183 -0.07130403 0.036750242 -0.10966128
000330 9d 1b 2b be a9 23 ac bd d2 62 66 bd 7d c0 b0 bd
       -0.16709752 -0.08405239 -0.056246586 -0.08630464
000340 6f 49 19 be f0 e8 43 be ca db c5 3c 31 da 18 3d
       -0.14969419 -0.19131827 0.024152655 0.03731746
000350 4e 53 e8 3d 01 19 e6 ba d4 14 9d ba 61 0e 23 be
       0.11344014 -0.0017555059 -0.0011984357 -0.15923454
000360 50 ed 37 bd eb 2a 8a 3d b4 d1 15 3e c7 c2 90 bd
       -0.044904053 0.06746467 0.14630777 -0.07068401
000370 f2 5c 1b 3e 47 0b 66 3e f7 81 23 bd db 34 94 bd
       0.15172175 0.2246524 -0.039918866 -0.07236644
000380 4b 7c 46 bd aa 3d 00 bd de aa 43 3d aa ba 2c be
       -0.04845838 -0.031308807 0.047770374 -0.16868082
000390 5c c4 aa bd 32 d5 39 bd 31 5b be bd ed ac 89 3d
       -0.08338234 -0.045369335 -0.09294737 0.06722436
0003a0 bc c6 12 3e 75 69 85 3c 8d 33 50 be c3 85 bc 3d
       0.14333624 0.016285637 -0.20332165 0.092052005
0003b0 a4 e7 a4 3d cc 5b ce 3e 75 df a8 3e 9d 2b d1 be
       0.080519944 0.4030441 0.32982984 -0.40853587
0003c0 da 4f 21 be a8 34 d9 bd e5 7b f8 bd eb e1 ab bd
       -0.15753117 -0.106057465 -0.12133006 -0.083927
0003d0 8a a3 36 3e 57 b5 18 be 4e 15 3e be be bd 32 be
       0.17835823 -0.14912926 -0.18562815 -0.17455193
0003e0 72 b3 d2 bd 04 ae c0 be b2 02 28 be 23 cd 2d be
       -0.10288133 -0.37632763 -0.16407278 -0.16972785
0003f0 85 56 28 3d 4c fa 87 bd d9 92 75 bc 88 b3 d5 bc
       0.041098136 -0.06639537 -0.0149886245 -0.026086584

arr_3 f4 [20]
000000 38 4e 57 3d 50 8a a7 3c f3 ec 8e 3d c5 83 4c 3d
       0.05256483 0.020451695 0.06978788 0.049930353
000010 0d db df bd 1b 5d 8a be 54 40 89 3e 6c ab 31 3e
       -0.109304525 -0.2702416 0.2680689 0.17350549
000020 20 0f 5a 3d b7 be 04 3e 26 63 bb 3d 84 af 2a 3e
       0.05323708 0.12963377 0.091497704 0.16668516
000030 4d 5a 5b 3e e3 d1 e9 3d a7 00 b4 3d f0 38 f5 bd
       0.21421166 0.11416986 0.08789187 -0.119737506
000040 47 7b 62 3e 25 9e 94 bc f7 8a 8b 3d 4b 83 a4 be
       0.22117339 -0.018141815 0.06813615 -0.3213142

arr_2 f4 [40, 20]
000000 26 e7 0b 3c aa 0b 41 bd bc b8 f7 bc 9f b1 9a bb
       0.008538997 -0.047130264 -0.030239455 -0.004720881
000010 a9 ca ba 3c 68 ef 93 bc ed db 93 3c ca 92 54 3d
       0.022801714 -0.018058494 0.018049205 0.0518978
000020 70 82 b7 3c 07 f2 9d 3d 79 7e 28 bc 97 ca 80 bb
       0.022401065 0.07712179 -0.01028406 -0.0039304006
000030 4d 93 a8 3c 1f da 26 3d 66 2f 12 bd 44 b9 d2 3c
       0.020578051 0.04073536 -0.035689734 0.025723107
000040 a5 16 0f bc ec fd a2 3c f3 24 cb bc 51 d0 88 3b
       -0.008733426 0.01989647 -0.024797892 0.004175224
000050 92 76 6d 3d 0b 44 8b bb d7 30 68 bb 7a 06 90 3d
       0.057974406 -0.0042500547 -0.0035429501 0.07032485
000060 cf 49 5d 3c cd 92 3c 3c 8e b1 85 bc f4 8a d6 3c
       0.013506367 0.011509609 -0.016320016 0.026189305
000070 ee d4 7b bc c9 f1 82 3c 06 85 be bc ba 9f a6 bc
       -0.015370591 0.015984433 -0.02325679 -0.020339835
000080 66 68 01 3c fd 2e dd 3b 8d a1 e3 ba 65 40 9e 3c
       0.007898426 0.006749986 -0.0017366871 0.019317815
000090 52 6e 16 bd ea 19 a1 bd b5 c1 27 bd 80 23 a5 3c
       -0.036726303 -0.07866271 -0.040956218 0.02015853
0000a0 ca e2 2c bc cd eb 04 bd 75 c5 3b 3a 73 66 9c bc
       -0.010552118 -0.03245144 0.0007162907 -0.01909182
0000b0 a5 ff f2 3b 6f e2 4e 3c bb e2 0b bd c7 9c 24 bd
       0.007415729 0.012627228 -0.034151774 -0.040188577
0000c0 ff 27 08 3b 44 5c 9e bd c5 fd 82 bd 28 c8 32 bd
       0.0020775793 -0.07732442 -0.06396059 -0.043647915
0000d0 aa 01 24 bd 56 13 12 bd a9 e6 e0 3b 09 a3 45 3d
       -0.04004065 -0.03566297 0.0068634343 0.048251186
0000e0 cc 7c 41 bd 3a 5f d0 3c 38 3c 8c bd 1e f2 0b 3d
       -0.047238156 0.025436033 -0.06847423 0.034166448
0000f0 60 b5 5d 3d 2f 2c b0 bd db 4e b9 3d 2c f6 85 3d
       0.05412805 -0.08602177 0.090482436 0.06541094
000100 81 01 be bd 09 6d 6a bc 51 b4 15 bc a7 04 99 3d
       -0.092776306 -0.014308223 -0.009137229 0.074715905
000110 55 5f e5 bc e3 7e a6 bd 74 4a 8c bd 27 d8 a0 3d
       -0.02799956 -0.081296705 -0.06850138 0.07853728
000120 64 33 68 3c 06 79 0e bd ab 74 b3 3d c2 87 a1 3d
       0.014172409 -0.034783386 0.08762487 0.07887222
000130 f2 4e 5e bd 98 c4 13 3d 35 57 73 3b b7 75 98 bd
       -0.054274507 0.03607616 0.0037130837 -0.07444327
000140 c4 0c 86 3d bf 27 e9 bc ab 13 98 bd 36 15 8f bd
       0.065454036 -0.028461335 -0.07425626 -0.069864675
000150 b9 fa 3c bd 4a b2 31 3c 96 70 ba 3c f1 be 86 bd
       -0.046137545 0.01084573 0.022758763 -0.06579388
000160 58 1c 9f bc 7d 60 62 bc cc e2 0d bb 97 51 84 3d
       -0.019422695 -0.01381695 -0.0021650074 0.064608745
000170 a3 9a 6a bc d0 18 91 3d 1e 9a 72 3d 53 9a 83 3d
       -0.014319095 0.07084811 0.05922901 0.064259194
000180 b2 ee 16 3d 97 c0 17 be d6 d7 51 3c f0 03 31 3b
       0.03684873 -0.14819561 0.012807807 0.0027010404
000190 11 e9 f1 ba 28 28 04 bd e4 b3 00 39 34 6f 64 3d
       -0.00184563 -0.03226486 0.00012274046 0.055770114
0001a0 13 9d e9 3c eb c0 3b bd 5b 6b c8 3b 7e db e3 3c
       0.028517282 -0.045838278 0.0061163134 0.027814623
0001b0 ea ce 15 3e 6d 02 fb bd a7 9c 62 3d dd ec cc bc
       0.14629713 -0.12256322 0.055325177 -0.025015289
0001c0 88 e8 e8 bd ae 8b 7f 3c 45 bc 26 bd a4 c4 96 bd
       -0.11372477 0.015597267 -0.04070689 -0.07361725
0001d0 67 ca de 3b 75 0a 52 bd bd db 67 bc 61 fa 08 be
       0.0067990306 -0.051279504 -0.014151511 -0.13376762
0001e0 44 c4 a9 bc b3 c9 84 bd 41 63 dc 3d 1b c3 e5 bc
       -0.02072347 -0.064837836 0.10761119 -0.028047135
0001f0 ef 54 5d 3d 5f 3b d5 3c ab 08 0f bb 09 a4 2e 3d
       0.054036077 0.026029287 -0.0021825235 0.042636905
000200 14 41 8e 3d 6e de 6e 3c 3e de 99 3c 84 6b ca bd
       0.069460064 0.014579399 0.018782731 -0.09883788
000210 48 37 43 bd dd f6 98 3c 36 02 4b 3c 9b 17 6f 3c
       -0.047660142 0.018672401 0.012390664 0.01459303
000220 7b b5 8e 3d 73 72 7b 3c b1 4c 74 3d cc 4f cd 3d
       0.069682084 0.015347111 0.05964345 0.10024986
000230 c7 4a b7 bc 12 35 a0 3d bb 65 52 3c 8f 7d c5 3c
       -0.022374524 0.07822622 0.012841637 0.024107723
000240 a3 06 ae 3d b1 ff b7 bd 0c 91 05 bd e1 4e 88 bd
       0.084973596 -0.08984316 -0.03260903 -0.0665567
000250 8f bb f9 bd 94 f8 b3 bd 22 4d 64 3c 30 28 82 bd
       -0.12193977 -0.08787647 0.0139344055 -0.063553214
000260 15 78 30 3d 70 ae 1b bb c1 1d 07 bd 24 ed 36 3d
       0.04308327 -0.0023755096 -0.03298736 0.04465975
000270 8a 12 f5 3c 1f 1f fd bc 8e d1 4b 3d db 82 7a 3d
       0.029916067 -0.030898629 0.049760394 0.06115995
000280 67 69 82 bd 9c d2 3d bc bf 12 1d bd 46 eb b2 3b
       -0.0636776 -0.011585858 -0.038347956 0.0054601757
000290 f8 04 6c bd b3 7d 0b bd 74 4b 0f 3d 62 ac 78 bc
       -0.057621926 -0.034055423 0.034984067 -0.015177818
0002a0 a7 33 9d bb 9c d2 b0 3d 6a 9a 23 bc 21 d2 d3 bd
       -0.004797417 0.086339206 -0.009985546 -0.10342813
0002b0 92 b6 de bd f4 0b 8f bd 0b ba ce bc 23 79 12 bd
       -0.10874666 -0.06984702 -0.025235197 -0.035760056
0002c0 a2 64 99 bd 58 f3 74 bc e9 5a de 3d b4 19 17 3d
       -0.07489897 -0.014950596 0.108571835 0.036889747
0002d0 79 c6 e1 bc 9c b9 54 3d 19 30 30 bd 3d 24 55 3d
       -0.02756046 0.051934823 -0.04301462 0.052036513
0002e0 74 59 13 be f7 30 19 bc b9 26 dd bd 74 fa d1 3c
       -0.14389592 -0.009350053 -0.107984014 0.02563212
0002f0 c3 ff ba 3c a2 30 6d 3c 72 5e d4 3c 73 3f 5b 3d
       0.022827035 0.014476927 0.025923941 0.053527307
000300 6f ce 42 bd 46 3d 66 bd 49 62 84 bd d3 11 48 3b
       -0.04756015 -0.05621078 -0.06464059 0.0030528202
000310 11 9d 08 3e 1a b5 4d 3d cd 41 b3 bd 60 43 84 3d
       0.13341166 0.05022154 -0.08752785 0.06458163
000320 b9 70 8d 3d 5d d4 06 3e 95 d6 94 bc bd 6d 69 bc
       0.06906266 0.13166948 -0.018168727 -0.014247355
000330 da b4 46 3d 28 8f 40 3e 2b e6 2e bc 94 c3 d5 3c
       0.048512317 0.1880461 -0.0106749935 0.026094235
000340 9a d0 5d 3d c1 0f d2 bc 2b 5c 0a bd d3 8d 96 3d
       0.054154016 -0.025642278 -0.033779304 0.073512696
000350 6f aa 17 bc 86 f9 4e bd e0 c8 c1 bc 55 ff b3 3c
       -0.009256943 -0.050530933 -0.023655355 0.021972338
000360 e1 8c 00 bd e6 42 69 3d 5f 14 fa 3d 55 91 5a 3c
       -0.031384353 0.056948565 0.12210917 0.013340314
000370 dd d6 53 bd 0d 44 74 bc 1f 6b 8a bd 19 e1 28 bc
       -0.05171858 -0.014908803 -0.06758713 -0.010307574
000380 94 b1 44 3d 41 3b 98 bb 49 c2 bc bd 27 b9 3d 3d
       0.048020914 -0.0046457355 -0.092167445 0.046319153
000390 68 63 12 bd cf be a0 bb ae 67 44 3d 94 86 81 3d
       -0.035739332 -0.0049055587 0.04795044 0.06324497
0003a0 28 a6 f6 3c f6 86 c3 3d 82 3e a8 3d da b7 27 bd
       0.030108526 0.09547226 0.082150474 -0.04094682
0003b0 a0 98 f7 bd e2 c3 70 3d 05 47 a1 bc b2 5a c1 3d
       -0.12089658 0.05878056 -0.019687185 0.09441127
0003c0 4e a1 7d b8 6d 94 26 3c c1 9a b1 bc 6b 4b ce bd
       -6.0470127e-05 0.010167223 -0.021680238 -0.100729786
0003d0 57 c3 04 bd 65 98 18 bd 58 3b 1c 3d 63 3c 40 ba
       -0.032412853 -0.03725471 0.038142532 -0.0007333217
0003e0 41 da 20 3c bf 15 fc bc 39 01 87 3c 2d fb 4c bc
       0.009817661 -0.030772088 0.016480075 -0.012511057
0003f0 bc 98 ab bb c3 61 1d bd cf 95 fd 3b 26 46 02 bd
       -0.005236713 -0.03842331 0.007738806 -0.03180518

arr_5 f4 [20]
000000 bd d6 f9 bb 13 fb 8b bc a0 44 bb bc b6 9b cc bc
       -0.0076244758 -0.017087495 -0.022859871 -0.024976593
000010 7a 27 c2 bc 15 e8 87 bc a7 9e 30 bc 13 53 09 bc
       -0.023700465 -0.016590158 -0.010780013 -0.008381623
000020 3d 26 79 bc 83 f9 f5 bc 78 7d 24 bc 97 cf 2f bc
       -0.015206871 -0.030026203 -0.01003968 -0.010730646
000030 2e e7 27 bc 9e 29 34 bc f4 27 d6 bc b6 93 1a bd
       -0.010247989 -0.01099625 -0.026142098 -0.037738524
000040 d1 d4 78 bc fd dd 07 bd d7 32 78 bc 00 a0 8d bc
       -0.015187458 -0.03317069 -0.01514884 -0.017288208

arr_4 f4 [40, 20]
000000 72 a8 ba 39 8a de 89 bb b0 10 34 bb 43 fd c1 ba
       0.00035602186 -0.004207437 -0.0027475767 -0.0014800209
000010 35 fa a7 bb 13 50 14 bb c8 41 8a b7 bc 88 a0 ba
       -0.0051262625 -0.0022630736 -1.6481514e-05 -0.0012247781
000020 c2 c1 e3 b8 98 a1 e1 bb db 3d bb ba 0b a9 06 bb
       -0.00010860294 -0.0068857186 -0.0014285402 -0.0020547535
000030 78 c1 cb 39 11 e4 32 39 f9 bc 9b bb 9e 83 4d bc
       0.00038863323 0.00017060364 -0.004752752 -0.012543587
000040 23 ac e1 38 50 8e 2c b9 fb 67 c6 39 9b 2f bc b9
       0.00010760899 -0.00016456214 0.00037842974 -0.00035893623
000050 fd dc 15 ba b2 a6 bd b9 1e f0 17 b8 a9 60 39 b8
       -0.0005716829 -0.00036173087 -3.6224832e-05 -4.419746e-05
000060 10 7a b1 3a 64 72 04 3b 8c 37 6e 3a 20 6d 57 ba
       0.0013540406 0.0020209784 0.00090872566 -0.000821786
000070 8d 02 38 38 db 2d 05 ba 76 a5 86 ba e1 17 56 39
       4.3871394e-05 -0.00050803804 -0.00102727 0.00020417526
000080 ab bd ea 39 20 d2 70 ba e6 89 23 3b cc e6 2f bb
       0.00044773272 -0.00091865845 0.002495402 -0.0026840447
000090 18 a4 da 39 a8 7f 0f 3b 00 9d 52 b4 a8 e8 d6 3a
       0.0004170246 0.0021896157 -1.961489e-07 0.0016396241
0000a0 65 79 eb 39 a8 c3 6f 3b a6 44 2a 3b 38 1e 4d 3b
       0.0004491314 0.0036585126 0.002598086 0.003129853
0000b0 fe a2 01 39 3f b6 b9 3a ca 31 02 b8 ff 77 03 3b
       0.00012363118 0.0014168693 -3.1040785e-05 0.0020060537
0000c0 4f 51 2d 3b 9b 9f 9f 3b 63 d4 68 3b c2 1f a1 3a
       0.0026446169 0.0048713214 0.0035526983 0.001229279
0000d0 23 e2 e8 3a 28 33 30 3b 98 d2 d0 b8 83 2d 9f 3b
       0.0017767589 0.002688596 -9.957439e-05 0.0048577203
0000e0 54 0f 6c ba 72 50 65 3b 75 c2 a2 39 14 24 95 3a
       -0.00090049696 0.0034990576 0.0003104393 0.001137855
0000f0 95 ba b1 39 93 86 18 bb 82 a1 b2 ba 9a b7 74 bb
       0.00033899085 -0.0023273572 -0.0013628455 -0.003734088
000100 23 1e b6 ba 35 67 e9 38 06 99 85 3a 88 af 01 bb
       -0.001389448 0.000111295296 0.0010192699 -0.0019788463
000110 40 5b 31 3a f5 3f 4e ba e1 3b 45 bb ce 4d c5 b8
       0.00067656115 -0.00078678067 -0.0030095505 -9.408184e-05
000120 9f 43 8f ba d0 40 a4 ba 7e 2e 55 ba ea 1f 29 bb
       -0.0010930187 -0.0012531523 -0.0008132233 -0.0025806376
000130 00 f5 36 3b c1 36 6c bb 85 e9 9b ba 06 9d 62 ba
       0.0027917027 -0.0036043378 -0.0011895156 -0.0008644614
000140 7b ba a9 ba 5b 83 50 bb fb 0c aa bb 5c 36 a8 bb
       -0.0012949252 -0.0031816575 -0.0051895357 -0.0051334333
000150 47 4e e0 ba ff c3 1a bb 97 e8 09 bb bc d8 06 bb
       -0.0017113172 -0.0023615358 -0.0021043175 -0.002057596
000160 32 c0 68 bb 11 98 e5 bb 98 3c 80 bb 41 70 07 bb
       -0.0035514948 -0.007006653 -0.0039134733 -0.0020666274
000170 ee f0 5c ba d3 e0 1d bb fe 24 4f bb e9 8d 1c bc
       -0.00084282353 -0.0024090305 -0.0031607742 -0.009555318
000180 35 3f 43 ba cd d5 46 bb eb 01 3d bb c4 35 6e b9
       -0.0007448078 -0.0030339838 -0.0028840255 -0.00022717478
000190 70 85 e9 39 5a da 69 bb 5a 3f 8c bb eb 21 c8 b9
       0.00044540642 -0.0035683126 -0.004280013 -0.00038172244
0001a0 ab 04 5c bb 5f 7e 1c bb fa d6 f8 39 a0 90 70 b9
       -0.0033572118 -0.0023879034 0.00047462416 -0.0002294206
0001b0 24 ef 96 bb eb 34 fa bb 43 8a 89 bb 55 a2 01 bb
       -0.0046061445 -0.007635703 -0.0041973903 -0.0019780595
0001c0 55 a8 ce ba be 85 cc bb 69 98 ae bb b4 e5 56 bc
       -0.001576672 -0.0062415292 -0.0053282273 -0.013116289
0001d0 bc fe f4 ba d8 1a 52 bb 86 87 5f bb 59 c5 b7 ba
       -0.0018691639 -0.0032059457 -0.0034107878 -0.0014020606
0001e0 61 0b 87 b9 fa ca 98 3a 53 ba 07 3b d0 7d bc ba
       -0.00025757684 0.0011657171 0.0020710423 -0.0014380757
0001f0 1b 74 06 3a ef 93 cd 39 30 49 be b8 94 07 da b8
       0.00051289954 0.00039210866 -9.073538e-05 -0.000103964616
000200 54 a6 83 b9 3a 6c 76 ba 51 39 9f 39 9f 20 46 3a
       -0.0002511019 -0.0009400282 0.00030369547 0.00075579615
000210 81 b3 e6 b9 6b ba 87 38 1b 7b 2e 3b 52 bf 41 3b
       -0.0004400276 6.472025e-05 0.002662367 0.0029563499
000220 ff 05 c2 39 8d 0f 98 ba 0b 8b a5 3a de f2 c1 b9
       0.0003700703 -0.0011601314 0.0012629939 -0.0003699278
000230 a7 cd c9 39 05 e3 a1 3a 47 9b d7 3a 87 a8 8f 39
       0.0003849093 0.0012350982 0.0016449474 0.00027400648
000240 ce de e5 3a f9 56 00 3a 5a 87 f2 39 99 2e aa 39
       0.0017537714 0.00048957724 0.00046258682 0.00032459645
000250 0f 67 9f 3a 58 b6 83 3b a5 42 05 3b 12 f5 a3 38
       0.0012161451 0.00401954 0.0020333913 7.8180936e-05
000260 5a 5b 5f b9 f6 3e 12 3a 2a e5 a5 b9 71 38 dc 3b
       -0.00021300968 0.000557884 -0.00031641993 0.0067205955
000270 4b 3e 1e 3a d9 6c bf 39 0d ba 75 3a b4 1a 42 b9
       0.0006036504 0.00036511457 0.0009373732 -0.0001851123
000280 45 66 08 39 55 82 49 3a c2 b8 a4 3a 24 16 8c 3a
       0.00013008069 0.00076869625 0.0012567269 0.0010687751
000290 9b 2c ae 3a c7 fb 8e 3a b3 72 07 3a 90 f6 48 38
       0.001328844 0.0010908776 0.0005166933 4.7913345e-05
0002a0 33 87 81 3a 75 2d 2e 3b 28 66 83 3a 52 e5 db 39
       0.0009882211 0.0026577387 0.0010024952 0.00041941792
0002b0 68 af c2 38 14 5a e0 39 57 8c 9a 3a 71 6f 4e 3b
       9.283313e-05 0.00042791723 0.0011791092 0.003149953
0002c0 2b 2f 6d 3a bb 18 ab 3a f0 69 5a 3a b0 18 6f 39
       0.0009047861 0.0013053635 0.0008331826 0.00022802013
0002d0 e6 f9 6b ba 1c c4 a1 b9 f6 4a 08 bb da 98 56 bb
       -0.00090017763 -0.00030854426 -0.0020796633 -0.0032744915
0002e0 79 cf f8 b9 13 b8 72 ba aa 8b 8c ba 01 29 3b b9
       -0.00047456825 -0.00092589966 -0.0010722775 -0.00017848985
0002f0 c2 1c 97 ba d1 9b ad ba fc 69 be b9 b6 be 05 ba
       -0.0011528956 -0.001324529 -0.00036318589 -0.00051019655
000300 4c e6 06 b8 2e 5d 84 38 e5 f6 a4 ba fd b1 93 ba
       -3.216257e-05 6.3116066e-05 -0.0012585787 -0.0011268255
000310 33 e7 bc ba c3 e2 6d bb 92 a7 24 ba 54 19 14 ba
       -0.0014412164 -0.003629849 -0.00062810734 -0.0005649526
000320 62 70 49 b8 45 6d d2 3a c2 95 69 3b 66 6e 3f 3a
       -4.80268e-05 0.0016054293 0.003564224 0.00073025224
000330 ac ba 5e 3a 95 35 87 39 15 41 67 3a 99 ab 1e 3a
       0.0008496444 0.00025789128 0.00088216487 0.0006052792
000340 0d 1e 8c 3a 0f 57 36 3a 3f a7 a2 3a 3f 10 f5 3a
       0.0010690108 0.0006955722 0.0012409462 0.0018696858
000350 13 3c 75 39 4b dc db 3a bc c5 bd 3a c6 14 b5 3b
       0.000233874 0.0016774026 0.0014478485 0.005526158
000360 35 66 a9 39 fa aa 3b 3b 2f 36 a0 3a fd 4f 95 b9
       0.00032310342 0.0028635846 0.0012223179 -0.0002847909
000370 88 23 93 39 e2 a7 db 3a 98 7a d8 39 4f a4 4a 3b
       0.00028064498 0.0016758407 0.0004129007 0.003092069
000380 0d 47 2a 3b a9 8f 45 39 f3 7e 98 b9 37 04 9b 3a
       0.002598229 0.00018840902 -0.00029086284 0.0011826818
000390 64 e5 55 39 ab 8d 72 3b 9f b2 01 3b 80 5a 4e 33
       0.00020398718 0.003701071 0.0019790304 4.8045422e-08
0003a0 06 68 ca 36 b9 4b a6 39 79 a2 42 3a 66 e7 9e 3b
       6.032179e-06 0.00031718405 0.0007424723 0.004849362
0003b0 be b3 15 ba 78 37 3a 3b de bc 98 3a 25 dc bd 39
       -0.00057106826 0.002841441 0.0011652966 0.0003621291
0003c0 15 6e 63 3a 0a 81 5a b7 be 67 cc 37 7c cb ba 3b
       0.00086757663 -1.3023857e-05 2.4367004e-05 0.0057005268
0003d0 01 94 8f 39 1a 80 81 ba 09 2c dd b9 3c 12 b7 38
       0.00027385357 -0.0009880096 -0.00042185214 8.7295164e-05
0003e0 4e a7 15 ba 16 fc ed 3a 73 25 18 3a c7 7d 39 ba
       -0.0005708829 0.0018156793 0.000580392 -0.0007075932
0003f0 9d 60 ba b9 68 82 89 b8 3c bc 23 ba 27 ea 81 3a
       -0.00035548667 -6.556959e-05 -0.00062460057 0.0009911702
