pretrained_model/ICVL_pretrained/params/-1_gen_params.npz (npz, 656534 bytes, 26 tensors)

arr_24 f4 [32]
0.50161326 0.44724005 0.5113477 0.6100066 0.4485698 0.5678574 0.37783745 0.49200818
0.43596962 0.47129807 0.67097205 0.42013863 0.45309204 0.4002265 0.50701004 0.51727194
0.450666 0.50720215 0.41973832 0.7595123 0.5469768 0.60861605 0.3909891 0.57320184
0.42820862 0.45716318 0.4373656 0.53532803 0.4204765 0.44501516 0.44393247 0.4475921
00000000: ba69 003f a6fc e43e afe7 023f 6429 1c3f
00000010: f1aa e53e 1a5f 113f e973 c13e 7fe8 fb3e
00000020: 6937 df3e fb4d f13e d3c4 2b3f 691c d73e
00000030: aefb e73e 7dea cc3e 69cb 013f ef6b 043f
00000040: b2bd e63e 00d8 013f f1e7 d63e 666f 423f
00000050: ac06 0c3f 43ce 1b3f b92f c83e 5bbd 123f
00000060: 293e db3e 4b11 ea3e 62ee df3e 420b 093f
00000070: b248 d73e 07d9 e33e 1e4b e33e cb2a e53e

arr_25 f4 [32, 1, 6, 6]
0.032623984 -0.0519485 -0.6645577 -1.0309303 0.09953118 0.01857406 -0.03650966 -1.398898
-1.2530956 2.3633642 -2.2146668 0.0016278167 0.0054631303 -0.6615725 4.0334654 4.9451985
-3.825222 0.10498051 -0.86918646 0.7731363 3.894054 -0.97309995 -0.29363757 0.039962504
-0.43393326 0.18872216 3.487951 -3.0807962 -0.01540242 0.041495886 0.050365757 -0.04372633
-0.13234825 -0.11035107 -0.01226117 0.032183584 0.55094284 0.40548196 0.11824644 -0.0023081691
-0.031493116 -0.004194053 0.09558068 2.0539744 3.6169815 0.9446029 0.1158371 0.03851244
0.0026431167 0.26398998 6.3721423 10.449997 0.19528992 -0.04117314 -0.03286436 -0.21501851
0.25798056 2.046936 3.7457495 0.5873104 -0.0035772691 0.013213241 -0.08650615 0.105536595
0.64297515 0.21411277 0.002240093 0.0073669376 0.004350425 0.000981511 0.001010963 -0.057134446
0.0137953 -0.041002233 -0.014299323 0.018894222 0.022703327 0.03478949 -0.043556124 0.0825624
-0.02196338 -1.8175439 -2.1610181 0.018095605 -0.028347723 -0.15707244 -2.3499625 1.6197698
6.7429147 -0.623823 0.021874148 -1.4392745 0.8657591 8.719456 1.1514204 1.0986551
-0.033442557 -1.0324147 3.0574129 4.047427 3.769952 -0.39632988 -0.061014935 -1.2768612
1.6097286 2.306459 0.23516189 0.08459495 -0.07566259 -0.0553192 -0.15700923 -0.093216
-0.05554819 -0.0466879 -0.06471572 -0.07662102 -0.11996152 -0.072685674 -0.063581966 -0.012740519
-0.09303781 -0.119797885 -0.19885008 -0.19153649 -0.16309325 -0.095154665 -0.089219235 -0.12277883
-0.23214222 -0.18706079 -0.12776361 -0.090482876 -0.08998805 -0.11412466 -0.20523266 -0.18474008
-0.15936017 -0.1149522 0.0050766855 -0.09318763 -0.118985966 -0.14866742 -0.09351725 -0.09520349
-0.000659704 -0.023155414 -0.073171094 0.20658897 -0.004450752 -0.03569341 -0.015914781 -0.035724588
0.1820861 5.802413 4.4229445 0.072077274 0.010585466 -0.027258685 1.0704371 12.1415825
7.281145 0.11314171 -0.018867295 -0.043089416 6.981014 4.7418675 1.4535737 0.086157046
-0.026262017 0.006700755 0.3065395 0.44170845 0.17324781 -0.06871544 0.006373428 -0.0015171968
-0.051349815 -0.08638656 -0.024637463 -0.020503165 -0.28203723 -0.57532555 0.19808875 -0.14865261
0.020192146 0.01321276 0.02236827 -1.4097314 8.222995 -0.051426113 -0.6080653 0.020057783
-0.08491052 -1.4031062 3.7917044 3.4264588 -0.27093354 0.075680874 0.020477057 -0.32568666
-1.0632752 6.3793216 -0.36533746 -0.15805185 0.013387061 0.033031587 -0.84193534 0.022546079
0.4048371 0.024326198 -0.012676721 -0.010981329 0.026282066 -0.11323279 -0.0391542 -0.08838121
-0.063075475 0.14413634 1.5225724 1.0226239 0.3622913 -0.023093836 0.15880455 1.3691825
4.825133 4.082839 1.8399808 0.17502752 1.337516 2.8581364 5.680892 4.9409957
4.0907845 1.4635675 0.30365464 2.1587608 4.7710176 4.3313923 2.7691102 0.5477858
-0.030239644 1.6059287 1.6875696 0.70530075 0.25678813 -0.110583946 -0.0946245 -0.04431184
0.1206355 0.14946352 0.030110436 -0.094877854 0.14682958 0.9991299 -0.09962709 -0.04636065
00000000: baa0 053d f3c7 54bd 7420 2abf 86f5 83bf
00000010: 01d7 cb3d a128 983c 278b 15bd 170f b3bf
00000020: 7065 a0bf 5c41 1740 1abd 0dc0 775c d53a
00000030: 0f04 b33b d15c 29bf 2612 8140 113f 9e40
00000040: 70d0 74c0 0600 d73d 0183 5ebf 43ec 453f
00000050: 2e38 7940 141d 79bf aa57 96be b9af 233d
00000060: 802c debe 6240 413e 973a 5f40 c42b 45c0
00000070: 6f5a 7cbc 97f7 293d 534c 4e3d 611a 33bd
00000080: 4d86 07be beff e1bd 13e3 48bc efd2 033d
00000090: 970a 0d3f 559b cf3e 312b f23d a744 17bb
000000a0: edfe 00bd 446e 89bb cebf c33d 5174 0340
000000b0: a07c 6740 7fd1 713f 003c ed3d 38bf 1d3d
000000c0: 2438 2d3b b229 873e 97e8 cb40 3033 2741
000000d0: 15fa 473e 2ba5 28bd c79c 06bd d02d 5cbe
000000e0: 0716 843e 0001 0340 5cba 6f40 f959 163f
000000f0: 9e70 6abb 597c 583c 232a b1bd 9223 d83d
00000100: 059a 243f 6140 5b3e 86ce 123b 5a66 f13b
00000110: 038e 8e3b 0ba6 803a 4a82 843a cf05 6abd
00000120: af05 623c f5f1 27bd b547 6abc 0ec8 9a3c
00000130: 54fc b93c 6d7f 0e3d e867 32bd 7a16 a93d
00000140: 8cec b3bc 47a5 e8bf 1f4e 0ac0 3c3d 943c
00000150: 7c39 e8bc 99d7 20be c965 16c0 9e54 cf3f
00000160: f5c5 d740 ddb2 1fbf 6a31 b33c 263a b8bf
00000170: 63a2 5d3f e482 0b41 be61 933f bba0 8c3f
00000180: 10fb 08bd 2a26 84bf a7ac 4340 8684 8140
00000190: e546 7140 c0eb cabe ccea 79bd 3070 a3bf
000001a0: 960b ce3f 069d 1340 47ce 703e 1e40 ad3d
000001b0: fdf4 9abd 6396 62bd 07c7 20be 08e8 bebd
000001c0: 8086 63bd d03b 3fbd ad89 84bd 7beb 9cbd
000001d0: 63ae f5bd 3adc 94bd 4337 82bd 9cbd 50bc
000001e0: 9b8a bebd 9858 f5bd 5b9f 4bbe 2422 44be
000001f0: eb01 27be 73e0 c2bd 93b8 b6bd 7873 fbbd
00000200: b1b6 6dbe dd8c 3fbe 77d4 02be 164f b9bd
00000210: a84b b8bd 31ba e9bd 8328 52be 812c 3dbe
00000220: 502f 23be 0f6c ebbd 535a a63b 28d9 bebd
00000230: eaae f3bd 463c 18be f985 bfbd 0cfa c2bd
00000240: fcef 2cba 6cb0 bdbc bada 95bd 0f8c 533e
00000250: 9dd7 91bb 4133 12bd b75f 82bc f253 12bd
00000260: c774 3a3e 5ead b940 c388 8d40 409d 933d
00000270: aa6e 2d3c 9b4d dfbc 1504 893f ec43 4241
00000280: 24ff e840 d7b6 e73d 968f 9abc 877e 30bd
00000290: 7764 df40 61bd 9740 b40e ba3f 1b73 b03d
000002a0: 7123 d7bc 0292 db3b bff2 9c3e 9c27 e23e
000002b0: e067 313e aeba 8cbd 30d8 d03b addc c6ba
000002c0: 2f54 52bd 70eb b0bd 81d4 c9bc 41f6 a7bc
000002d0: 2f67 90be 8948 13bf c7d7 4a3e 6438 18be
000002e0: 006a a53c 557a 583c aa3d b73c 1472 b4bf
000002f0: 6391 0341 30a4 52bd 2baa 1bbf 3850 a43c
00000300: 91e5 adbd fc98 b3bf 49ab 7240 1a4b 5b40
00000310: cdb7 8abe 93fe 9a3d 80bf a73c 67c0 a6be
00000320: 6719 88bf 6723 cc40 830d bbbe 58d8 21be
00000330: 6755 5b3c 214c 073d 1389 57bf 8eb2 b83c
00000340: cf46 cf3e bc47 c73c 06b2 4fbc 08eb 33bc
00000350: 7d4d d73c 98e6 e7bd 2860 20bd 3501 b5bd
00000360: b72d 81bd 7a98 133e a7e3 c23f 57e5 823f
00000370: 3f7e b93e 492f bdbc a99d 223e 5f41 af3f
00000380: 7d67 9a40 9ea6 8240 7e84 eb3f 6a3a 333e
00000390: b933 ab3f b5eb 3640 dec9 b540 a31c 9e40
000003a0: b5e7 8240 2e56 bb3f 9f78 9b3e 2329 0a40
000003b0: 2dac 9840 c49a 8a40 1a39 3140 b13b 0c3f
000003c0: 21b9 f7bc 128f cd3f 4802 d83f 978e 343f
000003d0: bc79 833e d679 e2bd 7dca c1bd 5580 35bd
000003e0: bf0f f73d f70c 193e 29aa f63c 524f c2bd
000003f0: 7e5a 163e fac6 7f3f 4a09 ccbd aae4 3dbd

arr_20 f4 [32, 32, 6, 6]
-0.076777704 -0.84386355 -0.5713955 0.49119294 0.3237135 -0.10008796 -0.31954572 -0.57062024
-0.38104627 0.19906162 -0.023890711 0.060755957 -0.30259147 0.2967668 -0.004828682 0.25368512
-0.18377197 -0.35532728 -0.035501983 -0.44806173 0.33916414 0.4294743 0.045495454 -0.32794476
-0.060904365 0.25881582 0.17602478 0.34827197 -0.09375933 -0.11263896 0.45206702 -0.38010645
0.15226305 0.25805148 -0.0794287 0.20516783 0.2406757 0.14146356 0.17417994 -0.085584775
-0.11837185 -0.18469924 0.120360605 0.46705535 0.50998473 0.34632504 0.3023484 0.053369883
0.094830364 0.39681756 0.3848475 0.637055 0.27723184 0.15002453 0.030494409 0.11422305
0.42063928 0.7511473 0.6438239 0.25090525 -0.00094634754 -0.07968427 0.14654452 0.4906502
0.5589928 0.28978616 -0.08325361 -0.114966124 -0.2013913 0.09683871 0.28819087 0.32408568
0.29120246 0.57335865 0.2696786 0.43195102 0.3433852 -0.025205353 0.19182058 0.5488338
0.13426538 0.41370642 0.2669454 0.043114763 -0.2230753 0.5370185 0.29115516 0.5439695
0.30995125 0.02570422 0.04821197 0.23792288 0.08630407 0.017933179 0.124150336 -0.3323108
0.19801898 0.20430231 -0.06780469 -0.19728632 0.021541724 -0.16109432 -0.117636286 0.06532219
-0.27726725 -0.4294204 -0.39816695 0.036824152 0.4742811 -0.6523675 0.31800693 -0.13684912
-0.4137799 -0.13103935 0.055705674 0.13136172 0.008511562 -0.22500956 0.14794792 -0.09501498
0.16900216 -0.039728656 -0.94759107 -0.48950407 -0.14372903 -0.3427456 -0.038538508 0.06888175
-0.12658101 0.4575206 -0.06741552 0.15740404 -0.4601493 0.41473824 -0.17975876 -0.009883336
0.6896708 -0.4427627 0.047721386 0.063252725 0.09239891 0.1516826 0.033197653 0.058195543
0.106384926 0.15363452 0.20981568 0.2770978 -0.0027546848 -0.11007095 0.24507234 0.4970844
0.47079036 0.5284513 0.22308724 0.13508123 0.15646589 0.5485659 0.63064325 0.6293214
0.23414859 0.20146208 0.07737775 0.658392 0.76501256 0.58020556 0.41690728 0.046846308
0.29935703 0.50074375 0.63901305 0.4655511 0.31736958 0.181599 0.118814275 0.21030815
0.40063494 0.2674969 0.17133692 0.07583773 -0.013591313 0.12371771 -0.1647086 -0.02737128
-0.41818833 -0.3479427 0.12616457 0.028943341 0.32198304 0.275643 -0.31786868 -0.097294934
-0.12485109 0.17625438 0.43655595 0.33877996 0.23696674 -0.23742339 -0.18296605 -0.013061119
0.09505847 0.4457811 -0.18563713 -0.14759141 -0.49893793 -0.12298765 0.07203347 0.16311778
0.25644475 -0.28248915 -0.54821855 -0.24201101 -0.14761613 0.32275745 0.26901013 -0.11332188
-0.03702772 -0.042997077 -0.014593796 0.11602672 0.028725764 0.16605605 0.04958004 0.19334877
0.12384495 0.2973769 0.24736635 0.29041904 0.113349035 0.2281999 0.31331024 0.30179092
0.50050586 0.31252092 0.07912185 0.30629355 0.1701822 0.36445412 0.3505182 0.22319572
0.0689851 0.32268426 0.31333655 0.3207267 0.28967842 0.104675904 0.022945752 0.12568207
0.14249824 0.0025993178 0.25031474 0.019172147 -0.19953464 0.12779038 0.30946657 0.079201065
00000000: a13d 9dbd 7107 58bf fa46 12bf a47d fb3e
00000010: c7bd a53e ebfa ccbd 7f9b a3be 2b14 12bf
00000020: 7f18 c3be cfd6 4b3e 74b6 c3bc 3ddb 783d
00000030: 45ed 9abe d1f1 973e ec39 9ebb 04e3 813e
00000040: b82e 3cbe 75ed b5be 876a 11bd 5968 e5be
00000050: eca6 ad3e 0ee4 db3e 7159 3a3d 60e8 a7be
00000060: db76 79bd 8283 843e d73f 343e b450 b23e
00000070: e404 c0bd 41af e6bd 5475 e73e 509d c2be
00000080: d8ea 1b3e 531f 843e 84ab a2bd 8417 523e
00000090: b173 763e d3db 103e 3a5c 323e 1247 afbd
000000a0: f16c f2bd cc21 3dbe 9f7f f63d e121 ef3e
000000b0: 5c8e 023f 8451 b13e 69cd 9a3e 619a 5a3d
000000c0: 6c36 c23d ac2b cb3e bb0a c53e 0916 233f
000000d0: 55f1 8d3e 08a0 193e 69cf f93c c6ed e93d
000000e0: 085e d73e 304b 403f a5d1 243f a776 803e
000000f0: 4f14 78ba 8231 a3bd c40f 163e 8136 fb3e
00000100: 271a 0f3f da5e 943e de80 aabd 5c73 ebbd
00000110: 8539 4ebe 6053 c63d c18d 933e 8fee a53e
00000120: 7d18 953e a2c7 123f 5013 8a3e af28 dd3e
00000130: 2fd0 af3e 757b cebc 9d6c 443e 5f80 0c3f
00000140: dd7c 093e 54d1 d33e 11ad 883e 1b99 303d
00000150: da6d 64be 0b7a 093f 4a12 953e 9641 0b3f
00000160: eeb1 9e3e a891 d23c ea79 453d 0ea2 733e
00000170: 30c0 b03d 9ae8 923c 8842 fe3d a424 aabe
00000180: 7dc5 4a3e a034 513e 2fdd 8abd 6d05 4abe
00000190: 4578 b03c e9f5 24be 4beb f0bd a4c7 853d
000001a0: f9f5 8dbe fedc dbbe 8adc cbbe ecd4 163d
000001b0: f9d4 f23e 8e01 27bf ced1 a23e 2d22 0cbe
000001c0: f6da d3be 2e2f 06be a22b 643d b083 063e
000001d0: 1474 0b3c e868 66be a97f 173e 3797 c2bd
000001e0: e70e 2d3e 84ba 22bd 5495 72bf 47a0 fabe
000001f0: b42d 13be 5a7c afbe 8eda 1dbd e011 8d3d
00000200: 749e 01be 2440 ea3e 2611 8abd 862e 213e
00000210: b098 ebbe 9258 d43e ae12 38be b7ed 21bc
00000220: 448e 303f cbb1 e2be 8077 433d a58a 813d
00000230: a43b bd3d af52 1b3e 43fa 073d 735e 6e3d
00000240: 57e0 d93d 5e52 1d3e ecd9 563e c3df 8d3e
00000250: f187 34bb e16c e1bd 3ef4 7a3e d981 fe3e
00000260: 6f0b f13e 9648 073f fb70 643e bc52 0a3e
00000270: 9838 203e d16e 0c3f d671 213f 351b 213f
00000280: a6c4 6f3e 134c 4e3e 3a78 9e3d 618c 283f
00000290: ddd7 433f 5a88 143f df74 d53e eae1 3f3d
000002a0: 5345 993e be30 003f 5c96 233f b75c ee3e
000002b0: 447e a23e 17f5 393e e654 f33d 055b 573e
000002c0: 0620 cd3e 5bf5 883e f272 2f3e d050 9b3d
000002d0: 19ae 5ebc b65f fd3d 5fa9 28be bc39 e0bc
000002e0: c81c d6be 8c25 b2be 4931 013e 961a ed3c
000002f0: f6da a43e 1421 8d3e afbf a2be 9142 c7bd
00000300: eeb1 ffbd 077c 343e 4384 df3e 9174 ad3e
00000310: 69a7 723e 1e1f 73be 745b 3bbe 4efe 55bc
00000320: 04ae c23d 6c3d e43e a917 3ebe 3422 17be
00000330: cb74 ffbe f3e0 fbbd 4986 933d 5908 273e
00000340: ba4c 833e 6ba2 90be 0d58 0cbf bcd1 77be
00000350: af28 17be 7740 a53e b2bb 893e 4d15 e8bd
00000360: 61aa 17bd b41d 30bd d11a 6fbc 6b9f ed3d
00000370: 4b52 eb3c 990a 2a3e 7114 4b3d 38fd 453e
00000380: 6ca2 fd3d c941 983e 9b4d 7d3e ceb1 943e
00000390: 8a23 e83d 3cad 693e 336a a03e 5784 9a3e
000003a0: 2721 003f be02 a03e a30a a23d 82d2 9c3e
000003b0: 3e44 2e3e bb99 ba3e 1f77 b33e 6b8d 643e
000003c0: 0f48 8d3d df36 a53e a66d a03e 4a36 a43e
000003d0: bb50 943e 5260 d63d bbf8 bb3c cdb2 003e
000003e0: 0feb 113e 5159 2a3b 4129 803e e80e 9d3c
000003f0: cf52 4cbe 7bdb 023e 6772 9e3e 2b34 a23d

arr_21 f4 [32]
-2.2098646 -0.21735863 -1.7779256 -0.34512553 2.0256078 -2.530721 1.6707383 -0.9074651
-0.33156216 -2.004341 -2.167668 0.018943958 -2.0078597 -0.35697797 -0.10324019 -2.534761
-0.39472425 -1.1691093 0.8741303 -0.6089518 -2.912059 -1.4893017 -0.1439391 -2.7160997
1.022493 0.05383999 -1.8518504 -0.86340743 0.7258322 -0.12321951 -1.995862 -0.18775985
00000000: 6c6e 0dc0 4393 5ebe 1193 e3bf 4bb4 b0be
00000010: 8fa3 0140 55f7 21c0 c1da d53f a24f 68bf
00000020: 84c2 a9be 1f47 00c0 13bb 0ac0 5c30 9b3c
00000030: c680 00c0 d1c5 b6be 986f d3bd 8639 22c0
00000040: 4c19 cabe 60a5 95bf 01c7 5f3f 44e4 1bbf
00000050: 2d5f 3ac0 70a1 bebf c564 13be 94d4 2dc0
00000060: 0de1 823f 5287 5c3d 6f09 edbf 4508 5dbf
00000070: 24d0 393f 835a fcbd 6878 ffbf 1e44 40be

arr_22 f4 [32]
3.60097 7.7705073 5.3079095 0.8098829 9.037031 4.816361 7.53909 6.0660386
2.8645175 4.928973 2.2213354 1.7361877 7.714785 10.898128 9.1536455 3.3683364
9.106625 5.1130066 10.351847 1.0692542 4.8097625 2.783009 3.0943487 3.061447
10.079849 8.023407 6.8974395 6.0878572 9.477813 0.706001 5.847066 0.97790456
00000000: 4b76 6640 ffa7 f840 65da a940 7c54 4f3f
00000010: ae97 1041 a11f 9a40 3a40 f140 fd1c c240
00000020: 4154 3740 26ba 9d40 5c2a 0e40 663b de3f
00000030: 85df f640 bb5e 2e41 5575 1241 d392 5740
00000040: bcb4 1141 c09d a340 2aa1 2541 52dd 883f
00000050: 93e9 9940 d21c 3240 cf09 4640 bfee 4340
00000060: 1047 2141 e05f 0041 d3b7 dc40 bacf c240
00000070: 1fa5 1741 7bbc 343f 2a1b bb40 f457 7a3f

arr_23 f4 [32]
-0.7340897 0.46061614 -0.19792867 -1.3469887 1.0756422 -0.62921196 1.0337464 0.021884687
0.4963546 -0.104283996 -0.72817755 0.4800459 -0.09627424 0.42632684 0.39178774 -0.78262943
0.48360252 -0.114579774 0.88048404 -0.10530694 -0.65253484 -0.12137872 -0.34496215 -0.8051502
0.9984904 0.5204164 -0.10623965 0.027819922 1.0757171 -1.3391744 -0.30501416 -1.2152644
00000000: 4ded 3bbf e1d5 eb3e d0ad 4abe 206a acbf
00000010: a5ae 893f 0914 21bf cd51 843f 8447 b33c
00000020: 3122 fe3e d992 d5bd d869 3abf 94c8 f53e
00000030: 6e2b c5bd 8347 da3e 6798 c83e 675a 48bf
00000040: c09a f73e cda8 eabd 6767 613f 2aab d7bd
00000050: 860c 27bf 6895 f8bd e19e b0be 531e 4ebf
00000060: 119d 7f3f 023a 053f 2c94 d9bd 9be6 e33c
00000070: 19b1 893f 116a abbf d12a 9cbe c98d 9bbf

arr_19 f4 [32]
0.6594379 0.5964505 0.7647983 0.3440106 0.6235512 0.71697783 0.7761126 0.5946339
0.615799 0.5416391 0.44995913 0.52293986 0.731647 0.64772105 0.6486448 0.63429695
0.5401977 0.7498817 0.3746684 0.6341038 0.5973503 0.674462 0.38911104 0.46268013
0.2885816 0.5103239 0.66257757 0.6936314 0.57657737 0.54140323 0.5853888 0.638497
00000000: ecd0 283f fbb0 183f d2c9 433f 2822 b03e
00000010: 0da1 1f3f dc8b 373f 51af 463f ed39 183f
00000020: 01a5 1d3f dca8 0a3f 0b61 e63e 63df 053f
00000030: 384d 3b3f 0cd1 253f 960d 263f 4961 223f
00000040: 654a 0a3f 3ff8 3f3f 89d4 bf3e a054 223f
00000050: f3eb 183f 8ba9 2c3f 9039 c73e 69e4 ec3e
00000060: f8c0 933e 96a4 023f af9e 293f d491 313f
00000070: 939a 133f 6799 0a3f 0adc 153f 8a74 233f

arr_18 f4 [32]
-1.1937099 -1.4569861 -0.50145173 -0.93691665 -0.25377318 -1.2332461 -0.81645346 -1.294708
-1.0775559 -0.87974495 -0.50900865 -1.7779847 -0.6792242 -1.1847155 -1.7304386 -1.0783032
-1.1751345 -1.0173326 -1.4339812 -1.281062 -1.4432809 -1.4567282 -0.8289181 -1.6371789
-1.995069 -0.45259067 -0.8647393 -1.1902658 -1.4366175 -1.2097516 -1.5785512 -1.3653494
00000000: 7ccb 98bf 857e babf 245f 00bf c5d9 6fbf
00000010: 8fee 81be 02db 9dbf 1803 51bf feb8 a5bf
00000020: 5aed 89bf f736 61bf 644e 02bf 0195 e3bf
00000030: a3e1 2dbf c2a4 97bf 037f ddbf d705 8abf
00000040: cf6a 96bf f437 82bf b28c b7bf d7f9 a3bf
00000050: 6ebd b8bf 1276 babf fa33 54bf 148f d1bf
00000060: 6c5e ffbf f7b9 e7be 8e5f 5dbf a15a 98bf
00000070: 15e3 b7bf 24d9 9abf f70d cabf c5c3 aebf

arr_11 f4 [32]
-0.66089314 -0.4317966 -0.65445197 -0.4881541 -0.736571 -0.43065736 -0.80020994 -0.2924612
-0.5985453 -1.0570785 -1.2464371 -0.6060486 -1.0506767 -1.1552911 -0.8325597 -0.7473193
-0.57441694 -0.7607587 -0.48603752 -0.31053305 -0.49251813 -0.94935274 -0.5904965 -0.9458825
-0.7636984 -0.5184637 -0.82514256 -0.7335877 -0.6765111 -0.83116776 -0.40628943 -0.30619642
00000000: 4b30 29bf 7214 ddbe 2a8a 27bf 56ef f9be
00000010: eb8f 3cbf 1f7f dcbe 8fda 4cbf 79bd 95be
00000020: 443a 19bf 594e 87bf 408b 9fbf 0026 1bbf
00000030: 937c 86bf 94e0 93bf a222 55bf 5150 3fbf
00000040: fd0c 13bf 15c1 42bf e9d9 f8be 30fe 9ebe
00000050: 562b fcbe c808 73bf c72a 17bf 5b25 72bf
00000060: bd81 43bf 09ba 04bf 8b3c 53bf 67cc 3bbf
00000070: d52f 2dbf 69c7 54bf 2b05 d0be c7c5 9cbe

arr_10 f4 [32, 32, 6, 6]
0.3158355 -0.1302547 0.17956436 -0.38993004 0.16455476 -0.010271542 0.19648272 0.056975994
-0.03527112 -0.2144195 -0.072993785 0.16872042 -0.047624107 0.35426164 -0.31468692 0.20041406
-0.45232722 0.19854143 0.21505061 -0.06609452 -0.2539602 -0.31085014 0.112845264 -0.04592142
-0.20986298 0.22279103 0.20403954 -0.047470868 0.28335044 -0.008213715 0.00022151874 0.065455765
0.2905918 0.41395542 0.12221919 0.12669058 0.35112554 0.20996812 -0.26783192 0.054055333
0.2224533 0.2561674 -0.130263 0.06257759 0.114170305 0.12548889 -0.021811621 0.5443402
0.23881905 -0.09870728 0.4943165 -0.29380596 -0.06027197 -0.39704317 -0.32271466 0.13878943
0.065334804 0.18230578 -0.039190046 -0.028701443 -0.35187027 0.008843773 -0.19128579 0.07764756
-0.20951782 0.025965633 0.022536669 -0.25886664 0.08294705 0.0013456597 0.13606888 -0.99240255
-0.024617134 -0.09564462 0.03243244 -0.0362623 0.18183029 0.100753225 0.12969905 0.014475583
-0.2711515 -0.44613436 -0.13572907 0.26099178 -0.503631 -0.38103074 -0.22474253 -0.52873
-0.059884865 -0.16620941 -0.12649335 -0.3996115 -0.19910192 -0.25482118 0.116773106 0.25796562
0.0488357 -0.68284523 -0.38996866 -0.03066301 0.27355772 0.109103456 -0.26177174 -0.24906142
-0.119819894 0.43691894 0.2178604 0.083587654 0.025135044 -0.19985309 -0.23466326 -0.26938063
-0.20938566 -0.49515796 0.6124976 0.512194 0.1578958 0.1507915 -0.2870553 0.11224678
-0.058625367 0.50181 0.116395995 -0.0844483 -0.18060048 -0.24101868 0.6361678 0.055161033
-0.34296665 0.20707202 -0.49924165 -0.08085091 -0.047619637 -0.023611696 -0.03982074 0.47415543
0.14995617 -0.2841298 0.25801945 -0.30256605 0.023682356 0.038156025 -0.156884 0.20123307
-0.23661695 0.081030436 0.09176979 0.2242038 0.04967175 -0.03612774 0.036342833 0.13171218
-0.0044843163 -0.21267776 -0.19895044 -0.3513727 -0.37281358 0.38699803 0.049011882 0.11247776
0.06695478 0.014899215 0.21415247 0.5754942 0.3860451 -0.027537396 0.4675271 -0.18706305
0.26099902 0.31275102 0.5618387 0.35571858 0.16415408 -0.0042492007 0.3493227 0.5399897
0.46914136 -0.20826931 0.05949191 0.36229193 -0.26483738 0.021630183 -0.08518605 0.039048463
0.6544187 0.4020843 -0.6258111 0.25799105 0.15263724 0.25242054 0.5252985 0.033079617
-0.26408014 -0.1444994 -0.06200047 0.22232032 -0.09431048 0.1865852 0.3558681 -0.310786
0.2335362 -0.062737115 -0.008736326 -0.17933202 0.23869963 -0.3419096 0.1930639 -0.29939365
-0.28998366 0.094453834 0.5294073 0.18095317 0.0074287113 0.3107051 -0.30988955 0.19248493
0.5391812 -0.28522667 0.35211375 0.36793056 -0.28401622 -0.040045552 0.36807638 0.16976623
0.13519707 0.06727029 -0.56318814 -0.5525245 0.55275863 -0.31609428 0.4297155 -0.32145908
-0.43243673 -0.4206571 0.115786545 0.43461764 -0.14076576 0.47175497 -0.051201057 -0.31402418
0.2721852 -0.04779731 0.3360713 0.22694373 0.24677323 0.4644412 0.04686821 -0.5191184
0.17854834 -0.023146095 -0.07837625 0.028084952 -0.084218524 -0.26049775 0.15617207 -0.14272252
00000000: 31b5 a13e 7d61 05be b8df 373e e9a4 c7be
00000010: 0b81 283e f849 28bc c432 493e a95f 693d
00000020: 7378 10bd c990 5bbe c47d 95bd 0cc5 2c3e
00000030: 7f11 43bd c861 b53e a51e a1be 5839 4d3e
00000040: 6f97 e7be 724e 4b3e 3a36 5c3e 905c 87bd
00000050: 1207 82be c027 9fbe 6b1b e73d 1918 3cbd
00000060: 52e6 56be 5523 643e beef 503e d070 42bd
00000070: 4f13 913e d192 06bc 7c47 6839 ac0d 863d
00000080: 73c8 943e f7f1 d33e 0e4e fa3d 2dbb 013e
00000090: bac6 b33e e201 573e 4421 89be 2069 5d3d
000000a0: ccca 633e 6028 833e aa63 05be ae28 803d
000000b0: 1fd2 e93d 2980 003e 49ae b2bc e159 0b3f
000000c0: fb8c 743e 0b27 cabd 0d17 fd3e bc6d 96be
000000d0: bedf 76bd 3e49 cbbe db3a a5be d11e 0e3e
000000e0: 41ce 853d 5eae 3a3e be85 20bd 4a1f ebbc
000000f0: 5728 b4be 79e5 103c 6ce0 43be af05 9f3d
00000100: d78b 56be e1b5 d43c d29e b83c 2b8a 84be
00000110: 25e0 a93d d960 b03a a455 0b3e 180e 7ebf
00000120: dfa9 c9bc 54e1 c3bd e1d7 043d c787 14bd
00000130: b831 3a3e b557 ce3d d4cf 043e ff2a 6d3c
00000140: 5fd4 8abe b96b e4be 90fc 0abe b7a0 853e
00000150: f6ed 00bf 7616 c3be e822 66be d95a 07bf
00000160: d549 75bd cd32 2abe 7987 01be e199 ccbe
00000170: 60e1 4bbe ec77 82be bd26 ef3d 1214 843e
00000180: f107 483d f2ce 2ebf f9a9 c7be fe30 fbbc
00000190: c20f 8c3e a271 df3d f206 86be f509 7fbe
000001a0: 2264 f5bd d7b3 df3e cc16 5f3e 0130 ab3d
000001b0: 02e8 cd3c 4aa6 4cbe 914b 70be 42ec 89be
000001c0: 3269 56be 5885 fdbe a5cc 1c3f 251f 033f
000001d0: 70af 213e 1669 1a3e eaf8 92be a4e1 e53d
000001e0: 2721 70bd 9f76 003f 0661 ee3d 3bf3 acbd
000001f0: 55ef 38be 9acd 76be e5db 223f 89f0 613d
00000200: 5399 afbe b00a 543e 9a9c ffbe 2995 a5bd
00000210: cf0c 43bd 516d c1bc 131b 23bd 80c4 f23e
00000220: 1c8e 193e 7679 91be 201b 843e f0e9 9abe
00000230: 8001 c23c 7e49 1c3d 33a6 20be 0b10 4e3e
00000240: b74b 72be 49f3 a53d cdf1 bb3d ae95 653e
00000250: 9b74 4b3d aefa 13bd 39dc 143d 8fdf 063e
00000260: 2cf1 92bb 33c8 59be aab9 4bbe 1fe7 b3be
00000270: 6ce1 bebe 9b24 c63e afc0 483d bd5a e63d
00000280: 961f 893d d61b 743c c94a 5b3e 9753 133f
00000290: b4a7 c53e 1b96 e1bc b65f ef3e 758d 3fbe
000002a0: aaa1 853e e720 a03e a9d4 0f3f bf20 b63e
000002b0: 0218 283e e13c 8bbb 6dda b23e c43c 0a3f
000002c0: 4c33 f03e 8d44 55be caad 733d 547e b93e
000002d0: c498 87be c831 b13c 0676 aebd 48f1 1f3d
000002e0: fc87 273f fedd cd3e 2835 20bf 6717 843e
000002f0: f04c 1c3e 443d 813e f679 063f 7e7e 073d
00000300: 8335 87be a7f7 13be 34f4 7dbd f0a7 633e
00000310: da25 c1bd 3110 3f3e 5834 b63e 581f 9fbe
00000320: 1d24 6f3e 517c 80bd cf22 0fbc d0a2 37be
00000330: ad6d 743e c60e afbe 8bb2 453e 204a 99be
00000340: bd78 94be 0371 c13d 3d87 073f ca4b 393e
00000350: 8c6c f33b bd14 9f3e d8a9 9ebe c51a 453e
00000360: c707 0a3f 3b09 92be 4148 b43e 6561 bc3e
00000370: 936a 91be ce06 24bd 8274 bc3e 33d7 2d3e
00000380: 1a71 0a3e 01c5 893d 192d 10bf 3f72 0dbf
00000390: 9781 0d3f 1cd7 a1be ac03 dc3e 4996 a4be
000003a0: 5968 ddbe 5e60 d7be 7f21 ed3d 3486 de3e
000003b0: e624 10be de89 f13e 33b8 51bd c7c7 a0be
000003c0: dc5b 8b3e 1dc7 43bd 8a11 ac3e f063 683e
000003d0: 1fb2 7c3e 3dcb ed3e e1f8 3f3d f2e4 04bf
000003e0: 60d5 363e e19c bdbc ba83 a0bd 6a12 e63c
000003f0: c37a acbd f65f 85be 92eb 1f3e da25 12be

arr_13 f4 [32]
-1.1848059 -1.1469299 -1.3031689 -0.73240167 -1.3757927 -0.43095613 -1.3311099 -0.7054105
-1.2532315 -1.1908495 -1.5984272 -1.2835889 -1.5900381 -1.5740278 -1.3605592 -1.2612668
-0.835111 -1.1282362 -0.73884386 -0.6757168 -1.160312 -1.6277449 -1.1298016 -1.679765
-1.3133657 -1.1998287 -0.8571686 -1.006421 -1.2707345 -1.1414148 -0.5413222 -0.61132544
00000000: b8a7 97bf 99ce 92bf 3dce a6bf ad7e 3bbf
00000010: fa19 b0bf 48a6 dcbe cf61 aabf c895 34bf
00000020: e469 a0bf c26d 98bf 4399 ccbf a44c a4bf
00000030: 5e86 cbbf be79 c9bf ce26 aebf 3171 a1bf
00000040: d6c9 55bf 0b6a 90bf df24 3dbf c7fb 2cbf
00000050: 1b85 94bf f259 d0bf 579d 90bf 8a02 d7bf
00000060: 5e1c a8bf fd93 99bf 676f 5bbf 67d2 80bf
00000070: 6ea7 a2bf e119 92bf 1794 0abf d37f 1cbf

arr_12 f4 [32]
0.6470328 0.82199955 0.72729695 0.66028076 0.8751544 0.7757113 0.81526583 0.6996833
0.9155612 0.9540459 1.0152185 0.8865549 0.9499788 1.107303 0.9192289 0.7116163
0.6077682 0.7348697 0.7265121 0.53060716 0.7648667 0.8024748 0.9001841 0.9729385
0.9105022 0.89690304 1.3990207 0.8274897 0.7724291 0.9041977 0.6948934 0.9483845
00000000: f1a3 253f 906e 523f 2230 3a3f 2908 293f
00000010: 1e0a 603f 0495 463f 43b5 503f 721e 333f
00000020: 3862 6a3f 5a3c 743f aef2 813f 43f5 623f
00000030: d031 733f 1bbc 8d3f 9652 6b3f 7c2c 363f
00000040: b296 1b3f 6c20 3c3f b2fc 393f dfd5 073f
00000050: 4ece 433f fd6e 4d3f 7772 663f 7f12 793f
00000060: ac16 693f 709b 653f 1c13 b33f 5dd6 533f
00000070: eabd 453f 8079 673f 89e4 313f 54c9 723f

arr_15 f4 [32, 32, 6, 6]
0.43236956 -0.31686416 -0.20843107 0.25929177 -0.3608121 -0.09361043 0.1326759 -0.039018594
-0.12794246 -0.28301883 0.02312598 -0.33044705 -0.8052863 -0.80454284 -0.081580885 -0.20080577
-0.32667053 0.2811107 -0.17505847 0.21479405 -0.084681414 -0.15467818 -0.3583224 -0.2454544
-0.14668147 0.031646058 -0.26840395 0.7705682 -0.061188877 0.39734644 0.11498798 0.010153648
0.25650385 -0.13922715 -0.15363804 -0.1421706 0.38191387 -0.08459356 0.029868536 0.11588626
-0.13791148 -0.20019275 0.04899602 -0.21919617 0.04756458 -0.12929343 -0.04071517 -0.23273496
0.17707072 0.40733603 -0.3544271 -0.4843691 -0.4008924 0.24771316 -0.5351486 -0.01471356
-0.05379073 0.16921864 -0.19206384 -0.27745178 0.22239888 0.07017531 -0.20190103 0.013060882
-0.45868737 0.23564148 -0.45571968 0.09751142 -0.0973413 -0.07167451 0.04406765 -0.2909098
0.18863401 0.12361355 -0.046164915 0.1505057 0.28297585 0.5585365 -0.2875239 -0.10025744
-0.17615528 -0.07902941 0.20810796 0.35922912 0.11647249 0.43371496 0.24227759 -0.5742567
0.056630306 0.121965736 0.05913277 -0.18773122 -0.2311237 -0.14654216 -0.07153105 -0.41057488
-0.10277646 0.08196889 -0.008834508 -0.21812907 0.1953934 0.23065533 -0.0056154784 -0.16464055
-0.50825095 -0.11443354 0.14605695 0.16574652 0.07390375 -0.145207 0.28000438 -0.12554622
0.03117442 0.23348933 -0.6487334 0.30315256 -0.5819439 0.20884514 -0.6352732 0.10028538
0.052336864 0.36596042 0.16878296 -0.28257343 -0.112177804 0.39976287 -0.53622854 -0.27812162
-0.33066174 0.4598348 -0.65162975 0.20680241 0.43865946 -0.23652469 0.23985142 -0.0047559123
0.30490038 -0.1106757 -0.60233146 -0.09769655 -0.69289386 0.5479399 -0.85713047 0.6002326
-0.2811866 0.15248823 -0.032221097 -0.042025123 0.15610124 -0.44929808 -0.20493597 0.27490664
0.15228735 -0.06716927 -0.20341276 0.027671073 0.15986407 -0.040845796 -0.27316618 -0.15261509
-0.08908564 -0.6249469 0.13197193 -0.37953076 -0.062188536 0.21529996 -0.21023758 -0.6202286
-0.25686282 0.14686103 0.026987392 -0.00538057 -0.5280809 -0.007432842 0.029809818 0.07385007
0.24158314 -0.32848832 -0.12026555 -0.019759305 0.03602153 -0.16499501 -0.20446648 -0.28385693
0.2479466 -0.31242782 -0.05100492 -0.09985697 -0.21325341 -0.24550985 -0.7625082 0.0024805265
0.10185564 -0.14415707 -0.011684287 -0.24644552 -0.10552116 -0.13447824 -0.063294604 0.14989914
0.105709665 -0.034711227 0.1462595 -0.00046077205 -0.08431561 0.124104016 0.09047532 0.2685193
0.08962261 0.42955732 -0.13106054 0.24476372 0.4164616 -0.059604637 0.31526184 -0.011585509
-0.0537341 -0.44484422 -0.04944384 0.093960665 0.5667785 0.20959237 -0.12149903 -0.019453749
0.10809426 -0.29486662 0.08646293 -0.041758314 0.2102784 -0.41333905 0.042776145 0.01592719
0.1752161 0.18504201 -0.35404435 0.08573017 0.07947385 0.13236968 0.34977984 0.3101199
0.03476979 -0.08879871 0.25110132 -0.040632147 0.54559445 0.003282816 0.18386367 -0.10502872
0.072719924 -0.10588154 -0.24717878 0.08897083 0.19503486 -0.15723066 -0.11345564 -0.15306744
00000000: 8b5f dd3e 053c a2be f46e 55be e4c1 843e
00000010: 5dbc b8be d3b6 bfbd 31dc 073e f6d1 1fbd
00000020: 5903 03be d8e7 90be b272 bd3c 5b30 a9be
00000030: 3e27 4ebf 85f6 4dbf e113 a7bd 07a0 4dbe
00000040: 5c41 a7be beed 8f3e 8742 33be f9f2 5b3e
00000050: 736d adbd f563 1ebe 0976 b7be 6658 7bbe
00000060: ab33 16be 4c9f 013d 3e6c 89be f543 453f
00000070: 30a1 7abd fe70 cb3e d17e eb3d 7d5b 263c
00000080: 7954 833e 9091 0ebe 4a53 1dbe 2b95 11be
00000090: 378a c33e 633f adbd dcae f43c c755 ed3d
000000a0: ab38 0dbe 54ff 4cbe 0db0 483d f674 60be
000000b0: 14d3 423d 7f65 04be f3c4 26bd 1352 6ebe
000000c0: 0752 353e 598e d03e 7877 b5be 3aff f7be
000000d0: c541 cdbe 85a8 7d3e 80ff 08bf 2511 71bc
000000e0: ab53 5cbd a747 2d3e 62ac 44be 290e 8ebe
000000f0: 88bc 633e 13b8 8f3d 25bf 4ebe 4ffd 553c
00000100: 12d9 eabe 004c 713e 1754 e9be 11b4 c73d
00000110: e05a c7bd 16ca 92bd 4880 343d 21f2 94be
00000120: 4629 413e 1a29 fd3d 6c17 3dbd 2b1e 1a3e
00000130: 36e2 903e 40fc 0e3f 5536 93be c653 cdbd
00000140: 0d62 34be 2cda a1bd 411a 553e e1ec b73e
00000150: 2189 ee3d e30f de3e 9e17 783e 7d02 13bf
00000160: 2ef5 673d 2cc9 f93d 3435 723d 9d3c 40be
00000170: b1ab 6cbe 260f 16be df7e 92bd df36 d2be
00000180: 777c d2bd 4edf a73d 9dbe 10bc 3a5d 5fbe
00000190: 3515 483e e930 6c3e 0c02 b8bb 8897 28be
000001a0: bc1c 02bf 225c eabd f48f 153e 75b9 293e
000001b0: d95a 973d 25b1 14be bc5c 8f3e 308f 00be
000001c0: 7f61 ff3c d417 6f3e 6413 26bf d036 9b3e
000001d0: 47fa 14bf 80db 553e 44a1 22bf 6c62 cd3d
000001e0: 2e5f 563d 2a5f bb3e 71d5 2c3e 77ad 90be
000001f0: 7abd e5bd b8ad cc3e 4646 09bf f565 8ebe
00000200: 7f4c a9be 786f eb3e 35d1 26bf 03c4 533e
00000210: f997 e03e 8733 72be 9c9b 753e 7cd7 9bbb
00000220: e71b 9c3e f1a9 e2bd 6532 1abf 2115 c8bd
00000230: 7e61 31bf ca45 0c3f e76c 5bbf d8a8 193f
00000240: b1f7 8fbe e025 1c3e 45fa 03bd 8922 2cbd
00000250: 01d9 1f3e 660a e6be bcda 51be 90c0 8c3e
00000260: 37f1 1b3e 0b90 89bd 6f4b 50be 72ae e23c
00000270: 68b3 233e ec4d 27bd 70dc 8bbe 2147 1cbe
00000280: 8872 b6bd 85fc 1fbf a623 073e db51 c2be
00000290: 68b9 7ebd 9877 5c3e 8548 57be 4dc7 1ebf
000002a0: 8683 83be bd62 163e aa14 dd3c 7e4f b0bb
000002b0: 4f30 07bf 338f f3bb b833 f43c b53e 973d
000002c0: 9261 773e 9f2f a8be c94d f6bd 44de a1bc
000002d0: 508b 133d 74f4 28be a95f 51be b255 91be
000002e0: b7e5 7d3e 8af6 9fbe 89ea 50bd d081 ccbd
000002f0: 1a5f 5abe ef66 7bbe bd33 43bf 5490 223b
00000300: b199 d03d e99d 13be 746f 3fbc 375c 7cbe
00000310: 7a1b d8bd aab4 09be 9aa0 81bd 297f 193e
00000320: 4f7e d83d 5c2d 0ebd 0dc5 153e c793 f1b9
00000330: aaad acbd 3f2a fe3d 204b b93d 5d7b 893e
00000340: 0f8c b73d f0ee db3e bc34 06be 57a3 7a3e
00000350: 743a d53e fe23 74bd 006a a13e 26d1 3dbc
00000360: 4a18 5cbd 9fc2 e3be a085 4abd 736e c03d
00000370: 6518 113f 629f 563e 7cd4 f8bd 785d 9fbc
00000380: 8660 dd3d c2f8 96be 7a13 b13d c40a 2bbd
00000390: 3953 573e 2da1 d3be 0a36 2f3d bd79 823c
000003a0: d96b 333e a77b 3d3e 4d45 b5be 4d93 af3d
000003b0: 30c3 a23d eb8b 073e 5816 b33e 09c8 9e3e
000003c0: c46a 0e3d 19dc b5bd 5a90 803e e56d 26bd
000003d0: 14ac 0b3f 8324 573b c246 3c3e 4c19 d7bd
000003e0: 2fee 943d 6cd8 d8bd 6f1c 7dbe 5736 b63d
000003f0: 38b7 473e 1301 21be 6e5b e8bd b6bd 1cbe

arr_14 f4 [32]
0.68357307 0.62177527 0.66669136 0.6668198 0.56437415 0.62665844 0.67158496 0.67682654
0.56258756 0.678633 0.6476634 0.59095585 0.650993 0.6578284 0.641187 0.6161319
0.63653696 0.6347366 0.6540808 0.6818991 0.62412995 0.7316842 0.6150035 0.6228179
0.65155023 0.60040456 0.5620863 0.68699074 0.6418366 0.64974344 0.70419097 0.6171184
00000000: a5fe 2e3f aa2c 1f3f 49ac 2a3f b4b4 2a3f
00000010: d37a 103f b06c 203f feec 2b3f 8144 2d3f
00000020: bd05 103f e4ba 2d3f 45cd 253f e248 173f
00000030: 7aa7 263f 7167 283f d524 243f d2ba 1d3f
00000040: 16f4 223f 197e 223f d771 273f f090 2e3f
00000050: fbc6 1f3f a84f 3b3f df70 1d3f fe70 1f3f
00000060: ffcb 263f 1db4 193f e3e4 0f3f a0de 2f3f
00000070: 674f 243f 9655 263f dc45 343f 79fb 1d3f

arr_17 f4 [32]
0.7220568 0.82736766 0.6702084 0.5731576 1.1501245 1.1007739 0.72452354 0.7509124
0.58218855 0.8308408 1.1423343 0.8704854 0.98771375 0.7146288 0.9254512 0.71254873
1.3055054 0.8351936 0.72031075 1.0418056 0.696135 0.84983885 0.7011806 0.7401802
0.58433527 0.98287135 0.5328462 0.726751 0.86845505 0.82748127 0.8201552 0.6835762
00000000: b7d8 383f 5ece 533f c792 2b3f 75ba 123f
00000010: 4837 933f 29e6 8c3f 607a 393f cc3b 403f
00000020: 4f0a 153f fcb1 543f 0338 923f 22d8 5e3f
00000030: cfda 7c3f eaf1 363f 5fea 6c3f 9869 363f
00000040: cd1a a73f 3fcf 553f 4966 383f e359 853f
00000050: e735 323f 0a8f 593f 9280 333f 737c 3d3f
00000060: ff96 153f 759d 7b3f 9c68 083f 5b0c 3a3f
00000070: 1253 5e3f d0d5 533f b1f5 513f dafe 2e3f

arr_16 f4 [32]
-0.6392726 -0.604027 -0.5200511 -0.068322964 -0.53255963 -1.0543293 -0.6628731 -0.52211636
-0.4178022 -0.37053418 -0.062532395 -0.7006584 -0.6585068 -0.5200753 -1.03139 -0.52671343
-1.0022924 -0.7994995 -0.2908012 -0.80477947 -0.62421983 -0.8805683 -0.3324985 -0.37771356
-0.27048782 -0.16908921 -0.38718948 -0.59891325 -0.5813913 -0.56953794 -0.73275757 -0.632338
00000000: 5ea7 23bf 83a1 1abf 1222 05bf e9ec 8bbd
00000010: d455 08bf 43f4 86bf 0db2 29bf 6ba9 05bf
00000020: 2cea d5be a8b6 bdbe fc10 80bd 595e 33bf
00000030: e793 28bf a823 05bf 9604 84bf b1d6 06bf
00000040: 1e4b 80bf 00ac 4cbf e5e3 94be 0706 4ebf
00000050: dfcc 1fbf ed6c 61bf 3e3d aabe ac63 c1be
00000060: 617d 8abe b925 2dbe b33d c6be 6152 19bf
00000070: 0fd6 14bf 3dcd 11bf 0096 3bbf e7e0 21bf

arr_1 f4 [512]
-0.264119 -0.6424035 0.16805938 -1.1326109 -0.6527724 -0.48117724 -0.012270569 -0.005632799
-0.20799243 -0.06569762 -0.53250504 0.35988322 -0.34479186 -0.17283246 -0.41611362 -1.0896839
-0.36658442 -0.6810756 -0.38628355 -0.20380642 -0.5522768 -1.2581946 -0.9340717 -0.43805727
0.19126958 -0.42216635 -0.67935795 -0.6504628 -0.011352222 -0.31915694 -0.030893467 -0.1648839
-0.6912756 -0.40885875 -0.53629595 -0.56056523 -0.5019286 -0.26670966 -0.74891806 0.15419662
-0.36413765 -0.24633777 -0.1362816 -0.5499932 0.14101045 -0.4998051 0.6452599 -0.39119163
-0.2530899 -0.071398124 -1.0584159 0.22944744 -0.5966265 -0.46166486 -0.49112204 -0.66180176
-0.23923284 -0.61756396 -0.3007076 -0.1175918 -0.2886402 -0.21398097 -0.023664841 -0.0789141
-1.1785434 -0.56502295 -0.40145752 -0.21624695 -0.5784293 -0.51317155 -0.7877139 -0.07018594
-0.66167015 -0.777846 -0.9919365 -0.069495454 0.168138 -0.35668775 -0.6230491 -0.3332777
-0.8508224 -0.7093402 -0.0976546 -0.7363795 -0.45509663 -0.37037203 -0.4909992 -0.466304
0.022111911 -0.395777 -0.6535412 -0.2755944 -0.48034364 -0.61801183 -0.69489396 -0.0645966
-0.36819577 -0.17806217 -0.23481202 -0.8134242 0.22389174 -0.7180996 0.14859524 0.05485466
-0.36816406 -0.47431332 -0.51553357 -0.32621446 -0.0002516299 -0.09567722 -0.07297052 0.16163348
-0.7854251 0.19036487 0.47800994 -0.37140152 -0.3171244 -0.745132 -0.7057058 0.20608456
-0.45530435 -0.45426127 -0.6199589 -0.67861974 0.011269049 -0.6906695 0.5501431 -0.4847284
0.012647845 -0.27391997 -0.025719132 0.32172328 -0.49249715 -0.55870664 -0.70710903 -0.5047708
0.20755218 -0.4953089 -0.46450132 -0.7187971 -0.2749572 0.08834652 -0.42593023 -0.2949385
-0.43539217 -0.41718292 0.37441826 -0.49025208 0.26511702 0.031332605 -0.6489179 -0.4950634
-0.6601451 -0.3763783 -0.67388225 -0.25510713 -0.23719223 -0.37787178 0.6575101 -0.51234984
0.30640066 -0.55318797 -0.67735314 0.05343983 -0.3978682 -0.4463984 -0.3799552 -0.4987413
0.026056837 -0.5262337 0.037512086 -0.24591093 -0.09712997 -0.27745742 -0.031964716 -0.42317462
-0.34650713 -0.5062724 -0.044105776 -1.1460516 -0.5013028 0.15107808 -0.59165347 -0.44777787
-0.31585932 -0.40381464 -0.014457044 0.06203883 -0.44717318 0.1319664 -0.27805707 -0.3606813
-1.1544727 -0.31938225 -0.52456367 -0.2569263 -1.0635458 -0.2569727 -1.1108125 -0.12308089
-0.5944154 -0.5111792 -0.10614324 -0.62932575 -0.011860561 -0.42769754 -0.66410846 -0.3319156
-0.319096 -0.30430523 0.05134795 -0.2724838 -0.5629435 -0.14710516 -0.24315228 -0.08192791
-0.6272593 -0.46327335 -0.42240852 -1.106919 -1.1487565 -0.41180727 -0.22442873 -0.54928803
0.34001473 -0.39489338 0.15745942 -0.018682221 0.011301137 -0.7183804 -0.3366487 -0.6157966
-0.6393363 0.003031264 -0.7743987 -0.749082 -0.25704086 -0.11892683 0.16842964 -0.24489835
-0.5330266 -0.40074822 -0.6585102 -0.42082947 -0.2672114 -0.29099107 -0.6681889 -0.6135891
-0.04704406 0.08231694 -1.2665044 -0.44621453 0.19867688 0.08805079 -0.7721733 -0.21472159
00000000: 9b3a 87be 8e74 24bf c217 2c3e 65f9 90bf
00000010: 181c 27bf dd5c f6be 7f0a 49bc 5893 b8bb
00000020: f8fb 54be 798c 86bd 4052 08bf 9d42 b83e
00000030: 8f88 b0be fefa 30be d80c d5be c37a 8bbf
00000040: f4b0 bbbe f85a 2ebf f5c6 c5be a1b2 50be
00000050: 0362 0dbf 850c a1bf 531f 6fbf 0b49 e0be
00000060: 2cdc 433e 3026 d8be 67ea 2dbf bb84 26bf
00000070: acfe 39bc 8a68 a3be 4c14 fdbc 53d7 28be
00000080: 70f7 30bf ef55 d1be b14a 09bf 3481 0fbf
00000090: 657e 00bf 2b8e 88be 18b9 3fbf b8e5 1d3e
000000a0: 4070 babe f83f 7cbe 678d 0bbe 5bcc 0cbf
000000b0: 0b65 103e 74e6 ffbe c12f 253f 454a c8be
000000c0: 0095 81be 2e39 92bd 2c7a 87bf 45f4 6a3e
000000d0: 84bc 18bf 565f ecbe 5974 fbbe d76b 29bf
000000e0: 74f9 74be ac18 1ebf 59f6 99be f8d3 f0bd
000000f0: a6c8 93be d41d 5bbe c5dc c1bc b79d a1bd
00000100: 83da 96bf 58a5 10bf d78b cdbe d76f 5dbe
00000110: f113 14bf 365f 03bf 9ea7 49bf a5bd 8fbd
00000120: 3763 29bf ea20 47bf 8def 7dbf a253 8ebd
00000130: 5e2c 2c3e c79f b6be 2580 1fbf 60a3 aabe
00000140: 7fcf 59bf 5297 35bf 23ff c7bd 5e83 3cbf
00000150: 6d02 e9be 67a1 bdbe 3f64 fbbe 66bf eebe
00000160: 0a24 b53c 48a3 cabe 7a4e 27bf b61a 8dbe
00000170: 9aef f5be 0636 1ebf 92e4 31bf 394b 84bd
00000180: 2884 bcbe ee55 36be 9072 70be 923c 50bf
00000190: e043 653e 60d5 37bf 5a29 183e 48af 603d
000001a0: 0080 bcbe 32d9 f2be 02fa 03bf 9505 a7be
000001b0: 32ed 83b9 6bf2 c3bd 9171 95bd 3f83 253e
000001c0: 9f11 49bf 02ef 423e b8bd f43e 5728 bebe
000001d0: 215e a2be f9c0 3ebf 23a9 34bf d507 533e
000001e0: a71d e9be ef94 e8be a0b5 1ebf 06ba 2dbf
000001f0: d1a1 383c b7cf 30bf 2ed6 0c3f 522e f8be
00000200: e838 4f3c 3d3f 8cbe eeb0 d2bc eab8 a43e
00000210: 9628 fcbe 6607 0fbf 1905 35bf a938 01bf
00000220: 8f88 543e 2199 fdbe 1ed3 edbe 1603 38bf
00000230: 31c7 8cbe 05ef b43d 8713 dabe 2e02 97be
00000240: b9eb debe 0099 d5be c0b3 bf3e 5202 fbbe
00000250: 6bbd 873e 9e56 003d 7c1f 26bf f378 fdbe
00000260: 45ff 28bf a8b4 c0be 8c83 2cbf 679d 82be
00000270: 85e2 72be 6978 c1be 9552 283f 5c29 03bf
00000280: 8ce0 9c3e ba9d 0dbf 0467 2dbf b9e3 5a3d
00000290: 61b5 cbbe 558e e4be 7d89 c2be 055b ffbe
000002a0: 2675 d53c 40b7 06bf 46a6 193d 13d0 7bbe
000002b0: 14ec c6bd e60e 8ebe 6fed 02bd 58aa d8be
000002c0: 6269 b1be 119b 01bf 42a8 34bd d2b1 92bf
000002d0: 6155 00bf 36b4 1a3e 9a76 17bf 2443 e5be
000002e0: 50b8 a1be cbc0 cebe 3ddd 6cbc 6e1c 7e3d
000002f0: e2f3 e4be 3322 073e 7f5d 8ebe 38ab b8be
00000300: c3c5 93bf 1286 a3be ce49 06bf d88b 83be
00000310: 4522 88bf ed91 83be 1b2f 8ebf d511 fcbd
00000320: 9c2b 18bf a4dc 02bf a161 d9bd 7e1b 21bf
00000330: cc52 42bc 2cfb dabe 0303 2abf d7f0 a9be
00000340: 8d60 a3be e5cd 9bbe 3a52 523d ff82 8bbe
00000350: 111d 10bf bca2 16be e9fc 78be d2c9 a7bd
00000360: 1194 20bf 2a32 edbe ee45 d8be 86af 8dbf
00000370: 740a 93bf 67d8 d2be a5d0 65be 249e 0cbf
00000380: 6916 ae3e 772f cabe 0b3d 213e 750b 99bc
00000390: 6728 393c c7e7 37bf 385d acbe d9a4 1dbf
000003a0: 8bab 23bf 2ca8 463b fe3e 46bf d7c3 3fbf
000003b0: dc9a 83be e98f f3bd d278 2c3e a2c6 7abe
000003c0: 6e74 08bf df2e cdbe 2094 28bf f676 d7be
000003d0: efcf 88be c8fc 94be 6e0e 2bbf 2d14 1dbf
000003e0: 46b1 40bd c995 a83d d11c a2bf 3b76 e4be
000003f0: f471 4b3e f953 b43d 26ad 45bf fadf 5bbe

arr_0 f4 [23, 512]
-0.12648065 -0.32727498 -0.14200932 -0.20304258 -0.21608369 -0.4320506 -0.19840409 -0.11593656
-0.2083129 -0.0021643115 -0.2061975 -0.16553685 0.042104427 0.05744771 0.15290426 0.15409952
0.002261064 -0.15973711 -0.019035675 -0.10183181 0.005552586 0.15568534 -0.22053762 0.117371194
-0.11350556 -0.38665277 -0.41584876 -0.09123275 0.10055533 0.03573223 0.25302786 -0.28223312
-0.04274952 -0.09270846 0.05490105 -0.30237368 -0.3483296 0.30185044 0.09886384 0.06936532
0.05392696 0.2660171 -0.31982166 -0.20038037 -0.21437943 -0.024063278 -0.27465326 0.030236935
-0.12651089 -0.14733149 0.040764462 0.16568814 0.37907085 -0.08840791 -0.58719295 0.27003002
0.32333723 -0.010171832 0.06351622 -0.31541425 -0.30369383 -0.14763904 -0.22549148 0.07971911
-0.1018082 0.020042114 0.33734083 -0.061881572 -0.4799233 -0.27609697 -0.36770567 -0.0019820423
0.2541911 -0.10967519 0.028865043 0.017650483 0.2218364 0.047539596 0.20964158 0.44361806
-0.09475979 -0.2698853 0.11809599 -0.14253093 0.018951269 -0.031850614 -0.23205261 -0.0428345
0.03263447 0.3914255 -0.079166465 -0.1211532 -0.092360586 -0.00057771226 -0.08071558 0.40833414
0.08163662 -0.04127275 0.06709553 0.1857818 0.06601821 0.12655671 -0.3867552 -0.14013225
0.14784041 0.14087598 -0.15199763 -0.2552953 0.2614556 -0.22225083 0.057579476 0.37832236
0.09167789 -0.16060473 -0.03271603 -0.43147874 0.14721878 -0.20446295 0.16049257 -0.16819663
-0.02929733 -0.08320195 -0.2090327 -0.48054385 -0.30785686 0.024734044 0.07286803 -0.43784422
-0.38739893 -0.1394478 0.17569658 -0.2318947 0.2812183 0.035415523 -0.259373 -0.3479892
-0.035522304 0.00296604 -0.22659805 -0.10293966 -0.57052684 0.037564185 -0.038992308 0.02467883
-0.60800743 -0.07770472 0.15924598 -0.1497612 0.26086825 -0.11615754 -0.40702838 -0.22870792
-0.1232976 0.21104158 0.28313586 0.13472052 0.27090833 -0.02112971 0.15586632 -0.17340033
-0.123618945 -0.40422323 -0.10049627 -0.29714075 0.02460186 -0.12755361 -0.0018423115 -0.259139
-0.0677563 0.11011363 -0.009891555 0.22644436 0.24754798 -0.35700318 -0.14472166 0.15036994
0.004012843 -0.29181382 -0.29342753 -0.3654962 -0.07040593 -0.3963803 0.03877832 0.07309592
-0.12205999 -0.0034900366 -0.3906764 -0.22918387 0.4632716 0.31708327 -0.14800122 0.09967971
0.09892885 -0.11011423 0.35506567 0.12154356 0.07190563 0.26776242 -0.12454847 -0.2255914
-0.44184566 -0.32114518 -0.30458227 -0.40205655 -0.21005194 -0.45434886 0.16767362 0.19647884
-0.21778229 -0.14206865 0.17428926 -0.14652367 -0.4363962 -0.08297517 -0.34166625 0.103118785
-0.24715482 0.13232851 0.1695362 -0.009169277 -0.087772325 0.10584593 -0.24453358 -0.35017735
-0.070746906 -0.2522421 -0.37224162 0.075158715 -0.18331651 0.1711943 0.10330625 -0.12886849
-0.4927384 -0.36306554 -0.18580362 -0.057366632 -0.37346587 -0.07431769 -0.2637729 -0.3359921
0.27117836 -0.042707283 0.09717893 -0.31882876 -0.056706022 0.19186676 -0.029322857 0.08386648
-0.104367666 -0.15347 -0.17359369 0.0111055225 -0.007872494 -0.35694996 0.2916177 -0.055852745
00000000: 2584 01be 9690 a7be e46a 11be 65ea 4fbe
00000010: 0b45 5dbe bc35 ddbe 712a 4bbe 2670 edbd
00000020: fa4f 55be 1fd7 0dbb 7025 53be 7e82 29be
00000030: b175 2c3d 4a4e 6b3d ef92 1c3e 44cc 1d3e
00000040: 5c2e 143b 2092 23be b4f0 9bbc 328d d0bd
00000050: 78f2 b53b fa6b 1f3e 9dd4 61be 4f60 f03d
00000060: 9a75 e8bd 5af7 c5be 21ea d4be 3cd8 babd
00000070: f4ef cd3d f55b 123d de8c 813e dc80 90be
00000080: 1f1a 2fbd efdd bdbd ecdf 603d b9d0 9abe
00000090: 4258 b2be 248c 9a3e 2079 ca3d 680f 8e3d
000000a0: 84e2 5c3d 6533 883e aabf a3be 8330 4dbe
000000b0: 4886 5bbe 5a20 c5bc 5a9f 8cbe 73b3 f73c
000000c0: 128c 01be 11de 16be a3f8 263d 27aa 293e
000000d0: 9315 c23e 350f b5bd 4752 16bf 6041 8a3e
000000e0: 758c a53e c1a7 26bc cb14 823d fa7d a1be
000000f0: c27d 9bbe b02e 17be 3de7 66be c643 a33d
00000100: d180 d0bd 5c2f a43c f0b7 ac3e 8877 7dbd
00000110: 82b8 f5be 955c 8dbe eb43 bcbe 27e5 01bb
00000120: 5625 823e 639d e0bd 6276 ec3c bf97 903c
00000130: 1529 633e e1b8 423d 48ac 563e e821 e33e
00000140: 6c11 c2bd 682e 8abe 4fdc f13d a1f3 11be
00000150: b13f 9b3c ca75 02bd 339f 6dbe 3b73 2fbd
00000160: b9ab 053d ec68 c83e 0722 a2bd 2b1f f8bd
00000170: 8c27 bdbd 9d71 17ba 364e a5bd 2c11 d13e
00000180: 1a31 a73d 9d0d 29bd 6269 893d 963d 3e3e
00000190: 8e34 873d 1598 013e c704 c6be d47e 0fbe
000001a0: 7a63 173e cb41 103e 44a5 1bbe 11b6 82be
000001b0: 82dd 853e b995 63be 75d8 6b3d 78b3 c13e
000001c0: 9ec1 bb3d 9175 24be 3e01 06bd c8ea dcbe
000001d0: 85c0 163e bc5e 51be 2a58 243e bd3b 2cbe
000001e0: f400 f0bc c965 aabd ab0c 56be d809 f6be
000001f0: 6a9f 9dbe 0d9f ca3c d53b 953d 1e2d e0be
00000200: 2759 c6be 67cb 0ebe cee9 333e ce75 6dbe
00000210: d8fb 8f3e de0f 113d 8acc 84be a42b b2be
00000220: d67f 11bd e561 423b 5209 68be 07d2 d2bd
00000230: 0c0e 12bf e7dc 193d 66b6 1fbd 422b ca3c
00000240: 60a6 1bbf a723 9fbd 6111 233e 005b 19be
00000250: 8690 853e 01e4 edbd 0666 d0be 6932 6abe
00000260: 7483 fcbd 491b 583e 2ff7 903e 2df4 093e
00000270: 7fb4 8a3e 3718 adbc 6c9b 1f3e db8f 31be
00000280: ee2b fdbd 59f6 cebe fdd0 cdbd d522 98be
00000290: d789 c93c 6a9d 02be b779 f1ba dead 84be
000002a0: d1c3 8abd 4183 e13d 3010 22bc 08e1 673e
000002b0: 387d 7d3e 1fc9 b6be ea31 14be 94fa 193e
000002c0: 2b7e 833b 9f68 95be 223c 96be 5122 bbbe
000002d0: fc30 90bd 5cf2 cabe 04d6 1e3d 50b3 953d
000002e0: 97fa f9bd 19b9 64bb bd06 c8be 2daf 6abe
000002f0: ef31 ed3e bd58 a23e a28d 17be e024 cc3d
00000300: 359b ca3d 9283 e1bd 2bcb b53e d4eb f83d
00000310: 4243 933d 2818 893e 4513 ffbd 6f01 67be
00000320: 9839 e2be 246d a4be 35f2 9bbe 5bda cdbe
00000330: db17 57be 6aa0 e8be a2b2 2b3e c031 493e
00000340: 5202 5fbe 727a 11be e278 323e 4d0a 16be
00000350: 536f dfbe e3ee a9bd e1ee aebe f12f d33d
00000360: 2716 7dbe 2081 073e e69a 2d3e bc3a 16bc
00000370: fac1 b3bd c0c5 d83d 0367 7abe 724a b3be
00000380: c1e3 90bd e025 81be 7496 bebe d0ec 993d
00000390: 53b7 3bbe 8f4d 2f3e 3a92 d33d 1af6 03be
000003a0: 3548 fcbe bae3 b9be 4e43 3ebe 46f9 6abd
000003b0: eb36 bfbe e033 98bd 3e0d 87be 2807 acbe
000003c0: e4d7 8a3e d5ed 2ebd bf05 c73d 863d a3be
000003d0: 9344 68bd b878 443e 7d36 f0bc 30c2 ab3d
000003e0: b7be d5bd 3d27 1dbe 8bc2 31be f0f3 353c
000003f0: a2fb 00bc 25c2 b6be ea4e 953e d9c5 64bd
