pretrained_model/ICVL_pretrained/params/-1_reco_params.npz (npz, 497458 bytes, 22 tensors)

arr_20 f4 [23, 23]
00000000: c2fb 573d d858 95bd 5005 cd3d 2225 c33c
00000010: aafd abbc d2bc 863d b7b5 5a3d f19d a33d
00000020: f7b5 3f3d 19fc d63d 0c29 67bd ca1f a9bd
00000030: d762 dfbd 8185 febc e8b7 9ebc 6a0b 173d
00000040: d26c acbc 28d9 983a 9581 9e3c 3280 913d
00000050: 32b2 b5bd 5546 d4bd 3225 7c3e 8d75 e6bd
00000060: 9959 37be df9b a13d 1278 aa3d 50eb b1bc
00000070: 37d4 90be 91ae debc 33a0 023e 4665 10bd
00000080: 80ff 083b 97b9 9ebc 5e3d 12be b7d2 a73d
00000090: cf69 cc3d bbf0 c6bd ef71 4d3e 4c45 883d
000000a0: b77c 073d 5492 3b3e 37e7 98bd 8173 583e
000000b0: 57e6 c5bc 1873 68be c323 b13d 39e6 fc3d
000000c0: 12c0 3cbd c432 2f3e 5282 babd 76c4 44bd
000000d0: fd69 c6bd 42c9 dd3d 507f a93d c99c dbbc
000000e0: 96fd 15bd 8c3f 533c d844 ef3c 2a07 213d
000000f0: 02a1 aa3c 3857 f7bd a11e 1b3d 029a 3fbe
00000100: 1731 91bc c0ec a63c b318 1dbe 8536 f2bd
00000110: 1112 0d3e 5c81 c2bd 5822 463d 09e4 55bc
00000120: 1dac 973d 85c9 72bd a9d6 1fbc 1776 44ba
00000130: 51df 8dbd da16 53be 034d 7d3d 90be aebd
00000140: 8dbf 903d fea0 c33d c350 e6bd e0bb 94bb
00000150: 04c7 4fbd c96d 4ebe 1fb4 903d 40b5 4c3d
00000160: e34e 653d 5681 68be 3ac5 eabc d190 7b3e
00000170: 9238 9abd 8d64 4d3d 096a 8ebd 4e6a 21bb
00000180: 3f22 033d 4112 513d 02f0 09bc 04bd 0a3d
00000190: 56e8 893d 8a96 2abc 1662 cd3c daff 7c3d
000001a0: ea05 24bd 1464 283d ad01 3b3c 3baa 47bd
000001b0: b262 21bd c3ea 823d 1381 813d f07b 0c3d
000001c0: c488 4b3e 5a18 3ebe b332 5c3e 63c8 23bc
000001d0: b009 64bc 1148 d3bc 6ee7 283d 8b96 3e3e
000001e0: 6c07 9ebd b5cd 023e 0667 823b f44a a73b
000001f0: 99ad 0abd fb59 853d 239c f33d 0b52 c93d
00000200: 6465 083e 6cc3 c0bd ff98 2ebe 9bf6 1bbe
00000210: dd03 013e 6b23 99be 9f91 cbbd 3b7a 633e
00000220: 8492 943c 428c 29be fcb4 c63d 8568 f03c
00000230: 9fb3 123e 774e f63c 64c2 543e 019a 6dbe
00000240: 723e 22be 8b25 033d 3141 663d bb47 153e
00000250: 96d3 3d3d 126f 8b3d 66da 2bbe f6ac d1bc
00000260: 59d3 443e 3107 86bd 8dbd 273e 4049 0f3d
00000270: 6bda 02bc 6bc4 b83c 227e d03d 7d3c 1d3e
00000280: 7830 0c3e 0dfe 34bd 5402 85bd 4d67 de3d
00000290: 7da9 293e 91ae cdbc 7b3f cc3b 0ad6 b03d
000002a0: 93d2 153e aee0 bd3c 1e6d ac3d 399c 433c
000002b0: 6a39 bf3c 157a 9f3d a19b bd3c 5fc0 2e3d
000002c0: dbbe 6bbd c8b0 3b3d ecac a93b 963a 4ebc
000002d0: 5624 d23c a89b bdbd 5448 ce3e 019b bc3d
000002e0: d4e4 b73d 0235 7b3d 46a8 aebe 5f00 04be
000002f0: d86e 67be 6a0c 9d3d 4e0d dfbc 230c d9bb
00000300: 72b1 44be 49d3 a83d 798d 143e 0602 9d3d
00000310: b44d dfbd 6f4b 013e c7da a03d 78f0 473e
00000320: 550f f2bd da76 19be 2260 833c 4208 703d
00000330: d419 1c3e 11d9 7c3e ec2c 4c3d 7052 0e3d
00000340: d5f9 efbb faea 303d 86bc e1bd b778 77bd
00000350: 730f dfbc 716e 113e bb56 b5bc 26d8 8bbc
00000360: 022c 993d a097 9ebc 17e0 cd3c a355 c3bc
00000370: d3a5 23bc 3e3e e6bd 16d3 5b3d 8a4d f73d
00000380: ec42 ba3d 466d f23b 60d4 6abd b363 a23b
00000390: 1c05 d63a 5321 973e a136 6fbd 20ae ceb9
000003a0: 719e 563c 0a89 86bd ad16 89bd 379f b9bd
000003b0: e565 cdbb 4065 3fbd c3e0 dbbd 3da8 1e3d
000003c0: 6d52 233e 8260 f2bd babb 9abc b366 12bd
000003d0: 0cb8 693d 1ea0 41bd 1888 c13d d791 8f3d
000003e0: d0f1 45be 30fa 80bd 3fa4 aabe 0764 893c
000003f0: 9447 0e3e df79 b03d e28e 43bd 1895 843e
0.05273033 -0.07292336 0.10010779 0.023821417 -0.02099498 0.06578983 0.053395953 0.07989109
0.046804395 0.104973026 -0.05643563 -0.082580164 -0.10907524 -0.031069519 -0.019374803 0.03687612
-0.021047983 0.0011661397 0.019348899 0.071045294 -0.08871879 -0.10364977 0.24623564 -0.1125289
-0.17905273 0.07891058 0.08323683 -0.021718651 -0.28286907 -0.02718285 0.12756424 -0.035252832
0.0020904243 -0.019375606 -0.14281222 0.081944875 0.09981119 -0.097138844 0.20062993 0.06653842
0.03307792 0.18317538 -0.07465976 0.21137811 -0.024157686 -0.22700155 0.08649399 0.12348599
-0.04608161 0.1710921 -0.09106888 -0.048038922 -0.096881844 0.108294025 0.08276236 -0.02680816
-0.03661879 0.012893569 0.029207632 0.039313473 0.020828728 -0.120771825 0.037871007 -0.18711093
-0.017723603 0.020376563 -0.15341453 -0.11826805 0.13776423 -0.094973296 0.048372597 -0.013054856
0.07405875 -0.059274215 -0.009755769 -0.00074944034 -0.0692736 -0.20614186 0.061841022 -0.08532441
0.070677854 0.09552191 -0.11245873 -0.004538998 -0.050726905 -0.20159067 0.07065605 0.04997754
0.055983435 -0.22705588 -0.028658498 0.24566962 -0.07530321 0.05014472 -0.06953818 -0.0024630013
0.03201508 0.0510428 -0.008419039 0.033871666 0.06733768 -0.010411868 0.025071185 0.061767437
-0.040044703 0.041111067 0.011413974 -0.04874633 -0.039400764 0.063924335 0.06323447 0.034297884
0.1987639 -0.18563977 0.21503715 -0.009996506 -0.013918325 -0.0257912 0.041236334 0.18612115
-0.07716259 0.12773784 0.0039795665 0.0051053707 -0.033856962 0.06511303 0.11895015 0.098301016
0.13319927 -0.09412274 -0.17050551 -0.15230791 0.1259913 -0.29909834 -0.099398844 0.22214596
0.01813627 -0.1655741 0.09702489 0.029346714 0.14326333 0.030066712 0.20777279 -0.23203279
-0.15844133 0.032018226 0.056214515 0.14578144 0.046344362 0.06808294 -0.16782531 -0.02559517
0.19221248 -0.065443404 0.16380902 0.034981966 -0.007986645 0.022554597 0.10180308 0.15355106
0.13690364 -0.044187594 -0.06494585 0.10859547 0.16568561 -0.025107654 0.0062331534 0.08634575
0.14631109 0.023178425 0.0841925 0.011939102 0.023342807 0.07786957 0.023145499 0.042663928
-0.05755506 0.04582289 0.0051780846 -0.01258721 0.025652092 -0.09258205 0.40289557 0.09209252
0.089791924 0.06132985 -0.34112757 -0.12890767 -0.22600877 0.076683834 -0.027228024 -0.0066237613
-0.19208315 0.082434244 0.14507093 0.076664016 -0.109034926 0.12626432 0.078542285 0.19525325
-0.118193306 -0.14986745 0.01603705 0.058601625 0.15244228 0.2469218 0.04984753 0.034746587
-0.0073234835 0.04319284 -0.11022286 -0.060417857 -0.027229046 0.14202286 -0.022136083 -0.017070841
0.07479097 -0.01935941 0.025131268 -0.023844546 -0.009988266 -0.112423405 0.053668104 0.12075336
0.090947956 0.0073982803 -0.057331443 0.0049557327 0.0016328427 0.29517612 -0.058401708 -0.00039421115
0.013099299 -0.06569107 -0.06693778 -0.09063571 -0.0062682503 -0.04672742 -0.10736229 0.038734663
0.15949412 -0.11834814 -0.018888343 -0.035742473 0.057060286 -0.04727184 0.09449786 0.070102386
-0.19330525 -0.062977195 -0.33328435 0.01677133 0.13894492 0.08616995 -0.047743686 0.25895

arr_21 f4 [23]
00000000: 4c80 1abc ef2e e4bb 1395 69bd 72fc ad3c
00000010: bc96 6b3d c4f6 523e 8b69 54be 85ad 1bbd
00000020: 31ee 203d d109 abbc 6a68 223d c3fe d3bd
00000030: 2c6f ba3c d281 3cbe e6b3 e53d 5d59 c63d
00000040: b0a4 38b9 9dc4 a53c 4f04 0cbd f9b4 143d
00000050: 5f05 ed3d b6ac 0abe 61ca 80ba
-0.009430002 -0.0069636027 -0.057026934 0.02123854 0.0575168 0.20601946 -0.20743386 -0.038007278
0.039289657 -0.020878704 0.03965036 -0.10351326 0.022758089 -0.18408898 0.112159535 0.096850134
-0.00017608958 0.020235354 -0.034183796 0.0363054 0.1157329 -0.13542446 -0.0009825939

arr_19 f4 [23]
00000000: 0d69 803e 1f39 b63e 4bad 963e 21d1 8b3e
00000010: 9505 913e 547f d73e 1a8d b63e 8e71 a63e
00000020: 7a8a ea3e e882 4f3e 02ae a43e 9b37 b53e
00000030: f667 be3e 123d 903e 2c7b b83e 956c 833e
00000040: ae62 cc3e 8a35 b93e 4a5b 893e 202e d93e
00000050: 13f8 d93e b651 9d3e bd20 c33e
0.25080147 0.35590455 0.29429087 0.2730799 0.2832457 0.4208933 0.35654527 0.3250851
0.45808774 0.2026478 0.32164007 0.35393986 0.3718869 0.28171593 0.36031473 0.2566878
0.39919037 0.3617366 0.2682746 0.42418003 0.42572078 0.30726403 0.38110915

arr_18 f4 [23]
00000000: 81ed 08c1 9dd2 16c0 9a65 6cc0 4d76 31c0
00000010: f68c 17c0 6de0 48bf 94b1 53c0 15fb 4ac0
00000020: 7623 22c0 c2eb ebc0 22b6 46c0 47af 83bf
00000030: c5a3 07c0 b514 96c0 7459 e93e 109e 49c0
00000040: 959c bd3e 8e07 1440 f839 e9bf 134b 28bf
00000050: 10d2 cabf 6013 21c0 f48a db3f
-8.557984 -2.3566048 -3.6937013 -2.7728455 -2.3679786 -0.78467447 -3.3077135 -3.1715748
-2.5334144 -7.372529 -3.1048665 -1.0287865 -2.1193707 -4.6900277 0.4557606 -3.1502724
0.37033525 2.312961 -1.8220816 -0.65739554 -1.5845356 -2.5168076 1.715178

arr_11 f4 [32]
00000000: 6fd3 7bbe e5f2 a6be 7172 08bf 675a 41bf
00000010: b3ec a9be a178 01bf 79dc 0cbf ce86 e9be
00000020: a2bd edbe 40fd 7bbe 9a2b 8ebe 887c fabe
00000030: 10d3 8bbe 51f1 b2be 86a9 7ebe 79ee eabe
00000040: f54c 81be e389 11bf 32b3 d8be 9f8d c6be
00000050: 2b0d abbe d62e 53be addc b1be 444f 69be
00000060: 6bc1 80be cedc 09bf c3f0 93be 3c7b b3be
00000070: b776 55be 7726 87be 7b2e 9abe 7d34 dcbe
-0.24592374 -0.3260719 -0.53299624 -0.7552857 -0.331884 -0.5057469 -0.55023915 -0.4561066
-0.4643374 -0.24608326 -0.2776764 -0.48923135 -0.27309465 -0.34949735 -0.24869356 -0.45885065
-0.25254026 -0.56851023 -0.42324215 -0.38779923 -0.33408484 -0.20623335 -0.34738675 -0.22784144
-0.25147566 -0.53852546 -0.28894624 -0.35054958 -0.20846067 -0.26396534 -0.30113587 -0.43008795

arr_10 f4 [32, 32, 6, 6]
00000000: b6c5 923e 679d e73b d826 54be 62a9 d0be
00000010: 6298 5dbe 1860 e5bd 4bb3 6b3d f2e9 aebd
00000020: 106f 4dbc 2e73 48bd ae95 3dbe f1bc 2fbd
00000030: ff82 bebe c46b c7bd 02ff 62be 4cf7 a13c
00000040: a0a8 e2bc 6af1 02be 3376 d5bc 129e b43d
00000050: 792e e6bd 2d60 00bd 200e dfbd 618b e8bb
00000060: 43f5 ac3d 4a67 d4bd 03b3 c53e 6d86 573e
00000070: 79ec d9be 1a22 1e3e 73de c7bd 3668 ed3d
00000080: 4a0b 1dbe 0db8 87be 1810 ffbe 8e5c 663e
00000090: 2cdb 7ebe b336 21be b92f 52bd efd6 393e
000000a0: b0ad 4ebe d046 983d d41d 9b3e 258a e53d
000000b0: 0f07 92be 3f25 0abd dc7f 69be fea0 0dbe
000000c0: ff5b 84be 85f8 b83d 9e72 2ebe 78b1 f43d
000000d0: 92d4 163c 0499 28be aa38 92be d028 573e
000000e0: 90e5 823e 1dff 9e3e 1e10 6cbd 68c1 20bf
000000f0: 7dc1 aebd 0486 6c3e 28da 283e 2a2d 113e
00000100: 22be 11be cbec 5fbe 1a33 483d 0055 013d
00000110: bc0b 53be 1b1d 503e 0463 fc3d c746 433e
00000120: 4bdb d83c b057 aebc ace3 8bbe 357d 8a3b
00000130: 9ee9 3f3e 1554 c83c 7cb0 28be 4aa6 863e
00000140: dfd1 25be c665 97bd 5dc0 e33e 08f5 6e3d
00000150: e320 1c3e 50df 71bd db52 a63d 5086 8dbd
00000160: d12c 4abd c859 893e 0877 a53d f054 15be
00000170: 6262 963b b784 5a3e baa1 a33e 780b 67be
00000180: 0943 003d c2cf 1f3e 9f23 a43b 0600 8cbe
00000190: d07a 9f3d 9707 7c3e 8459 1e3e c3d6 043e
000001a0: f46e af3d bdf0 d93d 7953 a53e 40f0 923d
000001b0: d528 79be ad5d 0e3e cc6e cfbe c81c bc3e
000001c0: 887d 4c3e 74a3 cabe 341d 503f 8bb5 69be
000001d0: 389c 4ebe 9e3f 073a b577 803d 078e 19bd
000001e0: 2e4c 9e3e 1cfa 19be 798d 0dbd ea10 2abe
000001f0: 6cdd dfbd b0e0 343a 7bd2 33be e630 e93d
00000200: b33c f9bd 744d 59bd 43d1 293e c14a 903d
00000210: 1ca9 50be db44 18bd e0ff 823d 9b71 b2be
00000220: 12c7 3cbb 7a62 9dbd 104d 14bd 53fa e53d
00000230: e028 9b3c 4d5a 9c3e 3c51 b5bd 1266 88be
00000240: 038f a9be 9899 62bd 6767 713c 1b39 773d
00000250: 52af 91bd 98ea 6f3e 198b 5fbc 810c 1fbe
00000260: 43bb f13d aeac 7cbd d0dd ae3d 6d31 043e
00000270: 8a3e 15bf 694e fdbc df23 853e c745 bf3e
00000280: 7302 8dbd 33ee c23e fe22 debc 5312 41be
00000290: 008b 453d 2e95 f2bc e32a 83bd 924b 14be
000002a0: e7e0 883e ef01 74be 0e48 fd3b 4a71 dd3b
000002b0: 95a2 c33d 02f9 a3be cf88 9bbe 7bbf 6cbe
000002c0: 3e8b 5f3e c041 47be 261e 753e 1a89 6dbe
000002d0: 1a9f c3be 5e3a 14bf c545 c83d 0e56 30be
000002e0: 00cd b6bd 99e2 f8bb 322b 213d 09d7 26bd
000002f0: e7ba 79be 6458 abbe b154 b73d 465f 02be
00000300: ffb2 533d ca2b a73d 2bbc 39bd f4d0 84be
00000310: 8f16 bfbe 99ee 10bf 2fe0 48be c07e e33c
00000320: 6703 1cbe 28af febd 64d6 e2bd 1df7 87be
00000330: 9c30 e9ba 93eb cb3d 0022 343f 08d7 4fbe
00000340: c178 763e 488d f2be bf24 173d 9c1d aa3d
00000350: 5df4 bb3d 5261 a7bd 06b1 71be ff39 b8be
00000360: 437c 763d 4f39 8ebd 61a5 213e 4fdd 80bd
00000370: fa25 00be e311 c43d 76ba 72bd 52de ef3c
00000380: 589d 123e faa5 1abe a2bb 89be d8df 3abe
00000390: f091 d7b7 4a79 02be e2f8 cabd 44a1 06be
000003a0: 0000 95be b111 41be 57d2 933e 58c6 bd3e
000003b0: 93de 133b e337 38be d474 88be b9e0 78be
000003c0: e2a6 39ba 8a71 eebd 971f a5bc 4367 dd3c
000003d0: d5ef a73e 1c7e 13bd 01b3 b63d d88a 2f3e
000003e0: 5739 493e 5ff4 61be 877b aabe 2391 333f
000003f0: c066 77be cfb2 eebd e900 073e 6afe d13e
0.28666466 0.0070683244 -0.20717943 -0.4075423 -0.2164016 -0.11199969 0.057544034 -0.08540715
-0.012538686 -0.04893797 -0.1851413 -0.042904798 -0.37209317 -0.097373515 -0.2216759 0.01977124
-0.027668297 -0.12787405 -0.026057338 0.08819212 -0.11239333 -0.03134172 -0.10891366 -0.0070966934
0.084452175 -0.10371263 0.38613138 0.21047373 -0.42563227 0.15442696 -0.09759226 0.11592142
-0.15336338 -0.26507607 -0.49816966 0.22496244 -0.24888295 -0.15743522 -0.051315043 0.18148397
-0.20183444 0.074353814 0.30296195 0.112079896 -0.2852101 -0.033726927 -0.2280268 -0.13830945
-0.25851437 0.09031776 -0.1703591 0.11947912 0.009205954 -0.16464621 -0.28558856 0.21011662
0.25565767 0.3105401 -0.057632558 -0.62795115 -0.08532999 0.23097998 0.1648947 0.14177385
-0.14232686 -0.21867673 0.04887686 0.031575203 -0.20609945 0.20323603 0.12323573 0.19069968
0.026471755 -0.021282047 -0.27322137 0.0042263516 0.18741462 0.024454156 -0.16473573 0.26298743
-0.1619334 -0.073924586 0.444827 0.05833915 0.1524692 -0.059050858 0.08121272 -0.06910384
-0.049359147 0.2682631 0.08079344 -0.14583182 0.004589365 0.21339689 0.31959325 -0.22562969
0.03131393 0.15606597 0.005009129 -0.27343768 0.077870965 0.2461227 0.15463835 0.1297255
0.085660845 0.1064162 0.32290247 0.0717473 -0.24331982 0.13902922 -0.4051422 0.36740708
0.19969761 -0.3957783 0.8129456 -0.2282316 -0.2017678 0.0005159321 0.06272832 -0.037488963
0.30917495 -0.15036815 -0.034558747 -0.16608015 -0.10930905 0.0006899936 -0.1756076 0.1138628
-0.121697806 -0.05305238 0.16583733 0.07045508 -0.2037701 -0.03717504 0.063964605 -0.348523
-0.0028805179 -0.076847985 -0.036206305 0.11229386 0.01894039 0.30537644 -0.08853385 -0.26640373
-0.33116922 -0.05532226 0.014734126 0.060357194 -0.07113518 0.23429334 -0.013644003 -0.15532114
0.118032955 -0.061688118 0.08538401 0.1290948 -0.5829855 -0.030921178 0.2600393 0.37357923
-0.06885233 0.38072357 -0.027116295 -0.18854646 0.048228264 -0.02961215 -0.06404664 -0.14481953
0.26734087 -0.23828863 0.007729537 0.00675789 0.095524944 -0.32025915 -0.30377814 -0.23119919
0.2183046 -0.19458675 0.23937282 -0.23196831 -0.38207322 -0.5790156 0.097789325 -0.17220327
-0.089258194 -0.007595372 0.039347835 -0.040732417 -0.24387704 -0.33465874 0.089517005 -0.12731656
0.051684376 0.08162649 -0.045345467 -0.2594067 -0.37321898 -0.5661407 -0.19616769 0.0277704
-0.15235673 -0.12435752 -0.11076048 -0.2655572 -0.0017790976 0.099570416 0.7036438 -0.20296872
0.24069501 -0.47373414 0.03690028 0.08306429 0.09177468 -0.08172859 -0.23602685 -0.35981748
0.0601771 -0.069445245 0.15785743 -0.06292211 -0.12514487 0.09573724 -0.059259854 0.029280815
0.14317834 -0.15102378 -0.26900965 -0.18249452 -2.5697955e-05 -0.1274158 -0.09910752 -0.13147455
-0.29101562 -0.18854405 0.28871414 0.37065387 0.0022563084 -0.17990069 -0.26651633 -0.24304475
-0.00070820574 -0.116427496 -0.020156665 0.027026778 0.32800165 -0.03600894 0.08920861 0.17142808
0.1965078 -0.22065876 -0.3329737 0.70143336 -0.2416029 -0.11655199 0.13183941 0.41014415

arr_13 f4 [32]
00000000: 0a17 7fc0 d0b2 38bf 308b 63bf 6b11 933d
00000010: a952 a63f d923 bec0 1966 60c0 1a20 20c0
00000020: 8c4a 7dc0 517d 91c0 4590 8dc0 bcee a2bf
00000030: 0bf5 bbbf 0742 3dc0 e160 b8c0 dd95 54bf
00000040: 1b27 18c0 5d6f 57c0 21ae efbe 29a9 b5bd
00000050: f26e 2abf 7387 54c0 606e ecbe d6d8 3dc0
00000060: 278f a9bf d1df 6ec0 6b08 30c0 912d c5be
00000070: 4125 f13e 5c26 86c0 2133 bec0 3cf4 4bc0
-3.9857812 -0.72147846 -0.8888426 0.071810566 1.2993976 -5.941876 -3.5062315 -2.5019593
-3.957675 -4.5465474 -4.423861 -1.2729106 -1.4684156 -2.957155 -5.761826 -0.83041173
-2.3773868 -3.366172 -0.46812537 -0.08870155 -0.6657554 -3.3207672 -0.4617796 -2.9663596
-1.3246812 -3.7324107 -2.7505138 -0.38511327 0.47098735 -4.1921825 -5.9437413 -3.186782

arr_12 f4 [32]
00000000: 133c 903f 6759 653f 22e6 993f cca8 933f
00000010: e169 853f 1d68 813f d9a8 713f cb12 893f
00000020: 2440 693f e5e1 6b3f 6fc6 723f aedc 883f
00000030: 1ddb 633f 40b4 653f 35dd 7d3f 524f 723f
00000040: 2ac7 543f f5e3 8b3f d542 813f 4719 7a3f
00000050: 4834 8e3f 86c2 813f 88a7 753f be8b 5c3f
00000060: 8163 7d3f f893 6b3f 8e5b 573f 558b 763f
00000070: ef0a 863f a1eb 573f 14b2 813f f1de 853f
1.1268333 0.8958954 1.2023356 1.1535888 1.0422937 1.0109898 0.94398266 1.070886
0.91113496 0.9214156 0.94834036 1.0692346 0.89006215 0.89728165 0.9916566 0.94652283
0.831164 1.0928942 1.009852 0.9769482 1.1109705 1.0137489 0.9595876 0.8615073
0.98979956 0.9202266 0.84124076 0.96306354 1.0472087 0.84343916 1.013247 1.0458661

arr_15 f4 [512, 23]
00000000: 3736 58bd a8fd 48be e6fd 7b3e 69a1 f9bd
00000010: a7bd a8bd 6966 4abe ed04 fbbc e130 5c3d
00000020: ba07 973c a957 813d ba3c a93d 77ae 9b3d
00000030: b268 39be 3ee9 963e ef95 a33d bc50 413e
00000040: bf72 dcbb 4d0f c63d fefa 2cbc 954b 44be
00000050: 440e 99be 4732 ef3d 8b84 b23e 8d79 2e3d
00000060: 999e 93be 675f 12bd bd54 673e 7c65 4d3e
00000070: 57c4 85be a06d 3bbe 3505 e43d 8b85 b33c
00000080: 4d69 f33d 91fb 653d 3cc5 ff3d d56b bcbe
00000090: 1309 91bd aeab 503e 53c1 573e ec48 693e
000000a0: 23f6 b83d 048e e73d 0ff5 cebe e040 62be
000000b0: 4e71 443d 3273 c4bd b4de a03e 7eb2 44bd
000000c0: fbd9 2c3e 236d 403e e554 963d fdd2 a0bd
000000d0: b1c2 333e e958 77bc da18 313d b5e3 913e
000000e0: 086f f53d ba7e 713d 2e92 98bb 1747 f53d
000000f0: ee91 acbe 3b3e 1d3e ff44 61be c1b9 0fbf
00000100: 3660 773e 1927 cfbe 7285 14bb 44a3 a1be
00000110: 3316 f2be c189 dbbe 871c a6be a93b bc3d
00000120: 9918 cfbe 6ee0 3cbc c341 343d 47e6 013e
00000130: 8084 0c3e 8154 df3d dfd0 40bb bdfc 73be
00000140: 1fa5 303e 67fb 3a3e 301a b43e f297 4abe
00000150: f431 8fbe bca3 16bc 3332 643e 60a7 a7bc
00000160: c18d 59bb bf32 4fbe f8f0 09be 18cc c63d
00000170: f10a ed3e 1ab6 46bf d2bf 8f3e baa6 dc3e
00000180: 1f7e 173e 05cd 12bf f389 5d3e b5b2 ca3e
00000190: 1dbc fa3d 6e38 b93e 2941 a23e d6e1 813e
000001a0: 9a11 613e 7bdd d73e 5d8d 23bf 80db 323e
000001b0: a76d 6fbe 4faa 1ebf 4847 db3e 10e1 06be
000001c0: d236 7abd 1683 68be 3850 55bf 85b7 8e3d
000001d0: 9fc4 06bf c94d 10be ca9c 9b3e 84e8 86be
000001e0: e51f 933e d892 7b3d ad45 9b3e bdfa 3cbe
000001f0: a869 113e 0e42 1d3e 9bec b2bd 6481 cabc
00000200: d3d3 a33d 0430 923d a9dc e23c f9ae 78be
00000210: e317 34be 7251 4c3e dae1 ed3c fdd5 0fbe
00000220: 1169 af3e 4e6c c6be a169 203e 8df6 903e
00000230: eca2 fc3d 20ce c8be a68f 37bd 1b9e 6fbd
00000240: d606 7fbd 6b54 efbd f1b6 7abe 055a 323e
00000250: f0ea 963a cde9 92bd 777a 97be 333b a03e
00000260: 71b3 10be 65ee 9f3c 5b5e 68be cb1e 82be
00000270: 1a16 0fbd acba 20bf 7b98 f83d dbe8 99be
00000280: 68d9 15bd 3cf7 16be 3b4e cf3d 22d4 afbd
00000290: 68bb a3bc fe4b 85be 13f7 58be 3363 3a3e
000002a0: 2006 263e dc0c fe3d 4937 e13d c0db 073e
000002b0: 9e3e a53e 4cee e1be 1e6e cdbe 7d7e 383b
000002c0: 2575 c33c 40e6 433e 2975 eabb 8f14 93bd
000002d0: 6161 1ebe 8211 2e3e e9ee e3be a103 003e
000002e0: 58c7 89be f822 00be bcda e8bd 70d9 f3bc
000002f0: 0136 63bd 3311 07be 1f76 ef3b 1c7f 253d
00000300: 6158 be3c ffd5 07be 5076 323e 815f 753c
00000310: a907 353e b705 b1bd d71e 573e 3e59 8d3e
00000320: f11f 913e e011 9f3e d49c c03e 8c2a 403d
00000330: 1c35 12be c49d 28be 29f5 1ebc 9b05 b2bb
00000340: acb9 69bd 3f03 253e 6134 263a efaa 5e3e
00000350: 9d97 3cbe 8910 5fbe 13ab 2abe 6fdb 28be
00000360: 5911 03be 0f4c 29be 2ad7 27bd 130a 4bbe
00000370: af60 543e 7a4f ac3d 027b 93be a049 8ebe
00000380: 9de5 27bd fd0f 2c3e d73d e43d 59a3 123c
00000390: b802 023e 37fb fc3c 3dcf 473e 2792 163e
000003a0: 1ccc 27be bbdf 36bd 146d 6abc c26e 2abe
000003b0: 0be4 c3bd ab21 193e 3232 de3d d143 1cbe
000003c0: 9e50 2fbe dd28 0d3e b8c1 463c 814b 29be
000003d0: 2312 113e 587d 3abe b399 debc 3c90 583d
000003e0: 9eea 853d c34e 6b3d 4983 473d a32b 353d
000003f0: 8506 d5bd 1fae 453e d0d2 20be 4bba 65be
-0.05278608 -0.19628012 0.24608573 -0.1218899 -0.08239298 -0.19765629 -0.030641997 0.053757552
0.018436301 0.06315548 0.08263536 0.07601636 -0.18106344 0.29474825 0.07987582 0.18878454
-0.006727546 0.09670887 -0.010557888 -0.19169457 -0.29893696 0.116795115 0.34866747 0.04259639
-0.28831938 -0.035735514 0.22590919 0.20058244 -0.26126358 -0.18303537 0.11133806 0.021914264
0.11885319 0.056148116 0.12488791 -0.3680102 -0.07081809 0.2037799 0.21069841 0.22781724
0.09031322 0.11306384 -0.4042134 -0.2209506 0.04795962 -0.09592284 0.3141991 -0.048021786
0.16880028 0.18791632 0.07340411 -0.07852743 0.17554738 -0.015096881 0.04323659 0.2849404
0.11984068 0.058958746 -0.004656098 0.1197645 -0.33705086 0.1535577 -0.21998976 -0.5614281
0.24157795 -0.40459517 -0.0022662547 -0.31569874 -0.47282562 -0.42878535 -0.3244364 0.09191067
-0.40448454 -0.011528118 0.044008028 0.126855 0.1372242 0.1090479 -0.0029421372 -0.23826881
0.17250489 0.18259965 0.3517623 -0.19784525 -0.279678 -0.009194311 0.22284774 -0.020465553
-0.0033196064 -0.20234202 -0.13470829 0.097068965 0.4629741 -0.77621615 0.28076035 0.43095952
0.14794205 -0.57344085 0.21634655 0.39589468 0.12242911 0.36175865 0.31690338 0.25367612
0.2197937 0.42161164 -0.6388758 0.17466545 -0.23381673 -0.6197862 0.4282782 -0.13171792
-0.061087437 -0.22706255 -0.8332553 0.06968597 -0.5264377 -0.14092173 0.30393058 -0.2634927
0.2873527 0.061419338 0.30326596 -0.18455024 0.14200461 0.15357229 -0.08736535 -0.024719901
0.07999387 0.071380645 0.02769311 -0.24285497 -0.17587237 0.19952944 0.029038358 -0.14046474
0.34259847 -0.38754505 0.15665294 0.28313103 0.123357624 -0.3921976 -0.04481473 -0.05850039
-0.06226238 -0.11686023 -0.24483849 0.17417152 0.0011514109 -0.071735 -0.2958562 0.31295165
-0.14130951 0.019522855 -0.22692244 -0.25414118 -0.034933187 -0.6278484 0.12138458 -0.30060467
-0.036584288 -0.1474275 0.10122343 -0.08585383 -0.019986823 -0.2603454 -0.21188001 0.18201904
0.16213274 0.124047965 0.10996873 0.13267422 0.32274336 -0.4412712 -0.40123075 0.0028151565
0.02385957 0.19130802 -0.00715508 -0.071816556 -0.15466835 0.16998866 -0.4451821 0.12501384
-0.269099 -0.1251334 -0.11369845 -0.029766768 -0.055471424 -0.13190155 0.0073077823 0.040404424
0.023235502 -0.13265227 0.17427945 0.014976383 0.17678703 -0.08643668 0.21007858 0.2760715
0.28344682 0.31068325 0.3761965 0.046915576 -0.14278072 -0.16466433 -0.009702005 -0.005432797
-0.057061836 0.1611452 0.00063402025 0.21744893 -0.18417211 -0.21783651 -0.16666822 -0.16489957
-0.12799586 -0.1653292 -0.04097668 -0.19828062 0.20740007 0.084135965 -0.28804785 -0.27790546
-0.04099046 0.16802974 0.111446075 0.008950078 0.1269635 0.030881507 0.19512649 0.1470419
-0.16386455 -0.04464696 -0.014308233 -0.16643813 -0.0956498 0.1495425 0.10849418 -0.15260245
-0.17120597 0.1378512 0.012131147 -0.16532709 0.14167075 -0.18211877 -0.027172899 0.052871928
0.0653889 0.05744816 0.048709188 0.04423107 -0.10401634 0.19304703 -0.15705419 -0.22434346

arr_14 f4 [32]
00000000: 2702 383e 1d9c 803e 92c0 813e e5f9 823e
00000010: a30f 603e c322 8c3e 761c 943e f975 713e
00000020: 4e81 983e f934 833e e4dd 713e 10fb 763e
00000030: 4537 673e 1f8e 883e b2dd 633e 5025 913e
00000040: d0f6 803e e73e 8e3e 2c00 8d3e 20bd 823e
00000050: bea9 6f3e cba5 1e3e 6429 823e 77bf 793e
00000060: bbc6 653e 1672 943e 2903 843e 3813 903e
00000070: 2199 4c3e ffbf 6e3e 2c87 573e 3815 753e
0.17969571 0.25119105 0.25342232 0.2558128 0.21880965 0.2737027 0.28927964 0.23580159
0.29786152 0.25626352 0.23619801 0.2411921 0.22579677 0.2667093 0.22252539 0.2834878
0.25188303 0.27782366 0.27539194 0.25534916 0.23404595 0.15492932 0.25422204 0.24389444
0.22439091 0.2899329 0.2578366 0.28139663 0.19980289 0.23315428 0.21047658 0.23933876

arr_17 f4 [23]
00000000: 8c3b 263f fc45 b93e 5657 153f a4c7 253f
00000010: 2527 383f 6a7c 9e3e c719 e43e 80a0 f53e
00000020: f92c 823e 307f 483f 362d 063f cc77 ea3e
00000030: 4bd9 9b3e 9d8f 2e3f 7f61 243f a002 523f
00000040: a793 b53e 41aa fb3e 9eef 273f 6f56 993e
00000050: 1cb3 903e 659b c93e 5ac6 063f
0.6493461 0.36186206 0.5833639 0.6475775 0.7193473 0.30954295 0.44550917 0.47974014
0.25424936 0.7831907 0.52412736 0.45794523 0.3043922 0.68187886 0.6421127 0.82035255
0.35464212 0.4915333 0.656 0.29948756 0.2826165 0.3937637 0.5264641

arr_16 f4 [23]
00000000: 9453 0c3e e51a 943e 0689 f63b ea5d 883e
00000010: 8162 c53d 59c1 653e f5ad ab3d 4a06 3b3e
00000020: 1dbc 5c3e c62e 243e ffe6 6b3e a988 163e
00000030: 04ef bb3e 00ce 04be 9ef7 1f3e 0253 62be
00000040: 1fd8 063e 6d9c d23d 8a66 3ebd 237c 4c3e
00000050: 59a3 8f3e 59bd 6e3e 26f9 2aba
0.13703758 0.2892677 0.0075236587 0.2663415 0.09637929 0.22437038 0.08382789 0.18264118
0.21556135 0.16033468 0.23037337 0.14700569 0.36705792 -0.12969208 0.15621802 -0.22101977
0.13168381 0.10283742 -0.046484508 0.1996923 0.28054312 0.23314418 -0.00065221114

arr_1 f4 [32]
00000000: 5431 09bf 492b a4be 9b9d 3fbe f85d ebbe
00000010: d80e bbbe dc10 29be b948 fcbe 03b0 1dbe
00000020: c52b e7bd 9d2c 8dbe ba05 1ebe 9e4d a7bd
00000030: b819 a3be 99d2 c9be a3e2 25bf 95bc 99be
00000040: d4e4 babe 465e ccbe 430f ecbe d184 84be
00000050: 6a6e 8abe c63e 1cbe e9b2 dbbe cbdf a2be
00000060: f6d1 1ebe 2c7b 8fbe 61cb 82be 2ab2 f6be
00000070: 44a6 ccbe 091b f7bd 1723 9dbe c8ad 81be
-0.53590894 -0.32064274 -0.18712465 -0.4597013 -0.36534762 -0.16510338 -0.49274233 -0.15399174
-0.11287645 -0.275731 -0.15431872 -0.08169101 -0.3185556 -0.39418486 -0.64798945 -0.3002669
-0.36502707 -0.39915675 -0.46105394 -0.2588258 -0.27037364 -0.15258321 -0.42909935 -0.31811365
-0.15509781 -0.2802366 -0.2554579 -0.48182803 -0.399706 -0.120657034 -0.30690834 -0.25327897

arr_0 f4 [32, 32, 6, 6]
00000000: 9fc5 aabe 7c24 3dbe 7d73 8fbe c4dd 153d
00000010: 5b32 083e 399a be3e 2dac cfbd f8e8 b6be
00000020: 22ba fdba 6354 893e 0cf1 903e 9554 083e
00000030: f24d f5bc 95d5 92be 7795 9abe f599 5abb
00000040: db5f 293b f775 66bd 1236 19be 7854 00bf
00000050: 4290 29be 7bb5 8abc c7b9 7d3e 9a84 8e3c
00000060: 1659 efbd b760 92be b1b5 3bbe 8ebf e73e
00000070: b876 853e cf30 883d f9f6 8fbd 0a2c 51be
00000080: 7279 b4be 1dc3 7e3d 8d2e e63d 0331 533d
00000090: 7633 eb3e 0f2c 983e 0c79 9f3e 9a39 683e
000000a0: 5f20 15bc 0d76 db3c 9680 593e e6b8 5f3e
000000b0: 4911 a43d bf8f f93c 21ef 8cbe d5d0 f13d
000000c0: 91f1 aebd 28eb 493d 31e6 083e 95d9 3cbd
000000d0: 6413 83be 7445 bcbe c8de 0d3e a5e2 02bd
000000e0: 78cb 8bbe 2d42 7dbd 2c60 78be 4dc8 3abe
000000f0: e15e 2bbe f300 20bc 275c 02bf be15 33be
00000100: d4ca e5bb b1d7 71bd 7a73 3d3d 8b35 2dbe
00000110: 8be6 6ebe 7457 cfbc b0a4 30be 7653 12bd
00000120: bcbb cabd 7c6f f2be 101e 1abd 98cd 0abd
00000130: 7dec e03c 9393 2d3d b31b c2be e411 edbe
00000140: 8e7f 4fbe eeea 5cbd fb4c 13bd cb22 83bd
00000150: 77a4 2a3e 6e6a 95be 36dd e8be f40f 62be
00000160: 0988 d7bd 258b 0c3c 1aa4 33be 5715 353d
00000170: d4f0 b3bd 5d72 27be 4eac 63be 7acd 383b
00000180: 3b09 973e 3135 ca3a 7ca4 99bd 3213 cabe
00000190: d31b 8bbe e540 73be f18b 8ebd e106 d63e
000001a0: 6f86 0ebe f275 01be dabf 8cbe 96a5 62be
000001b0: 712e 213e c106 a23d 8233 96be 0d3b e13d
000001c0: 988d d0bd 1593 64bc 0fd2 68ba 1fc9 babd
000001d0: e7bf c6bc b178 6dbe 21b5 acbd 6714 993d
000001e0: 2055 f3bb 88e9 613e f85c cdbc 020b dbbd
000001f0: dd56 053e 6a71 053e 9e2e debd 4b02 62bd
00000200: 6d91 633d de1c 24be 5975 083e a296 6fbd
00000210: 5141 ad3b 8ae7 58bd 26ce 54bd f9c4 f5be
00000220: abcb 19bf 86a1 833d 9a67 e2b9 6cbe 07bf
00000230: 678c 9bbe 6c11 883e 462c 2cbe 5ab5 47be
00000240: c388 0abf 5026 10bf 588a bcbd c033 43be
00000250: 111e e03d 0ec7 3d3e fe77 6ebe c879 dbbe
00000260: 212c 353d b74f 7b3d fcd6 693e effd 843e
00000270: 0611 57be 2d68 8e3c 16bb 273d af03 453e
00000280: d0a5 6a3e 2caf 0c3f fb39 85be 3a03 2dbe
00000290: 852d 453e 38de 1d3e 1c60 23be 003c d73d
000002a0: 6f3b 9cbe 2274 97be 8013 3abd d159 2f3e
000002b0: 4e3f 48be 9038 a1be 5d7a 81be f6cc babe
000002c0: 479b dfbe 79f5 d6bd db7b 0d3e 1753 b5bd
000002d0: d26d d4be 5888 ddbe 709d 6abd df2d c33d
000002e0: bda4 4c3e 744c 81bd dd36 04bf 4d37 e1be
000002f0: c085 50be a738 c43e 4f1e 243e 8c31 443d
00000300: 2df2 c4be 4b47 7bbe 1315 a03d 5691 2d3e
00000310: 6eca f23e 6ea6 083d 391e 8cbe 943b efbe
00000320: 2170 b73d d061 15bd d2b0 843e 42fa f73e
00000330: 6503 24bf f1c0 0bbf b011 c0be 65aa e9bd
00000340: c52a 98be 92d8 bb3d c38c 0dbf a7b9 c4be
00000350: 5711 bb3d 0b41 3ebd d15c 40bd 0a00 e8ba
00000360: d90c 4fbe e672 7d3d 6da8 59be 1a46 f8bd
00000370: 4c41 883d eab2 483e 5593 60be 21d1 a3be
00000380: 3769 5ebe 8e76 74be 73ca f93d 22d8 9a3e
00000390: 4822 88be 0b0b 7fbc 0c55 27bb 448c 093e
000003a0: dcf3 a2bb 4a5f 1a3e 51c4 983e 1485 82bd
000003b0: 48b5 c03d da06 dbbd 2fa3 b73d ece1 df3c
000003c0: 8c21 6dbe 3b13 06be bc17 c8bc 09d1 23bd
000003d0: 749b 883e 2b24 c3bd f91d 83be bdab 80be
000003e0: e2b0 043d 58fd 4c3d f6d9 ba3e 0ab0 453e
000003f0: da2a 48be eec2 bcbd 4058 693d ca98 b13e
-0.33353898 -0.18470949 -0.28017798 0.036588445 0.13300459 0.37227038 -0.10140262 -0.35724616
-0.001935784 0.26822194 0.28308904 0.13313515 -0.029944394 -0.28678575 -0.30192158 -0.0033355926
0.0025844488 -0.056264844 -0.14962032 -0.5012889 -0.16558936 -0.01693224 0.247779 0.017397214
-0.11686914 -0.28589413 -0.18331029 0.45263332 0.26067138 0.066499345 -0.07029528 -0.20426956
-0.35248905 0.062197793 0.112393476 0.051560413 0.459377 0.29721114 0.3114704 0.22678223
-0.009101956 0.02678969 0.21240458 0.21847877 0.080111094 0.030464051 -0.2752619 0.1180741
-0.08542169 0.049296528 0.13369061 -0.04610594 -0.2560073 -0.3677174 0.13854516 -0.031954426
-0.27303672 -0.06183069 -0.24255437 -0.18240471 -0.16735412 -0.009765851 -0.50921863 -0.17488763
-0.0070127044 -0.05904359 0.046252705 -0.16914956 -0.23330133 -0.025310256 -0.17250323 -0.035724126
-0.09899089 -0.4735068 -0.037626326 -0.033887476 0.027456516 0.042377066 -0.37911758 -0.46302712
-0.20263502 -0.053934984 -0.035962086 -0.064031206 0.16664301 -0.29182762 -0.4548127 -0.22076398
-0.105239935 0.0085780965 -0.17543069 0.044209804 -0.08786169 -0.1635222 -0.22233698 0.0028198645
0.2949923 0.0015427229 -0.07502076 -0.3946777 -0.27169666 -0.23755224 -0.069602855 0.41802123
-0.1391847 -0.12642649 -0.2749012 -0.22133479 0.15740372 0.079114445 -0.29336172 0.10997591
-0.10183257 -0.013951083 -0.0008881399 -0.09120392 -0.024261428 -0.23190571 -0.08432985 0.074745946
-0.007425919 0.22061741 -0.025068745 -0.10695459 0.13021417 0.13031545 -0.10848735 -0.055177968
0.05555861 -0.16026637 0.13326015 -0.058493264 0.0052873273 -0.052955188 -0.05195441 -0.4800184
-0.600764 0.064272925 -0.00043183268 -0.53024936 -0.30380556 0.26575792 -0.16813764 -0.19502774
-0.5411493 -0.5630846 -0.092060745 -0.1906271 0.10943235 0.18532965 -0.23287961 -0.4286635
0.044231538 0.06135532 0.22835916 0.25974986 -0.21002588 0.01738366 0.040949903 0.19239686
0.22914815 0.5495479 -0.26020798 -0.16895762 0.19255646 0.15416801 -0.15954632 0.10509491
-0.30514094 -0.2958079 -0.045428753 0.17124106 -0.19555399 -0.31488466 -0.25288668 -0.36484498
-0.43673155 -0.10496039 0.13816778 -0.08853739 -0.41490036 -0.43268085 -0.05727905 0.095302336
0.19984718 -0.063134104 -0.51646215 -0.43987504 -0.20363522 0.38324472 0.16027187 0.047898814
-0.38466015 -0.24538915 0.078165196 0.16949973 0.47420067 0.033361845 -0.27366808 -0.46725142
0.08956934 -0.036470234 0.25916153 0.4843312 -0.6406768 -0.5459128 -0.37513494 -0.11409453
-0.2972013 0.09172167 -0.5529291 -0.38422891 0.09134167 -0.04644875 -0.046963517 -0.0017700207
-0.20219745 0.061877154 -0.21255656 -0.12122746 0.066530794 0.195995 -0.21931203 -0.3199549
-0.21719824 -0.2387335 0.12196817 0.3024302 -0.26588655 -0.015566598 -0.002553287 0.13432413
-0.004972918 0.15075412 0.29837278 -0.06373039 0.09409577 -0.10694666 0.08966672 0.027329408
-0.23157328 -0.13093273 -0.02442538 -0.039994273 0.266811 -0.09528383 -0.25608805 -0.25131026
0.03239525 0.050046295 0.36494416 0.19305435 -0.19547597 -0.092168674 0.056968927 0.3468688

arr_3 f4 [32]
00000000: bbfb 0140 1179 b63f ed06 76c0 6396 f43f
00000010: d98f 043e 1ef9 96bf 0de8 b5bf 0da4 153f
00000020: 23cd a0be 02eb e4be 6037 e4be 12c9 6840
00000030: 3abd 24bf 5f0f 463f 5d48 26c0 43d2 b03a
00000040: 8dda 8abe 150b 933d 840a d43d 235b 3cbf
00000050: f72f 8f3f 2867 b83f d226 b73f 1f88 e03d
00000060: 736e 75be 7740 473f 6459 05c0 7d1e e83f
00000070: 5b86 e63e 20f4 873f d427 14c0 846b 56bf
2.0309894 1.4255697 -3.8441727 1.9108394 0.12945499 -1.1794775 -1.4211441 0.58453447
-0.31406507 -0.44710547 -0.44573498 3.6372724 -0.64351237 0.77367204 -2.5981667 0.0013490397
-0.27119866 0.07179848 0.10353568 -0.73576564 1.1186513 1.4406481 1.4308722 0.10963463
-0.23967914 0.7783274 -2.083581 1.8134304 0.4502438 1.0621376 -2.314931 -0.83757806

arr_2 f4 [32]
00000000: 8f28 8e3f 4de2 6d3f 2bc6 3b3f d4eb 8f3f
00000010: ad80 883f 8dce 833f 2166 8f3f e231 8f3f
00000020: 36b4 6e3f 53c1 6a3f efba 593f 7f69 7f3f
00000030: 1322 7f3f 1cfb 843f 9734 7c3f 80f2 513f
00000040: 0341 953f fc75 943f e042 9b3f f9db 953f
00000050: 7c17 8f3f b246 5f3f 8130 583f 3f02 9a3f
00000060: a4d7 523f 2cc8 803f a6df 5c3f d009 903f
00000070: 5970 983f 9a0d 7f3f 083f 583f d66d 563f
1.1106128 0.9292343 0.73349255 1.1243844 1.0664269 1.0297409 1.1203042 1.1187098
0.9324373 0.9170124 0.85050863 0.9977035 0.9966137 1.0389132 0.98517746 0.8201065
1.1660465 1.1598506 1.2129784 1.1707755 1.1179042 0.8721725 0.8444901 1.2031935
0.8236029 1.0061088 0.8627876 1.1252995 1.1909286 0.9963013 0.8447118 0.83761346

arr_5 f4 [32, 32, 6, 6]
00000000: 7ff8 0d3e 0fa3 b7bd b3cf 533e 466f 4f3e
00000010: 57ab 073f 5667 cd3e a119 a1be d302 a03d
00000020: bf33 cbbd 869e 463e df78 bf3e 276f 3a3e
00000030: 698d 153d 9e82 5abd d742 bbbe d31f 84be
00000040: 87fd 4b3e 1b4f 623e f3c3 5ebe e91b 363e
00000050: c767 7e3e 8c1e 5ebe 4f0e 2fbe a225 643d
00000060: a07e 813c 3c07 a5bd 4df5 dd3c a567 7ebc
00000070: 55de 7dbe 585f adbe 52ba 793e 5256 f63c
00000080: f20d 29be 7d22 a8be 48f6 ce3e 1d5f 493e
00000090: bfaa babe 4078 723e f130 aabd 577b 86be
000000a0: f52b 60bd 7490 0a3e 4766 6c3c f7b8 1e3d
000000b0: cf2d bc3e 8056 353e 4d55 acbe c63c 9abd
000000c0: 095e 3f3e 6ab7 a83e c55d d73e 6bb6 3dbd
000000d0: 06ad 6abe b28d 893d 41b2 f23d b8aa b23e
000000e0: 3f81 943e 2406 623e 10d8 f73c a13b 87be
000000f0: 33e4 5bbe 6989 85bc ebeb 9d3e ffc2 cc3d
00000100: f90d 74be b43e b13d c9c6 b2bc 94f0 833e
00000110: 3d3e a2be eee3 04bc 93cc 3ebe d969 f0be
00000120: 1014 943e c49a 05bb c401 0abe affc 1a3e
00000130: 891b fdbe 8762 86bc 4d2e d1bd 3570 f03d
00000140: 000b 8abe 67cc 03bc e18f aa3e fdd2 8abd
00000150: 96a1 183e 0bbf a03d 587a 893e f695 133e
00000160: b527 80be cb87 17be faf6 1a3e 39b8 87bd
00000170: b666 943e 8af8 0fbe 36c8 f5bd 0170 f8bd
00000180: b9f9 86bd aa15 89bd ea42 05be 3d56 8dbe
00000190: 3436 83be 5c0c bbbd 63af 9fbe 93ec bdbe
000001a0: d0eb 9abd 416d 2bbe 46f8 47be 4223 82be
000001b0: 56b3 0fbc 8fa0 803d 68d8 05be dd4b 063e
000001c0: 7651 fa3d c4db 2ebe f948 16be 9d69 72be
000001d0: 0845 f3bd d11c 793c a5c1 6dbe 6f1d 88be
000001e0: 078c 4abe 2ecb c73d 4f2e 783d c817 eb3c
000001f0: 0eba 7fbe ee6e b0be 6417 5ebe 1ad4 bb3d
00000200: f93e e23d 3bf7 88bc cdc2 62be f3c7 ee3e
00000210: c9b1 e33d f7b8 9d3e e44d 983d 2181 533e
00000220: 5de8 b4bd 203c 083e 6f32 a2be c10c 403e
00000230: 84f9 9f3e 0920 b73e 5fe1 e6bd 6f7b 133e
00000240: a6fa b8bb 442a 23be 9185 2ebe bfea b1bd
00000250: 6dff 23be 21d8 7bbd 4255 7ebe 4981 8bbd
00000260: 1770 6f3e 84ac c4be 16b5 84bb 7fa1 a83d
00000270: 272b a7bc 17a6 543d b27f b2bc a6f6 4dbd
00000280: b345 93be fb82 ffbd 4b65 823d 6811 ec3d
00000290: ca8f 863d 8f37 9cbe 9c39 8bbe 2bab eebb
000002a0: 5e41 39be d460 1c3d 17c1 28be 988c 1bbe
000002b0: b2ea 87be be15 3c3e e511 a6be c17c 433e
000002c0: a7e5 013e 4573 4cbe 1c17 adbc e303 a6bd
000002d0: 96d9 35be f7dd 6d3e 4419 90bd 451a e73d
000002e0: 49c5 18be e35f 3bbe ac1f 7fbd 9a1b 6f3d
000002f0: 9ac1 f1bc 4437 733e da68 aebd 04f3 193e
00000300: 16c8 0cbe fce2 b2be 64fd f53b ddfb 7b3e
00000310: 3517 0bbe 92b9 2b3e 275e ccbd 368d 1a3e
00000320: 9d99 e63d c6ae 96bc 2352 8f3e 5137 87be
00000330: 8900 f73c 5c80 a63e e60e c8bb 7d0c 8abd
00000340: cedc c23e 73a0 08be 5377 8a3d f5d6 4abe
00000350: 1007 2e3e dc21 d33c 533e a1be 056c d43c
00000360: bf46 19bd db23 a23d beed f8bd d6cb 4b3e
00000370: 8f52 8b3d 1bd5 563e 52dd a73d 5fad bbbd
00000380: 4d74 f23d 6cf3 76bc 13d8 123e b2c6 483e
00000390: 7ebb 08be a18f dbbd f36e de3d 804b 843e
000003a0: fe52 9dbc 3631 84bc 4b8d 2f3e d145 583e
000003b0: 4abf 20be f970 243e 99d1 d23e dacf 113d
000003c0: 2e67 c7bd 007e 973d 076f 133d aa0a e33d
000003d0: ebf7 813c 548c 84be 63b9 303e d654 f3bd
000003e0: 113f 843b 3f60 9abe c48b e83c 7ebb d1bd
000003f0: 7e03 033e 864d 3dbd 9431 e2bd 3a0b e8be
0.13864325 -0.08966648 0.206847 0.20257291 0.5299582 0.40117902 -0.31464866 0.07813039
-0.09921979 0.1939641 0.37396905 0.18206464 0.036511812 -0.053347223 -0.36574432 -0.2580553
0.19920932 0.22100489 -0.21754436 0.17784084 0.24844275 -0.2169134 -0.17095302 0.055699952
0.01580745 -0.080580205 0.027094508 -0.0155276405 -0.24791844 -0.33861804 0.24387482 0.030070458
-0.16509226 -0.32838812 0.40422273 0.19665189 -0.36458394 0.23678684 -0.08310116 -0.26265976
-0.05472942 0.13531667 0.014428682 0.038750615 0.367537 0.17708778 -0.3365883 -0.07531123
0.18688215 0.32952434 0.42063728 -0.046316545 -0.22917566 0.06716479 0.118504055 0.34895873
0.29004857 0.22072655 0.030254394 -0.2641268 -0.2147377 -0.016300874 0.30844054 0.0999813
-0.23833455 0.08654538 -0.021823304 0.25769484 -0.3168811 -0.008110983 -0.18632726 -0.46955755
0.28921556 -0.0020386437 -0.13477236 0.15135454 -0.4943507 -0.016404403 -0.10213909 0.11740152
-0.26961517 -0.008044339 0.33312896 -0.06778524 0.1490539 0.078489386 0.26851153 0.14412674
-0.25030294 -0.14797895 0.15133277 -0.066269346 0.28984612 -0.14059654 -0.12001078 -0.12130738
-0.065905996 -0.06693585 -0.13013807 -0.27604857 -0.2562729 -0.09133217 -0.31188497 -0.37094554
-0.07564509 -0.16740896 -0.19528303 -0.25417525 -0.008770784 0.06280624 -0.13070834 0.13114877
0.12222569 -0.17076021 -0.14676274 -0.23673101 -0.11878401 0.015204624 -0.23218401 -0.26584956
-0.19779979 0.0975555 0.06059104 0.028697863 -0.24973318 -0.34459633 -0.2168861 0.091713145
0.11047167 -0.016719451 -0.22144623 0.46636924 0.11117894 0.3080518 0.074367315 0.20654728
-0.08833382 0.13304186 -0.31679103 0.18754865 0.31245053 0.35766628 -0.11273455 0.14402555
-0.005645114 -0.15934092 -0.17043139 -0.086873524 -0.16015406 -0.061485413 -0.24837211 -0.068117686
0.23382603 -0.3841287 -0.0040499074 0.08233928 -0.020406319 0.051916208 -0.021789405 -0.05028405
-0.28764114 -0.124761544 0.06366976 0.115267575 0.06570394 -0.30511138 -0.2719239 -0.0072835884
-0.18091342 0.03817828 -0.16479908 -0.15190351 -0.26546246 0.18367669 -0.32435527 0.19090559
0.12685262 -0.19965847 -0.021129183 -0.0810621 -0.17758784 0.23229204 -0.07036069 0.112843074
-0.14919008 -0.18298297 -0.062286064 0.058375932 -0.029511262 0.23751551 -0.085160926 0.1503411
-0.13748202 -0.349388 0.007507013 0.24607797 -0.13583072 0.16770008 -0.09978896 0.1509293
0.11259768 -0.018393885 0.27992353 -0.2640939 0.030151622 0.32519805 -0.0061052917 -0.06740663
0.38059086 -0.13342457 0.067610405 -0.19808562 0.16994882 0.025772981 -0.31492862 0.025930414
-0.037420984 0.07916995 -0.12154721 0.19901976 0.06802856 0.20979731 0.081965104 -0.09163927
0.11838589 -0.015072685 0.14340238 0.19607046 -0.13352773 -0.107207544 0.10861006 0.25838852
-0.019204613 -0.016136747 0.17143743 0.21120383 -0.15697971 0.1605872 0.41175535 0.035598613
-0.09736477 0.073970795 0.035994556 0.110860184 0.015865287 -0.25888312 0.1725822 -0.118814155
0.0040358384 -0.30151555 0.028386958 -0.102408394 0.12794301 -0.04621651 -0.110446125 -0.45321065

arr_4 f4 [32]
00000000: 9c86 313e ea03 213e 9622 473e 00db 253e
00000010: 8753 143e b908 253e 41be 483e 6f1c 1e3e
00000020: 14d0 343e ffd2 403e 6ed6 263e 8491 123e
00000030: 809c 3d3e d1d5 273e 240b 0c3e 22d2 203e
00000040: 1aa6 273e 27b6 323e a19f 203e 2bf7 093e
00000050: a205 253e f7fa 3b3e 0818 463e 8bca 163e
00000060: 2bfe 213e 1b05 1b3e 6337 2c3e d171 173e
00000070: 639e 233e 9a0c 313e 20b4 303e c3f5 4f3e
0.17336506 0.1572415 0.19446787 0.16196823 0.14484988 0.16116609 0.19603826 0.15440534
0.176575 0.18830489 0.16292736 0.14313322 0.18516731 0.16390158 0.13676125 0.1570516
0.16371956 0.17452298 0.15685894 0.13473193 0.1611543 0.18357454 0.19345105 0.14725702
0.15819614 0.15138666 0.16818003 0.14789511 0.15978388 0.17289963 0.17256212 0.20308594

arr_7 f4 [32]
00000000: 49a3 6e3f d0ec 7d3f 5766 6c3f 797e 973f
00000010: bcc4 8a3f 1e01 833f 2a8b 853f c8fa 843f
00000020: 780c 883f 7da8 853f 8f4d 553f 1ca9 833f
00000030: 2330 7f3f 01b4 9d3f 84b0 863f 1091 823f
00000040: 16f0 873f eb2e 823f ab41 6f3f 6d4d 5f3f
00000050: 8f2e 813f adbd 733f f201 803f ad56 8b3f
00000060: b94f 953f d871 643f f8f9 883f 4133 863f
00000070: 7b44 773f ab76 823f 1a1c 773f f1f5 743f
0.93217903 0.9918947 0.9234366 1.1835471 1.0841289 1.0234716 1.0433095 1.0389032
1.0628805 1.0442044 0.8332147 1.0285983 0.99682826 1.2320558 1.0522618 1.020052
1.0620143 1.0170568 0.93459576 0.8722752 1.0092334 0.952113 1.0000594 1.0885826
1.1664954 0.8923621 1.0701284 1.0484391 0.9658887 1.0192465 0.96527255 0.95687777

arr_6 f4 [32]
00000000: f7eb b0be 96a3 aebe ee19 86be eab6 adbe
00000010: 3e4a b1be 6575 bebe ae86 84be 8d88 9ebe
00000020: b01d 0fbe 8001 87be 212a 84be 5afb 83be
00000030: 0d43 a4be c2e0 aebe f241 bbbe 257b 7ebe
00000040: c06f a03d 4716 54be ed25 6bbe 91b2 cdbe
00000050: a0f4 b5be 50e4 64be d89c 0fbe 48fb 79be
00000060: 2fdb 95be 2902 36be be0a 363d 4c32 bebe
00000070: ae30 9cbe f1e9 d3be 171d 8bbe eb95 f0be
-0.34555027 -0.3410918 -0.26191658 -0.33928615 -0.34626955 -0.3719894 -0.25884002 -0.30963555
-0.13976169 -0.26368332 -0.25813392 -0.25777704 -0.32082406 -0.34155852 -0.3657375 -0.24851663
0.078338146 -0.20711623 -0.22963686 -0.40175298 -0.35538197 -0.2235272 -0.14024675 -0.24412262
-0.29268786 -0.17774262 0.04444384 -0.37147748 -0.3050589 -0.4138942 -0.2717063 -0.46989378

arr_9 f4 [32]
00000000: d490 4a3e 8ad2 5e3e 0aa1 4c3e b8cd 253e
00000010: 0bf1 463e 7247 333e 169c 413e fbd1 3c3e
00000020: 7725 333e ed03 313e 262a 4a3e b4f6 4e3e
00000030: 8d82 3a3e 41e0 393e ea95 553e 87a0 4c3e
00000040: 5444 f13d 70b5 413e 2cef 353e a443 643e
00000050: 5e24 3d3e e76b 3d3e b76f 1c3e 931b 313e
00000060: 10d6 2d3e c2de 443e a79a 053e 214d 173e
00000070: 586a 423e aa72 483e feb2 443e aebc 543e
0.1978181 0.21760002 0.19983307 0.16191757 0.19427888 0.17507723 0.18907198 0.18439476
0.1749476 0.17286654 0.19742641 0.20211297 0.18213864 0.18151952 0.20857969 0.19983111
0.11780611 0.18916869 0.17767018 0.22291428 0.18470904 0.18498193 0.15276991 0.17295675
0.1697619 0.192256 0.13047276 0.14775516 0.1898588 0.19574991 0.19208905 0.207751

arr_8 f4 [32]
00000000: 0a29 19bf 4944 91bf 1274 e03e a92e 8fbf
00000010: dcae 03c0 6cd2 66bf b596 eebf acbc 473f
00000020: 8b9a 15c0 b232 abbf 2751 b83f 9e6a e8be
00000030: 560a dabf d749 e1bf e385 b3bb fe40 53bf
00000040: 409c 7fc0 2a7e 0c3e 53d8 0dbf e3e3 04c0
00000050: bf9d 373d 52ec 3d3f cd7d 31c0 bcbe ccbf
00000060: 0617 aebf 0d3f c7bf f1b3 7ec0 f21b 1040
00000070: 1def fd3e e9df 82bf 7a14 84bf cbca 21c0
-0.59828246 -1.1348964 0.43838555 -1.1186115 -2.0575476 -0.9016483 -1.8639742 0.78022265
-2.3375576 -1.3374846 1.4399766 -0.45393842 -1.7034404 -1.7600659 -0.005478607 -0.82521045
-3.9939117 0.13720003 -0.5540821 -2.076409 0.044828173 0.7418872 -2.7733033 -1.5995708
-1.3600776 -1.5566117 -3.9797328 2.2517056 0.4959649 -1.0224582 -1.0318749 -2.5280025
